models/10%_subset_0.pt (torch, 78453 bytes, 120 tensors)

layers.0.Aw.conv1.weight f4 [32, 1, 5]
-0.16313557 -0.11300957 -0.32725167 0.33359125 0.4435402 0.42685944 0.48110995 0.34193274
-0.28242394 -0.013791314 0.15366481 0.26402286 0.17565878 -0.0064011333 0.20261763 0.2768721
-0.4639982 0.1402034 -0.47626767 -0.16577506 -0.06512787 0.105561644 0.32239556 0.21317315
-0.23250973 0.58027065 0.3513977 0.5162862 0.5447008 -0.12738872 0.07663392 0.032304753
0.65147996 0.15299253 0.10338616 -0.3126245 0.033883452 0.12019545 0.08886121 0.09542139
-0.008414142 0.6097437 0.055782367 -0.1471378 0.34036076 0.15252857 0.21394016 0.09839893
-0.19457151 -0.27053177 0.21317023 -0.083576776 -0.411408 0.30778164 -0.32729557 -0.53924364
-0.37399164 -0.22990482 -0.46078557 0.26755235 0.46396175 0.19048487 0.11005899 -0.3142823
-0.22531891 -0.055790223 0.008654017 0.36355293 0.21122673 -0.20820235 0.33742252 0.106379956
0.35373044 0.011696112 0.013084081 0.09399412 -0.04782936 0.29790658 0.59113014 0.60545623
-0.5582387 0.19587022 -0.4426089 -0.0212199 -0.2504177 -0.6513126 -0.16714418 -0.5282575
-0.18179022 -0.52676255 -0.4017249 0.3183091 0.34445906 0.20933774 -0.05162186 -0.2819504
-0.36070684 -0.2679675 0.40345377 0.25930542 0.017569745 -0.11194042 0.11512437 -0.038096853
0.09312574 0.26004058 -0.015866088 0.09502135 0.05858122 -0.15746322 -0.39631006 0.28167582
0.20140977 0.123085946 0.2574773 0.42050126 0.42065424 0.58149606 -0.03164976 -0.16052753
-0.23878887 -0.32026324 0.46905497 -0.097805426 0.6243672 -0.1803097 -0.22528346 0.186364
0.2103588 -0.2243986 -0.19625977 -0.105512016 0.30461627 0.13897583 -0.2800696 -0.5801252
-0.30595365 -0.30317003 -0.5065017 -0.29165375 0.12572093 0.088505276 0.09881867 0.24115571
-0.15194257 -0.20808873 -0.22139634 0.33618277 0.51157135 0.13681953 0.047445502 -0.32463962
-0.4768706 -0.59806454 -0.397725 0.12152509 -0.01442036 -0.2868432 0.2294959 0.3364369
00000000: 030d 27be 9071 e7bd 888d a7be 79cc aa3e
00000010: b317 e33e 528d da3e 0b54 f63e cf11 af3e
00000020: df99 90be f7f4 61bc 4f5a 1d3e 012e 873e
00000030: e5df 333e 99c0 d1bb ff7a 4f3e 2ec2 8d3e
00000040: 2c91 edbe 7b91 0f3e 5bd9 f3be f0c0 29be
00000050: c361 85bd b430 d83d 0811 a53e 104a 5a3e
00000060: 0817 6ebe 9e8c 143f 66ea b33e 552b 043f
00000070: 8371 0b3f 3072 02be 3ff2 9c3d fd51 043d
00000080: 64c7 263f 13aa 1c3e 20bc d33d 5210 a0be
00000090: 60c9 0a3d 0829 f63d defc b53d 4a6c c33d
000000a0: 78db 09bc 2a18 1c3f 0d7c 643d 4bab 16be
000000b0: c443 ae3e 7330 1c3e 2113 5b3e 6185 c93d
000000c0: c13d 47be 2483 8abe 4c49 5a3e 4d2a abbd
000000d0: 12a4 d2be 8e95 9d3e 4993 a7be df0b 0abf
000000e0: d57b bfbe 2b6c 6bbe 16ec ebbe 9ffc 883e
000000f0: 658c ed3e 770e 433e 9c66 e13d 9ce9 a0be
00000100: 00ba 66be 4a84 64bd 94c9 0d3c 9c23 ba3e
00000110: d24b 583e ff32 55be a5c2 ac3e bcdd d93d
00000120: 281c b53e 0da1 3f3c 9d5e 563c fd7f c03d
00000130: b8e8 43bd 3687 983e 4e54 173f 2eff 1a3f
00000140: bbe8 0ebf 3492 483e a29d e2be 5bd5 adbc
00000150: c036 80be 6cbc 26bf d827 2bbe e23b 07bf
00000160: 3727 3abe e9d9 06bf e3ae cdbe 69f9 a23e
00000170: f05c b03e a25c 563e 7271 53bd ce5b 90be
00000180: 91ae b8be 0933 89be 7e91 ce3e aec3 843e
00000190: 6dee 8f3c 0541 e5bd 53c6 eb3d 720b 1cbd
000001a0: b5b8 be3d 0a24 853e 99f9 81bc 8e9a c23d
000001b0: ddf2 6f3d 0a3e 21be 27e9 cabe d037 903e
000001c0: 5d3e 4e3e 7c14 fc3d 11d4 833e f14b d73e
000001d0: fe5f d73e eddc 143f 2ea3 01bd 5461 24be
000001e0: 1285 74be 8bf9 a3be f927 f03e 364e c8bd
000001f0: 87d6 1f3f 1ba3 38be b5b0 66be 34d6 3e3e
00000200: 4c68 573e bfc8 65be 52f8 48be af16 d8bd
00000210: aaf6 9b3e ae4f 0e3e 4865 8fbe 1683 14bf
00000220: f5a5 9cbe 1a39 9bbe 18aa 01bf a453 95be
00000230: fdbc 003e 4142 b53d 7161 ca3d 86f1 763e
00000240: d596 1bbe 3615 55be b9b5 62be 2620 ac3e
00000250: 57f6 023f 6b1a 0c3e 3756 423d 2a37 a6be
00000260: 6228 f4be c21a 19bf 9ca2 cbbe 25e2 f83d
00000270: 6043 6cbc 1ddd 92be f900 6b3e 7541 ac3e

layers.0.Aw.conv1.bias f4 [32]
0.104398854 -0.053722322 -0.21143836 0.048433818 -0.033903413 -0.08419335 -0.11749288 -0.077027686
0.03511901 -0.07071004 -0.12819721 0.074183024 0.044417202 0.16704987 0.16330235 -0.13101596
-0.044424746 0.049424507 -0.37796804 -0.12085803 -0.0021291373 0.114316694 -0.044661652 0.0073744436
-0.18288189 -0.14103931 -0.15956844 0.019624414 0.013068322 0.26705346 0.1064819 -0.06306555
00000000: 11cf d53d f00b 5cbd 4c83 58be 8a62 463d
00000010: 4ede 0abd 906d acbd 1ba0 f0bd b1c0 9dbd
00000020: f3d8 0f3d 6dd0 90bd 2146 03be 45ed 973d
00000030: d0ee 353d 1f0f 2b3e bb38 273e 0c29 06be
00000040: b9f6 35bd 5a71 4a3d 0785 c1be 6a84 f7bd
00000050: ff88 0bbb df1e ea3d 23ef 36bd 51a5 f13b
00000060: 6445 3bbe 9c6c 10be e965 23be 61c3 a03c
00000070: 841c 563c 3bbb 883e 2f13 da3d 8328 81bd

layers.0.Aw.conv2.weight f4 [16, 32, 3]
0.023161309 -0.027958818 0.08526757 0.15978262 0.114008196 -0.0769717 0.12036915 0.0772057
-0.010102807 0.018324211 -0.0648317 -0.026239239 0.025851948 -0.06329423 0.0076644947 0.046166852
-0.059409894 0.16583478 0.084516294 0.10053465 0.022269305 0.00016886281 0.07640345 0.13698249
-0.02879719 -0.0061489367 -0.09525154 0.1100368 0.20668091 0.011139728 0.13138643 0.05220532
-0.016007656 -0.023611594 -0.05109615 0.13713107 -0.06008935 0.052728485 0.020714702 0.07647252
-0.053297028 0.09925616 0.047949523 0.10146033 -0.008579981 -0.06266665 0.14900768 -0.010150395
-0.13010913 -0.08756761 -0.069486246 -0.076905146 0.11112871 0.06996671 0.06829872 0.113319464
0.041387744 0.0490443 0.05173834 0.09256494 0.072253875 0.01807792 -0.04315135 0.09691391
0.056210823 -0.059911877 0.054170597 -0.04295195 -0.017308177 0.001441417 -0.1412703 -0.15733744
-0.04991165 0.0034566664 0.10477373 0.033599366 0.03406353 -0.04424272 0.1130935 0.15440999
-0.0740829 -0.0492906 0.006566613 0.05461709 -0.025737766 -0.03779852 -0.047253616 -0.03213205
-0.04476458 -0.0864577 0.07138083 -0.001158485 -0.012390546 0.029227994 0.03768448 0.107022665
0.006145333 -0.014090872 -0.21308358 0.087705456 -0.1204669 0.059814587 -0.069463246 -0.0046664174
0.030025203 -0.030287169 -0.09849362 0.00603062 -0.08638564 -0.074138954 0.02267569 -0.13778923
-0.008689213 0.09143051 -0.11857323 -0.13451757 0.03419162 0.07770262 0.14774556 0.01412978
-0.016025318 -0.18491073 -0.1518214 0.1555634 -0.042333666 -0.14490233 0.14623202 0.1940574
0.055109747 0.22364461 0.0023354737 -0.15763992 -0.021650065 -0.05249057 -0.04990918 -0.12851782
-0.04929095 0.026945902 0.04029146 -0.02282755 -0.08559148 -0.056924794 0.022051644 -0.0257587
-0.005623782 0.17793295 0.16466254 -0.05355519 -0.09058377 0.07289871 -0.019304624 -0.07438804
-0.083931275 0.009158581 -0.012962539 0.09697575 0.0298072 0.025985138 0.058593318 -0.051748086
-0.13507856 -0.14950101 -0.033835366 -0.082185864 -0.1361055 -0.123061836 -0.080051824 0.037536103
-0.02874464 0.037828293 0.00536727 -0.0057136742 0.03597333 -0.09939501 -0.051250212 0.0051807817
-0.06292467 0.06529755 -0.10004424 -0.083898194 -0.124919504 -0.11728544 -0.038947076 -0.07097457
-0.13509601 -0.15385826 0.040107045 -0.09857976 -0.09739903 0.009111525 -0.019727468 -0.05575055
0.1674491 0.12082264 0.039227437 -9.461303e-05 0.15349175 0.2601778 -0.13626698 0.033977598
0.054970335 -0.06448835 0.07449957 0.01673253 0.089636035 0.17637098 0.13359271 0.17283186
0.38850993 0.28904876 -0.01556067 0.1811589 0.14308876 -0.15081865 -0.05129254 0.0492988
0.1750181 0.024200117 0.18191357 0.0350267 0.07953184 0.11338726 -0.10260027 -0.12042314
0.05171816 0.031826586 0.21179424 0.15411052 -0.051863596 0.065957084 0.046833035 0.12435432
-0.007675282 0.0906666 0.015193129 0.07385751 0.025671195 0.23521036 0.16019696 0.0675776
-0.09820126 -0.06434103 -0.09713727 -0.036855783 -0.013050971 0.033430718 0.10607175 0.18088742
0.07914566 0.039817356 0.06758355 -0.025513668 0.03060372 -0.02516533 0.045784086 0.06632043
00000000: c9bc bd3c e409 e5bc c4a0 ae3d 0e9e 233e
00000010: 217d e93d 57a3 9dbd 1a84 f63d 061e 9e3d
00000020: 3e86 25bc a81c 963c 7bc6 84bd acf3 d6bc
00000030: 77c7 d33c 68a0 81bd 7126 fb3b 7419 3d3d
00000040: ca57 73bd 98d0 293e e116 ad3d 1ce5 cd3d
00000050: 1e6e b63c c410 3139 6979 9c3d 2345 0c3e
00000060: 16e8 ebbc 057d c9bb 3d13 c3bd f95a e13d
00000070: 29a4 533e 6883 363c 2a8a 063e 3fd5 553d
00000080: 7d22 83bc 1a6d c1bc 324a 51bd 166c 0c3e
00000090: 4020 76bd d3f9 573d e1b1 a93c a09d 9c3d
000000a0: fc4d 5abd d046 cb3d b866 443d 6fca cf3d
000000b0: 0c93 0cbc 5f57 80bd 7895 183e d84d 26bc
000000c0: 543b 05be a656 b3bd ce4e 8ebd 7280 9dbd
000000d0: 7397 e33d b54a 8f3d 33e0 8b3d 0914 e83d
000000e0: 3286 293d ade2 483d 95eb 533d b092 bd3d
000000f0: d7f9 933d 2518 943c 78bf 30bd cd7a c63d
00000100: 523d 663d 2866 75bd fde1 5d3d 62ee 2fbd
00000110: e1c9 8dbc eeed bc3a 29a9 10be 111d 21be
00000120: 2970 4cbd 3d89 623b 9c93 d63d 7d9f 093d
00000130: 3386 0b3d db37 35bd 919d e73d a71d 1e3e
00000140: c7b8 97bd f1e4 49bd be2c d73b 2bb6 5f3d
00000150: 02d8 d2bc 9fd2 1abd 028d 41bd e59c 03bd
00000160: 105b 37bd bc10 b1bd 1d30 923d 4ed8 97ba
00000170: b701 4bbc 8c6f ef3c 0b5b 1a3d b32e db3d
00000180: ca5e c93b 67dd 66bc 9532 5abe eb9e b33d
00000190: 5ab7 f6bd 2400 753d bf42 8ebd bfe8 98bb
000001a0: 6af7 f53c cc1c f8bc 06b7 c9bd 829c c53b
000001b0: f4ea b0bd 2ad6 97bd 5ec2 b93c 9f18 0dbe
000001c0: 335d 0ebc eb3f bb3d 86d6 f2bd f9be 09be
000001d0: 830c 0c3d 8d22 9f3d 9d4a 173e 9880 673c
000001e0: 8747 83bc 3d59 3dbe 1277 1bbe 034c 1f3e
000001f0: 1166 2dbd 4761 14be d9bd 153e fcb6 463e
00000200: c2ba 613d 1803 653e bf0e 193b 5c6c 21be
00000210: 7a5b b1bc 5a00 57bd 916d 4cbd 2d9a 03be
00000220: 4fe5 49bd a7bd dc3c a808 253d d800 bbbc
00000230: 964a afbd f929 69bd a6a5 b43c e903 d3bc
00000240: b447 b8bb 0e34 363e 4c9d 283e b05c 5bbd
00000250: fc83 b9bd eb4b 953d bb24 9ebc c258 98bd
00000260: 29e4 abbd df0d 163c d460 54bc 399b c63d
00000270: 3b2e f43c c9de d43c 8cff 6f3d cdf5 53bd
00000280: 0952 0abe cb16 19be f496 0abd 1051 a8bd
00000290: 3d5f 0bbe d807 fcbd 36f2 a3bd 75bf 193d
000002a0: e179 ebbc d7f1 1a3d eddf af3b c639 bbbb
000002b0: c558 133d 9c8f cbbd beeb 51bd 8cc3 a93b
000002c0: a6de 80bd b9ba 853d ffe3 ccbd d1d2 abbd
000002d0: ccd5 ffbd 5933 f0bd f886 1fbd 1e5b 91bd
000002e0: 9c56 0abe 058d 1dbe 4947 243d 2fe4 c9bd
000002f0: 2579 c7bd 8148 153c 809b a1bc b05a 64bd
00000300: c777 2b3e dc71 f73d f3ac 203d fc6a c6b8
00000310: f12c 1d3e 0636 853e 9289 0bbe 182c 0b3d
00000320: 9328 613d 7812 84bd 3b93 983d a912 893c
00000330: 1993 b73d 989a 343e 87cc 083e d6fa 303e
00000340: c6ea c63e 33fe 933e 2ef2 7ebc b881 393e
00000350: dc85 123e 3470 1abe 2018 52bd 8aed 493d
00000360: f237 333e 533f c63c 8d47 3a3e 2878 0f3d
00000370: 97e1 a23d 9437 e83d 1720 d2bd 68a0 f6bd
00000380: 6cd6 533d 985c 023d 97e0 583e 26cf 1d3e
00000390: ec6e 54bd 8214 873d ffd3 3f3d 7aad fe3d
000003a0: ef80 fbbb 69af b93d 9aec 783c 9b42 973d
000003b0: 664c d23c fcda 703e ac0a 243e 2066 8a3d
000003c0: be1d c9bd 3bc5 83bd e8ef c6bd 17f6 16bd
000003d0: bdd3 55bc a6ee 083d 253c d93d 8d3a 393e
000003e0: 1f17 a23d 8617 233d 3f69 8a3d 0a02 d1bc
000003f0: a7b4 fa3c 8627 cebc 1888 3b3d 01d3 873d

layers.0.Aw.conv2.bias f4 [16]
-0.09604039 0.0045447857 0.026429517 -0.008729782 -0.064426154 -0.110169455 -0.073446356 -0.03135665
-0.083241545 0.033216823 -0.017768884 0.027738497 0.07942388 0.105509624 -0.061427042 0.037641678
00000000: d3b0 c4bd 6dec 943b b782 d83c 5c07 0fbc
00000010: dcf1 83bd 86a0 e1bd 0b6b 96bd d56f 00bd
00000020: 8b7a aabd 5d0e 083d 0d90 91bc d83b e33c
00000030: fda8 a23d 6e15 d83d ec9a 7bbd 292e 1a3d

layers.0.Aw.conv3.weight f4 [1, 16, 3]
0.03481265 -0.078472845 0.0005077219 -0.046295907 0.012663196 0.088135 -0.07080757 -0.030188272
-0.07660781 -0.032774933 0.06292043 0.13345502 0.01098031 -0.04897747 -0.004823958 -0.03373312
-0.07569786 0.038023468 0.06557309 0.015107007 -0.06377296 0.046861578 0.033920012 -0.14223468
0.032770924 -0.015394476 0.012451117 -0.072544865 -0.049707185 -0.018160738 0.0642909 -0.0127781965
-0.019056752 0.08180505 0.115266375 0.020713016 -0.061937217 0.05553195 -0.0042136596 -0.09725751
-0.115592845 -0.05853833 -0.05911262 -0.08018777 0.17638999 0.075420335 -0.09839179 -0.13692026
00000000: b697 0e3d 5fb6 a0bd a418 053a c7a0 3dbd
00000010: 4b79 4f3c 1f80 b43d 8f03 91bd 654d f7bc
00000020: 8ee4 9cbd 023f 06bd 6ddc 803d 6fa8 083e
00000030: c2e6 333c 999c 48bd 4b12 9ebb bd2b 0abd
00000040: 7b07 9bbd 7fbe 1b3d 2f4b 863d 6183 773c
00000050: 669b 82bd edf1 3f3d b6ef 0a3d f8a5 11be
00000060: ce3a 063d 1d39 7cbc c5ff 4b3c 6792 94bd
00000070: c399 4bbd d4c5 94bc f3aa 833d a45b 51bc
00000080: e81c 9cbc 6889 a73d c710 ec3d 58ae a93c
00000090: e1b1 7dbd 7875 633d bd12 8abb f22e c7bd
000000a0: f1bb ecbd e3c5 6fbd 1320 72bd 7c39 a4bd
000000b0: 949f 343e fa75 9a3d a381 c9bd d334 0cbe

layers.0.Ah.conv1.weight f4 [32, 1, 5]
0.04084229 0.13892195 0.12553243 0.42427838 -0.14473948 0.1152794 0.21614754 -0.25111526
-0.3900131 -0.24029437 -0.34221473 -0.10799886 -0.289031 0.33487007 -0.47785234 0.017702928
-0.24045508 -0.26442814 0.26191175 -0.43403226 -0.018712094 0.048215132 -0.2372329 -0.14056426
-0.2998666 0.36683047 -0.25270838 0.3050172 0.028409284 -0.21343052 -0.31959417 0.04841136
0.3572949 0.43987986 0.7085023 -0.30049667 -0.15295434 0.12651218 -0.3794282 -0.39017776
-0.003232314 -0.23280494 -0.29570016 -0.43580946 -0.42396736 0.20109683 0.2659439 -0.1549358
0.782609 0.56636417 0.0019463265 -0.3692737 -0.32157144 0.27742547 0.28974107 0.4178729
-0.07736835 0.2111498 0.5024989 0.76033574 0.18844077 0.4989023 0.6143491 0.51688766
0.32918596 -0.082689255 -0.4522644 -0.25552636 -0.5435618 0.0026277886 0.5428518 0.24970753
0.47577083 0.06445382 0.27008528 0.5127301 0.55859077 -0.021596422 0.40181032 0.004584952
0.27077538 0.436484 0.484136 0.5663247 0.5759803 0.6231476 -0.28954569 0.17385362
-0.0026962112 -0.14560702 0.46948162 -0.10510949 -0.18411484 -0.09689163 0.10445563 0.5572017
0.4062023 0.54282486 -0.27472436 0.44056568 -0.3932908 -0.026744176 -0.50785583 -0.14511606
0.25092813 0.3524755 0.6387325 0.08263732 0.11393456 0.597367 0.21116297 0.08729605
0.13336113 -0.3315983 0.107738 0.032610796 0.49791655 -0.30774367 0.45577475 0.33539626
-0.2717463 -0.2678542 -0.0306004 0.12845193 -0.11636745 -0.2274644 -0.43585807 -0.42942977
0.14123204 -0.002615024 -0.27365384 0.44913968 0.0714999 0.36390892 0.2137216 0.75435007
0.088021055 0.43910384 0.24827205 -0.13523307 -0.028030125 0.1221071 0.38172045 0.35512552
0.33814394 0.34838232 -0.08763606 0.108024575 0.3808726 0.33683175 -0.47777265 -0.49494016
-0.3876881 -0.25689188 -0.30633938 0.35958433 0.1091743 0.5088041 0.37069675 0.16030304
00000000: 3f4a 273d 8e41 0e3e 938b 003e 043b d93e
00000010: 9636 14be 9b17 ec3d c855 5d3e 2e92 80be
00000020: ccaf c7be ba0f 76be c536 afbe 822e ddbd
00000030: dffb 93be 1774 ab3e 10a9 f4be bb05 913c
00000040: db39 76be 2063 87be 4c19 863e 7a39 debe
00000050: 1b4a 99bc 3b7d 453d 2eed 72be 14f0 0fbe
00000060: 1d88 99be 34d1 bb3e fe62 81be 372b 9c3e
00000070: 96ba e83c 888d 5abe d9a1 a3be fd4a 463d
00000080: 5bef b63e ef37 e13e 6860 353f b3da 99be
00000090: 10a0 1cbe 698c 013e 6a44 c2be 61c5 c7be
000000a0: 3bd5 53bb 6b64 6ebe 0366 97be 6b22 dfbe
000000b0: 4012 d9be 54ec 4d3e cd29 883e 7ea7 1ebe
000000c0: 1059 483f 3efd 103f e11b ff3a 7111 bdbe
000000d0: 03a5 a4be b60a 8e3e f158 943e 70f3 d53e
000000e0: 4c73 9ebd a737 583e c5a3 003f 5da5 423f
000000f0: 9ef6 403e 1f70 ff3e fc45 1d3f c052 043f
00000100: 108b a83e fc58 a9bd 338f e7be 5ad4 82be
00000110: de26 0bbf fa36 2c3b 56f8 0a3f 55b3 7f3e
00000120: 3c98 f33e 5d00 843d 9e48 8a3e 4842 033f
00000130: ceff 0e3f fbea b0bc 15ba cd3e 5d3d 963b
00000140: 12a3 8a3e d57a df3e ace0 f73e a8fa 103f
00000150: 7273 133f 9a86 1f3f 553f 94be af06 323e
00000160: ebb2 30bb 021a 15be e55f f03e a543 d7bd
00000170: 9a88 3cbe 1e6f c6bd d5ec d53d c5a4 0e3f
00000180: bff9 cf3e 92f6 0a3f aca8 8cbe d391 e13e
00000190: 695d c9be 9a16 dbbc d702 02bf 4e99 14be
000001a0: a779 803e ab77 b43e f983 233f c13d a93d
000001b0: 8656 e93d 0bed 183f 1b3b 583e 45c8 b23d
000001c0: d28f 083e 41c7 a9be bea5 dc3d e692 053d
000001d0: ebee fe3e 9490 9dbe 4f5b e93e 0fb9 ab3e
000001e0: 5522 8bbe 3024 89be b1ad fabc e788 033e
000001f0: 0f52 eebd 6dec 68be ca28 dfbe 38de dbbe
00000200: 229f 103e d360 2bbb 5b1c 8cbe a3f5 e53e
00000210: 8a6e 923d 4552 ba3e d6d9 5a3e 161d 413f
00000220: 6244 b43d 38d2 e03e 073b 7e3e 8a7a 0abe
00000230: 6f9f e5bc 4a13 fa3d dd70 c33e 03d3 b53e
00000240: 3421 ad3e 2b5f b23e 897a b3bd fd3b dd3d
00000250: bc01 c33e 3675 ac3e 9e9e f4be cc68 fdbe
00000260: 0e7f c6be 5587 83be 84d8 9cbe 701b b83e
00000270: c796 df3d fc40 023f f7cb bd3e 7b26 243e

layers.0.Ah.conv1.bias f4 [32]
0.050023105 0.0005308572 -0.10466471 0.0075282375 -0.033291295 -0.055957798 -0.03964227 0.1852095
-0.23194236 -0.062166795 -0.04766302 -0.06414711 -0.070365146 -0.27239063 -0.026427198 0.26517662
-0.10529636 -0.05522938 -0.08325844 -0.034534458 0.087791905 -0.059510093 -0.068785496 0.26830825
-0.11599977 -0.21633722 0.14562625 -0.050413296 0.077043444 -0.03764735 0.35388476 -0.021654584
00000000: 07e5 4c3d 3929 0b3a 745a d6bd 6faf f63b
00000010: 745c 08bd 0134 65bd ef5f 22bd 8fa7 3d3e
00000020: 4c82 6dbe 9ca2 7ebd 4d3a 43bd 8f5f 83bd
00000030: 9a1b 90bd c976 8bbe da7d d8bc 3bc5 873e
00000040: 9ea5 d7bd 3438 62bd 6783 aabd 0174 0dbd
00000050: 3ecc b33d dbc0 73bd 69df 8cbd b35f 893e
00000060: 4a91 edbd 8187 5dbe 0c1f 153e 2c7e 4ebd
00000070: f4c8 9d3d 1c34 1abd 6230 b53e f464 b1bc

layers.0.Ah.conv2.weight f4 [16, 32, 3]
-0.06517261 0.0410846 0.030795038 -0.028923994 -0.074163586 -0.019130822 -0.13020587 -0.046000306
0.04169763 -0.06806689 0.010781642 -0.1297802 -0.12393157 -0.17168894 -0.13779218 0.06262365
0.12445475 0.07398777 0.46628287 0.50977725 0.5480523 -0.16931298 -0.22870319 -0.23021762
0.045686938 -0.041017745 -0.08081268 0.2866023 0.26221868 0.39465252 -0.019337302 0.026016649
0.07870995 0.34341905 0.47046092 0.46036643 0.10380317 0.24247606 0.31509244 -0.10122879
-0.010335499 -0.021585574 0.057876077 0.097736545 0.11461584 -0.06446091 0.03473242 -0.039275322
0.25037608 0.40788996 0.33264473 0.12266292 0.22252782 -0.11423257 0.12010033 0.010529852
0.09911509 0.17578924 0.19294196 0.07008069 -0.032902453 -0.076822735 -0.06044399 0.2097737
0.09456055 0.18961422 0.093479626 0.044555053 -0.0480395 0.09723776 -0.0047664084 0.04007093
-0.08898412 -0.103865825 0.033889756 -0.06639547 0.04599505 -0.083554536 0.06875731 0.09764219
-0.05690078 0.13495412 0.09618023 0.10774281 -0.002504632 0.014534127 0.036567174 0.11694175
0.21479413 0.17823114 -0.20477197 -0.1551443 -0.19330359 -0.0032677315 0.05504149 0.1697261
-0.020843439 -0.10992226 -0.1601397 0.033807795 -0.08930994 -0.035183728 0.08837786 -0.007607557
0.05258086 -0.04124764 0.03248476 -0.12686548 0.062060013 -0.048294254 0.03060598 0.052990373
0.0978768 -0.045353778 0.15043329 0.0044299336 0.06046853 0.08931166 0.10676514 0.17394625
0.09908341 -0.030295664 0.060199387 0.11609742 -0.05377211 -0.040148545 -0.12086509 -0.12253972
-0.10077613 -0.08488355 -0.11165668 0.051413987 -0.13573575 -0.12520976 -0.026517827 0.104143515
0.0007397226 0.04857676 -0.120386824 -0.03163306 -0.06012845 0.027902761 -0.017153881 0.0031215183
0.023295581 -0.08090495 0.072861716 0.2167321 0.15345241 -0.08991287 0.024081636 -0.054717988
0.0041525895 0.033155955 -0.12029378 -0.14793354 -0.12521462 0.017731782 -0.026646202 0.15186085
0.044462595 -0.044720117 -0.092308655 0.0115245115 0.019409012 0.0057420866 -0.056080263 0.0022217068
0.07956985 0.097768724 -0.004138829 -0.010865437 0.079827674 0.13703924 -0.049265523 -0.07525624
-0.15034519 -0.029133266 0.17207116 0.14054257 0.01100512 -0.07307911 0.00852603 -0.08802703
-0.083891235 -0.07062102 0.033499394 0.056715585 0.074671306 -0.15401302 -0.033981066 -0.03526249
0.020853499 -0.053259905 -0.11672539 -0.0589777 0.12505925 -0.02063248 0.035690997 0.043612935
0.06110577 -0.032340743 0.062351365 -0.00083556166 -0.04152114 0.06052288 0.002361285 -0.030153906
0.06769939 0.09196605 -0.22937825 -0.45994046 -0.4876756 0.09936129 0.051978327 0.1343471
0.0067916983 -0.03924161 0.10092747 0.13575804 -0.042867232 -0.14294091 0.08913224 -0.08876572
0.022906587 -0.100701384 -0.11342248 -0.043049086 0.1608669 0.05153924 -0.09653788 -0.06063575
0.006420291 0.02844787 0.0448541 0.011525085 0.05341572 -0.01963531 -0.0409112 0.011102562
0.34930804 0.11398421 -0.059011146 0.3226065 0.33352745 0.32891762 0.114911266 0.29480588
0.11670425 0.157475 0.054962605 -0.018232424 -0.09881005 0.0059891096 0.068905964 0.2068362
00000000: 3879 85bd 5348 283d e045 fc3c 03f2 ecbc
00000010: 14e3 97bd 3eb8 9cbc b054 05be d16a 3cbd
00000020: 22cb 2a3d a766 8bbd 7ca5 303c 1ae5 04be
00000030: d6cf fdbd 3acf 2fbe 6519 0dbe d440 803d
00000040: 22e2 fe3d e686 973d a1bc ee3e c380 023f
00000050: 284d 0c3f 6260 2dbe 2b31 6abe 2bbe 6bbe
00000060: 3a22 3b3d 3902 28bd 1e81 a5bd 89bd 923e
00000070: 8741 863e e50f ca3e 4369 9ebc de20 d53c
00000080: af32 a13d 9fd4 af3e 41e0 f03e 26b5 eb3e
00000090: c296 d43d a54b 783e cc53 a13e 0a51 cfbd
000000a0: 3a56 29bc 3bd4 b0bc 770f 6d3d 192a c83d
000000b0: b6bb ea3d 1504 84bd 9543 0e3d 29df 20bd
000000c0: 4b31 803e f4d6 d03e 6950 aa3e b236 fb3d
000000d0: 55de 633e c4f2 e9bd 29f7 f53d 6685 2c3c
000000e0: dafc ca3d 1802 343e 9492 453e 7786 8f3d
000000f0: b9c4 06bd 3d55 9dbd 1e94 77bd ebce 563e
00000100: f6a8 c13d 3b2a 423e 3f72 bf3d 5c7f 363d
00000110: 11c5 44bd 9724 c73d 882f 9cbb 6a21 243d
00000120: 4e3d b6bd 9bb7 d4bd fccf 0a3d 59fa 87bd
00000130: 4e65 3c3d a41e abbd a2d0 8c3d a1f8 c73d
00000140: cb10 69bd 6a31 0a3e 24fa c43d 43a8 dc3d
00000150: c124 24bb 8c20 6e3c 76c7 153d 287f ef3d
00000160: fef2 5b3e 3982 363e beaf 51be 26de 1ebe
00000170: 60f1 45be 7027 56bb 2f73 613d aecc 2d3e
00000180: dcbf aabc ec1e e1bd a9fb 23be 0b7a 0a3d
00000190: 21e8 b6bd d01c 10bd 74ff b43d d048 f9bb
000001a0: 075f 573d 49f3 28bd bd0e 053d 06e9 01be
000001b0: a432 7e3d 32d0 45bd 64b9 fa3c 6f0c 593d
000001c0: a273 c83d e2c4 39bd 2f0b 1a3e fa28 913b
000001d0: d9ad 773d 08e9 b63d afa7 da3d f71e 323e
000001e0: 3eec ca3d 9d2e f8bc a293 763d 7cc4 ed3d
000001f0: 2540 5cbd cd72 24bd 1e88 f7bd 1bf6 fabd
00000200: b763 cebd 6dd7 adbd 42ac e4bd 7997 523d
00000210: 50fe 0abe fd36 00be ea3b d9bc 3249 d53d
00000220: f2e9 413a 6df8 463d 5e8d f6bd ab91 01bd
00000230: 4049 76bd 5594 e43c 4c86 8cbc 6392 4c3b
00000240: 60d6 be3c 7fb1 a5bd 8638 953d 05ef 5d3e
00000250: a122 1d3e 3d24 b8bd da46 c53c f81f 60bd
00000260: 7212 883b 8ace 073d 965c f6bd e47b 17be
00000270: 4338 00be 3e42 913c 2349 dabc 6981 1b3e
00000280: 691e 363d 712c 37bd 520c bdbd 4ed1 3c3c
00000290: a6ff 9e3c 1d28 bc3b 6bb4 65bd 0e9a 113b
000002a0: 84f5 a23d f83a c83d 049f 87bb f204 32bc
000002b0: b17c a33d 0454 0c3e a5ca 49bd f21f 9abd
000002c0: 17f4 19be e3a8 eebc 6c33 303e 64ea 0f3e
000002d0: d24e 343c 80aa 95bd c3b0 0b3c 8447 b4bd
000002e0: 2bcf abbd c1a1 90bd a936 093d 9a4e 683d
000002f0: 45ed 983d 97b5 1dbe bb2f 0bbd 676f 10bd
00000300: f5d4 aa3c 0f27 5abd b90d efbd 9a92 71bd
00000310: 880f 003e 7205 a9bc b930 123d 7aa3 323d
00000320: 0b4a 7a3d ba77 04bd 2564 7f3d 9809 5bba
00000330: 1212 2abd d7e6 773d cabf 1a3b 5305 f7bc
00000340: faa5 8a3d b258 bc3d 22e2 6abe 517d ebbe
00000350: 9eb0 f9be ef7d cb3d 3ae7 543d 4992 093e
00000360: e58c de3b cfbb 20bd 10b3 ce3d 2804 0b3e
00000370: 8d95 2fbd 1a5f 12be f78a b63d cdca b5bd
00000380: 98a6 bb3c 873c cebd 0c4a e8bd 3d54 30bd
00000390: 4bba 243e cf1a 533d a7b5 c5bd 315d 78bd
000003a0: 4e61 d23b 820b e93c efb8 373d b6d3 3c3c
000003b0: 71ca 5a3d 3bda a0bc 8192 27bd 85e7 353c
000003c0: 81d8 b23e 8e70 e93d acb5 71bd ae2c a53e
000003d0: 1cc4 aa3e e467 a83e 9956 eb3d ccf0 963e
000003e0: a302 ef3d 2041 213e 7820 613d 2a5c 95bc
000003f0: ec5c cabd 4b40 c43b 921e 8d3d decc 533e

layers.0.Ah.conv2.bias f4 [16]
0.06770086 -0.09052287 -0.100575775 0.08087797 0.025947956 -0.09089302 -0.12812476 -0.053451307
-0.08320201 -0.062287048 -0.078187086 -0.09401665 -0.08576067 -0.0011225614 -0.10211962 -0.06690677
00000000: c0a6 8a3d 0e64 b9bd acfa cdbd 59a3 a53d
00000010: cf90 d43c 1f26 babd 2333 03be c2ef 5abd
00000020: d165 aabd b420 7fbd 8d20 a0bd cd8b c0bd
00000030: 4aa3 afbd e922 93ba 1724 d1bd 6b06 89bd

layers.0.Ah.conv3.weight f4 [1, 16, 3]
0.09320053 0.14277917 0.20611091 -0.07453886 0.024832254 0.045669906 0.10075466 -0.060388744
-0.13189588 0.096462406 0.079962015 0.036725063 0.098094314 0.007825235 0.13539976 0.0023810845
-0.063011095 0.0802361 -0.020089222 0.07497305 -0.14542304 0.27829733 0.23763657 -0.08077674
0.094793506 0.04150694 -0.01794487 0.16275151 -0.0018607551 0.02291473 0.10174556 0.069745846
0.14113967 -0.04237789 0.052807145 -0.124888085 0.0928206 0.08896461 0.06348378 -0.072463036
-0.099202596 -0.12883498 -0.18547538 -0.0066523524 -0.103853606 0.055528168 0.1228428 0.08276867
00000000: ebdf be3d b434 123e bd0e 533e d4a7 98bd
00000010: 036d cb3c 5e10 3b3d 7658 ce3d 305a 77bd
00000020: b70f 07be 158e c53d 20c3 a33d 056d 163d
00000030: ace5 c83d 6a35 003c 3ca6 0a3e f80b 1c3b
00000040: f60b 81bd d352 a43d 2792 a4bc 788b 993d
00000050: c7e9 14be fd7c 8e3e 0057 733e 476e a5bd
00000060: 1923 c23d 2e03 2a3d 1f01 93bc 55a8 263e
00000070: 95e4 f3ba acb7 bb3c fa5f d03d e9d6 8e3d
00000080: eb86 103e 7094 2dbd 4e4c 583d 53c5 ffbd
00000090: ba18 be3d 1433 b63d c903 823d 8067 94bd
000000a0: bb2a cbbd 51ed 03be 42ed 3dbe fafb d9bb
000000b0: 33b1 d4bd 8171 633d 0295 fb3d 9f82 a93d

layers.1.Aw.conv1.weight f4 [32, 1, 5]
-0.16313557 -0.11300957 -0.32725167 0.33359125 0.4435402 0.42685944 0.48110995 0.34193274
-0.28242394 -0.013791314 0.15366481 0.26402286 0.17565878 -0.0064011333 0.20261763 0.2768721
-0.4639982 0.1402034 -0.47626767 -0.16577506 -0.06512787 0.105561644 0.32239556 0.21317315
-0.23250973 0.58027065 0.3513977 0.5162862 0.5447008 -0.12738872 0.07663392 0.032304753
0.65147996 0.15299253 0.10338616 -0.3126245 0.033883452 0.12019545 0.08886121 0.09542139
-0.008414142 0.6097437 0.055782367 -0.1471378 0.34036076 0.15252857 0.21394016 0.09839893
-0.19457151 -0.27053177 0.21317023 -0.083576776 -0.411408 0.30778164 -0.32729557 -0.53924364
-0.37399164 -0.22990482 -0.46078557 0.26755235 0.46396175 0.19048487 0.11005899 -0.3142823
-0.22531891 -0.055790223 0.008654017 0.36355293 0.21122673 -0.20820235 0.33742252 0.106379956
0.35373044 0.011696112 0.013084081 0.09399412 -0.04782936 0.29790658 0.59113014 0.60545623
-0.5582387 0.19587022 -0.4426089 -0.0212199 -0.2504177 -0.6513126 -0.16714418 -0.5282575
-0.18179022 -0.52676255 -0.4017249 0.3183091 0.34445906 0.20933774 -0.05162186 -0.2819504
-0.36070684 -0.2679675 0.40345377 0.25930542 0.017569745 -0.11194042 0.11512437 -0.038096853
0.09312574 0.26004058 -0.015866088 0.09502135 0.05858122 -0.15746322 -0.39631006 0.28167582
0.20140977 0.123085946 0.2574773 0.42050126 0.42065424 0.58149606 -0.03164976 -0.16052753
-0.23878887 -0.32026324 0.46905497 -0.097805426 0.6243672 -0.1803097 -0.22528346 0.186364
0.2103588 -0.2243986 -0.19625977 -0.105512016 0.30461627 0.13897583 -0.2800696 -0.5801252
-0.30595365 -0.30317003 -0.5065017 -0.29165375 0.12572093 0.088505276 0.09881867 0.24115571
-0.15194257 -0.20808873 -0.22139634 0.33618277 0.51157135 0.13681953 0.047445502 -0.32463962
-0.4768706 -0.59806454 -0.397725 0.12152509 -0.01442036 -0.2868432 0.2294959 0.3364369
00000000: 030d 27be 9071 e7bd 888d a7be 79cc aa3e
00000010: b317 e33e 528d da3e 0b54 f63e cf11 af3e
00000020: df99 90be f7f4 61bc 4f5a 1d3e 012e 873e
00000030: e5df 333e 99c0 d1bb ff7a 4f3e 2ec2 8d3e
00000040: 2c91 edbe 7b91 0f3e 5bd9 f3be f0c0 29be
00000050: c361 85bd b430 d83d 0811 a53e 104a 5a3e
00000060: 0817 6ebe 9e8c 143f 66ea b33e 552b 043f
00000070: 8371 0b3f 3072 02be 3ff2 9c3d fd51 043d
00000080: 64c7 263f 13aa 1c3e 20bc d33d 5210 a0be
00000090: 60c9 0a3d 0829 f63d defc b53d 4a6c c33d
000000a0: 78db 09bc 2a18 1c3f 0d7c 643d 4bab 16be
000000b0: c443 ae3e 7330 1c3e 2113 5b3e 6185 c93d
000000c0: c13d 47be 2483 8abe 4c49 5a3e 4d2a abbd
000000d0: 12a4 d2be 8e95 9d3e 4993 a7be df0b 0abf
000000e0: d57b bfbe 2b6c 6bbe 16ec ebbe 9ffc 883e
000000f0: 658c ed3e 770e 433e 9c66 e13d 9ce9 a0be
00000100: 00ba 66be 4a84 64bd 94c9 0d3c 9c23 ba3e
00000110: d24b 583e ff32 55be a5c2 ac3e bcdd d93d
00000120: 281c b53e 0da1 3f3c 9d5e 563c fd7f c03d
00000130: b8e8 43bd 3687 983e 4e54 173f 2eff 1a3f
00000140: bbe8 0ebf 3492 483e a29d e2be 5bd5 adbc
00000150: c036 80be 6cbc 26bf d827 2bbe e23b 07bf
00000160: 3727 3abe e9d9 06bf e3ae cdbe 69f9 a23e
00000170: f05c b03e a25c 563e 7271 53bd ce5b 90be
00000180: 91ae b8be 0933 89be 7e91 ce3e aec3 843e
00000190: 6dee 8f3c 0541 e5bd 53c6 eb3d 720b 1cbd
000001a0: b5b8 be3d 0a24 853e 99f9 81bc 8e9a c23d
000001b0: ddf2 6f3d 0a3e 21be 27e9 cabe d037 903e
000001c0: 5d3e 4e3e 7c14 fc3d 11d4 833e f14b d73e
000001d0: fe5f d73e eddc 143f 2ea3 01bd 5461 24be
000001e0: 1285 74be 8bf9 a3be f927 f03e 364e c8bd
000001f0: 87d6 1f3f 1ba3 38be b5b0 66be 34d6 3e3e
00000200: 4c68 573e bfc8 65be 52f8 48be af16 d8bd
00000210: aaf6 9b3e ae4f 0e3e 4865 8fbe 1683 14bf
00000220: f5a5 9cbe 1a39 9bbe 18aa 01bf a453 95be
00000230: fdbc 003e 4142 b53d 7161 ca3d 86f1 763e
00000240: d596 1bbe 3615 55be b9b5 62be 2620 ac3e
00000250: 57f6 023f 6b1a 0c3e 3756 423d 2a37 a6be
00000260: 6228 f4be c21a 19bf 9ca2 cbbe 25e2 f83d
00000270: 6043 6cbc 1ddd 92be f900 6b3e 7541 ac3e

layers.1.Aw.conv1.bias f4 [32]
0.104398854 -0.053722322 -0.21143836 0.048433818 -0.033903413 -0.08419335 -0.11749288 -0.077027686
0.03511901 -0.07071004 -0.12819721 0.074183024 0.044417202 0.16704987 0.16330235 -0.13101596
-0.044424746 0.049424507 -0.37796804 -0.12085803 -0.0021291373 0.114316694 -0.044661652 0.0073744436
-0.18288189 -0.14103931 -0.15956844 0.019624414 0.013068322 0.26705346 0.1064819 -0.06306555
00000000: 11cf d53d f00b 5cbd 4c83 58be 8a62 463d
00000010: 4ede 0abd 906d acbd 1ba0 f0bd b1c0 9dbd
00000020: f3d8 0f3d 6dd0 90bd 2146 03be 45ed 973d
00000030: d0ee 353d 1f0f 2b3e bb38 273e 0c29 06be
00000040: b9f6 35bd 5a71 4a3d 0785 c1be 6a84 f7bd
00000050: ff88 0bbb df1e ea3d 23ef 36bd 51a5 f13b
00000060: 6445 3bbe 9c6c 10be e965 23be 61c3 a03c
00000070: 841c 563c 3bbb 883e 2f13 da3d 8328 81bd

layers.1.Aw.conv2.weight f4 [16, 32, 3]
0.023161309 -0.027958818 0.08526757 0.15978262 0.114008196 -0.0769717 0.12036915 0.0772057
-0.010102807 0.018324211 -0.0648317 -0.026239239 0.025851948 -0.06329423 0.0076644947 0.046166852
-0.059409894 0.16583478 0.084516294 0.10053465 0.022269305 0.00016886281 0.07640345 0.13698249
-0.02879719 -0.0061489367 -0.09525154 0.1100368 0.20668091 0.011139728 0.13138643 0.05220532
-0.016007656 -0.023611594 -0.05109615 0.13713107 -0.06008935 0.052728485 0.020714702 0.07647252
-0.053297028 0.09925616 0.047949523 0.10146033 -0.008579981 -0.06266665 0.14900768 -0.010150395
-0.13010913 -0.08756761 -0.069486246 -0.076905146 0.11112871 0.06996671 0.06829872 0.113319464
0.041387744 0.0490443 0.05173834 0.09256494 0.072253875 0.01807792 -0.04315135 0.09691391
0.056210823 -0.059911877 0.054170597 -0.04295195 -0.017308177 0.001441417 -0.1412703 -0.15733744
-0.04991165 0.0034566664 0.10477373 0.033599366 0.03406353 -0.04424272 0.1130935 0.15440999
-0.0740829 -0.0492906 0.006566613 0.05461709 -0.025737766 -0.03779852 -0.047253616 -0.03213205
-0.04476458 -0.0864577 0.07138083 -0.001158485 -0.012390546 0.029227994 0.03768448 0.107022665
0.006145333 -0.014090872 -0.21308358 0.087705456 -0.1204669 0.059814587 -0.069463246 -0.0046664174
0.030025203 -0.030287169 -0.09849362 0.00603062 -0.08638564 -0.074138954 0.02267569 -0.13778923
-0.008689213 0.09143051 -0.11857323 -0.13451757 0.03419162 0.07770262 0.14774556 0.01412978
-0.016025318 -0.18491073 -0.1518214 0.1555634 -0.042333666 -0.14490233 0.14623202 0.1940574
0.055109747 0.22364461 0.0023354737 -0.15763992 -0.021650065 -0.05249057 -0.04990918 -0.12851782
-0.04929095 0.026945902 0.04029146 -0.02282755 -0.08559148 -0.056924794 0.022051644 -0.0257587
-0.005623782 0.17793295 0.16466254 -0.05355519 -0.09058377 0.07289871 -0.019304624 -0.07438804
-0.083931275 0.009158581 -0.012962539 0.09697575 0.0298072 0.025985138 0.058593318 -0.051748086
-0.13507856 -0.14950101 -0.033835366 -0.082185864 -0.1361055 -0.123061836 -0.080051824 0.037536103
-0.02874464 0.037828293 0.00536727 -0.0057136742 0.03597333 -0.09939501 -0.051250212 0.0051807817
-0.06292467 0.06529755 -0.10004424 -0.083898194 -0.124919504 -0.11728544 -0.038947076 -0.07097457
-0.13509601 -0.15385826 0.040107045 -0.09857976 -0.09739903 0.009111525 -0.019727468 -0.05575055
0.1674491 0.12082264 0.039227437 -9.461303e-05 0.15349175 0.2601778 -0.13626698 0.033977598
0.054970335 -0.06448835 0.07449957 0.01673253 0.089636035 0.17637098 0.13359271 0.17283186
0.38850993 0.28904876 -0.01556067 0.1811589 0.14308876 -0.15081865 -0.05129254 0.0492988
0.1750181 0.024200117 0.18191357 0.0350267 0.07953184 0.11338726 -0.10260027 -0.12042314
0.05171816 0.031826586 0.21179424 0.15411052 -0.051863596 0.065957084 0.046833035 0.12435432
-0.007675282 0.0906666 0.015193129 0.07385751 0.025671195 0.23521036 0.16019696 0.0675776
-0.09820126 -0.06434103 -0.09713727 -0.036855783 -0.013050971 0.033430718 0.10607175 0.18088742
0.07914566 0.039817356 0.06758355 -0.025513668 0.03060372 -0.02516533 0.045784086 0.06632043
00000000: c9bc bd3c e409 e5bc c4a0 ae3d 0e9e 233e
00000010: 217d e93d 57a3 9dbd 1a84 f63d 061e 9e3d
00000020: 3e86 25bc a81c 963c 7bc6 84bd acf3 d6bc
00000030: 77c7 d33c 68a0 81bd 7126 fb3b 7419 3d3d
00000040: ca57 73bd 98d0 293e e116 ad3d 1ce5 cd3d
00000050: 1e6e b63c c410 3139 6979 9c3d 2345 0c3e
00000060: 16e8 ebbc 057d c9bb 3d13 c3bd f95a e13d
00000070: 29a4 533e 6883 363c 2a8a 063e 3fd5 553d
00000080: 7d22 83bc 1a6d c1bc 324a 51bd 166c 0c3e
00000090: 4020 76bd d3f9 573d e1b1 a93c a09d 9c3d
000000a0: fc4d 5abd d046 cb3d b866 443d 6fca cf3d
000000b0: 0c93 0cbc 5f57 80bd 7895 183e d84d 26bc
000000c0: 543b 05be a656 b3bd ce4e 8ebd 7280 9dbd
000000d0: 7397 e33d b54a 8f3d 33e0 8b3d 0914 e83d
000000e0: 3286 293d ade2 483d 95eb 533d b092 bd3d
000000f0: d7f9 933d 2518 943c 78bf 30bd cd7a c63d
00000100: 523d 663d 2866 75bd fde1 5d3d 62ee 2fbd
00000110: e1c9 8dbc eeed bc3a 29a9 10be 111d 21be
00000120: 2970 4cbd 3d89 623b 9c93 d63d 7d9f 093d
00000130: 3386 0b3d db37 35bd 919d e73d a71d 1e3e
00000140: c7b8 97bd f1e4 49bd be2c d73b 2bb6 5f3d
00000150: 02d8 d2bc 9fd2 1abd 028d 41bd e59c 03bd
00000160: 105b 37bd bc10 b1bd 1d30 923d 4ed8 97ba
00000170: b701 4bbc 8c6f ef3c 0b5b 1a3d b32e db3d
00000180: ca5e c93b 67dd 66bc 9532 5abe eb9e b33d
00000190: 5ab7 f6bd 2400 753d bf42 8ebd bfe8 98bb
000001a0: 6af7 f53c cc1c f8bc 06b7 c9bd 829c c53b
000001b0: f4ea b0bd 2ad6 97bd 5ec2 b93c 9f18 0dbe
000001c0: 335d 0ebc eb3f bb3d 86d6 f2bd f9be 09be
000001d0: 830c 0c3d 8d22 9f3d 9d4a 173e 9880 673c
000001e0: 8747 83bc 3d59 3dbe 1277 1bbe 034c 1f3e
000001f0: 1166 2dbd 4761 14be d9bd 153e fcb6 463e
00000200: c2ba 613d 1803 653e bf0e 193b 5c6c 21be
00000210: 7a5b b1bc 5a00 57bd 916d 4cbd 2d9a 03be
00000220: 4fe5 49bd a7bd dc3c a808 253d d800 bbbc
00000230: 964a afbd f929 69bd a6a5 b43c e903 d3bc
00000240: b447 b8bb 0e34 363e 4c9d 283e b05c 5bbd
00000250: fc83 b9bd eb4b 953d bb24 9ebc c258 98bd
00000260: 29e4 abbd df0d 163c d460 54bc 399b c63d
00000270: 3b2e f43c c9de d43c 8cff 6f3d cdf5 53bd
00000280: 0952 0abe cb16 19be f496 0abd 1051 a8bd
00000290: 3d5f 0bbe d807 fcbd 36f2 a3bd 75bf 193d
000002a0: e179 ebbc d7f1 1a3d eddf af3b c639 bbbb
000002b0: c558 133d 9c8f cbbd beeb 51bd 8cc3 a93b
000002c0: a6de 80bd b9ba 853d ffe3 ccbd d1d2 abbd
000002d0: ccd5 ffbd 5933 f0bd f886 1fbd 1e5b 91bd
000002e0: 9c56 0abe 058d 1dbe 4947 243d 2fe4 c9bd
000002f0: 2579 c7bd 8148 153c 809b a1bc b05a 64bd
00000300: c777 2b3e dc71 f73d f3ac 203d fc6a c6b8
00000310: f12c 1d3e 0636 853e 9289 0bbe 182c 0b3d
00000320: 9328 613d 7812 84bd 3b93 983d a912 893c
00000330: 1993 b73d 989a 343e 87cc 083e d6fa 303e
00000340: c6ea c63e 33fe 933e 2ef2 7ebc b881 393e
00000350: dc85 123e 3470 1abe 2018 52bd 8aed 493d
00000360: f237 333e 533f c63c 8d47 3a3e 2878 0f3d
00000370: 97e1 a23d 9437 e83d 1720 d2bd 68a0 f6bd
00000380: 6cd6 533d 985c 023d 97e0 583e 26cf 1d3e
00000390: ec6e 54bd 8214 873d ffd3 3f3d 7aad fe3d
000003a0: ef80 fbbb 69af b93d 9aec 783c 9b42 973d
000003b0: 664c d23c fcda 703e ac0a 243e 2066 8a3d
000003c0: be1d c9bd 3bc5 83bd e8ef c6bd 17f6 16bd
000003d0: bdd3 55bc a6ee 083d 253c d93d 8d3a 393e
000003e0: 1f17 a23d 8617 233d 3f69 8a3d 0a02 d1bc
000003f0: a7b4 fa3c 8627 cebc 1888 3b3d 01d3 873d

layers.1.Aw.conv2.bias f4 [16]
-0.09604039 0.0045447857 0.026429517 -0.008729782 -0.064426154 -0.110169455 -0.073446356 -0.03135665
-0.083241545 0.033216823 -0.017768884 0.027738497 0.07942388 0.105509624 -0.061427042 0.037641678
00000000: d3b0 c4bd 6dec 943b b782 d83c 5c07 0fbc
00000010: dcf1 83bd 86a0 e1bd 0b6b 96bd d56f 00bd
00000020: 8b7a aabd 5d0e 083d 0d90 91bc d83b e33c
00000030: fda8 a23d 6e15 d83d ec9a 7bbd 292e 1a3d

layers.1.Aw.conv3.weight f4 [1, 16, 3]
0.03481265 -0.078472845 0.0005077219 -0.046295907 0.012663196 0.088135 -0.07080757 -0.030188272
-0.07660781 -0.032774933 0.06292043 0.13345502 0.01098031 -0.04897747 -0.004823958 -0.03373312
-0.07569786 0.038023468 0.06557309 0.015107007 -0.06377296 0.046861578 0.033920012 -0.14223468
0.032770924 -0.015394476 0.012451117 -0.072544865 -0.049707185 -0.018160738 0.0642909 -0.0127781965
-0.019056752 0.08180505 0.115266375 0.020713016 -0.061937217 0.05553195 -0.0042136596 -0.09725751
-0.115592845 -0.05853833 -0.05911262 -0.08018777 0.17638999 0.075420335 -0.09839179 -0.13692026
00000000: b697 0e3d 5fb6 a0bd a418 053a c7a0 3dbd
00000010: 4b79 4f3c 1f80 b43d 8f03 91bd 654d f7bc
00000020: 8ee4 9cbd 023f 06bd 6ddc 803d 6fa8 083e
00000030: c2e6 333c 999c 48bd 4b12 9ebb bd2b 0abd
00000040: 7b07 9bbd 7fbe 1b3d 2f4b 863d 6183 773c
00000050: 669b 82bd edf1 3f3d b6ef 0a3d f8a5 11be
00000060: ce3a 063d 1d39 7cbc c5ff 4b3c 6792 94bd
00000070: c399 4bbd d4c5 94bc f3aa 833d a45b 51bc
00000080: e81c 9cbc 6889 a73d c710 ec3d 58ae a93c
00000090: e1b1 7dbd 7875 633d bd12 8abb f22e c7bd
000000a0: f1bb ecbd e3c5 6fbd 1320 72bd 7c39 a4bd
000000b0: 949f 343e fa75 9a3d a381 c9bd d334 0cbe

layers.1.Ah.conv1.weight f4 [32, 1, 5]
0.04084229 0.13892195 0.12553243 0.42427838 -0.14473948 0.1152794 0.21614754 -0.25111526
-0.3900131 -0.24029437 -0.34221473 -0.10799886 -0.289031 0.33487007 -0.47785234 0.017702928
-0.24045508 -0.26442814 0.26191175 -0.43403226 -0.018712094 0.048215132 -0.2372329 -0.14056426
-0.2998666 0.36683047 -0.25270838 0.3050172 0.028409284 -0.21343052 -0.31959417 0.04841136
0.3572949 0.43987986 0.7085023 -0.30049667 -0.15295434 0.12651218 -0.3794282 -0.39017776
-0.003232314 -0.23280494 -0.29570016 -0.43580946 -0.42396736 0.20109683 0.2659439 -0.1549358
0.782609 0.56636417 0.0019463265 -0.3692737 -0.32157144 0.27742547 0.28974107 0.4178729
-0.07736835 0.2111498 0.5024989 0.76033574 0.18844077 0.4989023 0.6143491 0.51688766
0.32918596 -0.082689255 -0.4522644 -0.25552636 -0.5435618 0.0026277886 0.5428518 0.24970753
0.47577083 0.06445382 0.27008528 0.5127301 0.55859077 -0.021596422 0.40181032 0.004584952
0.27077538 0.436484 0.484136 0.5663247 0.5759803 0.6231476 -0.28954569 0.17385362
-0.0026962112 -0.14560702 0.46948162 -0.10510949 -0.18411484 -0.09689163 0.10445563 0.5572017
0.4062023 0.54282486 -0.27472436 0.44056568 -0.3932908 -0.026744176 -0.50785583 -0.14511606
0.25092813 0.3524755 0.6387325 0.08263732 0.11393456 0.597367 0.21116297 0.08729605
0.13336113 -0.3315983 0.107738 0.032610796 0.49791655 -0.30774367 0.45577475 0.33539626
-0.2717463 -0.2678542 -0.0306004 0.12845193 -0.11636745 -0.2274644 -0.43585807 -0.42942977
0.14123204 -0.002615024 -0.27365384 0.44913968 0.0714999 0.36390892 0.2137216 0.75435007
0.088021055 0.43910384 0.24827205 -0.13523307 -0.028030125 0.1221071 0.38172045 0.35512552
0.33814394 0.34838232 -0.08763606 0.108024575 0.3808726 0.33683175 -0.47777265 -0.49494016
-0.3876881 -0.25689188 -0.30633938 0.35958433 0.1091743 0.5088041 0.37069675 0.16030304
00000000: 3f4a 273d 8e41 0e3e 938b 003e 043b d93e
00000010: 9636 14be 9b17 ec3d c855 5d3e 2e92 80be
00000020: ccaf c7be ba0f 76be c536 afbe 822e ddbd
00000030: dffb 93be 1774 ab3e 10a9 f4be bb05 913c
00000040: db39 76be 2063 87be 4c19 863e 7a39 debe
00000050: 1b4a 99bc 3b7d 453d 2eed 72be 14f0 0fbe
00000060: 1d88 99be 34d1 bb3e fe62 81be 372b 9c3e
00000070: 96ba e83c 888d 5abe d9a1 a3be fd4a 463d
00000080: 5bef b63e ef37 e13e 6860 353f b3da 99be
00000090: 10a0 1cbe 698c 013e 6a44 c2be 61c5 c7be
000000a0: 3bd5 53bb 6b64 6ebe 0366 97be 6b22 dfbe
000000b0: 4012 d9be 54ec 4d3e cd29 883e 7ea7 1ebe
000000c0: 1059 483f 3efd 103f e11b ff3a 7111 bdbe
000000d0: 03a5 a4be b60a 8e3e f158 943e 70f3 d53e
000000e0: 4c73 9ebd a737 583e c5a3 003f 5da5 423f
000000f0: 9ef6 403e 1f70 ff3e fc45 1d3f c052 043f
00000100: 108b a83e fc58 a9bd 338f e7be 5ad4 82be
00000110: de26 0bbf fa36 2c3b 56f8 0a3f 55b3 7f3e
00000120: 3c98 f33e 5d00 843d 9e48 8a3e 4842 033f
00000130: ceff 0e3f fbea b0bc 15ba cd3e 5d3d 963b
00000140: 12a3 8a3e d57a df3e ace0 f73e a8fa 103f
00000150: 7273 133f 9a86 1f3f 553f 94be af06 323e
00000160: ebb2 30bb 021a 15be e55f f03e a543 d7bd
00000170: 9a88 3cbe 1e6f c6bd d5ec d53d c5a4 0e3f
00000180: bff9 cf3e 92f6 0a3f aca8 8cbe d391 e13e
00000190: 695d c9be 9a16 dbbc d702 02bf 4e99 14be
000001a0: a779 803e ab77 b43e f983 233f c13d a93d
000001b0: 8656 e93d 0bed 183f 1b3b 583e 45c8 b23d
000001c0: d28f 083e 41c7 a9be bea5 dc3d e692 053d
000001d0: ebee fe3e 9490 9dbe 4f5b e93e 0fb9 ab3e
000001e0: 5522 8bbe 3024 89be b1ad fabc e788 033e
000001f0: 0f52 eebd 6dec 68be ca28 dfbe 38de dbbe
00000200: 229f 103e d360 2bbb 5b1c 8cbe a3f5 e53e
00000210: 8a6e 923d 4552 ba3e d6d9 5a3e 161d 413f
00000220: 6244 b43d 38d2 e03e 073b 7e3e 8a7a 0abe
00000230: 6f9f e5bc 4a13 fa3d dd70 c33e 03d3 b53e
00000240: 3421 ad3e 2b5f b23e 897a b3bd fd3b dd3d
00000250: bc01 c33e 3675 ac3e 9e9e f4be cc68 fdbe
00000260: 0e7f c6be 5587 83be 84d8 9cbe 701b b83e
00000270: c796 df3d fc40 023f f7cb bd3e 7b26 243e

layers.1.Ah.conv1.bias f4 [32]
0.050023105 0.0005308572 -0.10466471 0.0075282375 -0.033291295 -0.055957798 -0.03964227 0.1852095
-0.23194236 -0.062166795 -0.04766302 -0.06414711 -0.070365146 -0.27239063 -0.026427198 0.26517662
-0.10529636 -0.05522938 -0.08325844 -0.034534458 0.087791905 -0.059510093 -0.068785496 0.26830825
-0.11599977 -0.21633722 0.14562625 -0.050413296 0.077043444 -0.03764735 0.35388476 -0.021654584
00000000: 07e5 4c3d 3929 0b3a 745a d6bd 6faf f63b
00000010: 745c 08bd 0134 65bd ef5f 22bd 8fa7 3d3e
00000020: 4c82 6dbe 9ca2 7ebd 4d3a 43bd 8f5f 83bd
00000030: 9a1b 90bd c976 8bbe da7d d8bc 3bc5 873e
00000040: 9ea5 d7bd 3438 62bd 6783 aabd 0174 0dbd
00000050: 3ecc b33d dbc0 73bd 69df 8cbd b35f 893e
00000060: 4a91 edbd 8187 5dbe 0c1f 153e 2c7e 4ebd
00000070: f4c8 9d3d 1c34 1abd 6230 b53e f464 b1bc

layers.1.Ah.conv2.weight f4 [16, 32, 3]
-0.06517261 0.0410846 0.030795038 -0.028923994 -0.074163586 -0.019130822 -0.13020587 -0.046000306
0.04169763 -0.06806689 0.010781642 -0.1297802 -0.12393157 -0.17168894 -0.13779218 0.06262365
0.12445475 0.07398777 0.46628287 0.50977725 0.5480523 -0.16931298 -0.22870319 -0.23021762
0.045686938 -0.041017745 -0.08081268 0.2866023 0.26221868 0.39465252 -0.019337302 0.026016649
0.07870995 0.34341905 0.47046092 0.46036643 0.10380317 0.24247606 0.31509244 -0.10122879
-0.010335499 -0.021585574 0.057876077 0.097736545 0.11461584 -0.06446091 0.03473242 -0.039275322
0.25037608 0.40788996 0.33264473 0.12266292 0.22252782 -0.11423257 0.12010033 0.010529852
0.09911509 0.17578924 0.19294196 0.07008069 -0.032902453 -0.076822735 -0.06044399 0.2097737
0.09456055 0.18961422 0.093479626 0.044555053 -0.0480395 0.09723776 -0.0047664084 0.04007093
-0.08898412 -0.103865825 0.033889756 -0.06639547 0.04599505 -0.083554536 0.06875731 0.09764219
-0.05690078 0.13495412 0.09618023 0.10774281 -0.002504632 0.014534127 0.036567174 0.11694175
0.21479413 0.17823114 -0.20477197 -0.1551443 -0.19330359 -0.0032677315 0.05504149 0.1697261
-0.020843439 -0.10992226 -0.1601397 0.033807795 -0.08930994 -0.035183728 0.08837786 -0.007607557
0.05258086 -0.04124764 0.03248476 -0.12686548 0.062060013 -0.048294254 0.03060598 0.052990373
0.0978768 -0.045353778 0.15043329 0.0044299336 0.06046853 0.08931166 0.10676514 0.17394625
0.09908341 -0.030295664 0.060199387 0.11609742 -0.05377211 -0.040148545 -0.12086509 -0.12253972
-0.10077613 -0.08488355 -0.11165668 0.051413987 -0.13573575 -0.12520976 -0.026517827 0.104143515
0.0007397226 0.04857676 -0.120386824 -0.03163306 -0.06012845 0.027902761 -0.017153881 0.0031215183
0.023295581 -0.08090495 0.072861716 0.2167321 0.15345241 -0.08991287 0.024081636 -0.054717988
0.0041525895 0.033155955 -0.12029378 -0.14793354 -0.12521462 0.017731782 -0.026646202 0.15186085
0.044462595 -0.044720117 -0.092308655 0.0115245115 0.019409012 0.0057420866 -0.056080263 0.0022217068
0.07956985 0.097768724 -0.004138829 -0.010865437 0.079827674 0.13703924 -0.049265523 -0.07525624
-0.15034519 -0.029133266 0.17207116 0.14054257 0.01100512 -0.07307911 0.00852603 -0.08802703
-0.083891235 -0.07062102 0.033499394 0.056715585 0.074671306 -0.15401302 -0.033981066 -0.03526249
0.020853499 -0.053259905 -0.11672539 -0.0589777 0.12505925 -0.02063248 0.035690997 0.043612935
0.06110577 -0.032340743 0.062351365 -0.00083556166 -0.04152114 0.06052288 0.002361285 -0.030153906
0.06769939 0.09196605 -0.22937825 -0.45994046 -0.4876756 0.09936129 0.051978327 0.1343471
0.0067916983 -0.03924161 0.10092747 0.13575804 -0.042867232 -0.14294091 0.08913224 -0.08876572
0.022906587 -0.100701384 -0.11342248 -0.043049086 0.1608669 0.05153924 -0.09653788 -0.06063575
0.006420291 0.02844787 0.0448541 0.011525085 0.05341572 -0.01963531 -0.0409112 0.011102562
0.34930804 0.11398421 -0.059011146 0.3226065 0.33352745 0.32891762 0.114911266 0.29480588
0.11670425 0.157475 0.054962605 -0.018232424 -0.09881005 0.0059891096 0.068905964 0.2068362
00000000: 3879 85bd 5348 283d e045 fc3c 03f2 ecbc
00000010: 14e3 97bd 3eb8 9cbc b054 05be d16a 3cbd
00000020: 22cb 2a3d a766 8bbd 7ca5 303c 1ae5 04be
00000030: d6cf fdbd 3acf 2fbe 6519 0dbe d440 803d
00000040: 22e2 fe3d e686 973d a1bc ee3e c380 023f
00000050: 284d 0c3f 6260 2dbe 2b31 6abe 2bbe 6bbe
00000060: 3a22 3b3d 3902 28bd 1e81 a5bd 89bd 923e
00000070: 8741 863e e50f ca3e 4369 9ebc de20 d53c
00000080: af32 a13d 9fd4 af3e 41e0 f03e 26b5 eb3e
00000090: c296 d43d a54b 783e cc53 a13e 0a51 cfbd
000000a0: 3a56 29bc 3bd4 b0bc 770f 6d3d 192a c83d
000000b0: b6bb ea3d 1504 84bd 9543 0e3d 29df 20bd
000000c0: 4b31 803e f4d6 d03e 6950 aa3e b236 fb3d
000000d0: 55de 633e c4f2 e9bd 29f7 f53d 6685 2c3c
000000e0: dafc ca3d 1802 343e 9492 453e 7786 8f3d
000000f0: b9c4 06bd 3d55 9dbd 1e94 77bd ebce 563e
00000100: f6a8 c13d 3b2a 423e 3f72 bf3d 5c7f 363d
00000110: 11c5 44bd 9724 c73d 882f 9cbb 6a21 243d
00000120: 4e3d b6bd 9bb7 d4bd fccf 0a3d 59fa 87bd
00000130: 4e65 3c3d a41e abbd a2d0 8c3d a1f8 c73d
00000140: cb10 69bd 6a31 0a3e 24fa c43d 43a8 dc3d
00000150: c124 24bb 8c20 6e3c 76c7 153d 287f ef3d
00000160: fef2 5b3e 3982 363e beaf 51be 26de 1ebe
00000170: 60f1 45be 7027 56bb 2f73 613d aecc 2d3e
00000180: dcbf aabc ec1e e1bd a9fb 23be 0b7a 0a3d
00000190: 21e8 b6bd d01c 10bd 74ff b43d d048 f9bb
000001a0: 075f 573d 49f3 28bd bd0e 053d 06e9 01be
000001b0: a432 7e3d 32d0 45bd 64b9 fa3c 6f0c 593d
000001c0: a273 c83d e2c4 39bd 2f0b 1a3e fa28 913b
000001d0: d9ad 773d 08e9 b63d afa7 da3d f71e 323e
000001e0: 3eec ca3d 9d2e f8bc a293 763d 7cc4 ed3d
000001f0: 2540 5cbd cd72 24bd 1e88 f7bd 1bf6 fabd
00000200: b763 cebd 6dd7 adbd 42ac e4bd 7997 523d
00000210: 50fe 0abe fd36 00be ea3b d9bc 3249 d53d
00000220: f2e9 413a 6df8 463d 5e8d f6bd ab91 01bd
00000230: 4049 76bd 5594 e43c 4c86 8cbc 6392 4c3b
00000240: 60d6 be3c 7fb1 a5bd 8638 953d 05ef 5d3e
00000250: a122 1d3e 3d24 b8bd da46 c53c f81f 60bd
00000260: 7212 883b 8ace 073d 965c f6bd e47b 17be
00000270: 4338 00be 3e42 913c 2349 dabc 6981 1b3e
00000280: 691e 363d 712c 37bd 520c bdbd 4ed1 3c3c
00000290: a6ff 9e3c 1d28 bc3b 6bb4 65bd 0e9a 113b
000002a0: 84f5 a23d f83a c83d 049f 87bb f204 32bc
000002b0: b17c a33d 0454 0c3e a5ca 49bd f21f 9abd
000002c0: 17f4 19be e3a8 eebc 6c33 303e 64ea 0f3e
000002d0: d24e 343c 80aa 95bd c3b0 0b3c 8447 b4bd
000002e0: 2bcf abbd c1a1 90bd a936 093d 9a4e 683d
000002f0: 45ed 983d 97b5 1dbe bb2f 0bbd 676f 10bd
00000300: f5d4 aa3c 0f27 5abd b90d efbd 9a92 71bd
00000310: 880f 003e 7205 a9bc b930 123d 7aa3 323d
00000320: 0b4a 7a3d ba77 04bd 2564 7f3d 9809 5bba
00000330: 1212 2abd d7e6 773d cabf 1a3b 5305 f7bc
00000340: faa5 8a3d b258 bc3d 22e2 6abe 517d ebbe
00000350: 9eb0 f9be ef7d cb3d 3ae7 543d 4992 093e
00000360: e58c de3b cfbb 20bd 10b3 ce3d 2804 0b3e
00000370: 8d95 2fbd 1a5f 12be f78a b63d cdca b5bd
00000380: 98a6 bb3c 873c cebd 0c4a e8bd 3d54 30bd
00000390: 4bba 243e cf1a 533d a7b5 c5bd 315d 78bd
000003a0: 4e61 d23b 820b e93c efb8 373d b6d3 3c3c
000003b0: 71ca 5a3d 3bda a0bc 8192 27bd 85e7 353c
000003c0: 81d8 b23e 8e70 e93d acb5 71bd ae2c a53e
000003d0: 1cc4 aa3e e467 a83e 9956 eb3d ccf0 963e
000003e0: a302 ef3d 2041 213e 7820 613d 2a5c 95bc
000003f0: ec5c cabd 4b40 c43b 921e 8d3d decc 533e

layers.1.Ah.conv2.bias f4 [16]
0.06770086 -0.09052287 -0.100575775 0.08087797 0.025947956 -0.09089302 -0.12812476 -0.053451307
-0.08320201 -0.062287048 -0.078187086 -0.09401665 -0.08576067 -0.0011225614 -0.10211962 -0.06690677
00000000: c0a6 8a3d 0e64 b9bd acfa cdbd 59a3 a53d
00000010: cf90 d43c 1f26 babd 2333 03be c2ef 5abd
00000020: d165 aabd b420 7fbd 8d20 a0bd cd8b c0bd
00000030: 4aa3 afbd e922 93ba 1724 d1bd 6b06 89bd

layers.1.Ah.conv3.weight f4 [1, 16, 3]
0.09320053 0.14277917 0.20611091 -0.07453886 0.024832254 0.045669906 0.10075466 -0.060388744
-0.13189588 0.096462406 0.079962015 0.036725063 0.098094314 0.007825235 0.13539976 0.0023810845
-0.063011095 0.0802361 -0.020089222 0.07497305 -0.14542304 0.27829733 0.23763657 -0.08077674
0.094793506 0.04150694 -0.01794487 0.16275151 -0.0018607551 0.02291473 0.10174556 0.069745846
0.14113967 -0.04237789 0.052807145 -0.124888085 0.0928206 0.08896461 0.06348378 -0.072463036
-0.099202596 -0.12883498 -0.18547538 -0.0066523524 -0.103853606 0.055528168 0.1228428 0.08276867
00000000: ebdf be3d b434 123e bd0e 533e d4a7 98bd
00000010: 036d cb3c 5e10 3b3d 7658 ce3d 305a 77bd
00000020: b70f 07be 158e c53d 20c3 a33d 056d 163d
00000030: ace5 c83d 6a35 003c 3ca6 0a3e f80b 1c3b
00000040: f60b 81bd d352 a43d 2792 a4bc 788b 993d
00000050: c7e9 14be fd7c 8e3e 0057 733e 476e a5bd
00000060: 1923 c23d 2e03 2a3d 1f01 93bc 55a8 263e
00000070: 95e4 f3ba acb7 bb3c fa5f d03d e9d6 8e3d
00000080: eb86 103e 7094 2dbd 4e4c 583d 53c5 ffbd
00000090: ba18 be3d 1433 b63d c903 823d 8067 94bd
000000a0: bb2a cbbd 51ed 03be 42ed 3dbe fafb d9bb
000000b0: 33b1 d4bd 8171 633d 0295 fb3d 9f82 a93d
