models/1e-2lr_15_iter_clip_10%.pt (torch, 879377 bytes, 450 tensors)

layers.0.Aw.conv1.weight f4 [32, 1, 5]
0	0x3e9f7d34	0.3115021
1	0xbb245edf	-0.0025080962
2	0x3ec6d6ea	0.3883584
3	0x3d368ed7	0.044569816
4	0xbde31222	-0.11087443
5	0xbe9dfec6	-0.3085844
6	0xbeff12e8	-0.49819112
7	0xbeecd8bb	-0.46259102
8	0xbefea774	-0.49737132
9	0x3d2faf18	0.04289159
10	0x3e1fea70	0.15616775
11	0x3dadd85e	0.084885344
12	0x3e0781e5	0.13233145
13	0xbf0e0ad4	-0.5548527
14	0xbe1fbc94	-0.1559928
15	0x3f54da23	0.8314535
16	0xbd8c6078	-0.068543375
17	0xbf0c4791	-0.547967
18	0xbc0ddf3e	-0.008659182
19	0xbe1caaa8	-0.15299475
20	0x3e06d2aa	0.131663
21	0xbed04b9f	-0.40682694
22	0xbe98b8d9	-0.29828528
23	0x3db0e3d9	0.086372085
24	0x3eac6ca7	0.33676645
25	0xbe904d7f	-0.28184125
26	0x3e6b340b	0.22969072
27	0xbe4423e9	-0.19154324
28	0xbe7cbf59	-0.24682368
29	0x3e525bc1	0.20542814
30	0x3c4671e2	0.012112113
31	0xbcd94702	-0.026523117
32	0x3e275414	0.16340667
33	0xbe87cadd	-0.2652196
34	0x3e4e08bb	0.20120518
35	0xbdc4ae9d	-0.09603617
36	0x3e1deee0	0.15423155
37	0x3df12034	0.117737204
38	0xbb87eadd	-0.004147871
39	0xbe17bf7e	-0.14819142
40	0x3e6ac50a	0.22926727
41	0x3eea8385	0.45803466
42	0xbe0518fc	-0.12997812
43	0x3d135fba	0.035979964
44	0xbe0ba3f4	-0.13636762
45	0x3eb005f1	0.34379533
46	0x3f2b9cf3	0.6703636
47	0xbe69a7ab	-0.22817867
48	0x3e3d441c	0.18483013
49	0x3e8a7fe3	0.27050695
50	0xbe40d318	-0.18830526
51	0xbecd3e73	-0.40086707
52	0x3e4c487e	0.19949529
53	0xbd918731	-0.07105864
54	0x3e24a58c	0.16078776
55	0xbef51475	-0.4786717
56	0x3da77746	0.081770465
57	0xbe98f3ef	-0.29873607
58	0xbe642fd2	-0.22283867
59	0xbed63daa	-0.4184392
60	0xbe737020	-0.23773241
61	0x3e850f72	0.25988346
62	0x3f0a33cb	0.5398528
63	0x3d4bc3fd	0.049747456
64	0xbdc8565d	-0.097820975
65	0xbe809108	-0.2511065
66	0xbdf81abc	-0.12114474
67	0xbe8fc007	-0.28076193
68	0xbdc44c44	-0.09584859
69	0xbeac3e71	-0.3364139
70	0x3e3b8e98	0.18316114
71	0x3e3edf3a	0.18639842
72	0xbea055c6	-0.3131544
73	0xbd78639d	-0.060641874
74	0x3e098c76	0.13432488
75	0xbeb899a1	-0.3605471
76	0x3e8c074f	0.27349326
77	0xbc890186	-0.01672436
78	0x3e28e652	0.1649411
79	0xbed7f20d	-0.42176858
80	0xbddba48d	-0.10724745
81	0xbe34689c	-0.1761803
82	0xbec7a60a	-0.38993865
83	0xbf1c5734	-0.6107056
84	0x3d6318b7	0.05544349
85	0x3f2e7c3f	0.68158334
86	0x3f94462e	1.1583917
87	0x3d2033e0	0.03911197
88	0xbf618593	-0.88094443
89	0x3e30770a	0.1723291
90	0x3d91284d	0.07087765
91	0xbed32912	-0.41242272
92	0x3d9893f0	0.07450092
93	0xbef9feb1	-0.48827127
94	0x3e21e566	0.15810165
95	0x3cf9a283	0.030473
96	0xbed90ff6	-0.4239499
97	0xbecbcb5e	-0.39803594
98	0xbe013333	-0.12617187
99	0xbeefcb45	-0.4683477
100	0xbcf36641	-0.029711844
101	0xbd767653	-0.060171437
102	0x3b6d898b	0.0036245312
103	0xbebed37b	-0.37270722
104	0xbe6a4878	-0.22879207
105	0xbb7e8b1c	-0.003884024
106	0x3e208132	0.15674284
107	0x3e74c3c0	0.23902798
108	0x3efa5213	0.48890743
109	0xbd8ba36e	-0.06818281
110	0x3e529242	0.20563605
111	0x3eb0e810	0.3455205
112	0xbd259ecf	-0.040434655
113	0x3e84fa6f	0.25972316
114	0x3d4a0b1e	0.04932701
115	0x3e64becd	0.2233841
116	0x3e04eff3	0.12982158
117	0x3e663b87	0.22483645
118	0x3ec65695	0.38737932
119	0x3deafa7f	0.114735596
120	0x3d9b8294	0.07593265
121	0x3eb25d93	0.34837016
122	0xbc8bb0d0	-0.017052084
123	0x3e62946c	0.22126931
124	0x3d809460	0.062783
125	0x3e30084e	0.17190668
126	0x3e36208b	0.17785852
127	0xbd3c66da	-0.045996524
128	0xbcdc3be2	-0.026884023
129	0xbe8425ef	-0.2581019
130	0xbecfd73c	-0.40593898
131	0xbeb5a3cc	-0.3547653
132	0xbe2c5ce6	-0.16832313
133	0xbe7d5f70	-0.24743438
134	0xbee994ac	-0.4562124
135	0xbeb8e916	-0.3611533
136	0xbf124750	-0.57140064
137	0xbec9ce52	-0.39415222
138	0xbdd655ed	-0.10465608
139	0xbee82b2a	-0.45345432
140	0xbdd942ac	-0.1060842
141	0x3ed488ac	0.41510522
142	0x3e668bc3	0.22514252
143	0x3d7552e7	0.059893515
144	0xbe4fedbe	-0.20305535
145	0x3de60164	0.11230734
146	0xbf021298	-0.5080962
147	0xbe0ce056	-0.13757452
148	0xbde55b23	-0.111990236
149	0xbda530a1	-0.08065916
150	0x3eb07d10	0.34470415
151	0x3f088a13	0.53335685
152	0xbe9bd757	-0.3043773
153	0x3e9f8e99	0.3116348
154	0xbe1f5d4c	-0.15562934
155	0xbe95a866	-0.2923004
156	0x3d390815	0.045173723
157	0xbeb4727f	-0.35243604
158	0xbe80472a	-0.25054294
159	0x3de48058	0.11157292

layers.0.Aw.conv1.bias f4 [32]
0	0x3e18ae17	0.1491016
1	0xbcc8957f	-0.024485348
2	0x3dada400	0.08478546
3	0xbdb31eb7	-0.08746093
4	0xbc3a4e1e	-0.011371164
5	0x3dc8fa75	0.09813396
6	0xbcbe0e80	-0.023200274
7	0xbe593c95	-0.21214516
8	0x3e028a4c	0.12748069
9	0x3e003124	0.12518746
10	0x3d47fd05	0.048825283
11	0xbdb231ab	-0.0870088
12	0xbc1e1ff0	-0.009651169
13	0x3e4e767d	0.20162387
14	0xbdd68fd0	-0.10476649
15	0xbe23a9b0	-0.159827
16	0xbdff632f	-0.1247009
17	0xbd01f951	-0.031731907
18	0xbcfc5c10	-0.030805618
19	0xbde3acb0	-0.11116922
20	0xbcdcd685	-0.02695776
21	0xbd20628e	-0.03915649
22	0xbe4fc35c	-0.20289367
23	0xbe436154	-0.19080096
24	0xbe05e67d	-0.13076206
25	0x3e37efcf	0.17962573
26	0x3dc5d735	0.09660188
27	0xbe36bd28	-0.17845595
28	0x3db48d14	0.08815971
29	0xbc9d1e79	-0.01917957
30	0x3e80a16e	0.2512316
31	0xbc87992a	-0.016552527

layers.0.Aw.conv2.weight f4 [16, 32, 3]
0	0xbdbb0c6c	-0.09133229
1	0xbdb125d6	-0.08649795
2	0xbdbf73a0	-0.093482256
3	0x3d2fb133	0.0428936
4	0x3cda499a	0.026646424
5	0x3d0af914	0.033928946
6	0xbd7eb876	-0.062187634
7	0xbdef61ad	-0.11688552
8	0xbd947562	-0.072489515
9	0x3e409335	0.18806155
10	0x3db18313	0.086675785
11	0x3d0460ad	0.03231876
12	0xbdb8717b	-0.0900602
13	0x3c244585	0.01002634
14	0x3c1f5587	0.009724981
15	0x3cc1f389	0.023675697
16	0xbe060661	-0.13088371
17	0xbd8feaf6	-0.07027237
18	0xbcb28f36	-0.021796804
19	0xbbcf09d1	-0.006318309
20	0x3c75389f	0.014967113
21	0x3ac6f102	0.0015178027
22	0x3ddf3c0e	0.109001264
23	0xbce6496f	-0.028111188
24	0xbdea53d8	-0.11441773
25	0xbc6814ff	-0.014165162
26	0xbe041218	-0.12897527
27	0x3c952210	0.018204719
28	0xbdb198e0	-0.08671737
29	0xbc217591	-0.00985469
30	0xbdf672a1	-0.120335825
31	0x3660062f	3.33822e-06
32	0xbdb967a1	-0.09052969
33	0x3e1f3cb7	0.15550505
34	0x3e1ffd8b	0.15624063
35	0x3e07bad4	0.13254863
36	0xbd91d899	-0.07121391
37	0xbd845335	-0.06461183
38	0x3d2df9ba	0.042474486
39	0xbddcb7e3	-0.10777261
40	0x3c855599	0.016276168
41	0xbb7b3a90	-0.0038334467
42	0x3e094ef3	0.13409023
43	0x3ce0d962	0.027447406
44	0x3d626871	0.055275384
45	0x3da8a7e6	0.08235149
46	0x3dd1cb26	0.102438256
47	0x3cec8d22	0.028875891
48	0x3d482a64	0.04886855
49	0x3d5a2177	0.05325457
50	0x3dd2b2e4	0.10288027
51	0x3e9bb140	0.3040867
52	0x3d377e55	0.044798214
53	0x3daed563	0.08536794
54	0xbc235fce	-0.009971572
55	0xba2dccbe	-0.0006629935
56	0x3e0d0c18	0.13774145
57	0x3e8e1626	0.27751273
58	0x3ebec0b1	0.37256387
59	0x3e6341b9	0.2219304
60	0x3de90269	0.11377413
61	0x3dae5a28	0.0851329
62	0x3da48696	0.08033483
63	0x3d6ca4f1	0.057774488
64	0x3da5f78e	0.08103858
65	0xbda991bc	-0.0827975
66	0x3ca440e5	0.020050475
67	0x3d14fd2f	0.036374267
68	0x3d924ac9	0.071431704
69	0x3db4943f	0.08817338
70	0x3e7346b0	0.23757434
71	0x3dfb5b89	0.12273318
72	0xbc7b8b8a	-0.015353093
73	0x3de251c3	0.11050751
74	0x3e0df3ac	0.13862485
75	0x3d325f81	0.04354811
76	0xbdba0007	-0.090820365
77	0xbd662ae3	-0.056193244
78	0xbda0bbea	-0.07848342
79	0xbd1bada4	-0.038007393
80	0xbda155fc	-0.07877728
81	0xbbad59fa	-0.005290267
82	0x3d0fd59c	0.035115823
83	0x3e15a006	0.14611825
84	0x3bc9c146	0.006157073
85	0xbd9470a8	-0.0724805
86	0x3c5d5aff	0.013510465
87	0xbdb7854f	-0.089609735
88	0xbe23eac9	-0.16007532
89	0x3cd0e122	0.025497977
90	0xbe1959db	-0.14975683
91	0x3d202c56	0.039104782
92	0xbdf95828	-0.121750176
93	0xbdcea6a7	-0.1009038
94	0x3cae114f	0.021248488
95	0x3ceede71	0.029158803
96	0x3d8a8272	0.06763162
97	0xbd085905	-0.03328802
98	0xbda73472	-0.081643
99	0x3daa0189	0.08301074
100	0xbd497d62	-0.04919184
101	0x3d491a89	0.04909757
102	0xbdc280f4	-0.09497252
103	0x3d093ece	0.03350716
104	0x3c236874	0.009973634
105	0x3be21e85	0.006900611
106	0xbc04a228	-0.008095302
107	0xbd4feaa6	-0.050760888
108	0x3bfd9abc	0.007739393
109	0xbdf60ef1	-0.120145686
110	0x3d1d5998	0.03841552
111	0x3b64fc2f	0.0034940352
112	0x3c907ce2	0.017637674
113	0xbdeac20f	-0.11462795
114	0x3c4f1173	0.012638438
115	0xbd26e9ba	-0.040750243
116	0x3baf83f6	0.005356307
117	0x3d839314	0.06424537
118	0xbd2c38ec	-0.042046472
119	0x3c094f12	0.008380668
120	0xbd7ac070	-0.06121868
121	0x3dab1f22	0.083555475
122	0xbd95861f	-0.07300972
123	0xbd41d948	-0.047326356
124	0xbdcbd403	-0.099525474
125	0xbdaa5ceb	-0.08318504
126	0x3d7dfa3e	0.062006228
127	0xbde9335a	-0.11386748
128	0xbdff4043	-0.12463429
129	0x3dea7088	0.11447245
130	0x3d8dbeda	0.06921168
131	0x3dd9a5bd	0.10627315
132	0x3db205a9	0.08692486
133	0xbd21613e	-0.039399378
134	0xbd04eb6d	-0.032451082
135	0x3bbd2b30	0.0057729706
136	0xbc69b111	-0.014263407
137	0xbdd9a5be	-0.10627316
138	0xbd8b2a78	-0.0679521
139	0x3dcbef39	0.099577375
140	0x3c96e86f	0.01842138
141	0x39812f18	0.00024639885
142	0x3d884fd5	0.06655852
143	0x3cca0a53	0.024663126
144	0xbc9b5cfa	-0.018965233
145	0xbd756ea1	-0.059919957
146	0xbd7ba466	-0.06143608
147	0x3d643160	0.05571115
148	0xbdce93df	-0.10086798
149	0x3d31653a	0.043309428
150	0x3d267f9b	0.040649038
151	0x3de3d3a1	0.111243494
152	0x3cdaeb03	0.02672339
153	0x3e05088a	0.12991539
154	0x3e6ab13e	0.22919175
155	0x3df7e73b	0.121046506
156	0xbd2f84cf	-0.042851266
157	0xbcd0ea38	-0.02550231
158	0x3dc15f52	0.09442009
159	0x3dc6325c	0.09677574
160	0xbb79090c	-0.0037999777
161	0x3ab4d808	0.0013797292
162	0x3dcbf4a4	0.09958771
163	0xbd3d998c	-0.04628901
164	0x3db2dbe8	0.0873335
165	0x3e122717	0.14272724
166	0xbc9fedcf	-0.019522576
167	0xbd9c5b3e	-0.076345906
168	0x3dec17ca	0.11527975
169	0x3ce944fb	0.028475275
170	0xbb4227cd	-0.0029625774
171	0x3d296b72	0.041362233
172	0x3d81f1c4	0.06344941
173	0xbcdefb4c	-0.027219437
174	0x3d6f905a	0.058487274
175	0x3d851848	0.06498772
176	0x3c3a1e5c	0.011359777
177	0x3dfaf027	0.12252837
178	0x3d61cc51	0.055126492
179	0x3c87eddc	0.016592912
180	0x3db188a4	0.0866864
181	0xbcd79012	-0.026313815
182	0xbdd6c850	-0.10487425
183	0xbdfe44bf	-0.12415456
184	0xbd323c0d	-0.0435143
185	0x3d5caa2b	0.053873222
186	0xbd7b58cc	-0.06136398
187	0xbd49a85c	-0.049232826
188	0xbb3e9657	-0.0029081309
189	0xbd2ec755	-0.042670567
190	0xbda3b114	-0.07992759
191	0x3d257e86	0.040403865
192	0xbd46610c	-0.048432395
193	0xbdf2ee11	-0.11861814
194	0xbd51aef6	-0.051192246
195	0x3ce05c49	0.027387755
196	0xbd0f0e4f	-0.034925755
197	0x3db3d560	0.087809324
198	0xbddce472	-0.1078576
199	0xbdef0fec	-0.11672959
200	0xbd9eb6bf	-0.077497
201	0x3c3fe529	0.011712351
202	0xbcbbbefa	-0.022918213
203	0xbc4d8273	-0.012543309
204	0xbc914701	-0.017734053
205	0xbdc06481	-0.093941696
206	0xbdfdebb0	-0.123984694
207	0x3ac79611	0.0015227218
208	0x3c6f154c	0.01459248
209	0xbc90e7b5	-0.017688612
210	0xbd3423d0	-0.043979466
211	0x3c19e6c2	0.009393396
212	0x3d1e5885	0.038658638
213	0xbd13bc4b	-0.036068242
214	0x3d65aef9	0.05607507
215	0x3e1478be	0.14499184
216	0xbd26577d	-0.04061078
217	0xbd99e63e	-0.07514618
218	0xba989d24	-0.0011643511
219	0xbd931848	-0.07182366
220	0xbe0538fa	-0.13010016
221	0xbabf4b58	-0.0014594598
222	0x3d2c3d67	0.042050745
223	0xbde20695	-0.11036412
224	0x3c95b280	0.018273592
225	0x3b5ab3d3	0.0033371344
226	0xbd9732a2	-0.07382704
227	0xbba1d9e3	-0.004939304
228	0xbd8b80a2	-0.06811644
229	0xbdb43905	-0.08799938
230	0xbd4d9fb0	-0.050201118
231	0xbd59ef6b	-0.053206842
232	0xbc5d3764	-0.013501976
233	0xbdbf5bd3	-0.09343686
234	0x3a904d64	0.0011009392
235	0x3d2185b1	0.03943414
236	0xbd033958	-0.03203711
237	0x3a62c2aa	0.0008650223
238	0x3e0f8dfc	0.14019006
239	0x3ded9aed	0.116018154
240	0xbbdbc7c7	-0.006707165
241	0xbcb17112	-0.021660361
242	0x3d1baa02	0.03800393
243	0x3d0635e5	0.03276624
244	0xbe12a671	-0.14321305
245	0x3d26777e	0.0406413
246	0x3d1f876e	0.038947515
247	0x3dcdee4e	0.10055219
248	0xbd053f57	-0.03253111
249	0xbdb6e8da	-0.08931132
250	0xbd8eafa8	-0.069670975
251	0xbdf564cc	-0.11982116
252	0x3e003d13	0.12523298
253	0xbce74592	-0.028231416
254	0x3df4513f	0.11929559
255	0x3ce7aa8b	0.028279563

layers.0.Aw.conv2.bias f4 [16]
0	0xbe0f3647	-0.13985549
1	0xbd5c7698	-0.053824037
2	0xbda75d35	-0.08172075
3	0x3d60b65e	0.05486142
4	0xbcd6c865	-0.026218602
5	0xbdb7f4cd	-0.08982239
6	0xbd555c5a	-0.052090026
7	0xbc8cccb6	-0.017187458
8	0x3c3e79b4	0.011625696
9	0xbc84b699	-0.01620035
10	0xbdccc2e3	-0.09998109
11	0xbdac675d	-0.084181525
12	0xbc2cb7be	-0.010541854
13	0x3daeefed	0.08541856
14	0xbe3323c9	-0.1749412
15	0xbd0687a3	-0.032844197

layers.0.Aw.conv3.weight f4 [1, 16, 3]
0	0xbd768eaa	-0.06019465
1	0x3cbf3020	0.023338377
2	0xbd320707	-0.043463733
3	0x3c7005e5	0.014649843
4	0xbd8a2710	-0.06745732
5	0x3e17e47a	0.1483325
6	0xbe437294	-0.19086677
7	0xbcbec4eb	-0.023287257
8	0x3d372d0c	0.044720694
9	0x3d8de911	0.069292195
10	0x3d9b2880	0.07576084
11	0xbd808630	-0.06275594
12	0x3d800322	0.062505975
13	0xbda69bce	-0.08135186
14	0x3bd83584	0.0065981764
15	0xbe6615c5	-0.22469242
16	0x3b090705	0.0020908725
17	0xbd66ca37	-0.05634519
18	0x3d0bbaaa	0.034113564
19	0xbd9a253f	-0.075266354
20	0x3d7e032a	0.062014736
21	0xbd039d66	-0.03213253
22	0xbd033ce7	-0.032040503
23	0xbd85d2b7	-0.06534331
24	0x3de6a622	0.11262156
25	0x3d067fd1	0.03283674
26	0xbe0dd50b	-0.138508
27	0x3d496db9	0.049176905
28	0xbc391171	-0.011295662
29	0x3dbd7ce8	0.092523396
30	0xbe2c769f	-0.16842125
31	0xbc8649f5	-0.016392687
32	0xbaed6a5f	-0.0018113366
33	0x3cb61e39	0.022231208
34	0xbe026fc1	-0.12737943
35	0x3e0e68ee	0.13907215
36	0x3d6187ec	0.055061266
37	0xbe26d426	-0.16291866
38	0x3df120f4	0.117738634
39	0x3d915063	0.07095411
40	0x3bb3ef9e	0.005491211
41	0x3dc29da1	0.095027216
42	0x3e0143f9	0.12623586
43	0xbb170c95	-0.002304827
44	0x3dff094f	0.12452947
45	0x3dbd820a	0.092533186
46	0x3e32f7b0	0.17477298
47	0xbd2a6ecd	-0.041609574

layers.0.Ah.conv1.weight f4 [32, 1, 5]
0	0xbe1254b1	-0.1429012
1	0x3eac003e	0.33593935
2	0x3e43ba72	0.19114092
3	0xbdf81b40	-0.121145725
4	0x3dc5d59c	0.096598834
5	0xbdfd1067	-0.12356644
6	0x3de45abc	0.11150119
7	0x3e200e0d	0.1563036
8	0xbe8859b2	-0.26630932
9	0x3ed19e5c	0.4094113
10	0x3de5983c	0.11210677
11	0xbeb47efa	-0.35253125
12	0xbebda9e3	-0.37043676
13	0xbe46eaa0	-0.1942544
14	0xbdcc2b86	-0.09969239
15	0x3e59dff4	0.21276838
16	0x3eb8e153	0.3610941
17	0x3e74cc77	0.23906122
18	0xbe93e52b	-0.2888578
19	0xbdb20253	-0.086918496
20	0xbe6e017d	-0.23242755
21	0xbe9f0f92	-0.31066567
22	0xbec96bce	-0.3934006
23	0x3ecacb01	0.39608005
24	0x3e37ed5e	0.17961642
25	0x3dec1696	0.115277454
26	0xbe8fb607	-0.28068563
27	0x3c0124fe	0.007882355
28	0xbe30374c	-0.17208594
29	0xbeb9e6c5	-0.36308876
30	0x3e2454f1	0.16048028
31	0x3b75f1ce	0.003752816
32	0xbe6c10c1	-0.23053266
33	0x3ebbc869	0.36676338
34	0x3d9d8429	0.07691223
35	0xbeb1f25c	-0.34755218
36	0xbd763e0a	-0.06011776
37	0xbeacb6f9	-0.33733347
38	0x3dd704cb	0.10498961
39	0xbea05851	-0.3131738
40	0xbdbb280d	-0.091384985
41	0xbe7d1929	-0.24716629
42	0xbd573e32	-0.05254955
43	0xbe3c4b51	-0.18388106
44	0x3c96f075	0.018425206
45	0x3ee34bae	0.44393677
46	0x3dfce4bc	0.12348315
47	0x3e5a9064	0.21344143
48	0x3ec98e7c	0.3936652
49	0x3e2e0d8e	0.16997358
50	0x3e81775c	0.25286376
51	0x3e6373b7	0.2221211
52	0x3d150c2d	0.036388565
53	0xbdaf7a04	-0.085681945
54	0x3c878d06	0.016546737
55	0xbeec90ba	-0.46204168
56	0xbdb6f751	-0.089338906
57	0x3e72efa0	0.23724222
58	0xbec70c01	-0.38876346
59	0xbe6bae54	-0.2301572
60	0x3ef0b3fc	0.47012317
61	0x3edf0d94	0.43565047
62	0x3ebd0255	0.36915842
63	0x3dfc353c	0.12314841
64	0x3e611e4e	0.21984217
65	0xbe95da88	-0.2926829
66	0xbdf20c6d	-0.11818776
67	0x3d79d0c9	0.06099013
68	0xbeedf285	-0.4647409
69	0xbe85f35b	-0.26162228
70	0xbdc817e6	-0.09770183
71	0xbe9e1ff2	-0.30883747
72	0xbe0f0982	-0.1396847
73	0xbe4e1d57	-0.2012838
74	0x3e9e6131	0.30933526
75	0xbe922d01	-0.2854996
76	0xbd3e2613	-0.04642303
77	0xbed17380	-0.40908432
78	0x3cf62e5c	0.030051403
79	0x3e91587a	0.28387815
80	0x3e6a0177	0.22852121
81	0x3e1ce05c	0.15319961
82	0x3e1a254b	0.15053289
83	0xbddd6393	-0.10810008
84	0xbdaa1904	-0.083055526
85	0x3ea84161	0.3286238
86	0xbf019494	-0.5061734
87	0x3edc4ad9	0.43025854
88	0x3de02d20	0.10946107
89	0x3c996acf	0.018727688
90	0x3eef86e3	0.46782598
91	0x3dbca401	0.09210969
92	0x3f022716	0.5084089
93	0x3ea03f4f	0.312983
94	0xbe7155de	-0.23567912
95	0x3ecfb958	0.40571094
96	0xbdef0f72	-0.11672868
97	0xbefe083c	-0.49615657
98	0x3e8ea50a	0.2786029
99	0x3e8713d5	0.26382318
100	0x3ec9c759	0.39409903
101	0x3e8cc119	0.27491072
102	0x3e2872b1	0.16450001
103	0x3d09d0ef	0.03364652
104	0xbda17bf9	-0.07884974
105	0xbeb66797	-0.35625908
106	0xbeb6edde	-0.35728353
107	0x3e9349b9	0.28767183
108	0x3e0710e1	0.13190033
109	0xbe21d345	-0.15803249
110	0xbe41d80a	-0.18930069
111	0xbe76ed23	-0.24113898
112	0x3e3910df	0.18072842
113	0x3e892164	0.26783288
114	0x3d5009d6	0.05079063
115	0x3e4c5821	0.19955494
116	0xbca3bb2f	-0.019986717
117	0xbe24024d	-0.16016503
118	0xbe108914	-0.14114791
119	0xbb8fa3ff	-0.0043835635
120	0xbe5d2f54	-0.21600085
121	0xbee9fa5d	-0.45698825
122	0x3e102f05	0.14080437
123	0xbd802bd8	-0.062583625
124	0x3ea2e88d	0.31818047
125	0x3e80d066	0.25158995
126	0xbd525db9	-0.051358912
127	0xbe00cc83	-0.12578015
128	0xbe41923d	-0.18903442
129	0x3eacbec9	0.33739308
130	0x3ec77a82	0.38960654
131	0xbd976e73	-0.073941134
132	0x3ccc0aa0	0.02490741
133	0x3edad475	0.42740217
134	0xbd81394a	-0.06309755
135	0x3e924ec2	0.28575712
136	0x3e77b9e9	0.24192013
137	0x3e95cfe3	0.29260167
138	0xbca97c80	-0.020689249
139	0xbef09666	-0.46989745
140	0x3d92ba97	0.071644954
141	0x3e592af1	0.21207787
142	0x3c827b13	0.015927827
143	0xbcbfe654	-0.023425259
144	0xbe858bae	-0.2608313
145	0x3c9f998c	0.019482397
146	0x3e7a9fe1	0.24475051
147	0xbdbb3777	-0.091414385
148	0xbe96bfd9	-0.29443243
149	0x3e8f1cea	0.27951747
150	0xbe86026a	-0.26173717
151	0x3e80d2ca	0.2516082
152	0xbec00d4b	-0.37510142
153	0xbed01046	-0.40637416
154	0x3e6ebca0	0.23314142
155	0xbe2f8b3a	-0.17142954
156	0xbdc3c1a4	-0.095584184
157	0xbe140f2d	-0.14458914
158	0x3eeba867	0.46026918
159	0x3e5a62bd	0.21326728

layers.0.Ah.conv1.bias f4 [32]
0	0x3cf74509	0.030184286
1	0x3e5d2649	0.21596636
2	0x3eb59b4c	0.35470045
3	0x3eeac029	0.45849732
4	0x3e842948	0.25812745
5	0xbee24d04	-0.44199383
6	0xbb16627d	-0.0022946887
7	0xbd88ef5e	-0.06686281
8	0x3e64e6b7	0.22353636
9	0xbeafa32c	-0.34304178
10	0x3dcf04c5	0.101083316
11	0x3eb74047	0.35791227
12	0x3eb1c16d	0.34717885
13	0xbeabe528	-0.3357327
14	0x3eea1ad9	0.45723608
15	0xbeb0cc4d	-0.3453087
16	0x3e85129b	0.25990757
17	0xbe889880	-0.26678848
18	0xbea60ced	-0.32431737
19	0xbe7bc92e	-0.24588463
20	0x3eab94eb	0.33512053
21	0x3ef71630	0.48259115
22	0xbea2ae76	-0.31773728
23	0x3ebc8aa7	0.36824533
24	0x3e88cbb0	0.267179
25	0xbe6a87e8	-0.22903407
26	0x3ebca425	0.36843982
27	0x3e45da8e	0.19321653
28	0xbefc9ae7	-0.4933693
29	0x3efdd2c8	0.49574876
30	0x3e1867e9	0.14883389
31	0x3ee6e0a5	0.45093265

layers.0.Ah.conv2.weight f4 [16, 32, 3]
0	0x3d6284f5	0.05530258
1	0x3d747d8a	0.059690036
2	0x3b06a0d4	0.0020542638
3	0x3dc3a015	0.095520176
4	0x3db5ec16	0.088829204
5	0x3c9b2c99	0.018942164
6	0x3dfa8668	0.12232667
7	0x3d201ddd	0.03909098
8	0x3de0ba18	0.109729946
9	0xbc992b1e	-0.018697318
10	0x3d5cf492	0.053944178
11	0x3dcbcbaf	0.09950959
12	0x3ce7cb5b	0.02829521
13	0x3cfad158	0.030617401
14	0xbb533425	-0.0032227125
15	0x3a909df3	0.0011033401
16	0xbde48980	-0.111590385
17	0xbda495bf	-0.08036374
18	0x3cad28ac	0.021137558
19	0x3d587ba6	0.052852295
20	0xbc9f4ebc	-0.019446723
21	0xbdc7c50f	-0.09754383
22	0xbdabc5ec	-0.0838736
23	0xbc13d6e1	-0.009023399
24	0x3e08a93b	0.13345806
25	0x3d666b5b	0.056254726
26	0x3dcc4d99	0.09975738
27	0xbe38b7de	-0.1803889
28	0xbda6ace8	-0.08138448
29	0xbd6aa9a0	-0.057290673
30	0x3e005e54	0.12535983
31	0x3db087da	0.08619662
32	0xbd0580a0	-0.03259337
33	0x3df879e3	0.12132623
34	0x3cd6ed19	0.026236104
35	0x3e1c9c70	0.15294051
36	0x3de357f6	0.111007616
37	0xbc967066	-0.018364143
38	0x3d5182cd	0.051150132
39	0xbccfc0ff	-0.025360582
40	0xbce9fa64	-0.028561778
41	0xbca9fcee	-0.02075049
42	0x3de88d60	0.1135509
43	0x3ccaa200	0.02473545
44	0x3c220ec0	0.009891212
45	0xbd69e218	-0.057100385
46	0xbe0e0cd1	-0.13872077
47	0xbba865b3	-0.0051390766
48	0x3d8efbb9	0.06981606
49	0x3d770cde	0.060315005
50	0x3e12a04c	0.14318961
51	0xbc081e29	-0.008307972
52	0xbe0bf411	-0.13667323
53	0xbc1a0fd8	-0.0094031915
54	0xbe0d1170	-0.13776183
55	0xbdaffcd8	-0.08593148
56	0xbd16831c	-0.03674613
57	0xbe4f1806	-0.20224008
58	0xbde319d6	-0.11088912
59	0xbe324dbd	-0.17412467
60	0x3e182bfe	0.14860532
61	0xbc1172b9	-0.00887745
62	0x3ddf9140	0.10916376
63	0x3cd4c58f	0.02597311
64	0x3dd105f0	0.102062106
65	0x3d623748	0.0552285
66	0x3dd22ff3	0.10263052
67	0x3cd605a4	0.026125737
68	0x3dd3fbb0	0.1035074
69	0x3da877f8	0.08226007
70	0x3d8a2fd7	0.06747406
71	0x3bcd62e1	0.006267891
72	0x3e1a989f	0.15097283
73	0x38ae6954	8.3165854e-05
74	0x3e19d366	0.15022048
75	0xbdc12650	-0.09431136
76	0x3ca5e0d2	0.020248804
77	0xbde0667c	-0.10957047
78	0x3db73286	0.089451835
79	0x3de0d669	0.109783955
80	0x3d4d0fcc	0.050063893
81	0x3d519bcb	0.051173966
82	0x3de15ce4	0.110040456
83	0x3dffd181	0.124911316
84	0x3d0b550b	0.03401665
85	0xbd4017a1	-0.046897534
86	0xbda2e7a9	-0.07954342
87	0xbc5b22cc	-0.013374995
88	0x3d368ff9	0.044570897
89	0x3ca44492	0.020052228
90	0x3e19170e	0.14950201
91	0x3cd4636b	0.025926312
92	0x3d0fa36d	0.035067964
93	0x3b10d3e3	0.002209895
94	0x3cec2deb	0.02883049
95	0x3da0d051	0.07852233
96	0xbc2a7e46	-0.0104060825
97	0xbceee40d	-0.029161477
98	0x3c96f9b5	0.018429616
99	0xbd080d0b	-0.033215564
100	0xbc3171d5	-0.010830362
101	0xbd9cddbb	-0.07659479
102	0xbe100007	-0.1406251
103	0xbe2c96af	-0.16854356
104	0xbd0696f7	-0.032858815
105	0xbe2e2500	-0.17006302
106	0xbd9781ec	-0.073978275
107	0xbcdf9f4b	-0.027297636
108	0xbdfdfffd	-0.124023415
109	0xbe1925ed	-0.14955874
110	0xbdd9feb0	-0.10644281
111	0xbbdaa76c	-0.0066727903
112	0x3e14e740	0.1454134
113	0x3db15d91	0.086604245
114	0xbcc7707f	-0.024345635
115	0x3d98c021	0.07458521
116	0x3dda8df0	0.10671604
117	0xbd4f0f18	-0.050551504
118	0x3ca97f7a	0.020690668
119	0xbd40d855	-0.04708131
120	0xbe5479f1	-0.20749642
121	0xbded59f1	-0.115894206
122	0xbe4eac38	-0.20182884
123	0x3da44325	0.08020619
124	0x3dc5aeef	0.096525066
125	0x3df27080	0.11837864
126	0xbe0f13ca	-0.13972393
127	0xbe018243	-0.12647347
128	0xbca9a7ac	-0.020709835
129	0xbd68e4a3	-0.05685867
130	0xbe1d5c40	-0.15367222
131	0xbe074eda	-0.13213673
132	0xbdf1d1f6	-0.11807625
133	0xbbbef494	-0.005827496
134	0xbd80b591	-0.06284631
135	0x3d302d90	0.0430122
136	0x3da8b7ce	0.08238183
137	0x3d2464d4	0.04013522
138	0xbe71fcba	-0.23631564
139	0xbe76a32b	-0.24085681
140	0xbe4ec18c	-0.2019102
141	0x3be2b9e3	0.006919132
142	0x3b89e4aa	0.004208167
143	0x3d1efd6d	0.038815904
144	0xbd603da7	-0.054746296
145	0xbdca3532	-0.098734275
146	0xbda535fc	-0.08066937
147	0x3e72beb0	0.23705554
148	0x3e8251f5	0.25453153
149	0x3e5d2528	0.21596205
150	0x3ed1701c	0.40905845
151	0x3eaefaae	0.34175628
152	0x3ecdfddf	0.4023275
153	0x3dd08d25	0.10183171
154	0x3eb122a3	0.34596738
155	0x3ef9a349	0.4875739
156	0xbdde31dc	-0.10849354
157	0xbe24b736	-0.16085514
158	0xbdf18b2a	-0.117941216
159	0xbe33c320	-0.17554903
160	0xbe2b5706	-0.16732416
161	0xbd01bd37	-0.03167459
162	0x3e8539c5	0.26020637
163	0x3e758347	0.2397586
164	0x3e0739bb	0.13205616
165	0xbe0a3166	-0.13495407
166	0xbd939d4d	-0.07207737
167	0xbe54e68d	-0.20791073
168	0xbe4dbd5f	-0.2009177
169	0xbdef34e8	-0.11680013
170	0xbdf64788	-0.12025362
171	0x3c22b45e	0.009930698
172	0x3d137b1b	0.036006074
173	0xbd14a680	-0.0362916
174	0xbddf7020	-0.10910058
175	0xbe053260	-0.13007498
176	0xbd75807e	-0.059936993
177	0xbd9f6bef	-0.077842586
178	0xbdbd6b92	-0.09249033
179	0xbe4d63d1	-0.20057608
180	0x3da145b6	0.078746244
181	0x3dab1d41	0.08355189
182	0x3da2f88a	0.07957561
183	0xbe0e7ac5	-0.1391402
184	0xbd8eed8a	-0.06978901
185	0xbdb91629	-0.0903743
186	0xbde4130f	-0.11136448
187	0xbe06239e	-0.13099524
188	0xbe4b42dc	-0.19849724
189	0xbe38bd64	-0.18040997
190	0xbdc28cf1	-0.09499539
191	0xbe183cb6	-0.1486691
192	0xbc4aee31	-0.012385891
193	0xbca9c0b0	-0.020721763
194	0xbceb7f28	-0.028747156
195	0xbce3accf	-0.027792362
196	0xbcc00ff4	-0.023445107
197	0xbe131822	-0.14364675
198	0xbe0baa2b	-0.13639133
199	0xbe173f52	-0.14770249
200	0xbe0eebb3	-0.139571
201	0xbd550431	-0.05200595
202	0xbe091f36	-0.13390812
203	0xbd0d9398	-0.034564584
204	0xbe027069	-0.12738194
205	0xbe1c6794	-0.15273887
206	0xbbeb21ec	-0.0071756747
207	0x3d71fb01	0.059077267
208	0x3dd0038d	0.10156927
209	0x3d947456	0.07248752
210	0xbd9e787d	-0.07737825
211	0xbde39d9c	-0.11114046
212	0xbdde5844	-0.10856679
213	0x3de35d64	0.11101797
214	0xbcca8e92	-0.024726186
215	0x3e172aa1	0.14762355
216	0xbda721c6	-0.08160739
217	0xbc7b3f81	-0.015334965
218	0x3d0a508d	0.033768225
219	0x3cbe1ea0	0.023207963
220	0xbb9d04b7	-0.004791822
221	0x3da6c043	0.0814214
222	0xbdcf3349	-0.10117204
223	0xbe1aa8f8	-0.15103519
224	0x3c7a5a89	0.015280374
225	0x3ce717c4	0.028209575
226	0xbdf0c3f9	-0.11756129
227	0x3c6b8c4c	0.014376711
228	0xbe016415	-0.12635835
229	0xbcce0419	-0.025148438
230	0xbc53d810	-0.012929931
231	0x3cff12c7	0.031136883
232	0x3cd7333c	0.026269548
233	0x3d9dee30	0.07711446
234	0x3d0bd9c2	0.034143217
235	0xbc8b3b70	-0.016996115
236	0xbd3cd0c1	-0.04609752
237	0x3d95f1eb	0.07321533
238	0x3dfea9da	0.1243474
239	0x3db1183a	0.08647199
240	0xbde98351	-0.11402
241	0xbe081bf8	-0.13291919
242	0xbe16614a	-0.1468555
243	0x3cb4f115	0.022087613
244	0x3e36a779	0.17837323
245	0x3e27aa36	0.16373524
246	0xbd1f7199	-0.038926695
247	0xbca5f1ee	-0.020256963
248	0x3db38040	0.08764696
249	0x3e1694c7	0.14705192
250	0x3e35e804	0.17764288
251	0x3e5082eb	0.20362441
252	0xbdb84b36	-0.0899872
253	0xbe026cc8	-0.12736809
254	0xbdb034ec	-0.08603844
255	0xbc1d6144	-0.009605709

layers.0.Ah.conv2.bias f4 [16]
0	0x3dc4998e	0.09599601
1	0xbd21396f	-0.039361414
2	0xbdfb9af2	-0.12285413
3	0xbd474dc7	-0.04865816
4	0xbe03af4b	-0.12859838
5	0x3e01e022	0.12683156
6	0x3dd27d2b	0.1027778
7	0x3d6efa66	0.058344267
8	0xbe4bfde9	-0.19921078
9	0xbd77c77d	-0.06049298
10	0xbcdc10ef	-0.026863543
11	0x3d2e2c54	0.042522743
12	0x3c9485bd	0.018130178
13	0x3d8679cd	0.065662004
14	0x3e216517	0.15761219
15	0x3d10ba3d	0.03533386

layers.0.Ah.conv3.weight f4 [1, 16, 3]
0	0xbbbb4d97	-0.0057160365
1	0xbe24074c	-0.16018409
2	0xbd96265b	-0.073315345
3	0x3c431a29	0.011908093
4	0xbdc69638	-0.09696621
5	0xbe1f5357	-0.15559135
6	0x3dd9aa42	0.10628177
7	0x3c00873a	0.0078447405
8	0x3e27955d	0.16365571
9	0xbb44857a	-0.0029986785
10	0xbd8a3955	-0.067492165
11	0xbda9cb79	-0.082907625
12	0x3dfb04f8	0.12256807
13	0x3e121901	0.1426735
14	0x3e054d3b	0.13017742
15	0x3cb4ba78	0.022061571
16	0x3c85f5cb	0.016352555
17	0xbe5e1fc6	-0.21691808
18	0xbdd5f8f3	-0.10447874
19	0xbe0e0b58	-0.13871515
20	0xbe1b6524	-0.15175301
21	0x3cf76e6d	0.030204022
22	0xbd87d877	-0.06633084
23	0xbd50a643	-0.05093981
24	0xbe30f2cf	-0.17280124
25	0xbda5ed5e	-0.08101915
26	0x3d050272	0.032473035
27	0x3e3e90e2	0.18609956
28	0x3e14d98b	0.14536111
29	0x3e0b2904	0.13589865
30	0x3cc384ae	0.023866978
31	0xbe2f8844	-0.17141825
32	0xbe557fb6	-0.20849499
33	0xbd847ebb	-0.064694844
34	0xbcbff598	-0.023432538
35	0xbdd15b41	-0.102224834
36	0x3d829f40	0.06378031
37	0xbe09e787	-0.13467227
38	0x3cbd9891	0.023144038
39	0xbd307815	-0.04308327
40	0xbe0d96f0	-0.1382711
41	0xbda3cd04	-0.07998088
42	0xbe249ffc	-0.16076654
43	0xbd659a06	-0.05605509
44	0xbe7f28d8	-0.24917924
45	0xbd8e613b	-0.06952139
46	0xbc0c7400	-0.008572578
47	0x3cc1da72	0.023663733

layers.1.Aw.conv1.weight f4 [32, 1, 5]
0	0xbedfa788	-0.43682504
1	0xbe89a591	-0.2688413
2	0xbec849f8	-0.39118934
3	0xbd769bb4	-0.060207084
4	0xbe74465c	-0.23854965
5	0xbe30fc49	-0.17283739
6	0xbf008cec	-0.5021503
7	0x3e1a9963	0.15097575
8	0x3e663bd2	0.22483757
9	0xbe3ce727	-0.18447553
10	0x3e752e09	0.23943342
11	0x3eb93fb7	0.36181423
12	0xbdd042db	-0.10169002
13	0xbe5d5003	-0.21612553
14	0x3ed30023	0.41211042
15	0x3f0ff3f8	0.5623164
16	0x3e4b15e4	0.1983257
17	0x3ddc8509	0.10767562
18	0x3e95dc55	0.29269662
19	0x3f19918b	0.59987706
20	0xbe5972d7	-0.21235214
21	0xbe736010	-0.23767114
22	0x3d1c765a	0.038198806
23	0x3ee2542b	0.4420484
24	0xbec22b10	-0.3792348
25	0x3e34f7b7	0.1767262
26	0x3d5a6765	0.05332126
27	0x3e577090	0.21039033
28	0xbda79b51	-0.08183921
29	0x3dd6bd93	0.10485377
30	0xbe4fc25b	-0.20288984
31	0x3f16f5ef	0.58969015
32	0x3e98b19a	0.29823
33	0xbe3ebf1b	-0.18627588
34	0xbe2798b9	-0.16366853
35	0x3ed0f06a	0.4080842
36	0x3e5beaa3	0.21476226
37	0xbdfd559a	-0.12369843
38	0x3f1b1be2	0.6058942
39	0x3dff47ef	0.12464892
40	0x3e9f317c	0.3109244
41	0x3e0fd50a	0.14046112
42	0xbe3d38f5	-0.18478759
43	0x3d69cb8b	0.05707888
44	0xbe990a1f	-0.29890534
45	0xbd627ede	-0.05529677
46	0xbe43e31b	-0.19129603
47	0xbea86468	-0.32889104
48	0xbe9c377c	-0.3051108
49	0xbc79f747	-0.015256709
50	0xbe0f97ef	-0.14022802
51	0x3c1e59ae	0.009664936
52	0xbe73946c	-0.23787087
53	0x3edcef9d	0.4315156
54	0x3f279f69	0.65477616
55	0x3e8fc1cb	0.2807754
56	0x3e91ef67	0.28502962
57	0x3e89c81d	0.26910487
58	0xbe755ac8	-0.23960412
59	0x3da48b81	0.08034421
60	0xbe5a1608	-0.21297467
61	0x3e949bab	0.29025015
62	0xbe7acf24	-0.2449308
63	0x3db91320	0.09036851
64	0x3e9dd37a	0.30825406
65	0xbe06fd49	-0.13182558
66	0x3f0380e6	0.5136856
67	0xbe5ec09c	-0.21753162
68	0x3eb2e7ef	0.34942576
69	0xbe467ac3	-0.19382767
70	0x3eb9c868	0.3628571
71	0x3ec18ad0	0.37801218
72	0x3d4cc2ad	0.049990345
73	0x3ee28175	0.44239393
74	0x3eb8fe67	0.36131594
75	0x3ed2e4d0	0.41190195
76	0xbda1e05c	-0.07904121
77	0xbd186b6c	-0.03721182
78	0x3df75746	0.12077193
79	0x3e200fe1	0.15631057
80	0xbe171be4	-0.14756733
81	0x3e68674e	0.22695658
82	0x3d91b05e	0.071137175
83	0xbe7ee1ea	-0.24890867
84	0xbe6948c8	-0.2278167
85	0x3db4411f	0.08801483
86	0xbe0bbba4	-0.13645798
87	0xbd6ddce0	-0.05807197
88	0xbd8d8644	-0.06910375
89	0x3e2a5b76	0.16636452
90	0x3ea759a9	0.32685593
91	0x3f0d4c20	0.5519428
92	0x3e906d76	0.28208512
93	0x3d1abd4c	0.037778184
94	0xbe4676c0	-0.19381237
95	0xbc096aab	-0.008387248
96	0x3eba0a49	0.36335972
97	0xbeca4393	-0.3950468
98	0x3e7e9593	0.24861746
99	0xbdac4134	-0.08410874
100	0x3e1f0358	0.1552862
101	0x3c95bf69	0.018279748
102	0x3ea91daf	0.3303046
103	0x3e33d80e	0.17562887
104	0x3ed08f27	0.40734217
105	0x3f3a0cd1	0.72675806
106	0x3ce2dcbd	0.027693147
107	0x3f0f4e81	0.5597916
108	0x3da40070	0.08007896
109	0x3e6dcf29	0.23223557
110	0x3d5e7e1d	0.05431949
111	0x3e21e736	0.15810856
112	0xbeb0fb73	-0.3456684
113	0x3e8ce061	0.27514938
114	0xbe76714f	-0.24066661
115	0xbea18edf	-0.31554314
116	0x3d6bf74d	0.05760889
117	0x3ef2b076	0.47400254
118	0x3e0c6f05	0.13714226
119	0x3e842b2c	0.25814188
120	0xbd067eed	-0.03283589
121	0xbe97108c	-0.29504812
122	0x3efc3f81	0.492672
123	0xbe0e7714	-0.13912612
124	0xbe403105	-0.187687
125	0xbe7618a6	-0.2403284
126	0xbe6e823c	-0.23291868
127	0xbc3851c6	-0.011249965
128	0xbd343907	-0.043999698
129	0x3dc62a65	0.09676055
130	0x3e7fd0bf	0.24981974
131	0x3e844a03	0.25837716
132	0xbf03c95a	-0.51479113
133	0x3df99d82	0.12188245
134	0xbf04f79c	-0.5194032
135	0xbe1eb9cd	-0.15500565
136	0x3cbdcc46	0.023168694
137	0xbecc39b4	-0.39887774
138	0x3e996286	0.2995798
139	0xbec4150f	-0.38297316
140	0xba4d7388	-0.0007837345
141	0x3ec96e81	0.3934212
142	0x3d5d9dad	0.05410545
143	0xbe32b88f	-0.17453216
144	0x3ec52de9	0.3851159
145	0x3d1b9a21	0.037988786
146	0xbeb3d53a	-0.35123616
147	0x3e8cb0ca	0.2747863
148	0xbebc0e6a	-0.36729747
149	0x3e54cc95	0.20781167
150	0xbf26e98a	-0.652001
151	0xbeb46985	-0.35236755
152	0xbdcf6db1	-0.10128344
153	0x3e71ccef	0.23613332
154	0xbeab5ee5	-0.33470836
155	0xbe45432a	-0.19263902
156	0xbdd7a6d7	-0.10529869
157	0x3ea01164	0.31263268
158	0xbe7f3cf6	-0.24925599
159	0x3e30c5fb	0.17263024

layers.1.Aw.conv1.bias f4 [32]
0	0xbe3ca5d1	-0.18422629
1	0xbea9a9d8	-0.33137393
2	0x3e926df1	0.28599504
3	0x3e9e21c0	0.30885124
4	0xbe0691f6	-0.13141617
5	0xbe7e25d4	-0.24819118
6	0x3e87863b	0.26469597
7	0x3e9d0d13	0.30674037
8	0xbe3ff9a4	-0.18747574
9	0xbd035b05	-0.032069225
10	0x3e3331d1	0.17499472
11	0xbe02b76a	-0.1276528
12	0xbdf9b3bd	-0.121924855
13	0xbe0e9962	-0.13925698
14	0x3e1b9fb1	0.15197636
15	0xbd0d46ba	-0.03449128
16	0xbe988c06	-0.2979433
17	0x3e69dfbb	0.22839253
18	0x3e967b2f	0.29390857
19	0xbdd4e2e1	-0.10394836
20	0x3dde2605	0.108470954
21	0x3e0e3c7b	0.13890259
22	0xbdb81c68	-0.08989793
23	0xbe9a30c5	-0.30115333
24	0x3e67dd20	0.22642946
25	0xbe5fa7d5	-0.21841367
26	0xbe69adff	-0.2282028
27	0xbd141ce1	-0.036160354
28	0x3ed35f9b	0.4128388
29	0xbd7e863d	-0.06213974
30	0xbe4715cf	-0.19441913
31	0x3e0c43f5	0.13697799

layers.1.Aw.conv2.weight f4 [16, 32, 3]
0	0xbdc3696f	-0.09541594
1	0xbe0b283d	-0.13589568
2	0xbc00b2d6	-0.007855138
3	0xbe210fd0	-0.15728688
4	0xbe190d04	-0.14946371
5	0xbd17de15	-0.03707703
6	0x3e311640	0.17293644
7	0x3d99a737	0.07502597
8	0x3defa03b	0.117004834
9	0x3dd01a3a	0.10161252
10	0x3d243e45	0.040098447
11	0x3db1dcf1	0.08684719
12	0xbc961b34	-0.018323518
13	0x3d8be57a	0.068308786
14	0x3da3d4ee	0.079995975
15	0xbdb1a23a	-0.086735204
16	0x3cd3512e	0.025795545
17	0xbe1a8f3d	-0.15093704
18	0x3e0f975a	0.1402258
19	0x3d4ff7fa	0.0507736
20	0x3e0642c3	0.13111405
21	0x3e2699ab	0.16269557
22	0x3dda0c12	0.106468335
23	0x3bbce127	0.005764145
24	0x3c4f046b	0.012635331
25	0xbcd7c10e	-0.026337173
26	0xbc5a64f4	-0.013329733
27	0xba190af7	-0.00058381207
28	0xbd61736e	-0.055041723
29	0x3d8fd301	0.07022668
30	0x3e014a50	0.12626004
31	0x3ba5ef74	0.0050639454
32	0x3dff83d0	0.12476313
33	0x3cd0a18a	0.025467653
34	0x3defafbe	0.11703442
35	0xbbfed54b	-0.0077768913
36	0xbd0e7883	-0.034782898
37	0xbde8438e	-0.1134101
38	0xbc8066c3	-0.015674
39	0xbd12f25e	-0.03587567
40	0x3db1ce83	0.08681967
41	0x3d785dd7	0.060636368
42	0x3e1433f8	0.1447295
43	0x3e3062d5	0.17225201
44	0x3e22a71d	0.15884061
45	0xbde67aa0	-0.112538576
46	0x3d998757	0.07496517
47	0x3ce063c2	0.027391318
48	0xbe1ca0c7	-0.15295707
49	0xbd9af095	-0.07565419
50	0xbdb8c915	-0.09022728
51	0x3dcf806b	0.10131916
52	0x3da7f54d	0.08201084
53	0xbc865078	-0.016395792
54	0x3e24e21f	0.16101883
55	0x3dd51049	0.10403497
56	0x3ba15510	0.0049234703
57	0xbd19e7bc	-0.037574515
58	0x3e01ab7e	0.12663075
59	0xbcf6f6c0	-0.030146956
60	0x3d2dfa28	0.042474896
61	0x3e1f0aa8	0.15531409
62	0x3e113200	0.1417923
63	0x3e0e6622	0.13906148
64	0x3cce71a3	0.02520067
65	0x3dffb73b	0.1248612
66	0x3aa9b2ed	0.0012947001
67	0xbd2f90d4	-0.04286273
68	0x3cceac87	0.025228752
69	0x3d933233	0.07187309
70	0x3d3619f6	0.044458352
71	0x3da4359b	0.08018037
72	0xbd1fc3e3	-0.03900517
73	0x3e08956c	0.1333825
74	0x3e1b36a2	0.1515756
75	0xbde1f23a	-0.11032529
76	0xbd15184f	-0.036400136
77	0xbd83b5d9	-0.06431169
78	0x3c194a06	0.0093560275
79	0xbba5c0b2	-0.0050583715
80	0xbd1c9a20	-0.038232923
81	0x3dc482b6	0.09595244
82	0x3ca3b004	0.019981392
83	0xbe340ec9	-0.17583765
84	0x3e266cd5	0.16252454
85	0x3e1f47c9	0.15554728
86	0x3dd77fea	0.105224445
87	0x3c8b1dea	0.016982038
88	0xbcc8769b	-0.024470618
89	0x3debeda2	0.11519934
90	0xbdc6f010	-0.09713757
91	0xbb6b210a	-0.0035877847
92	0xbe1728c7	-0.14761649
93	0x3ddda03b	0.10821577
94	0xbcebeb2e	-0.028798666
95	0xb94dc608	-0.00019624096
96	0x3df8b0c5	0.12143091
97	0x3d54bdbd	0.05193876
98	0xbc305d79	-0.010764473
99	0x3dbe6f0e	0.09298526
100	0x3ddf5454	0.10904756
101	0x3d5580c9	0.052124772
102	0xbc07f2d5	-0.008297642
103	0xbe1f18e4	-0.15536839
104	0xbe046f77	-0.12933145
105	0xbc29d0e9	-0.0103647495
106	0xbd77bbc4	-0.0604818
107	0xbd1e3f19	-0.038634393
108	0xbc88a084	-0.016678102
109	0x3b9e10ce	0.0048237806
110	0xbd9d3846	-0.07676749
111	0x3e1c1bda	0.15245
112	0x3d14e6ac	0.0363528
113	0x3dd7c38e	0.10535346
114	0xbd4c3618	-0.049856275
115	0xbdda7f6b	-0.10668834
116	0xbda4c649	-0.080456324
117	0xbe2c4716	-0.16823992
118	0xbe1d8d0c	-0.15385836
119	0x3b89796c	0.004195383
120	0x3e269435	0.16267474
121	0x3e2d92f0	0.16950583
122	0x3d77e153	0.06051762
123	0xbe28e00e	-0.1649172
124	0x3cb07707	0.021541132
125	0x3b843b56	0.0040353937
126	0xbe08027a	-0.13282195
127	0xbd5a943e	-0.05336403
128	0xbcd7b243	-0.026330119
129	0xbd3f1d34	-0.04665871
130	0x3c5710e8	0.013126589
131	0xbdb63092	-0.08895983
132	0xbc03b315	-0.008038302
133	0xbd31a761	-0.043372516
134	0x3d821226	0.06351118
135	0x3e0fc380	0.14039421
136	0x3d6ee8e9	0.05832759
137	0x3e0194e9	0.12654461
138	0xbdc8fb72	-0.098135844
139	0xbcf30dd2	-0.029669676
140	0xbb40e956	-0.0029435954
141	0xbcb7fab8	-0.02245842
142	0xbe061fb2	-0.13098028
143	0xbd3c7bed	-0.046016622
144	0x3daf989a	0.08574028
145	0x3df9d270	0.12198341
146	0x3e0b4955	0.13602193
147	0xbd14874c	-0.03626184
148	0xbd8f278a	-0.06989963
149	0x3c4e4c40	0.012591422
150	0xbc48bf59	-0.012252652
151	0xbe06f3ea	-0.13178983
152	0xbd7e12f2	-0.062029786
153	0x3cb714be	0.022348758
154	0x3a013f14	0.0004930359
155	0xbe013a15	-0.12619813
156	0xbdf5c76c	-0.12000927
157	0xbce2bfaa	-0.027679283
158	0xbc40d530	-0.011769578
159	0xbe104aec	-0.1409108
160	0xbd189486	-0.037251018
161	0xbd80fad6	-0.06297843
162	0xbc8fdc6c	-0.01756116
163	0xbde0fd67	-0.10985833
164	0xbdc64aa1	-0.09682203
165	0xbc4b7707	-0.012418515
166	0xbcd41eaa	-0.025893528
167	0xbd6cdccc	-0.057827756
168	0xbe1c8a12	-0.15287045
169	0xbe12866f	-0.14309095
170	0x3bb1617a	0.0054132314
171	0x3d659f0e	0.05605989
172	0x3e08e09a	0.13366929
173	0x3dd4075e	0.10352968
174	0x3e08bee2	0.13354066
175	0x3e2c0658	0.16799295
176	0x3cc5e525	0.024157116
177	0xbd2b1b07	-0.041773822
178	0xbcb68cd3	-0.022283947
179	0x3d40a0da	0.0470284
180	0x3c2c4612	0.010514753
181	0xbe363218	-0.17792547
182	0xbd7dd74d	-0.061972905
183	0xbcfcc913	-0.030857598
184	0xbd0b669b	-0.0340334
185	0x3c1f7ffb	0.009735103
186	0x3e02a64c	0.1275875
187	0x3dac1bf9	0.08403773
188	0x3e1046e5	0.14089544
189	0x3c4e0f51	0.012576894
190	0x3cc40b46	0.023931157
191	0xbd05902d	-0.0326082
192	0xbda83da6	-0.082148835
193	0xbb1277e1	-0.0022349285
194	0xbc2caf1a	-0.010539794
195	0x3c96ee1e	0.01842409
196	0xbdadb1fb	-0.08481213
197	0x3d1a4735	0.037665565
198	0xbbd3cfd2	-0.006463983
199	0x3dee08f8	0.116228044
200	0xbc0de472	-0.008660423
201	0x3df9b742	0.12193157
202	0x3d2b1e0d	0.041776706
203	0x3c802df1	0.015646907
204	0x3d544b77	0.05182978
205	0x3dc3f7c6	0.095687434
206	0x3ccc61cd	0.024948979
207	0xbd517def	-0.05114549
208	0xbb5a9f76	-0.0033359206
209	0x3d2efe6b	0.0427231
210	0xbd196d21	-0.03745759
211	0x3cf6d879	0.03013252
212	0xbd88ee55	-0.06686083
213	0xbd29e377	-0.041476693
214	0x3dc39923	0.09550693
215	0x3da3e4cf	0.08002626
216	0xba802e07	-0.0009779342
217	0xbcdedd60	-0.02720517
218	0xbd105bf8	-0.03524396
219	0xbbf0af8c	-0.0073451456
220	0xbcb0edd6	-0.021597784
221	0x3d3adc92	0.04562051
222	0x3d5a4fd5	0.05329879
223	0xbb9d5a9c	-0.0048020612
224	0x3da9b52d	0.0828651
225	0xbd1b0926	-0.03785052
226	0x3d9c61b2	0.076358214
227	0xbda11603	-0.078655265
228	0x3dcbbc61	0.0994804
229	0x3e107b5f	0.14109562
230	0xbd753478	-0.05986449
231	0xbcb03f18	-0.02151446
232	0x3ccb8523	0.024843758
233	0xbcaec9dd	-0.02133649
234	0xbc806112	-0.015671287
235	0x3e1251db	0.14289038
236	0xbd51fd4f	-0.051266965
237	0xbd8f9c7a	-0.070122674
238	0xbe063c0b	-0.13108842
239	0xbdf9d6a9	-0.12199146
240	0xbd71c211	-0.059022967
241	0x3c357702	0.011075737
242	0xbdfbde1d	-0.12298224
243	0xba2ebf6e	-0.00066660985
244	0xbb35355e	-0.0027650218
245	0x3de2a5e4	0.110667974
246	0x3dd691e5	0.10477046
247	0x3da42575	0.08014957
248	0x3e024027	0.12719785
249	0x3cc729c8	0.024311915
250	0xbd3f33fd	-0.04668044
251	0x3d914d95	0.07094876
252	0xbd4fb77a	-0.050712086
253	0xbd481145	-0.048844595
254	0x3c97bf3c	0.018523805
255	0x3c856960	0.016285598

layers.1.Aw.conv2.bias f4 [16]
0	0x3e27c3f5	0.16383345
1	0xbdd101e1	-0.102054365
2	0x3ddf547e	0.109047875
3	0xbd64dad1	-0.055872742
4	0xbbe91284	-0.007112803
5	0xbd0697bb	-0.032859545
6	0x3c9fdad8	0.019513533
7	0x3d14ff27	0.036376145
8	0xbdd926e5	-0.10603122
9	0x3c3af66f	0.011411293
10	0x3ceb5068	0.028724864
11	0xbd695c41	-0.056972746
12	0xbe0d7cc8	-0.13817132
13	0x3db891a2	0.09012152
14	0xbd69bfc3	-0.057067644
15	0xbce6cff2	-0.028175328

layers.1.Aw.conv3.weight f4 [1, 16, 3]
0	0x3dce86d5	0.10084311
1	0x3e3339e8	0.17502558
2	0x3e433bb6	0.19065747
3	0xbdbbc761	-0.09168888
4	0xbdbec7f0	-0.09315479
5	0xbdcdefbc	-0.10055491
6	0x3d89f415	0.06736008
7	0x3e1ae5a8	0.1512667
8	0xbd4d79c7	-0.050164964
9	0x3d8166e8	0.06318456
10	0xbd82fe0c	-0.06396112
11	0x3de4f1cd	0.11178932
12	0xbd51241f	-0.05105984
13	0xbdb08ad7	-0.086202316
14	0x3bae4544	0.0053183157
15	0x3dd8ba54	0.10582414
16	0xbd280fb6	-0.041030608
17	0x3dc059fa	0.09392162
18	0x3c86027b	0.016358605
19	0x3d33b4a0	0.04387343
20	0xbd3c7c72	-0.046017118
21	0x3d017dd2	0.031614132
22	0x3c70152d	0.014653486
23	0xbc1c2782	-0.009530904
24	0x3d90eac8	0.07076031
25	0xbdc1d9a4	-0.0946534
26	0xbd797ea5	-0.060911793
27	0xbe018966	-0.1265007
28	0xbd6849fd	-0.056711186
29	0x3dc8e32a	0.09808953
30	0x3d663a0c	0.0562077
31	0xbb3bcc91	-0.0028655867
32	0xbcb16c0d	-0.021657968
33	0xbdf0b93f	-0.11754083
34	0xbdd29dac	-0.1028398
35	0x3c65647e	0.01400101
36	0xbdcbd1ee	-0.0995215
37	0x3c3942e3	0.011307451
38	0xbe397b6f	-0.18113492
39	0x3db3c4c1	0.08777762
40	0x3d8cb445	0.06870321
41	0x3e423c62	0.18968347
42	0x3c83d786	0.01609398
43	0xbc4d192b	-0.012518208
44	0xbd3b5a11	-0.04574019
45	0xbdf41394	-0.11917797
46	0x3d7869bb	0.060647707
47	0x3d1dd011	0.038528506

layers.1.Ah.conv1.weight f4 [32, 1, 5]
0	0xbe60e033	-0.21960525
1	0x3e2bcfba	0.1677846
2	0xbe47c1dd	-0.19507547
3	0xbea684df	-0.32523248
4	0x3e4c7386	0.19965944
5	0xbe59de8b	-0.212763
6	0xbe97ac5e	-0.29623693
7	0x3ea57c81	0.3232155
8	0xbdc7aaee	-0.09749399
9	0xbe560435	-0.20900042
10	0x3cea1788	0.028575674
11	0xbedd75fc	-0.43254077
12	0xbe6cf8ea	-0.23141828
13	0xbe675bd4	-0.22593623
14	0xbf0cbc05	-0.54974395
15	0xbcd67d71	-0.026182862
16	0xbdaab1d6	-0.08334701
17	0xbf175e21	-0.59128004
18	0xbe9c3315	-0.30507722
19	0xbedd4a78	-0.43220878
20	0x3e8c935a	0.2745617
21	0xbec49716	-0.3839652
22	0xbe5a38cd	-0.2131073
23	0xbe9bc90a	-0.30426818
24	0xbed6c4a8	-0.41946912
25	0x3dd5c066	0.10437088
26	0xbf044dab	-0.5168101
27	0x3e41b1de	0.18915507
28	0xbe8573f3	-0.26065025
29	0xbdd41152	-0.10354866
30	0xbe641811	-0.22274806
31	0xbe358d97	-0.17729793
32	0xbedc1ca7	-0.4299061
33	0xbc275a98	-0.01021447
34	0x3e867e34	0.2626816
35	0x3e52760e	0.20552847
36	0x3ea01faa	0.31274158
37	0xbe8b4e43	-0.27208146
38	0x3c172f69	0.009227612
39	0xbe05bb64	-0.13059765
40	0xbe6cf095	-0.2313865
41	0xbddf83b4	-0.10913792
42	0xbd928668	-0.07154542
43	0x3d1efdd4	0.038816288
44	0x3d1d3c65	0.038387675
45	0xbdb9ef32	-0.09078826
46	0xbf0f7a71	-0.56046206
47	0xbf213787	-0.62975353
48	0x3e239175	0.15973456
49	0x3b46e880	0.0030350983
50	0x3d7887f2	0.060676523
51	0x3e102653	0.1407712
52	0x3e71d47a	0.2361621
53	0x3d4b4f65	0.049636263
54	0x3ecc76a3	0.39934263
55	0xbeb62c6b	-0.35580763
56	0xbe14ffb5	-0.1455067
57	0x3e909dfc	0.28245533
58	0xbdb5c103	-0.08874705
59	0x3ecc124c	0.3985771
60	0xbef8b0df	-0.48572442
61	0xbe95021e	-0.29103178
62	0xbeccd482	-0.4000588
63	0x3c8e0f40	0.017341256
64	0xbf12b6fc	-0.5731046
65	0x3ec73d64	0.38914025
66	0x3f069077	0.52564186
67	0x3ce3e0c3	0.027817136
68	0x3f0da9a3	0.5533697
69	0x3f023213	0.5085766
70	0xbd001fab	-0.0312802
71	0xbe75cecc	-0.24004668
72	0xbea01794	-0.3126799
73	0xbd928cf9	-0.07155795
74	0x3e9c836b	0.30569014
75	0x3e22c864	0.15896755
76	0xbd5f61a2	-0.05453647
77	0xbcd39d66	-0.02583189
78	0x3f1d1787	0.61364025
79	0x3f439c10	0.7641001
80	0xbf2a9384	-0.6663134
81	0xbe22b3de	-0.15888926
82	0x3d3f2a8b	0.04667143
83	0xbddede9d	-0.10882304
84	0xbd19c20f	-0.037538584
85	0x3eb2a180	0.3488884
86	0xbeb34ca4	-0.3501941
87	0xbe8b0ca0	-0.2715807
88	0x3eae86cd	0.3408722
89	0xbe3d042c	-0.18458623
90	0xbdbf7691	-0.093487866
91	0xbd28c52d	-0.041203666
92	0xbec5dde7	-0.3864586
93	0x3e21a80c	0.15786761
94	0xbe670728	-0.22561324
95	0xbe473d24	-0.19456917
96	0xbe1f4b54	-0.15556079
97	0xbdd2ff8f	-0.1030265
98	0xbe281991	-0.16416003
99	0x3e0b2113	0.13586836
100	0x3e4a0669	0.19729008
101	0xbe7db8d7	-0.24777542
102	0x3e2d4af3	0.16923122
103	0xbec2352d	-0.37931195
104	0xbd334b10	-0.043772757
105	0x3e1d21bb	0.15344898
106	0x3dd497b0	0.103804946
107	0xbdaa97cb	-0.083297335
108	0x3dcefb3e	0.101065144
109	0xbe186193	-0.14880972
110	0xbee626bd	-0.4495143
111	0xbe45e26b	-0.19324653
112	0xbcf9ea28	-0.030507162
113	0xbd6e9298	-0.05824527
114	0x3d564f02	0.05232144
115	0x3cee7777	0.0291097
116	0xbebeed38	-0.3729036
117	0xbda7642a	-0.08173402
118	0xbe53615d	-0.2064261
119	0xbf22d229	-0.6360193
120	0x3a836572	0.001002474
121	0x3e0023e6	0.12513694
122	0xbd283e1f	-0.04107487
123	0xbecc6a46	-0.3992483
124	0xbe81c84d	-0.2534813
125	0x3e4b9901	0.19882585
126	0xbea84e68	-0.3287232
127	0xbe98068f	-0.29692504
128	0xbdb2f320	-0.08737779
129	0x3ed2f638	0.41203475
130	0xbca002f7	-0.019532664
131	0x3e2e2891	0.17007662
132	0xbeae7c7a	-0.34079343
133	0x3dba5626	0.09098463
134	0xbed648ef	-0.4185252
135	0x3e903307	0.2816393
136	0xbdb4ccdf	-0.088281386
137	0xbdc9ceec	-0.0985392
138	0x3e6dcc87	0.23222552
139	0x3da7fc1b	0.08202382
140	0xbe06b41f	-0.13154648
141	0xbe86c939	-0.26325396
142	0xbf028237	-0.5097994
143	0xbea4781f	-0.32122895
144	0xbee39988	-0.44453073
145	0x3d4461ea	0.04794494
146	0xbe387010	-0.18011498
147	0x3e8686b3	0.26274642
148	0x3e6ad0ac	0.22931165
149	0x3e9c3dfe	0.30516046
150	0xbe94c1c4	-0.2905408
151	0xbe1bc687	-0.15212451
152	0x3ecb3dbe	0.39695543
153	0x3df33489	0.11875255
154	0x3e44fe68	0.19237673
155	0x3df663d8	0.120307624
156	0x3c8be3ad	0.017076338
157	0xbe24b28d	-0.16083737
158	0xbe8a6c1c	-0.27035606
159	0x3e26b8e6	0.1628147

layers.1.Ah.conv1.bias f4 [32]
0	0xbdde4e4a	-0.10854776
1	0xbc5e617a	-0.013573045
2	0xbc043373	-0.008068907
3	0x3c819b69	0.015821176
4	0x3e901507	0.28141043
5	0xbda8db99	-0.0824501
6	0xbea8f1bb	-0.32996926
7	0xbd7f5284	-0.062334552
8	0xbdd36e8b	-0.10323819
9	0x3df7f830	0.12107885
10	0xbe73e7b3	-0.23818855
11	0xbe75fb20	-0.24021578
12	0x3cb3dc1f	0.021955548
13	0xbeff7cff	-0.49900052
14	0x3bbc72a0	0.005750969
15	0xbe8f56fd	-0.27996054
16	0xbd298700	-0.04138851
17	0xbe93bf62	-0.2885695
18	0x3e66c5e7	0.22536431
19	0x3d82714f	0.06369268
20	0x3d7382a3	0.059450757
21	0x3dc55bd0	0.096366525
22	0x3ae2d7ee	0.0017306784
23	0xbd1a20c7	-0.037628915
24	0xbe09e4a6	-0.13466129
25	0xbea46f85	-0.32116333
26	0x3e7a2341	0.24427511
27	0xbb193c8d	-0.0023382038
28	0xbc021ac6	-0.007940954
29	0xbe8021d4	-0.2502581
30	0x3ce7059c	0.028200917
31	0xbe385d57	-0.18004356
