models/1e-2lr_clip_10%.pt (torch, 582507 bytes, 300 tensors)

layers.0.Aw.conv1.weight f4 [32, 1, 5]
000000 27 2a 29 bf 76 a8 3f bf e3 36 48 bf 22 b1 8b be
       -0.66079944 -0.74866426 -0.7820875 -0.2728358
000010 97 e1 ce bf 8d 3b 25 bf e8 8a af be 1f 40 d4 bc
       -1.6162595 -0.6454399 -0.34285665 -0.025909482
000020 53 1f cb bd 6b 88 5a bf 7d d1 ae bc aa db c0 bd
       -0.09918084 -0.8536441 -0.021340126 -0.094168976
000030 69 09 73 be 2a fc e7 be 5b 85 67 bf f5 43 e3 3e
       -0.23734058 -0.45309573 -0.9043786 0.44387785
000040 69 93 9a 3e 9e fb c4 3e 3f c2 9d 3e c3 42 71 3f
       0.3019059 0.3847322 0.3081226 0.94242495
000050 6e ef f6 be d1 15 a9 3d 27 95 d4 3c d4 1c 46 3e
       -0.48229545 0.08256114 0.025950028 0.19346935
000060 7b 98 31 bf 63 19 e6 3b d5 a5 85 3e c0 31 00 3f
       -0.6937329 0.0070220693 0.26103082 0.5007591
000070 fa b9 1a 3f 56 6b f6 3e ef d1 c6 3e e6 76 06 3f
       0.6044003 0.48128766 0.38832042 0.52525175
000080 4d 42 d1 3e 7e 2c 0d 3f 69 85 57 3f af e1 03 bf
       0.40870896 0.55146015 0.8418794 -0.5151624
000090 d4 f4 8f 3d 75 4e 2b be e4 77 3f bf df 9a 4c bf
       0.07029119 -0.16729148 -0.74792314 -0.79923815
0000a0 d8 83 e8 be 33 87 a9 3e 77 27 73 be d3 07 0b bd
       -0.4541309 0.3311096 -0.23745523 -0.03394301
0000b0 4c b4 1e bf 8d c6 94 be b7 29 25 bf 3a 5e 3d bd
       -0.6199386 -0.29057732 -0.64516777 -0.04623244
0000c0 76 7d 11 3f 89 a8 22 3f 13 26 79 3f 0f 60 17 3f
       0.56832063 0.63538414 0.9732372 0.5913095
0000d0 d0 bb b4 3e f1 dc 71 3f 91 3a 9a 3f 2d ba 95 ba
       0.3529954 0.94477755 1.2049123 -0.0011423283
0000e0 b1 57 68 3e c8 ca 29 3e 41 87 30 3f a3 0d ab 3f
       0.22689702 0.16581261 0.6895638 1.3363537
0000f0 7a 1b b0 3f 14 1e 3b 3f bb 82 b9 3e 00 0e 6e 3f
       1.3758385 0.7309277 0.36232552 0.9299011
000100 85 de 95 3f 1c 1d 31 3f 53 23 9d 3e 16 79 8a 3e
       1.1708533 0.6918504 0.30691013 0.27045506
000110 19 10 00 3f 56 c2 9b 3f c6 7f 32 bf 0f cc 74 be
       0.50024563 1.2168682 -0.69726217 -0.23905967
000120 63 0d 19 be 2b f7 3e bf 8b ef f2 be 1c 1f f6 be
       -0.14946513 -0.745959 -0.47448382 -0.4807061
000130 13 bb 55 3e c4 15 ba 3e f6 0b 2a 3e 57 58 24 bf
       0.20872144 0.3634473 0.16606125 -0.64197296
000140 ad 3b 9c 3f 83 d8 f5 3e b6 3e 08 3f d0 a0 0f 3f
       1.2205712 0.48016748 0.5322069 0.56104755
000150 90 40 d3 3f ec 35 49 bf 9e 5d 11 bf 59 b9 7b bd
       1.6504078 -0.78597903 -0.56783473 -0.06145606
000160 3c 98 eb bd b9 1b a6 bf 9e cb 2a bf ce a3 4e be
       -0.11503646 -1.297721 -0.66716945 -0.20179674
000170 a5 db 0d 3e ae 19 4b 3e 5e 7e 10 3e dd af 61 3f
       0.13853319 0.19834015 0.14110705 0.8815897
000180 e0 1d 3b 3e b1 f8 37 3f 21 ca 31 3f 5c 37 cb 3f
       0.18273115 0.7186385 0.6944905 1.5876269
000190 47 bd ed be 78 94 5a 3e d3 02 74 3e 37 a6 22 3e
       -0.4643347 0.21345699 0.23829202 0.15883718
0001a0 97 46 50 3c 1b 94 67 bf 65 45 fb be 1e d6 64 be
       0.012712142 -0.90460366 -0.4907638 -0.22347304
0001b0 ff 29 28 bf 9c 0a ca bf b6 84 8d 3f 9e be 38 3e
       -0.6568908 -1.5784488 1.1056125 0.18041465
0001c0 83 5f 08 3f 34 37 5e 3f c4 c0 61 3f 80 62 9a bf
       0.5327074 0.86802983 0.8818476 -1.206131
0001d0 65 e3 2f bf 75 44 b7 be 48 30 50 bf d0 96 89 bf
       -0.6870635 -0.35794416 -0.8132367 -1.0749149
0001e0 08 1f 0f bf 9f 11 2e bf 99 a0 1d be 6e fc 9d bf
       -0.55906725 -0.6799564 -0.15393294 -1.234266
0001f0 ce b2 f9 bf cf b2 60 bf 95 98 46 bf a6 58 28 bf
       -1.9507692 -0.8777284 -0.7757657 -0.65760267
000200 38 51 f7 be fe ab c1 bf 88 d6 1b 3f 10 9d 88 3d
       -0.48304152 -1.5130613 0.60874224 0.06670582
000210 d8 6c 10 3f 21 66 05 3f 7c 93 78 3f d6 91 77 be
       0.5641608 0.5210896 0.97100043 -0.24176726
000220 ad 94 20 3e e4 a3 74 be 95 4e 66 be 68 7d 02 bf
       0.15681715 -0.23890644 -0.22490914 -0.50972605
000230 02 10 32 bf c5 4e 13 bf bb 0e 6f be 09 83 ba 3e
       -0.69555676 -0.5754207 -0.23345463 0.36428097
000240 db f2 9f 3e c5 f4 97 3f d2 27 0d bd 77 4b 0e 3f
       0.31239972 1.1871573 -0.034461804 0.555839
000250 9a 46 83 3f 83 c2 b6 3f 5a 76 cb 3e ea 2f e2 3e
       1.0255921 1.427811 0.39738733 0.4417718
000260 e9 50 09 3f a3 92 92 3f e3 81 f1 3f 59 88 73 bf
       0.53639084 1.1451 1.8867763 -0.95129925
000270 94 e9 82 bd 29 6d bd be 80 4f 73 bf fd 47 a5 bf
       -0.06392208 -0.36997345 -0.9504318 -1.2912594

layers.0.Aw.conv1.bias f4 [32]
000000 ad ee 3c be da 58 dd bc 45 b7 25 bc fe 3d 8c 3e
       -0.18450423 -0.027019907 -0.010114496 0.27391046
000010 0c 0c f8 bc fd 33 47 bc 72 c2 3e bb 42 29 74 bc
       -0.030279182 -0.012158391 -0.0029107598 -0.014902415
000020 24 f3 5b bd 91 e3 aa bc c6 d3 35 3e de 61 4b bd
       -0.053698674 -0.020860465 0.17756566 -0.04965388
000030 90 51 b4 3e b4 4a 7c 3e 0e d8 53 be 22 15 41 be
       0.35218477 0.24637872 -0.20687887 -0.18855718
000040 b4 0f 23 3e d9 24 a8 bd a1 8e 80 be fc 37 3a 3e
       0.15923959 -0.08210153 -0.25108817 0.18185419
000050 b1 b3 3d be 1d f4 c8 bd 39 0c 98 3e 9f 49 91 be
       -0.18525578 -0.09812186 0.29696825 -0.2837648
000060 39 db 1a be f9 53 40 be 71 be 64 3e b2 d9 f3 bd
       -0.1512269 -0.18782033 0.22338273 -0.119067565
000070 78 40 76 be 37 01 8e 3e 6c 08 85 3e 9e 31 23 be
       -0.2404803 0.27735302 0.25982988 -0.15936896

layers.0.Aw.conv2.weight f4 [16, 32, 3]
000000 6f 2f 9f 3d b6 25 aa 3d 73 6c 73 3d d0 64 cd 3c
       0.07772719 0.08307974 0.059429597 0.025072485
000010 84 da 7c bd ee 4c 92 bd c8 c0 b1 bd 37 66 3f 3d
       -0.06173183 -0.071435794 -0.08679348 0.04672834
000020 c7 2d 24 bd 77 04 2a 3d 31 7d e1 bc e5 91 11 3c
       -0.04008272 0.041508164 -0.027525516 0.008884882
000030 cd a1 cc 3d 29 d8 25 bd d6 4f 8f bc 45 a7 31 bc
       0.099917985 -0.04048935 -0.017494123 -0.010843103
000040 37 fb 7d ba 73 fb fa bd 9e 00 e1 bd af ed c1 bb
       -0.0009688618 -0.122549914 -0.10986446 -0.0059182267
000050 b4 68 96 bc a0 83 99 3c 46 6e cc 3d 69 f0 a1 3d
       -0.018360473 0.018739522 0.099819705 0.07907183
000060 95 50 76 3d 69 d5 db 3d a2 78 ca bc 17 5d f0 bc
       0.060135443 0.10734064 -0.024715725 -0.029341264
000070 fa 32 db be 8e 1d 82 be a0 6e c4 bd 35 d8 99 3c
       -0.4281233 -0.25413173 -0.095914125 0.018779853
000080 a4 29 55 bd a8 ae 9b 3b e5 d1 01 be aa c3 08 be
       -0.052041665 0.0047510453 -0.12677725 -0.1335589
000090 8e 6c 73 bd 97 ea 94 bd 0f c4 44 bd e3 e1 1b bd
       -0.059429698 -0.07271307 -0.04803854 -0.03805722
0000a0 aa c5 6b bd b8 7a b3 bd f9 08 5d bb b7 d6 83 3d
       -0.057561554 -0.08763641 -0.0033727272 0.06437438
0000b0 a9 30 8e 3d aa 3e ac bc f8 05 73 bb 64 48 f4 bd
       0.06942875 -0.021025974 -0.0037082415 -0.1192787
0000c0 72 8a 9f bd 53 d4 01 bd 12 e1 0e be 0a 45 bc 3b
       -0.07790078 -0.03169663 -0.13953045 0.005745535
0000d0 5d 41 2c 3d a0 bd 7e 3d 5b fe d8 bd e3 19 09 be
       0.042054523 0.06219256 -0.105953895 -0.13388781
0000e0 f2 8d b8 bd 0f ad 33 bd c4 72 0d be 22 d2 b1 bd
       -0.09011449 -0.043866213 -0.13813311 -0.08682658
0000f0 99 dc c2 bd 0a 6d 6f bd db e9 97 bd e1 14 e1 3d
       -0.09514732 -0.058453597 -0.07417651 0.109903105
000100 a7 5e c5 bb d6 d9 d9 bc 0c c4 8f bd 78 74 65 bc
       -0.0060232463 -0.02659313 -0.07019815 -0.014004819
000110 b6 00 2d 3c 65 51 89 3d 55 67 18 bb 81 ba 07 3e
       0.0105592515 0.06704978 -0.002325495 0.1325474
000120 7f 01 c1 3c 02 c3 49 3c a4 34 e6 3d 06 03 8a 3d
       0.023560284 0.01231456 0.11240509 0.06738858
000130 f8 15 c8 3d cd ef 01 3c fc 69 fd bd 3b f9 62 3c
       0.09769815 0.007930708 -0.123737305 0.0138533665
000140 6e ab 18 3d 88 ff e5 bc 65 91 bb 3c 7e 67 1c bd
       0.037272863 -0.028075948 0.022896478 -0.038184635
000150 91 d4 4f 3d f4 4d 7d bd eb f8 a9 3d e2 1e 69 bd
       0.05073983 -0.06184192 0.082994305 -0.056914218
000160 78 a7 e4 bd d5 18 88 3c 7b b5 be bd 10 d2 12 be
       -0.11164755 0.016613403 -0.093119584 -0.14337945
000170 33 aa 12 bd 4d b7 cb 3d 0e 1e 81 39 2c cd a9 3c
       -0.035806846 0.09947071 0.0002462719 0.020727716
000180 b7 bf 9b bd 69 df 3f be 3d e9 04 be 6b dc b3 bc
       -0.07604926 -0.18737568 -0.12979598 -0.02195569
000190 35 73 c0 bd 5c 97 35 bd 3f ea 5f 3d 71 08 65 3c
       -0.09396974 -0.0443338 0.054666754 0.013979063
0001a0 ef 95 c1 bd 80 3d d0 3d d6 1c 5b 3e 3b 2e 55 3d
       -0.09452426 0.1016798 0.21397719 0.052046042
0001b0 d6 d6 be bc 5e 88 de bd 27 cb 73 3d 18 f9 b0 3d
       -0.023295801 -0.10865854 0.059519913 0.08641261
0001c0 58 02 d2 3d ab 86 85 3c 59 27 43 bc 48 9c fe 3d
       0.10254353 0.016299566 -0.011911237 0.12432152
0001d0 59 24 b2 3c 2c 13 da bd b4 e0 22 bd ba f1 b2 bd
       0.021745848 -0.10648188 -0.039765075 -0.08737512
0001e0 cf 81 d4 bd 5e e2 00 be fe ae fc bd a7 42 20 be
       -0.103763215 -0.12586352 -0.123380646 -0.15650426
0001f0 f4 3d b8 3d cf 0f b8 3e c2 c1 64 3e f6 2f ad 3d
       0.089961916 0.3594956 0.22339538 0.084564134
000200 11 1d 30 3e d6 ce 4d bd 43 21 9e 3d eb 8b d5 3d
       0.17198588 -0.050246082 0.07721188 0.10427078
000210 07 f7 5f 3e 4b 4f 1a 3e e2 cd 1c 3e 6f 02 33 3e
       0.21871577 0.1506931 0.15312913 0.17481397
000220 1e 29 5a 3e 63 86 06 3e 15 25 13 3d aa 7e 61 3d
       0.21304747 0.13137202 0.035924036 0.055052437
000230 10 f9 f8 3c 36 51 1e be 9c e6 f4 bd d3 8c c0 bd
       0.0303922 -0.15460667 -0.11958048 -0.0940186
000240 6f f9 56 3e 6b 4b 81 3e 0d ca 89 3e 92 51 8c bd
       0.20993589 0.25252852 0.26911965 -0.06851496
000250 35 73 8e bd e7 73 c4 bd 6a 20 6b bc b7 fb 59 bb
       -0.06955568 -0.09592419 -0.01435099 -0.0033261606
000260 a3 ed 07 3e 41 f7 0a 3e 56 a1 43 3e ce f5 81 3e
       0.13274245 0.13570882 0.19104514 0.25382847
000270 37 b9 c8 bc 50 20 8e bb e8 a1 9a 3c 20 f0 02 be
       -0.02450238 -0.004337348 0.018876031 -0.12786913
000280 e7 a5 b8 bd 89 b7 35 be b0 c8 44 3e a3 a9 62 3e
       -0.09016018 -0.17745794 0.19217181 0.22135024
000290 99 97 52 3e 6a 9a b8 bd ac a1 86 be c4 a6 4a be
       0.20565642 -0.09013827 -0.2629522 -0.19790179
0002a0 f3 25 85 bd b5 14 7c be f4 52 ab be 91 9f fd bd
       -0.06501379 -0.24617274 -0.33461726 -0.123839505
0002b0 5c 0f 3d be 77 0b 80 be 08 b0 44 3d 55 84 02 3e
       -0.1846289 -0.25008747 0.04801944 0.12745793
0002c0 fc 90 22 3d 3d df 2a bd bb 6e fe bd 3f 83 04 be
       0.03968905 -0.041716803 -0.12423464 -0.12940691
0002d0 f9 b2 ce bd cf 84 c8 3d 52 ab 81 3e e4 1a 35 3e
       -0.1009273 0.09790956 0.2532602 0.17686039
0002e0 2a 75 1d 3e 04 f1 67 3e b8 12 76 3d 5f 33 37 3e
       0.15376726 0.22650534 0.060076445 0.1789069
0002f0 8d a2 44 3e dc 21 2a be b5 f1 22 be 8c 66 50 be
       0.19202633 -0.16614479 -0.15912516 -0.20351619
000300 c3 11 8c 3d 6d 43 27 bd 6d ab d9 3c 6c 28 bb 3d
       0.06839325 -0.040835787 0.026571 0.09138569
000310 5e 41 90 3d f4 c1 82 bb 79 09 0f 3d 47 c2 58 bb
       0.07043718 -0.003990406 0.034921143 -0.0033074783
000320 d3 d2 6e bd 15 c7 2e bd dc 9f b1 3d 82 f1 72 bc
       -0.058306526 -0.04267033 0.08673069 -0.014828088
000330 4d f7 20 3c 3b aa b2 bc b4 92 9c 3c 71 07 f9 bb
       0.009824586 -0.021809688 0.019112922 -0.007599764
000340 69 7a 94 bd b8 3e 30 3d fe bf a2 3d dc ca 4d 3d
       -0.072499104 0.043028563 0.07946776 0.05024229
000350 d8 20 27 3d 5b d8 c0 bd 69 89 96 3d 2d 79 b5 bd
       0.040802807 -0.094162665 0.07350428 -0.08861003
000360 a2 3e 3a bd cb 06 ab 3d fb f3 a6 bc 5e 1e c8 be
       -0.045469888 0.08350905 -0.02038001 -0.39085668
000370 57 9a 20 be fa d8 11 3e f7 35 3a bd 65 9f 26 bc
       -0.15683876 0.14242926 -0.04546162 -0.010169839
000380 80 8a 66 bc 37 b5 a3 bd 40 09 5a 3c 64 01 c2 bb
       -0.014071107 -0.07993548 0.013307869 -0.005920576
000390 5d 54 1d bd 5f 4b e5 bc 25 54 42 bd 14 76 11 3c
       -0.038410533 -0.027990041 -0.047443528 0.00887825
0003a0 4f 8e f5 3d 27 01 80 3d f1 0b 10 be 1e 95 15 be
       0.11990034 0.0625022 -0.14067055 -0.14607665
0003b0 d6 cc 12 be 01 0a 02 3e b2 8b dc bd e6 63 42 be
       -0.14335951 0.12699129 -0.10768832 -0.1898342
0003c0 3e b6 bb 3a 20 25 8e 3d 37 df 57 3d 7b 63 86 3d
       0.001432128 0.06940675 0.05270311 0.06561943
0003d0 ad 54 0d bc 0b ee 24 bc 90 f1 0f be 79 0d 35 be
       -0.008626145 -0.0100665195 -0.14056993 -0.1768092
0003e0 df 0e 1d be 58 46 e5 3c 09 c5 1f 3d 98 3c 98 bd
       -0.15337704 0.027987644 0.039006267 -0.07433432
0003f0 a8 72 52 3c 35 3c 1b bc 12 a4 49 bc 3c 49 fc 3b
       0.012844719 -0.009474804 -0.012307184 0.00769916

layers.0.Aw.conv2.bias f4 [16]
000000 93 7a 79 bd 1f f5 4e 3e f2 72 d2 bb a6 41 8e bd
       -0.06090791 0.20210694 -0.006422394 -0.06946115
000010 a8 89 5b bd e2 b3 b5 bc 78 8d 03 3e ce 2b d4 3b
       -0.053598076 -0.022180501 0.12846935 0.0064749485
000020 f4 20 85 3d 37 b7 ca bd 02 f0 09 be ea 02 c8 3d
       0.06500426 -0.09898227 -0.13470462 0.09766181
000030 84 ce 2a bc d3 1d c5 bb 15 b1 6d bd d8 14 45 3e
       -0.010425214 -0.006015518 -0.058030207 0.19246233

layers.0.Aw.conv3.weight f4 [1, 16, 3]
000000 22 8a 61 bd 1b 10 52 be 3a cd a5 bd 94 fa 7c 3e
       -0.055063374 -0.20513956 -0.080957845 0.24704963
000010 10 8d 34 3e c0 3b 1d 3e da 64 44 3d 46 22 fa bb
       0.17631936 0.15354824 0.047947742 -0.0076334802
000020 83 ad 5f bd 68 85 1f be ea 8c 03 be 9c 01 61 bd
       -0.054608833 -0.15578234 -0.12846723 -0.054933175
000030 c7 63 c6 bd 89 d7 0e 3d d1 a5 aa 3d 4d 2c fd bd
       -0.09687 0.03487352 0.08332408 -0.12361965
000040 43 0d 66 bc 61 51 cc bb b6 75 35 3e b8 98 41 3e
       -0.014041248 -0.006235287 0.17720684 0.18905914
000050 85 9d 57 3e 25 bb 38 bd 23 b1 69 be 85 2b 7a bd
       0.21056183 -0.04510035 -0.22821479 -0.06107666
000060 10 98 49 bc 7c 53 a9 3d 8a 5f ef bc d6 0d e9 3d
       -0.012304321 0.082678765 -0.029220361 0.11379592
000070 c3 46 52 3c 10 4a ce bd 85 37 e9 bd f9 12 04 bd
       0.012834254 -0.1007272 -0.11387543 -0.032244656
000080 24 2d 70 bd 12 ef b2 bd 3e e9 d3 3d 74 e3 b2 3b
       -0.0586368 -0.08737005 0.10347222 0.0054592434
000090 20 ea 04 be 77 b2 90 3c 2f f8 d9 3d a9 6d 1d be
       -0.12979937 0.017663224 0.106430404 -0.15373863
0000a0 0c d1 35 be 28 4c 1d 3b bd 57 a9 3d 84 8d 46 bc
       -0.17755526 0.0024001691 0.08268688 -0.012118701
0000b0 ff ed ec bd 07 c9 51 3e 6e f1 9c 3e eb 01 41 3e
       -0.11568832 0.20486842 0.30652946 0.18848388

layers.0.Ah.conv1.weight f4 [32, 1, 5]
000000 fc 34 e4 bc e8 f0 6c 3e bb 2c e6 be d7 6a a4 3e
       -0.027857296 0.23138773 -0.44956002 0.32112762
000010 58 e2 54 3e 0c e8 03 bf 27 ea 3b bd 5a c4 21 bf
       0.20789468 -0.5152595 -0.045877602 -0.63190234
000020 96 09 b9 bd 3f 59 3b bf 23 bd 0a 3f 0c a0 11 3d
       -0.090350315 -0.73183054 0.5419485 0.035553023
000030 8d 47 82 3e 07 e1 23 3f c5 3c bb 3e a9 09 c6 be
       0.25445214 0.6401524 0.365698 -0.38679245
000040 4b c9 5d 3e b5 fa 18 3e e6 26 ab 3e 6b 7b 1d 3e
       0.21658818 0.14939387 0.33428115 0.15379111
000050 bf 69 c4 3d ad 73 17 be af 4e 05 be d2 4b 81 3e
       0.09590482 -0.1479022 -0.13018297 0.2525316
000060 2c c6 e9 3e 23 49 3e 3e cb 23 09 be 73 65 6f 3c
       0.45659006 0.18582587 -0.1339256 0.01461159
000070 68 00 1d be c3 de bf be 54 cd 03 bf 96 20 54 3e
       -0.15332186 -0.3747464 -0.5148518 0.20715556
000080 77 c3 44 3d 57 63 da be 10 a0 80 be 71 42 71 bc
       0.048037972 -0.42653915 -0.25122118 -0.0147253135
000090 de 1e 13 3e 48 94 9e 3e 4e bd af be c8 24 d6 3e
       0.14367244 0.30972505 -0.34324116 0.41824937
0000a0 85 30 25 be 91 aa f6 be 41 40 1e be c5 ae 86 3e
       -0.1613179 -0.48177007 -0.15454198 0.26305214
0000b0 d8 b7 e0 bd f7 54 0c be 57 a6 d6 be f1 6e fa bd
       -0.109725654 -0.13704287 -0.41923782 -0.12228192
0000c0 9f 3a 33 bd 50 f6 9e be 45 95 cd be 6f c2 4e be
       -0.043757077 -0.31047297 -0.40152946 -0.20191358
0000d0 05 70 26 be 87 46 2e 3e 72 54 42 bc 02 35 c1 be
       -0.1625367 0.17019092 -0.011860954 -0.37735754
0000e0 5c 20 9b 3e 12 e0 53 be 4d 8f 0e bf 0d fd 0a 3d
       0.30298126 -0.20690945 -0.5568741 0.033932734
0000f0 d5 dc 03 bf 0f fe e2 3d b7 95 ad 3d 95 19 85 3e
       -0.5150884 0.11083614 0.084758215 0.2599608
000100 69 61 16 3e a0 0e 23 3f 8c 52 a2 3e 93 8e fe bc
       0.14685597 0.6369419 0.31703603 -0.031073844
000110 17 ff f1 3e ef 80 0a 3f d5 5a b7 3e aa 99 04 bf
       0.4726493 0.5410299 0.35811487 -0.5179697
000120 f6 3f 96 3e b7 79 76 be f3 31 11 be 10 e9 b5 3e
       0.29345673 -0.24069868 -0.1417921 0.35529375
000130 9c d1 12 be b0 33 05 3e 5c f1 bc 3d dd 7c 5e be
       -0.14337772 0.13007998 0.09225723 -0.21727319
000140 5c f3 bc 3a 0b 16 81 3d 10 f5 77 be 2e 68 0c 3e
       0.0014415788 0.063030325 -0.24214578 0.13711616
000150 79 36 8a bd 52 69 de 3d 9f b4 17 bf 37 35 ad be
       -0.06748671 0.10859932 -0.5925998 -0.33829662
000160 7a ca 13 bf f7 d3 85 bd 0f 94 9a 3e 98 92 5a 3e
       -0.5773083 -0.0653457 0.30191085 0.21344984
000170 4a 01 1e 3e 10 bb 7a be 81 ab 66 3e c3 5e 6f be
       0.15430179 -0.24485421 0.22526361 -0.23375992
000180 16 4a 38 be 51 46 69 be ca c1 72 be 20 d3 39 3e
       -0.17997012 -0.2278073 -0.23706737 0.18146944
000190 3f 79 49 be 09 60 fa bd b6 ff 07 3e 43 a7 dd bd
       -0.19675158 -0.122253485 0.1328114 -0.10822918
0001a0 5a 04 a9 bd 7c bc 6e bd 25 98 03 bf fd 82 80 be
       -0.08252783 -0.05828522 -0.5140403 -0.25099936
0001b0 08 f2 92 3d 94 c7 b3 be 69 ea af 3d 23 d4 ad bd
       0.0717507 -0.35113204 0.08589632 -0.084877275
0001c0 99 12 2d 3d 87 c1 15 be 77 78 c5 bc 07 db be be
       0.042254064 -0.14624606 -0.024105294 -0.3727648
0001d0 db b6 06 be 0c 95 22 bf 86 22 05 bf 62 ab 3b be
       -0.13155691 -0.6350868 -0.52005804 -0.18327096
0001e0 92 49 30 be 8c 79 b8 bd 47 ab c8 3b d1 52 ce 3e
       -0.17215565 -0.09007558 0.0061239335 0.4029756
0001f0 f8 75 f8 3d 41 4f 8e 3e 3f f5 a6 3e 5d 91 14 3f
       0.12131876 0.2779484 0.32608983 0.58034307
000200 a9 2a ab 3e cb 54 c7 3e dc 66 21 be f7 25 81 be
       0.33430985 0.3893188 -0.15761894 -0.25224277
000210 91 e4 ae be 49 60 32 be 33 d3 16 bf 85 d9 c7 3e
       -0.34158757 -0.17419542 -0.58916014 0.39033142
000220 48 fd 57 3e 28 41 ce 3e 8c 54 9d 3d 15 83 e2 3e
       0.21092713 0.40284085 0.07682142 0.44240633
000230 a4 b1 b7 3e 83 50 b2 3e 84 3a 34 bd 3f 2d c0 3d
       0.35877717 0.3482705 -0.044001117 0.0938363
000240 2c f7 0b 3f a2 2e 05 bf 72 a7 aa 3e 70 b7 9d bd
       0.5467403 -0.5202428 0.33330876 -0.077010036
000250 7b d5 97 3c a8 ea 9e 3e c7 06 d0 3d e5 56 db 3d
       0.018534413 0.31038404 0.10157543 0.10709933
000260 60 42 fa be d4 77 1e be 23 19 6c 3e 22 57 9a bd
       -0.48878765 -0.15475398 0.23056464 -0.075361505
000270 e9 e0 08 bf 7c f7 82 3e b5 fb 0f bf 2f ca 30 be
       -0.53468186 0.2557944 -0.5624345 -0.17264627

layers.0.Ah.conv1.bias f4 [32]
000000 e0 8b e6 3b 06 86 b3 3e bf e7 57 be 4c b6 95 bc
       0.0070357174 0.3506319 -0.21084498 -0.018275402
000010 3c 48 86 be b7 de 69 3d 5e de 15 3e 79 d9 97 be
       -0.26226985 0.057097163 0.14635608 -0.29658106
000020 c9 d9 74 3d 5a b4 bb 3d 90 da c0 3d aa 41 03 3e
       0.05977801 0.09165259 0.094166875 0.12818018
000030 c8 80 1e be a4 18 99 be f9 0e bb be 2b 2c c5 3c
       -0.15478814 -0.29901612 -0.3653486 0.024068912
000040 50 e9 2e 3b 7d 4e 5f 3e dc 9a 2d be 13 89 08 3d
       0.0026689358 0.21807285 -0.16953605 0.03333385
000050 05 3e 0f bd ed 11 ec 3c fe e4 e1 bb e7 74 99 3e
       -0.034971256 0.028817141 -0.006893753 0.29972002
000060 81 57 fb bc c8 14 61 be 39 21 96 3a ab ac 3a be
       -0.030681374 -0.21980584 0.0011453993 -0.1822993
000070 28 f9 65 be 3f 1c 9a be 54 ac 9e 3c 36 3c 48 3d
       -0.22458327 -0.30099675 0.019369282 0.048885547

layers.0.Ah.conv2.weight f4 [16, 32, 3]
000000 d2 0c be 3d 9a fb 26 39 94 15 db 3d 63 28 2e be
       0.09279789 0.00015924723 0.10697475 -0.17007594
000010 f7 13 4f be e8 56 2a be 81 0f 23 3e 9f bd 82 3e
       -0.2022246 -0.16634715 0.15923883 0.25535294
000020 09 08 ab 3e 92 b3 29 3e a6 79 19 3d 64 74 99 3d
       0.33404568 0.16572407 0.03746953 0.07492903
000030 8a 0c 7e bb 3e e7 32 3e 49 d7 58 3e 2b 36 c6 3d
       -0.0038764798 0.17471024 0.21175875 0.096783005
000040 65 c7 81 3d 17 28 91 bd c2 3d d8 3c 4f 43 b9 bc
       0.063368596 -0.07087725 0.026396636 -0.022615103
000050 10 3a 14 be e7 9d ff 3d d0 3f 8f 3d c9 6b 7a 3e
       -0.14475274 0.12481289 0.06994593 0.2445518
000060 fb d8 52 3d 6c d4 fb bd bd aa 84 bd 11 1a 01 bd
       0.05147646 -0.12296376 -0.06477878 -0.031519
000070 d9 d5 3b be 49 fa b2 bd f9 ff 50 bd 7b b5 8a 3d
       -0.18343295 -0.08739144 -0.051025365 0.06772896
000080 c7 55 20 bd d0 8e 2f be ab 3d 72 be 57 36 52 be
       -0.039144304 -0.17144322 -0.23656337 -0.20528542
000090 93 62 d6 3d 6f b2 49 3e 88 11 91 3d 64 20 9f 3e
       0.1046802 0.19696973 0.07083422 0.310794
0000a0 84 73 86 3e 2e 69 af 3e a7 7e 7c be 82 15 b3 bd
       0.26260006 0.34259933 -0.24657689 -0.08744337
0000b0 b1 3b 3c be 6d c2 09 3d b5 84 30 3e 2f 30 54 3c
       -0.18382145 0.033632684 0.17238124 0.012950941
0000c0 50 eb 6c 3d 37 8b 04 3e 0c 89 86 bc ab f0 dc bd
       0.0578416 0.12943731 -0.01642277 -0.10788091
0000d0 f6 2c 85 bd a3 2b 42 be 45 a7 86 bd 3b 1a 63 3d
       -0.06502716 -0.18961959 -0.06574873 0.055444937
0000e0 81 27 90 3e 7a 53 ed bd be 53 9d bd 02 0b 3a be
       0.2815514 -0.115881875 -0.07681988 -0.18168262
0000f0 ba 4e bf bd 01 5d 05 bd 98 63 f4 3c ca ae 09 be
       -0.09341188 -0.0325594 0.029832646 -0.13445583
000100 00 d0 20 bd 1d 94 43 be 36 62 1c bb 77 81 29 3d
       -0.039260864 -0.1909947 -0.002386225 0.041383233
000110 58 24 04 3e 37 45 27 be 94 c2 f3 bd a9 17 77 bd
       0.12904489 -0.16334997 -0.11902347 -0.0603253
000120 9d 61 92 3c 05 5e 68 bc 31 a6 15 3e 7c 0f a6 3e
       0.017868811 -0.014182572 0.14614178 0.3243369
000130 68 e2 b1 3e f4 f4 02 3f e8 cf 06 be 33 2f 3a be
       0.34743047 0.5115502 -0.13165247 -0.18182068
000140 c2 bb 52 be 1a 42 77 3e a2 a7 2f 3e 45 1d 69 3e
       -0.20579436 0.2414631 0.1715379 0.22765072
000150 64 cd 1d 3e 14 ae 4e 3e e0 7d 8a 3e 0e eb fc 3a
       0.15410382 0.20183593 0.2704916 0.0019296126
000160 8b 73 ef 3c fe bf 94 3d 3e 7f bb 3b a3 2c 17 3d
       0.0292299 0.07263182 0.0057219556 0.036907803
000170 a2 6d 8e 3d 38 51 0d be 90 7d 59 be ca 61 2a be
       0.069545045 -0.13800514 -0.21239305 -0.16638866
000180 7e c3 9d bd 88 fb c3 bd d7 ae a0 bd 27 80 39 be
       -0.07703303 -0.0956946 -0.07845848 -0.18115292
000190 37 3f cb bd 30 8b 4f be db e7 ba bd 0e 7e eb 3d
       -0.09924167 -0.2026794 -0.09126254 0.114986524
0001a0 83 2d b7 3d 00 57 bf bd 29 43 d2 3d ab 2b 17 bc
       0.089442275 -0.09342766 0.10266716 -0.00922672
0001b0 b7 29 e0 3d 1a 0b 3f 3d 6c ee 8f 3c f5 68 46 bd
       0.109454565 0.046641447 0.017569743 -0.04843994
0001c0 08 fb b7 bd e0 26 6c be a5 8e f7 bd f6 0d 20 be
       -0.08983427 -0.23061705 -0.12087754 -0.15630326
0001d0 0d 79 4d bd dc 24 02 3c d7 49 8a bd 42 58 8a bd
       -0.05016427 0.007943358 -0.06752365 -0.06755115
0001e0 24 42 89 bd 7c 9c 6f bd 07 e9 0a be f3 1d 4e 3d
       -0.067020684 -0.058498845 -0.13565455 0.05032153
0001f0 15 e9 f8 3d 87 f4 ce bd 48 e3 64 bd 09 e1 c6 bd
       0.12153832 -0.10105234 -0.055880815 -0.09710891
000200 27 57 0b be dc 28 b0 bd bf 85 8e bd 47 ce 96 bd
       -0.13607465 -0.08601543 -0.06959104 -0.07363563
000210 74 0a f7 3c 14 e8 4b bd 8a 49 3e 3d 1b 26 2f 3d
       0.030156352 -0.049781874 0.04645685 0.04276095
000220 aa 44 b5 bc 32 04 25 3a b8 5a 8a 3d bd 11 fc 3d
       -0.022127468 0.00062948756 0.067555845 0.12308071
000230 7e 93 66 bb 16 d3 eb bd 07 e9 ab bd c2 84 0c be
       -0.0035183127 -0.11514871 -0.08394056 -0.13722518
000240 55 01 c2 bd e3 34 97 bc 1f 35 ea bc 83 dc 07 be
       -0.0947291 -0.018457836 -0.028589783 -0.13267712
000250 5d 17 af bd 5a 49 4e be 99 f7 e0 bb fc 13 8d 3d
       -0.08549378 -0.20145169 -0.0068654534 0.06888577
000260 c4 50 d2 bc af 8d 5e 3c cd fc 2d be 37 23 c1 bd
       -0.025673278 0.013583585 -0.16990967 -0.09430545
000270 1a 46 77 3d a1 b1 ea 3d cd 8c a8 ba 15 c6 2c be
       0.06036959 0.11459661 -0.0012859345 -0.16872437
000280 2e 78 1f 3c bc bc dc bd 52 12 f0 bc 1d 1b bc bc
       0.009733243 -0.10778186 -0.02930561 -0.022962147
000290 d0 72 4d bd 3e 5b 8f bd 88 a2 8e ba c3 7b 30 be
       -0.05015832 -0.06999825 -0.0010882178 -0.17234711
0002a0 22 48 b1 3c 73 3e 8c bd 2d 30 e2 3c 2e 7f b2 bd
       0.02164084 -0.06847849 0.027610863 -0.08715664
0002b0 37 e6 b9 bd 66 9f 06 bd dc b9 e9 bd 8a 57 6c bd
       -0.09077113 -0.032866858 -0.11412403 -0.05770067
0002c0 fc ea 89 bc 22 b9 ac 3d a2 43 01 bd c3 36 b0 3d
       -0.016835682 0.08433749 -0.03155864 0.08604195
0002d0 c1 f6 56 3d 1b f0 4f bd da d7 f7 bd 37 c2 95 3d
       0.052481417 -0.05076609 -0.12101717 0.07312434
0002e0 53 5a 8a 3c 22 66 1f 3d 25 fe 75 3d 36 06 93 bd
       0.016888773 0.03891576 0.060056824 -0.07178919
0002f0 72 aa a5 bd 4b 9b 0a 3c 0d d4 62 bd 8a 11 18 3d
       -0.080891505 0.008459876 -0.05537801 0.0371261
000300 c8 46 70 be 89 73 ac bd c0 e9 4c be 9c c1 a4 be
       -0.23464501 -0.08420474 -0.20011044 -0.32178962
000310 87 75 f2 be dd ea 8b be e0 9a 27 bd f9 89 5c 3d
       -0.4735529 -0.27327624 -0.040919185 0.05384252
000320 e3 84 93 3d 2c 5c 4c bd be f3 fd bc 7b 2a 34 bd
       0.072030805 -0.04989259 -0.031000014 -0.043985825
000330 6e 1a 8f bc 59 be e6 bd 72 dc ac bd d2 ea d0 3b
       -0.017468657 -0.11266775 -0.08440484 0.006375649
000340 c4 33 a3 bd 04 5d 02 be 53 7e 0b be 1a 8d 22 be
       -0.07968858 -0.12730795 -0.13622408 -0.15874138
000350 7d df 89 bd 9c ef 32 be 31 8b 98 3c 9f 75 6b bd
       -0.0673208 -0.17474216 0.01862106 -0.05748522
000360 a6 fb 6b bd f5 ae 88 37 3c 95 0b bd de f8 34 be
       -0.057613038 1.6293934e-05 -0.034077868 -0.1767306
000370 f4 97 47 be d1 4d 63 be 71 b8 d4 bd 72 19 19 be
       -0.1949156 -0.22197653 -0.10386742 -0.14951113
000380 13 b0 f8 bd 77 b4 9f be 22 11 3b be b1 34 8e be
       -0.121429585 -0.3119237 -0.18268254 -0.27774575
000390 10 2c 20 bd ad ad 19 be 17 c2 e1 bd e1 02 63 3d
       -0.03910452 -0.15007658 -0.11023348 0.055422667
0003a0 2b b1 be bd ce 14 90 3d 24 6e 93 3b 80 16 f3 3d
       -0.09311136 0.07035218 0.004499214 0.11869526
0003b0 3f b2 d9 3c 52 f6 36 3c 89 4c 34 3c c7 7c 76 bb
       0.026574252 0.011167126 0.0110045755 -0.0037610994
0003c0 5e 40 1e be 1e a9 44 be 47 2a dd bd a7 df 35 be
       -0.15454242 -0.19205138 -0.107990794 -0.17761098
0003d0 dd 66 e9 bd 7b c6 50 be b0 67 02 be 56 49 22 be
       -0.11396573 -0.20388214 -0.12734866 -0.15848288
0003e0 88 91 aa bd f9 06 97 bd 45 7f a3 bd fb bf 0a bd
       -0.08328539 -0.07374377 -0.07983259 -0.033874493
0003f0 c0 5d fe 3d 23 4b 3f 3e 90 5e 49 3e 7d 27 84 3c
       0.12420225 0.18681006 0.19664979 0.01613211

layers.0.Ah.conv2.bias f4 [16]
000000 5f 10 40 3d db a7 f7 bd 2e f9 40 be 45 55 fa bd
       0.046890613 -0.12092563 -0.18845055 -0.12223295
000010 a6 c9 7c 3b 7f 35 6e be bc df b5 bd 59 3f d4 3d
       0.003857234 -0.23262595 -0.088805646 0.10363645
000020 3a 67 54 be 34 a6 31 3d 56 e6 58 bd fd b0 69 be
       -0.20742503 0.043371394 -0.05295404 -0.22821422
000030 df cd 1d be 41 f0 d7 3d f4 63 89 be ca de 84 be
       -0.15410565 0.10543872 -0.2683407 -0.25951225

layers.0.Ah.conv3.weight f4 [1, 16, 3]
000000 6c d7 58 3e 1e 79 25 3e 33 48 e6 3d 25 09 a9 bd
       0.21175927 0.16159484 0.1124424 -0.08253697
000010 81 8d 01 3d cf 79 b6 3d 8d e7 36 3d bf 1d c2 bd
       0.03162909 0.08909952 0.044654418 -0.0947833
000020 b0 8b 81 bc 64 e7 b4 bd 44 d4 fc 3c 68 30 b9 3d
       -0.015813679 -0.08833197 0.030862935 0.09042436
000030 2f a1 70 be 47 40 61 bb 38 86 94 bd d4 52 33 3b
       -0.23498987 -0.0034370588 -0.07252163 0.0027362602
000040 49 6b 96 be 9d c2 57 bd 61 45 7b 3d 6a a7 b4 bd
       -0.29378727 -0.052675832 0.06134546 -0.08820994
000050 e1 70 03 3d 08 96 87 3d 00 72 db be aa 2e 17 bf
       0.03209007 0.06620413 -0.42860413 -0.5905558
000060 95 fc a5 bd 13 d7 d4 bd a7 e8 1c bd 76 05 60 bd
       -0.08104817 -0.10392585 -0.038307812 -0.054692708
000070 33 78 c6 3d 11 08 41 bd 7c 7e 5a 3c 46 5d eb 3d
       0.09690895 -0.047126833 0.01333582 0.114924
000080 5d 09 b3 3c e3 c1 69 be 75 14 fb bd 6b 4b 6b bd
       0.02185505 -0.22827868 -0.12259761 -0.05744497
000090 65 8d 3e be 54 51 4e bd f6 17 8e 3d a3 59 13 bd
       -0.18608625 -0.05037053 0.06938164 -0.035974156
0000a0 1e a8 a8 3e bf ff 48 bd 49 3b c3 3d e1 11 80 3d
       0.32940763 -0.049072023 0.09532792 0.0625341
0000b0 15 81 45 3e d9 f1 88 bd 63 4b 00 be 0c 81 59 3e
       0.19287522 -0.06686754 -0.12528758 0.21240634

layers.1.Aw.conv1.weight f4 [32, 1, 5]
000000 6a 60 b5 3d 0c 10 12 bf f8 b1 80 be 27 11 99 3e
       0.0885628 -0.57055736 -0.2513578 0.298959
000010 91 50 e1 be bc c5 9d bf 26 92 b5 be 81 d2 a0 3e
       -0.4400678 -1.2325969 -0.35463065 0.31410602
000020 ce 06 43 3e 9a 46 48 3d cb 67 1d bf 4c 3c d4 be
       0.19045565 0.048895456 -0.614865 -0.41452253
000030 8e b7 a5 be 99 8e 18 bb 35 29 13 bc 1d c8 cc be
       -0.32366604 -0.0023278354 -0.0089819925 -0.39996424
000040 96 ad 89 be 65 57 30 be 58 a2 f2 be 6c 29 ce be
       -0.26890248 -0.17220838 -0.47389483 -0.40265977
000050 34 6e a7 be c9 ff 24 3e 3b fe 34 3c 21 ff 68 bc
       -0.32701266 0.161132 0.011046941 -0.014220984
000060 ab 0d af bf d0 84 93 be 4e 9c 2d bd fa e7 17 3b
       -1.3676046 -0.28812265 -0.042385392 0.002317904
000070 83 45 91 3c b8 cd c8 be 48 a6 c5 be 73 2e 0e 3e
       0.017733341 -0.3921945 -0.38603425 0.13884906
000080 df ec 42 be de 9d ec be 4e 07 12 bf 6c 6a d3 be
       -0.19035672 -0.46214193 -0.57042396 -0.4129213
000090 80 8d a4 3d 8c 9c d6 3d c8 a1 3e be 1a 9a 34 bc
       0.080348015 0.10479078 -0.18616402 -0.011023069
0000a0 83 ac 63 bf 60 ac 3e 3e f7 45 87 be 90 ee 19 3e
       -0.88935107 0.18620443 -0.26420566 0.1503241
0000b0 49 ed c4 be d0 32 ae 3d 22 ac 87 be 3c e7 9b be
       -0.38462284 0.085057855 -0.26498514 -0.30449855
0000c0 5c 4f 77 be 60 36 30 be 00 ac 56 bd 97 a1 bf bd
       -0.24151367 -0.17208242 -0.052410126 -0.09356993
0000d0 fb 2e 8f be d2 6a 3c bb ed 10 16 be 55 00 09 bf
       -0.2796553 -0.0028750193 -0.14654894 -0.5351613
0000e0 24 13 c5 3d 7e 84 95 bc 98 f1 a7 bd d3 03 cc bc
       0.096227914 -0.018251654 -0.08200377 -0.024904167
0000f0 d1 fd 12 3f 30 58 cf bd d4 1a bd be 4e ca f2 ba
       0.57418543 -0.10124242 -0.3693453 -0.0018523426
000100 42 8a 68 be 87 51 a5 be 37 90 88 be f3 66 73 be
       -0.22708991 -0.32288763 -0.26672527 -0.23769741
000110 f4 8d 89 be 30 f9 77 bd cf 5b a7 bf de 05 87 bf
       -0.26866114 -0.060540378 -1.3074893 -1.0548666
000120 f0 da 8b bf 9d c4 a2 bf fa 1f 4d bf 55 46 83 bf
       -1.092619 -1.2716252 -0.8012692 -1.0255839
000130 5c d2 a3 3e 15 d2 47 3f d3 76 95 bd 4e 2a 09 c0
       0.3199643 0.78054935 -0.072980545 -2.143207
000140 ed 7b 04 bd 49 a7 a8 be 77 59 d2 3c cd 93 a4 be
       -0.032344747 -0.32940128 0.025677426 -0.32144013
000150 ee bd 01 3e e1 8d 10 be 15 bd a9 be cf a0 2a 3c
       0.12670109 -0.14116623 -0.3315207 0.010414316
000160 7e 5c 22 3e 73 ea ff be 2c 31 01 bf e1 d0 1b 3d
       0.15855595 -0.49983558 -0.50465655 0.038041
000170 e0 26 0c be de 64 d4 bb 18 2d 99 3d 22 78 a0 3d
       -0.13686705 -0.006481751 0.07479304 0.078354135
000180 96 2f c6 be b9 65 c3 3d be 6e 8d be be 61 9d bd
       -0.3870818 0.095408864 -0.27623552 -0.076846585
000190 dc 9b 47 bf 34 10 4a bb dd 76 14 3d 32 77 15 bc
       -0.779722 -0.0030832412 0.03624617 -0.009122657
0001a0 a3 e1 66 be a7 08 26 bf df ce c3 be f5 03 6f be
       -0.22547011 -0.6485695 -0.38243768 -0.23341353
0001b0 9b ec 8f bd cd 42 05 be 35 24 30 3e 98 7f bb be
       -0.07027551 -0.13013764 0.17201312 -0.36620784
0001c0 3f 47 30 3e d8 fc d6 3d 1f 0a 4d bf 4c 36 c8 bd
       0.17214678 0.10497445 -0.8009357 -0.09775981
0001d0 a7 1d b3 bd 70 87 97 3d 2b 62 49 be b4 3c 89 3d
       -0.0874589 0.073988795 -0.19666354 0.06701031
0001e0 e4 f3 0d 3e b0 64 bb be 7e d0 98 3d 6a 9d 3e be
       0.13862568 -0.36600256 0.07461642 -0.18614736
0001f0 a7 95 0e bc 93 3e 8a be bd 38 f0 bd bf 89 96 be
       -0.008702672 -0.27000865 -0.11729572 -0.29401967
000200 bd d0 ed 3d d3 d1 e1 bd 7a ff 48 be 4d b6 f9 be
       0.11612079 -0.11026349 -0.19628707 -0.48771897
000210 01 a8 a9 3b a9 19 8d be 23 a9 a9 be cd b6 20 3f
       0.0051774983 -0.2755864 -0.33136854 0.6277893
000220 3e bf f6 3e 0c 66 76 be 69 56 a0 be 65 12 ea 3d
       0.4819278 -0.24062365 -0.31315926 0.1142929
000230 27 dc 64 bf 9d 08 47 bf 92 6f b5 be 6c 11 fc 3d
       -0.89398426 -0.7774752 -0.35436684 0.123080105
000240 1b 02 22 3f ae 72 b5 3e f4 fa 2c bf 7d 48 68 bd
       0.6328446 0.35439056 -0.67570424 -0.056709755
000250 c0 0c b4 bc 7b 6c 06 be 4b be c9 be 4f 00 c6 bd
       -0.021978736 -0.1312732 -0.39402995 -0.096680276
000260 6f 27 b6 bd 86 43 d0 bd 29 76 70 be e6 d7 a5 be
       -0.0889424 -0.10169129 -0.23482575 -0.3239128
000270 81 20 df be c8 ea 02 bf 40 ff 11 3d 0e 78 40 3e
       -0.43579486 -0.511395 0.035643816 0.18795797

layers.1.Aw.conv1.bias f4 [32]
000000 89 e7 1e bf bb d1 1f bf f0 b1 02 be e0 36 3e 3e
       -0.62072045 -0.624294 -0.1276319 0.1857562
000010 6d c6 da be 76 5b c1 bc 1c e4 9a be 1d 01 be be
       -0.42729512 -0.023603182 -0.3025216 -0.37110224
000020 88 07 22 bf 61 2a 9b be 5f 6b 6f bc 48 d3 ba bc
       -0.6329274 -0.3030577 -0.014613002 -0.022805825
000030 f5 0a d7 3d bf 55 d9 3d a5 01 c8 3e c3 e2 72 bd
       0.10500137 0.10612058 0.39063755 -0.059298288
000040 53 c2 8c bd 47 6b b2 be 51 30 de be e4 ed 13 3b
       -0.06873002 -0.3484747 -0.43396237 0.0022572214
000050 a5 ee e3 be ea 88 74 be 43 5f 40 3e 5c ed b8 be
       -0.4451801 -0.23880354 0.1878634 -0.3611859
000060 dc 72 d0 be fa bb b4 be 92 69 a0 3d 8e 89 f7 be
       -0.4071263 -0.35299665 0.07832636 -0.48347133
000070 99 63 04 bf bd bb 06 3b 3f 64 7f 3d b5 90 65 bf
       -0.51714474 0.0020558678 0.06235146 -0.8967393

layers.1.Aw.conv2.weight f4 [16, 32, 3]
000000 6e 53 8c be f3 74 44 be 89 27 b7 be 06 56 95 3d
       -0.27407402 -0.19185238 -0.3577235 0.07291798
000010 8b bc a1 be 2c 73 be 3b 58 53 d0 be a2 16 e6 bd
       -0.3158916 0.0058120694 -0.40688586 -0.112347856
000020 53 13 9c be 06 71 92 be 2d 30 ea be 5f 0a d9 be
       -0.30483493 -0.28601855 -0.4573988 -0.42390725
000030 ab fc c1 bd b8 84 9f 3d f7 8f 65 be 21 cb bd 3d
       -0.09472021 0.07788986 -0.224182 0.092672594
000040 09 b1 32 3e fa c4 b3 bd 35 40 7a 3e 9d 38 a6 bd
       0.17450346 -0.08777805 0.24438556 -0.08116267
000050 6c 39 90 be 55 f9 96 be 1a 53 16 be af 13 a5 be
       -0.2816881 -0.294871 -0.14680138 -0.3224158
000060 ed f1 39 bd 14 26 8b 3d 5c 5a 3a bf c8 dc 93 be
       -0.045396734 0.06794372 -0.7279413 -0.2887938
000070 7e e1 75 bd b8 14 33 3d 8a ee a4 3d b1 22 37 3e
       -0.0600295 0.04372093 0.0805331 0.17884327
000080 16 8a f3 3d 81 9a 78 bd 4d 3c fc bc ee d5 67 bd
       0.11891572 -0.06069422 -0.030790472 -0.056600504
000090 44 93 58 3b da 0e 20 3e 76 f8 da bd 0a 18 1b be
       0.0033046762 0.15630665 -0.106919214 -0.15145889
0000a0 a4 0e bf be 57 d3 e0 be 2c d4 b4 bd 22 d2 37 bf
       -0.37315857 -0.4391124 -0.08829531 -0.7180501
0000b0 db d5 ed be 3d 0a 91 bf 9e da c2 3e d0 49 9b bf
       -0.4645222 -1.133125 0.38057417 -1.2131901
0000c0 b4 00 84 be fc 8b c8 bd 03 73 80 3c ed c7 f2 bd
       -0.25781786 -0.09792325 0.015679842 -0.11854539
0000d0 d7 67 e2 bd 82 ab ca be 77 27 d5 be 1d 0c bd be
       -0.11054962 -0.39583975 -0.41631672 -0.36923304
0000e0 4a 5a 7a be c6 73 08 3e 0c 17 d4 3c 69 6d 1c 3e
       -0.24448505 0.13325414 0.025889896 0.15276112
0000f0 88 9a bb be 2e f1 77 be a5 c3 a4 be ba e3 6e be
       -0.36641335 -0.24213096 -0.32180515 -0.23329058
000100 c6 65 55 3e 56 a3 74 be 57 dc a8 be f6 2c 30 3e
       0.20839605 -0.23890433 -0.32980606 0.17204651
000110 37 16 a3 be f2 53 f7 be 57 03 34 be 14 da 9f 3c
       -0.31852886 -0.48306233 -0.17579399 0.019513167
000120 40 09 89 bd 00 2a 6f be af 92 f9 3b 95 35 38 be
       -0.066912174 -0.23355865 0.007616363 -0.1798919
000130 25 cf 07 be 8d 2b 82 be d0 09 b0 be b8 e6 0a be
       -0.13262613 -0.25423852 -0.34382486 -0.13564575
000140 2a 39 19 be 0d 0d 7d 3d 54 cf 09 be 2e 82 af be
       -0.14963213 0.061780024 -0.13457996 -0.34279007
000150 97 b4 f5 be d3 24 1c bf 19 35 93 be 44 03 a3 3d
       -0.47989342 -0.6099369 -0.28751448 0.07959607
000160 87 a3 52 be 5e 65 87 3e 53 9c b3 bd 0a 7f c9 bd
       -0.20570193 0.26444525 -0.08770051 -0.09838684
000170 50 06 29 3d 59 0d 24 be b1 06 23 bf e7 b4 f5 be
       0.041265786 -0.16020717 -0.63682085 -0.4798958
000180 41 63 2d be d2 21 9c be 16 5c 9c be dd 04 b9 be
       -0.16932394 -0.30494553 -0.30539006 -0.36136523
000190 ba ad 0c bf ba 1f 8a bd 16 8e 57 3e 38 03 39 3e
       -0.54952586 -0.067443326 0.21050295 0.18067634
0001a0 c3 51 23 be cb 7c 15 3c 28 bf 9c 3d be 48 ba bd
       -0.15949158 0.009123991 0.07653648 -0.09095906
0001b0 99 25 ad be ec 33 be be 9b 72 c3 be 78 07 33 3d
       -0.33817747 -0.37148988 -0.38173375 0.043708295
0001c0 7d e2 bc 3c a7 34 ef bd 1a ee a6 bd e4 8d 66 3b
       0.023057217 -0.116799645 -0.08150883 0.0035179788
0001d0 0f b3 ce bd 51 19 84 be 71 3b ac bd ce 4e 14 be
       -0.100927465 -0.25800565 -0.08409775 -0.14483187
0001e0 4b 58 2d bf 39 1a 88 be c7 44 a4 be ba f3 aa bd
       -0.6771285 -0.26582506 -0.32083723 -0.083472684
0001f0 32 4e 48 be 7e 7e 42 be ff 4c a4 3d 7b 45 d3 bd
       -0.19561079 -0.18993565 0.08022498 -0.10315987
000200 1c fd 20 bd df 2f 59 bd ce ba df bc 88 5f 9e bc
       -0.039303884 -0.05302417 -0.027310755 -0.019332662
000210 c1 ad 98 3d a7 16 24 bd a5 f2 6c bd 9e aa 7f 3d
       0.07455016 -0.040060665 -0.05784859 0.062418573
000220 7a 90 6d 3d 02 17 bf bc a9 38 81 be 9a 25 3b bf
       0.05799911 -0.0233264 -0.2523854 -0.7310425
000230 16 c5 5c bf 0a 9c 17 bf 75 a0 8f be 14 e6 2a bf
       -0.8623823 -0.5922247 -0.28052106 -0.6675732
000240 4d a6 96 3d 7d 8d 60 3d 6d 7d aa 3d a8 cc 60 be
       0.07355938 0.054822434 0.08324704 -0.2195307
000250 fb 53 6e be 3a cd 6c be c8 a2 29 be 3b 26 c2 bd
       -0.23274224 -0.23125163 -0.16566002 -0.09479948
000260 f6 23 96 3d de ea 8b bc d7 59 ab bc 7a a7 9d 3d
       0.07331078 -0.017079767 -0.020916862 0.07697959
000270 c1 ec 80 be 4b dc 71 be 6b ef 3c be a8 e1 60 be
       -0.2518063 -0.23619191 -0.18450706 -0.21961081
000280 93 f2 64 be fa c5 b3 be f8 68 46 3d b2 c7 43 3d
       -0.2235816 -0.35111982 0.04843995 0.047797866
000290 3a 6d 77 3b bf a5 fc bd 10 ac 6e be dc 74 22 be
       0.0037754313 -0.12336301 -0.23307824 -0.15864891
0002a0 0f fe 55 3d 49 a3 26 be fa f0 ab be c8 a9 18 be
       0.052244242 -0.16273226 -0.33582288 -0.14908516
0002b0 e4 72 15 be 31 33 8c bd bb 92 42 bd a7 45 a9 bb
       -0.14594609 -0.068457015 -0.047503214 -0.005165774
0002c0 ca 75 b7 bd fa e7 e4 3d e9 f8 72 be 8c 67 e1 be
       -0.08958013 0.111770585 -0.23727764 -0.44024312
0002d0 b2 ec c3 be 25 1d b9 be 0d 12 15 3f be ef 1a 3d
       -0.38266522 -0.36155048 0.5823067 0.037826292
0002e0 3a c8 a6 bc de df 59 3d 74 6d f0 bd 1b 9f 00 bd
       -0.020359147 0.053192012 -0.117396265 -0.031401735
0002f0 a4 93 14 bb df 78 68 3e ec a8 c6 be d0 d6 dc be
       -0.0022671008 0.22702359 -0.38800752 -0.4313264
000300 51 84 33 3f 95 80 6f 3e 85 6d 90 3e fb 5c 05 3d
       0.70123774 0.23388894 0.28208557 0.032559376
000310 55 c5 bc bd 66 8c f4 be 4d a0 5d 3e d5 54 fd 3d
       -0.092173256 -0.47763366 0.21643181 0.12369696
000320 d1 ae 84 3e 67 54 db bd cc a8 6f 3d da 3c d9 bb
       0.25914624 -0.10709458 0.058510587 -0.0066295685
000330 45 00 5a 3e 8a f4 ba be 25 08 09 be 6b 27 15 3e
       0.21289165 -0.36514693 -0.13382013 0.14565818
000340 a6 80 f1 3b cc 39 1b 3e a0 ee cd 3e ce 28 db 3e
       0.0073700724 0.15158767 0.4022112 0.4280457
000350 e3 fb b7 3e 30 58 1a bd ba 81 16 be 24 ca ce be
       0.35934362 -0.03768176 -0.14697924 -0.40388596
000360 cb 50 ce 3e 9e 4b 1b bd 67 3a 65 3c 92 a6 7a be
       0.40296015 -0.03791391 0.013990975 -0.24477604
000370 14 37 41 be 07 19 60 bd a4 11 09 be 7e 3b 2d bd
       -0.18868667 -0.054711368 -0.13385636 -0.042293064
000380 c2 ca 21 be 24 1f 28 be eb 7d cf bd 31 82 eb 3d
       -0.15800002 -0.16418129 -0.10131439 0.114994414
000390 ce e9 c1 bd 97 5d 98 bd 3b 7e 7a be 15 07 da bd
       -0.09468423 -0.07439726 -0.24462216 -0.10645882
0003a0 9b 59 fb 3c 31 98 6b 3d 62 21 dd be 90 66 b8 be
       0.030682376 0.057518188 -0.43189532 -0.3601575
0003b0 5c b3 80 be 1c 0b 65 be d7 fe 9e bf 10 b3 b1 be
       -0.2513684 -0.22367519 -1.2421521 -0.34706926
0003c0 c9 4a e4 bd 5e 5a 5e bc 6b d5 12 be a4 ee d3 bd
       -0.11147077 -0.01357135 -0.14339225 -0.103482515
0003d0 db 67 30 be 77 84 47 be 6c 87 6a be 1d 7d e7 be
       -0.17227118 -0.19484125 -0.22903222 -0.4521264
0003e0 a8 68 5a bf b3 4c 13 be 94 a8 c5 bd bb 7e 3e be
       -0.8531594 -0.14384727 -0.09651294 -0.18603031
0003f0 08 79 2b be 76 6b 41 be 6f 76 61 be f3 4d 4f 3d
       -0.16745389 -0.1888865 -0.22017835 0.050611448

layers.1.Aw.conv2.bias f4 [16]
000000 9f 73 cd 3e 1d ca 5e 3e 3d 78 bf bd e9 62 d8 be
       0.40127274 0.21756788 -0.093491055 -0.42262962
000010 1b 64 58 be 19 08 07 be 01 a9 50 3e ba a6 84 be
       -0.21131937 -0.13186683 0.2037697 -0.25908452
000020 52 c3 d9 be 17 b1 25 be 7c a3 45 be 14 09 4b 3c
       -0.4253183 -0.16180836 -0.19300646 0.012392301
000030 51 54 34 be 55 dd 05 bf 99 61 be bd 40 b4 26 3e
       -0.17610289 -0.5229085 -0.09295959 0.16279697

layers.1.Aw.conv3.weight f4 [1, 16, 3]
000000 b4 c1 d5 3e e4 18 78 be 74 ab 16 3e 80 1a 3e 3e
       0.41749346 -0.24228245 0.14713842 0.18564796
000010 6b 1f 4b 3d f0 42 2c 3d c8 28 1b 3d 48 dc 73 3e
       0.04959051 0.042056024 0.03788069 0.238145
000020 0d 16 e9 3d f5 8a 38 3e e2 3a 0c 3d 65 5c 8d 3d
       0.11381159 0.18021758 0.034235843 0.069023885
000030 a0 70 1b be 48 0b 98 be e0 4f ba 3e dc c9 e0 3c
       -0.15179682 -0.29696107 0.36389065 0.027440004
000040 98 d0 09 3e 91 0c 41 3d 4c a2 eb 3d cb 48 ba 3d
       0.13458478 0.047131125 0.11505565 0.090959154
000050 05 81 d2 3d 84 50 12 3e f9 68 62 3d be bf 02 3e
       0.10278515 0.14288527 0.05527589 0.12768456
000060 dd ff 2d 3e b2 95 42 3f 47 46 27 3f 6b 52 80 3d
       0.16992135 0.76009667 0.6534161 0.0626572
000070 68 cb fe 3d 85 0f ae 3d 29 10 9b 3d 9e a0 81 3e
       0.124411404 0.08499054 0.07571442 0.25317854
000080 e4 7a 80 3e ae 96 80 be 75 a8 bc bd 58 ed 0a 3e
       0.25093758 -0.2511496 -0.09211818 0.13567102
000090 db f4 e8 bc d9 93 c3 bd 2b 62 45 3e 94 88 da 3d
       -0.028437069 -0.09549684 0.1927573 0.106705815
0000a0 bf 88 82 bb ba 9c e0 bd cd 4a 02 3f 72 ee 3c bc
       -0.0039835866 -0.10967393 0.50895387 -0.011531459
0000b0 84 87 a4 be b7 23 b0 3c 05 43 1e 3e 07 15 d8 3c
       -0.3213464 0.021501405 0.15455253 0.026377214

layers.1.Ah.conv1.weight f4 [32, 1, 5]
000000 a0 d9 ae bc cf b0 76 3e 73 1a d8 be e4 9a 73 3e
       -0.021344006 0.24090885 -0.4220768 0.23789555
000010 8a 65 31 3e c2 e2 80 be 2d 85 29 3e 3b 2f bf be
       0.1732389 -0.25173002 0.16554709 -0.3734072
000020 b4 ee 08 3e a3 06 d9 be 6b 24 a5 3e 97 1d 21 be
       0.13372308 -0.42387876 0.32254347 -0.15733944
000030 18 07 f9 3c 12 4c c8 3e 8a dc 58 3d 59 cf cf be
       0.03039889 0.39120537 0.052944697 -0.4058788
000040 9d 55 3d 3e 94 41 80 3d 31 be 44 3e 35 ac 8a ba
       0.1848969 0.06262508 0.19213177 -0.0010579886
000050 2c a2 ab 3d 0f 32 29 be 64 cf 17 be 04 5e 64 3e
       0.08380541 -0.16523002 -0.14825207 0.22301489
000060 32 94 cc 3e f7 4d 3c 3e 71 1a bd bd bd 3e 3d 3d
       0.39956814 0.18389116 -0.09233559 0.04620241
000070 a7 31 bc bd fd 55 95 be 64 16 bd be 68 84 70 3e
       -0.09189158 -0.29167166 -0.36931145 0.23488009
000080 eb 55 f0 3d 88 53 8a be 27 ef aa bd 36 2b 99 bc
       0.117351376 -0.27016854 -0.08346396 -0.018697362
000090 a6 a1 08 3e 3b b9 9a 3e f4 5f c1 be ef f1 c3 3e
       0.13342914 0.30219445 -0.3776852 0.38270518
0000a0 3a 08 03 be a1 e4 e2 be f7 88 d0 bd f6 bd 83 3e
       -0.12796107 -0.44315055 -0.10182374 0.25730866
0000b0 63 22 ea bc 74 4f 54 bd 7e cf a1 be 9d a5 fe bc
       -0.02858085 -0.051833585 -0.31603616 -0.03108483
0000c0 d2 63 41 3d ac e2 39 be aa 2f b0 be 16 5d 12 be
       0.047214337 -0.18152875 -0.34411365 -0.14293322
0000d0 ec 70 b2 bd a8 8e 5b 3e 30 de 9d 3d 6c 56 8b be
       -0.087129444 0.21441138 0.077083945 -0.27214372
0000e0 1f 90 94 3e 8d 98 e0 bd 11 d3 d9 be ec a8 14 3e
       0.29016206 -0.10966597 -0.42543843 0.14517564
0000f0 16 9f d1 be a9 90 07 3e 1a 68 f7 3d cd 12 85 3e
       -0.40941685 0.13238777 0.12080403 0.25990906
000100 02 a4 02 3e e9 40 f2 3e a4 ba 21 3e 01 9e 55 be
       0.12757877 0.47315148 0.15793854 -0.20861055
000110 1c 2d 9c 3e a6 79 a7 3e cc 55 d7 3e 95 da a3 be
       0.30503166 0.32709998 0.42057645 -0.32002702
000120 78 47 ad 3e 07 3f b8 bd 44 85 48 bd f3 5f 7f 3e
       0.3384359 -0.089963965 -0.048955217 0.24938945
000130 0b 9d 69 be c2 45 78 3d 68 e5 cb bc 50 58 96 be
       -0.22813813 0.0606134 -0.024889663 -0.29364252
000140 e0 fd 09 bd 62 78 10 3d d3 5e 81 be f2 b5 ba 3d
       -0.03368938 0.035271056 -0.25267658 0.091167346
000150 90 c2 d4 bd fa 9f 42 3e 11 da ce be 78 88 23 be
       -0.10388672 0.19006339 -0.40400746 -0.15970027
000160 e1 1f b4 be e4 f6 0a 3e 1d 2c 6f 3e 86 f6 16 3e
       -0.35180572 0.13570744 0.23356672 0.14742479
000170 85 ad a6 3d 3b 2f b9 be 04 b1 b6 3d 97 d0 52 be
       0.08138565 -0.36168846 0.08920482 -0.20587383
000180 25 1c 18 be ad 6c 3a be 71 d1 2d be dd 9f 6b 3e
       -0.14854486 -0.18205519 -0.16974427 0.23010202
000190 1b 28 03 be 4e 30 aa bc 9e 69 42 3e dd 63 53 bd
       -0.12808268 -0.020774987 0.18985602 -0.05160891
0001a0 9c 67 b5 bd e3 52 2c bc bd 8d c6 be 2c c3 b8 bd
       -0.088576525 -0.010517809 -0.38780013 -0.09021601
0001b0 48 40 35 3e 28 fd 4e bd 15 da f3 3d 01 f6 98 bd
       0.17700303 -0.050534397 0.1190683 -0.074687965
0001c0 7c b2 ae 3d 1d 1a 16 be 29 f7 f0 bc f5 0d 2b be
       0.08530137 -0.14658399 -0.02941473 -0.16704543
0001d0 64 9e 1b 3d 07 c0 ce be b8 cf 93 be e5 83 93 3d
       0.03799285 -0.4038088 -0.28869414 0.07202891
0001e0 f5 26 67 be 1c d0 0d be 6b c2 7e bc 82 be 8b 3e
       -0.22573455 -0.13848919 -0.015549283 0.27293783
0001f0 b7 81 96 3c 99 07 d2 3d ed 0e 1e 3e 13 47 d9 3e
       0.0183724 0.102553554 0.15435381 0.42437038
000200 ea 9d 26 3e 26 05 28 3e 59 b6 00 ba be b6 b6 bd
       0.16271177 0.16408214 -0.00049099844 -0.08921574
000210 54 26 15 be eb 70 de 3c d3 cd 81 be 81 6a 86 3e
       -0.14565402 0.027153453 -0.25352344 0.2625313
000220 2d 2b a9 3d f3 8d 90 3e dd 96 87 bd 42 a8 88 3e
       0.08260188 0.282333 -0.06620572 0.2669087
000230 f7 72 65 3e a6 d9 60 3e 29 ae 32 be c5 9f 85 bd
       0.22407137 0.21958026 -0.1744925 -0.06524614
000240 45 7b bc 3e 88 eb db be ee 23 c1 3e 23 15 a0 bc
       0.36812797 -0.42953134 0.37722725 -0.019541329
000250 33 5d 70 3d f9 e7 af 3e 27 d9 db 3d bc 14 ea 3d
       0.05868263 0.3435667 0.10734778 0.11429736
000260 87 7d df be 03 9e 36 be 84 11 68 3e 8e 8d dc 3a
       -0.43650457 -0.17833714 0.22662932 0.0016826855
000270 88 b0 d9 be be 7f 99 3d bd 4a cb be 69 49 cf bc
       -0.42517495 0.07495068 -0.39705458 -0.02530356

layers.1.Ah.conv1.bias f4 [32]
000000 5d dc 13 3e 06 76 c3 3e ff 60 be be 4e 90 cd bb
       0.1443953 0.38175982 -0.37183377 -0.006273306
000010 d5 c5 1d be 1d bb d8 3c 1b 09 3f 3e 81 3c 15 be
       -0.15407498 0.02645641 0.18655817 -0.14573862
000020 06 17 ed 3d 69 ae 75 3d 79 39 17 3e b0 56 e1 3d
       0.11576657 0.059980784 0.14768018 0.110028625
000030 c6 ca ca bd a9 d5 c8 be 5f 16 b7 be f8 6c c7 3c
       -0.09901957 -0.3922551 -0.35759255 0.024343953
000040 81 63 80 3d 7c 2a 67 3e bc 84 b3 bd 1d 8a 62 3d
       0.06268979 0.225748 -0.087655514 0.055307496
000050 bd b1 0f be cb 59 79 3d 38 80 c8 3d 8c 07 9a 3e
       -0.14032646 0.06087665 0.09790081 0.30083883
000060 f4 e3 57 3d e6 f2 9e be 6c 9e 12 bb 79 6b 3d be
       0.052707627 -0.31044692 -0.0022372259 -0.18498029
000070 46 03 86 be 6b 57 46 be d9 85 8c 3d a1 cd 82 3b
       -0.26174372 -0.19369285 0.06861467 0.003991798
