models/1e-2lr_intermitent_W_clip_10%.pt (torch, 430987 bytes, 220 tensors)

layers.0.Aw.conv1.weight f4 [32, 1, 5]
0.2403345 0.3921908 0.19758579 0.42232007 0.3568127 0.35517436 0.078424044 0.3664355
0.08112861 0.11801145 0.26229146 0.49129957 0.2986794 0.49482337 -0.03693513 0.10091715
0.059508722 -0.10506793 -0.22101195 -0.23674925 0.21281397 -0.04474239 0.022518026 -0.35986504
0.12651022 0.21443307 -1.057343 -0.2532377 0.80447257 0.9148975 -0.27170146 0.06882411
-0.02934133 -0.2619051 -0.19717827 -0.5187431 -0.5115818 -0.4100737 -0.09674119 -0.13014707
-0.2849482 -0.54393125 -0.4311928 -0.38812837 -0.06158864 -0.879182 -0.3457447 0.30820897
-0.06022858 0.29538527 -0.36840877 -0.19336648 -0.8141758 -1.080977 -0.36459067 -0.7292225
-0.3491694 1.1588241 0.90017706 1.2024465 0.13439097 -0.2532295 0.06729417 -0.10660755
0.2651195 -0.05514894 -0.030340252 0.13545604 -0.027054137 0.2118352 -0.6481058 -0.52805305
-0.8589233 -0.66867816 0.27001587 -0.8874754 -0.38187099 0.30237293 -0.5554314 -0.6469942
-0.13967472 -0.21859524 -0.13648105 -0.17579958 0.16963005 -0.49234915 -0.28564206 -0.577256
-0.16529116 -0.2025091 0.09733463 0.13670628 0.29844564 -0.3786827 -0.2989089 -0.4976211
-0.63563436 0.7514995 0.93162143 1.3085779 -0.5351588 -0.32488155 -0.812481 -0.25377005
-0.6491026 -0.16531229 1.2306092 1.2291218 0.5508838 0.26148748 -0.23848301 0.0507221
0.050031982 -0.45737097 0.08395615 -0.7441026 -0.3404604 -0.8529438 -0.6324202 -0.70997363
0.5437285 0.2838006 -0.5611587 -0.6365851 -1.0748471 -0.22004613 -0.30054614 -0.6782038
-0.11525502 -0.14472835 -0.24105462 -0.5251201 -0.50271785 0.46157894 0.37835944 -1.5594472
-0.59515125 0.4715805 1.4199917 1.4009521 0.8724843 0.91304535 0.29450837 0.47356796
0.09847392 0.10113528 0.01214301 0.033211105 0.064477324 -0.4552754 0.36323375 -0.70110756
-1.451197 -1.0284731 -1.0123148 0.04019186 -0.61745346 0.016546587 0.6359912 1.3918289
00000000: 3f1a 763e 3ccd c83e ee53 4a3e 563a d83e
00000010: 27b0 b63e 6ad9 b53e c99c a03d 6f9d bb3e
00000020: c226 a63d fdaf f13d 114b 863e 9e8b fb3e
00000030: 82ec 983e 7d59 fd3e 4a49 17bd a7ad ce3d
00000040: 6bbf 733d db2d d7bd f550 62be 656e 72be
00000050: e8eb 593e cc43 37bd b977 b83c 3b40 b8be
00000060: e58b 013e 5894 5b3e 0457 87bf 5fa8 81be
00000070: eaf1 4d3f b936 6a3f 741c 8bbe a8f3 8c3d
00000080: 3b5d f0bc 6d18 86be 1ae9 49be 59cc 04bf
00000090: 06f7 02bf 2ef5 d1be 3f20 c6bd 4645 05be
000000a0: bbe4 91be 143f 0bbf 4dc5 dcbe c3b8 c6be
000000b0: 5f44 7cbd 1212 61bf 7305 b1be 91cd 9d3e
000000c0: 3eb2 76bd bd3c 973e 13a0 bcbe dd01 46be
000000d0: d36d 50bf 745d 8abf a1ab babe 53ae 3abf
000000e0: 55c6 b2be 5954 943f 0172 663f c4e9 993f
000000f0: c99d 093e 4ca7 81be 87d1 893d 0f55 dabd
00000100: bebd 873e dbe3 61bd 1f8c f8bc fdb4 0a3e
00000110: a3a0 ddbc 54eb 583e 43ea 25bf 7c2e 07bf
00000120: 66e2 5bbf 7e2e 2bbf 853f 8a3e 9631 63bf
00000130: 9884 c3be a0d0 9a3e c130 0ebf 69a1 25bf
00000140: e406 0fbe 6ed7 5fbe b0c1 0bbe ce04 34be
00000150: 80b3 2d3e 3015 fcbe ad3f 92be 0dc7 13bf
00000160: 1642 29be 8c5e 4fbe 6157 c73d bbfc 0b3e
00000170: decd 983e b3e2 c1be 960a 99be 31c8 febe
00000180: efb8 22bf 4562 403f be7e 6e3f 7b7f a73f
00000190: 2b00 09bf e056 a6be c1fe 4fbf 26ee 81be
000001a0: 972b 26bf a047 29be 9a84 9d3f dd53 9d3f
000001b0: b906 0d3f b0e1 853e e434 74be fac1 4f3d
000001c0: 56ee 4c3d 872c eabe 34f1 ab3d 827d 3ebf
000001d0: d350 aebe 865a 5abf 4ae6 21bf d5c0 35bf
000001e0: ca31 0b3f 504e 913e 19a8 0fbf 3ef7 22bf
000001f0: 9794 89bf c653 61be 2fe1 99be c49e 2dbf
00000200: d30a ecbd ab33 14be 06d7 76be 456e 06bf
00000210: 1eb2 00bf 1354 ec3e 54b8 c13e f79b c7bf
00000220: d55b 18bf 0073 f13e 4ac2 b53f 6652 b33f
00000230: 225b 5f3f 57bd 693f cdc9 963e 8077 f23e
00000240: b2ac c93d 0420 cf3d 7af3 463c 5e08 083d
00000250: b00c 843d db19 e9be c6f9 b93e c97b 33bf
00000260: d3c0 b9bf 02a5 83bf 8893 81bf 38a0 243d
00000270: 6e11 1ebf b58c 873c 52d0 223f 7327 b23f

layers.0.Aw.conv1.bias f4 [32]
-0.2142701 -0.39734334 -0.2781971 -0.061790522 -0.08023156 -0.22853126 -0.064906515 -0.109129876
-0.0015126965 -0.11599427 0.13891299 -0.29297185 -0.1635748 -0.18364272 0.03381275 0.07323867
-0.045506846 -4.9618397e-05 -0.14728406 -0.26854387 0.05139258 0.11520589 -0.07220449 0.11739746
-0.2652803 -0.0545368 -0.2275225 -0.13961521 0.07228769 -0.09309974 0.32877046 -0.29357955
00000000: 9f69 5bbe 9670 cbbe da6f 8ebe 0f18 7dbd
00000010: 7250 a4bd 1904 6abe b5ed 84bd 7c7f dfbd
00000020: ac45 c6ba 678e edbd 353f 0e3e 6800 96be
00000030: 2780 27be d60c 3cbe 3d7f 0a3d 28fe 953d
00000040: 6365 3abd 591d 50b8 a2d1 16be 957e 89be
00000050: 0781 523d 11f1 eb3d f3df 93bd 146e f03d
00000060: d2d2 87be fb61 5fbd a9fb 68be 4af7 0ebe
00000070: 920b 943d 14ab bebd 9a54 a83e 0f50 96be

layers.0.Aw.conv2.weight f4 [16, 32, 3]
-0.14459732 -0.08803341 -0.035692725 0.316717 0.24479686 0.007602844 -0.2324311 -0.28069595
-0.1532021 -0.028789591 0.051283527 -0.015612778 0.03876819 -0.03955786 -0.07437791 -0.06164585
-0.26177773 0.016634302 -0.01068543 -0.010821649 -0.06751872 -0.054685626 0.0008163085 0.00194813
0.026333109 -0.061210375 -0.04434406 -0.062023886 0.020219557 -0.056683466 0.07518802 -0.009038561
-0.06338967 0.0857902 0.73186946 0.5023606 0.008533507 0.039610013 -0.05525503 0.010505006
-0.12045638 -0.12906456 0.16890138 0.027336888 -0.019456226 -0.012881668 0.08060471 0.24862562
-0.027913926 -0.049004316 0.010198448 0.07745985 -0.06412377 0.043092497 -0.300858 -0.35001725
-0.030835185 0.011522468 0.4845054 0.20193535 -0.042259354 0.035379697 -0.09931686 -0.6467256
0.30800438 1.1683317 -0.047483 -0.08416241 -0.0076103634 0.0498965 -0.07201922 -0.020264491
-0.13336009 -0.01720143 -0.16102585 0.051927797 0.07185052 -0.019138124 0.009063816 -0.058698907
-0.08332651 0.4864106 0.9803097 0.33818135 0.059961576 -0.6155772 -0.27449042 -0.0715729
-0.017173218 0.020230414 0.5133503 0.01846882 0.009905178 -0.0024812531 -0.14026162 -0.10680267
0.100804694 0.13990204 0.08292367 -0.051667094 -0.14272851 -0.017731164 0.037726354 0.13077566
0.0064798566 -0.08909846 -0.11127606 0.033820085 -0.036721688 -0.076016165 -0.094311304 -0.09433249
-0.04356596 -0.02783534 0.02652738 0.031125447 -0.015714006 -0.10170322 -0.10609253 -0.12938371
-0.05116393 -0.11408597 -0.0627619 -0.07067016 -0.21580094 -0.18486506 -0.15254088 -0.010498164
-0.18591318 -0.15385984 -0.086851284 -0.0741844 -0.025085796 -0.07370134 -0.0042767734 0.04956587
0.010411557 -0.021020804 -0.21160397 -0.06644627 -0.11564648 -0.16986014 -0.27500004 0.00017224257
-0.07392445 -0.0627647 -0.04570046 -0.08789859 -0.13329446 -0.07154623 0.15750532 -0.013324794
-0.14544868 0.086429246 -0.07100952 0.041820873 -0.042597007 -0.008219044 -0.08746791 -0.13798997
-0.4136638 -0.57239866 0.047430187 0.08507398 0.026513191 -0.1722918 -0.04146098 -0.097739145
0.022598917 0.071753256 0.06280438 -0.10581932 -0.052097976 -0.108895674 -0.2438398 -0.10896256
-0.045215663 -0.37351543 -0.17741479 -0.19685714 0.21897721 -0.029823462 -0.31471875 -0.022724103
-0.060189333 0.05994174 0.20376873 0.35230285 -0.050226443 0.02865963 -0.11373407 -0.044434212
0.15632324 0.18178542 0.08718542 0.13745335 -0.056083646 0.052954637 0.32647485 0.3013503
0.15512142 0.02351652 0.10046988 0.05021518 0.11096538 0.123999335 0.0037133612 -0.2041528
-0.5446939 0.06722176 0.048991576 0.046386987 0.07517293 -0.25123352 -0.2165795 -0.15450206
-0.070694946 -0.21731141 -0.12922855 -0.73055387 -1.0755104 -1.1470982 -0.48042014 -0.16451731
-0.2738115 0.07768792 -0.0544832 -0.21150416 0.09515372 -0.0136629045 0.1842535 0.04666132
-0.18293615 -0.12491865 -0.57477933 -0.40971625 -0.3636712 -0.3168434 -0.4515565 -0.4701568
0.023013243 0.033808757 0.14720713 -0.32374045 -0.3057784 -0.2858899 0.44937763 0.36105374
-0.11470712 0.029662834 -0.1219823 -0.13416396 -0.26724553 -0.30168575 -0.12783146 -0.11002539
00000000: 5211 14be dc4a b4bd 8932 12bd bb28 a23e
00000010: 07ac 7a3e 4721 f93b 6b02 6ebe 61b7 8fbe
00000020: 03e1 1cbe 26d8 ebbc ad0e 523d bdcc 7fbc
00000030: 65cb 1e3d 6c07 22bd 7253 98bd 5c80 7cbd
00000040: bb07 86be a944 883c f111 2fbc 494d 31bc
00000050: 4147 8abd 09fe 5fbd 89fd 553a 6558 ff3a
00000060: 88b8 d73c bbb7 7abd 1ea2 35bd c20c 7ebd
00000070: 7ca3 a53c ec2c 68bd 2dfc 993d 7916 14bc
00000080: 71d2 81bd c6b2 af3d cc5b 3b3f b49a 003f
00000090: 1fd0 0b3c 1c3e 223d 1953 62bd 301d 2c3c
000000a0: d6b1 f6bd 8029 04be 7cf4 2c3e 9cf1 df3c
000000b0: aa62 9fbc a20d 53bc 1514 a53d b797 7e3e
000000c0: bfab e4bc c0b8 48bd 6417 273c 45a3 9e3d
000000d0: 5353 83bd c281 303d 0f0a 9abe 7635 b3be
000000e0: 129a fcbc bcc8 3c3c 1711 f83e 24c8 4e3e
000000f0: 2518 2dbd 4dea 103d a366 cbbd cf8f 25bf
00000100: c0b2 9d3e e58b 953f 897d 42bd 575d acbd
00000110: 5b60 f9bb 4660 4c3d d07e 93bd b801 a6bc
00000120: 8c8f 08be 03ea 8cbc f6e3 24be 3eb2 543d
00000130: 5e26 933d 8ec7 9cbc 6680 143c 446e 70bd
00000140: 17a7 aabd cf0a f93e 94f5 7a3f 1b26 ad3e
00000150: 459a 753d 7896 1dbf 028a 8cbe d094 92bd
00000160: d9ae 8cbc 41ba a53c ed6a 033f ec4b 973c
00000170: 5449 223c 859c 22bb bea0 0fbe 5cbb dabd
00000180: b172 ce3d 7b42 0f3e e3d3 a93d e0a0 53bd
00000190: 6c27 12be f240 91bc f386 1a3d 0eea 053e
000001a0: fa54 d43b 4179 b6bd b4e4 e3bd ee86 0a3d
000001b0: 7b69 16bd 5dae 9bbd 4926 c1bd 6431 c1bd
000001c0: 3872 32bd f006 e4bc f34f d93c cbfa fe3c
000001d0: a9ba 80bc c749 d0bd 0a47 d9bd 2a7d 04be
000001e0: 4591 51bd e8a5 e9bd 5089 80bd 84bb 90bd
000001f0: ecfa 5cbe 444d 3dbe ad33 1cbe 7e00 2cbc
00000200: 0660 3ebe 6f8d 1dbe 16df b1bd feed 97bd
00000210: ba80 cdbc baf0 96bd 2d24 8cbb 9505 4b3d
00000220: 3c95 2a3c d233 acbc b6ae 58be fb14 88bd
00000230: 10d8 ecbd d1ef 2dbe cecc 8cbe 039c 3439
00000240: b465 97bd c78a 80bd 6830 3bbd 2d04 b4bd
00000250: 587e 08be d486 92bd 1349 213e 3d50 5abc
00000260: 80f0 14be d101 b13d 706d 91bd 5d4c 2b3d
00000270: 337a 2ebd 2ba9 06bc 6022 b3bd 3e4d 0dbe
00000280: becb d3be b888 12bf 2846 423d 443b ae3d
00000290: 3132 d93c 436d 30be fdd2 29bd 762b c8bd
000002a0: 5d21 b93c 5ff3 923d 959f 803d cdb7 d8bd
000002b0: b064 55bd b204 dfbd 24b1 79be c327 dfbd
000002c0: 0f34 39bd 6a3d bfbe 39ac 35be eb94 49be
000002d0: 903b 603e 5550 f4bc d122 a1be e627 babc
000002e0: 1789 76bd 7885 753d c0a8 503e 0a61 b43e
000002f0: 3eba 4dbd 9ac7 ea3c 68ed e8bd a600 36bd
00000300: 3313 203e f525 3a3e 458e b23d 92c0 0c3e
00000310: f7b7 65bd f6e6 583d b627 a73e 964a 9a3e
00000320: 26d8 1e3e b8a5 c03c 27c3 cd3d 6fae 4d3d
00000330: d141 e33d 5df3 fd3d dd5b 733b 6e0d 51be
00000340: 0f71 0bbf 90ab 893d 64ab 483d 4800 3e3d
00000350: 44f4 993d aea1 80be 04c7 5dbe ca35 1ebe
00000360: 83c8 90bd e286 5ebe 7d54 04be 9405 3bbf
00000370: 53aa 89bf 1dd4 92bf a1f9 f5be 3a77 28be
00000380: 0531 8cbe d81a 9f3d c729 5fbd 8c94 58be
00000390: f4df c23d 60da 5fbc f3ac 3c3e f11f 3f3d
000003a0: 9d53 3bbe 59d5 ffbd bd24 13bf 54c6 d1be
000003b0: 1d33 babe 4c39 a2be 6a32 e7be 64b8 f0be
000003c0: 4586 bc3c 0d7b 0a3d 77bd 163e 4fc1 a5be
000003d0: fd8e 9cbe 2960 92be d314 e63e 09dc b83e
000003e0: 91eb eabd 79ff f23c dbd1 f9bd 4762 09be
000003f0: 68d4 88be 8e76 9abe 40e6 02be fe54 e1bd

layers.0.Aw.conv2.bias f4 [16]
0.028561747 -0.17674467 -0.07515857 -0.05556379 0.031882364 -0.19278695 -0.038499877 0.01681065
-0.129518 -0.32156706 -0.09282065 -0.047848407 -0.0065240194 -0.07237197 0.00116233 -0.20218407
00000000: 53fa e93c 8efc 34be bdec 99bd db96 63bd
00000010: 1597 023d f169 45be 0cb2 1dbd 7db6 893c
00000020: 5ea0 04be 70a4 a4be c118 bebd b1fc 43bd
00000030: 71c7 d5bb c137 94bd 5359 983a 5709 4fbe

layers.0.Aw.conv3.weight f4 [1, 16, 3]
-0.27306953 0.13997784 0.115992084 0.073696904 0.15465869 -0.065775916 0.31967703 -0.10278548
-0.08617341 0.14935702 0.02889626 0.036110107 0.101667516 -0.15173434 -0.11107702 -0.13132143
-0.09041122 0.24789973 0.051669993 0.052625217 -0.19443578 0.04609002 0.094027914 0.1324301
-0.35343865 -0.0011414983 0.32441363 -0.006867811 -0.003364133 -0.043464538 -0.0004480349 0.009008287
0.05215278 0.07181739 -0.090518266 0.069881886 0.025078116 0.0055080894 0.13870062 0.1319224
0.12890899 0.1726224 0.2054558 0.18989006 -0.33846727 0.079373844 0.063875124 0.05868026
00000000: c5cf 8bbe 5a56 0f3e 428d ed3d 67ee 963d
00000010: d95e 1e3e 86b5 86bd b5ac a33e 3281 d2bd
00000020: af7b b0bd 0cf1 183e d9b7 ec3c 31e8 133d
00000030: 0f37 d03d 3f60 1bbe 597c e3bd 2079 06be
00000040: 8529 b9bd 6dd9 7d3e eaa3 533d 8a8d 573d
00000050: 2c1a 47be e4c8 3c3d b591 c03d c29b 073e
00000060: e9f5 b4be 549e 95ba 8b19 a63e 600b e1bb
00000070: c978 5cbb df07 32bd 3ae6 eab9 7f97 133c
00000080: 279e 553d ff14 933d a461 b9bd 3c1e 8f3d
00000090: 9f70 cd3c 347d b43b 8907 0e3e aa16 073e
000000a0: b800 043e edc3 303e 0163 523e 8a72 423e
000000b0: 954b adbe c18e a23d f6d0 823d b65a 703d

layers.0.Ah.conv1.weight f4 [32, 1, 5]
-0.18840846 -0.08970052 -0.16869508 0.18381819 -0.45373335 0.091475695 0.21850581 -0.15585573
-0.17597103 -0.1903318 -0.03322509 -0.09077975 -0.12608948 -0.25597963 -0.40560222 -0.31296998
0.0067637544 -0.061085664 0.019095266 -0.106324114 0.0018796321 -0.2828113 -0.12182491 -0.27121758
0.18194458 0.21792865 -0.08612348 0.4029272 -0.12109586 -0.4024431 -0.12641257 0.054114398
-0.1821687 -0.47938597 0.030949263 0.43603656 -0.028125092 0.25136304 -0.21259998 0.19419493
0.18823402 -0.10208625 0.12197441 -0.25170252 -0.17474143 -0.33274943 -0.22998163 -0.15588816
0.06405302 -0.34967032 0.075447075 -0.03258848 -0.12964348 0.055912063 -0.11158258 -0.35135964
0.27517527 0.19279508 0.21187694 -0.12386319 -0.18580136 0.05565335 -0.14533933 0.5281071
0.04700878 -0.2918106 -0.0011297712 0.044150073 -0.3529716 0.17485058 -0.20255639 -0.24672294
-0.47801295 0.1948883 -0.24073203 -0.08039642 0.0035473872 -0.16113436 0.1664299 0.41731116
0.19516481 -0.14145742 0.12376614 -0.18917595 0.12643725 -0.40865684 -0.2436469 -0.34867966
0.06632784 -0.37579948 0.16160086 -0.2290176 0.019801652 -0.19882725 -0.38453367 0.028396698
-0.5294835 -0.5274918 -0.86498356 -0.8342164 0.024761777 -0.34080815 -0.19931564 -0.06486776
-0.33485895 0.11892611 0.06175354 -0.21626575 0.08950908 -0.0116123725 -0.12709673 -0.023491325
0.12373656 -0.058288284 -0.54784185 -0.4530744 0.24237072 -0.057847843 0.25733426 -0.30025432
0.10587545 0.0017075036 -0.082029626 -0.46278828 0.17685908 -0.0052252626 -0.30063817 -0.16698422
0.23736775 -0.19311386 -0.018327864 0.11171281 0.042412605 -0.12766528 0.10204834 0.86472416
0.38687912 0.43669027 0.8503181 0.1852895 0.010182859 -0.51541495 -0.5052884 -0.43433908
-0.35501787 -0.23233846 -0.06802466 -0.17797461 0.14568321 0.10785659 -0.15837377 -0.37049308
0.2622084 -0.21419223 -0.10568209 0.04343359 0.0098380055 -0.23488879 0.14824113 -0.24120778
00000000: 26ee 40be e8b4 b7bd 67be 2cbe d63a 3c3e
00000010: bd4f e8be 9c57 bb3d fdbf 5f3e a598 1fbe
00000020: c031 34be 57e6 42be 0817 08bd bcea b9bd
00000030: 9a1d 01be c30f 83be 18ab cfbe 9a3d a0be
00000040: 7ca2 dd3b f634 7abd ad6d 9c3c 75c0 d9bd
00000050: fd5d f63a a5cc 90be 577f f9bd 08dd 8abe
00000060: ae4f 3a3e b028 5f3e 8261 b0bd 794c ce3e
00000070: 1b01 f8bd 060d cebe 4c72 01be 0fa7 5d3d
00000080: 6f8a 3abe 1472 f5be 4f89 fd3c 2f40 df3e
00000090: 9866 e6bc a8b2 803e cfb3 59be 09db 463e
000000a0: 6bc0 403e 9912 d1bd b8cd f93d 27df 80be
000000b0: 6bef 32be 225e aabe 4e80 6bbe 25a1 1fbe
000000c0: 3b2e 833d fd07 b3be ff83 9a3d 7f7b 05bd
000000d0: 43c1 04be 0c04 653d 6885 e4bd 69e5 b3be
000000e0: c6e3 8c3e 136c 453e 45f6 583e fcab fdbd
000000f0: b642 3ebe c4f4 633d d5d3 14be 0732 073f
00000100: 478c 403d 3368 95be d514 94ba b5d6 343d
00000110: b2b8 b4be 080c 333e f16a 4fbe f0a4 7cbe
00000120: 1dbe f4be cc90 473e 7582 76be e1a6 a4bd
00000130: 487b 683b 6800 25be 9a6c 2a3e cfa9 d53e
00000140: 49d9 473e 37da 10be 1a79 fd3d 57b7 41be
00000150: c478 013e 783b d1be 937e 79be 2486 b2be
00000160: e4d6 873d ca68 c0be b27a 253e 9783 6abe
00000170: 1337 a23c 5f99 4bbe 99e1 c4be 31a0 e83c
00000180: 3b8c 07bf b409 07bf 906f 5dbf 358f 55bf
00000190: 36d9 ca3c 687e aebe 6619 4cbe 63d9 84bd
000001a0: a272 abbe 888f f33d 48f1 7c3d c574 5dbe
000001b0: 8950 b73d d241 3ebc a525 02be e170 c0bc
000001c0: 9869 fd3d b2bf 6ebd 5d3f 0cbf 5ef9 e7be
000001d0: 0830 783e dcf1 6cbd 51c1 833e efba 99be
000001e0: 3ad5 d83d 50ce df3a 26ff a7bd 96f2 ecbe
000001f0: 8c1a 353e ae38 abbb 3fed 99be e9fd 2abe
00000200: 8810 733e a4bf 45be 5124 96bc b0c9 e43d
00000210: d7b8 2d3d b0ba 02be b8fe d03d 905e 5d3f
00000220: 0515 c63e de95 df3e 72ae 593f 88bc 3d3e
00000230: 02d6 263c 3cf2 03bf 955a 01bf b161 debe
00000240: e7c4 b5be 22ea 6dbe 8350 8bbd fa3e 36be
00000250: fb2d 153e eae3 dc3d bc2c 22be 45b1 bdbe
00000260: 2e40 863e 3555 5bbe da6f d8bd 6ce7 313d
00000270: 962f 213c b086 70be 86cc 173e 2cff 76be

layers.0.Ah.conv1.bias f4 [32]
-0.11053431 -0.07302279 0.05839406 -0.34637108 -0.013735215 0.47188213 -0.43744734 0.74311143
0.37854356 0.06439898 0.61711854 -0.5201943 -0.89920515 -0.007315842 -0.04340942 1.5406383
-0.608499 0.149641 0.017813424 0.22021987 -0.08859311 -0.33882082 -0.10346069 -0.20262787
-0.17235233 -0.0028522683 -0.6269872 1.7484818 0.08328861 -0.5460271 0.021115463 0.34688917
00000000: d05f e2bd f98c 95bd 9c2e 6f3d 8d57 b1be
00000010: ab09 61bc 899a f13e 19f9 dfbe 8d3c 3e3f
00000020: 76d0 c13e 9de3 833d 7bfb 1d3f 742b 05bf
00000030: 4f32 66bf bbb9 efbb 13ce 31bd a333 c53f
00000040: 97c6 1bbf 7e3b 193e 75ed 913c 5181 613e
00000050: 4e70 b5bd ec79 adbe 33e3 d3bd ae7d 4fbe
00000060: 217d 30be 1fed 3abb 3c82 20bf 40ce df3f
00000070: 3893 aa3d 6fc8 0bbf 56fa ac3c 759b b13e

layers.0.Ah.conv2.weight f4 [16, 32, 3]
0.00033737358 -0.02439232 0.02267843 0.02395296 -0.07282123 -0.08311395 0.11346704 0.04302285
0.057373352 -0.020021204 -0.039751697 -0.028436702 0.003747521 0.0632975 -0.038307417 0.02578458
-0.11646718 -0.096264675 -0.013051207 -0.010916876 -0.058289587 0.030972088 0.041938245 -0.09821106
-0.066052124 -0.07700803 -0.054080267 0.039872475 0.009878591 -0.001989596 0.021535976 -0.08482995
0.06906969 -0.07758179 -0.04005679 -0.119784325 -0.22066079 -0.0940809 -0.17037903 -0.02777152
0.085174255 0.028548753 -0.09637191 -0.04585796 0.05689939 -0.117281936 -0.13296564 -0.053544257
0.057574805 0.04091765 -0.05813209 0.03367999 0.065871276 -0.0142528815 0.030495832 0.07376069
0.024870308 -0.24023902 -0.46704435 -0.07474226 -0.055245455 -0.029857669 -0.038486566 -0.06404695
0.0072584026 -0.03905476 -0.06801033 -0.06135763 0.07321179 -0.09429917 -0.09412711 -0.06146165
-0.07132283 0.051489808 -0.00043069498 -0.09682064 -0.16619517 -0.11517148 -0.109591834 -0.043198075
-0.05503098 -0.042662434 -0.015365881 -0.038399067 -0.042494476 -0.0406686 0.07331097 -0.06427284
0.013322447 0.023366293 0.04250082 -0.008950038 -0.05663526 -0.0992532 -0.032340612 -0.045168467
0.021719288 0.021815816 -0.06864173 0.063487664 0.11944353 0.004771383 -0.028707424 -0.09308698
-0.013199323 -0.005665143 0.11320057 -0.040844414 -0.11703425 -0.11337268 -0.09883339 -0.18302473
-0.20036122 -0.10804289 0.077959076 0.03703707 0.10800371 0.06008363 0.047565546 -0.0044336347
-0.10361539 -0.12014766 -0.05997779 -0.063223414 -0.1287511 -0.11382139 -0.056509152 0.06250706
0.08355377 0.08779067 0.018344274 -0.02774354 0.0725352 0.11112588 0.07510809 -0.050062597
0.0007364374 -0.12643997 0.053700984 0.041059334 -0.053648833 -0.0935092 -0.075172246 -0.085244045
-0.07705628 -0.047516108 -0.0857028 -0.15814973 -0.061289106 -0.04724005 -0.07408546 -0.1345693
-0.06793419 0.12243315 0.04999464 0.10266082 0.027489025 -0.019343425 0.01989813 0.010224015
0.06281064 -0.05350441 0.019960834 -0.03393118 0.08711474 0.043808013 -0.032631956 -0.09713121
0.06594549 -0.00665514 0.08464829 0.016813211 -0.08413722 -0.09154181 0.11903254 0.020207383
0.07757397 -0.036374714 -0.051076178 0.029258307 -0.12376218 -0.015101693 -0.07073997 -0.047531303
0.021309737 -0.012973509 -0.16566187 -0.13640215 -0.06721942 -0.21792126 -0.081399694 -0.1703244
-0.12641813 -0.028063433 -0.09377072 0.025270136 0.099960424 -0.0035934139 0.39452896 0.46793246
0.54207295 -0.033659007 -0.052650206 -0.09625809 -0.28232107 -0.1587922 -0.23650707 0.16760518
0.15882272 0.2298917 -0.004170969 -0.027990218 -0.11205882 0.34435934 0.28327683 0.24326906
0.2054161 0.14258322 0.16687995 0.43596113 0.38614205 0.4711898 0.2901996 0.22568277
0.2539284 0.028749315 0.0008573508 -0.06790047 -0.6692598 -0.66949266 -0.7196693 -0.3503826
-0.25484294 -0.38084966 -0.08497261 -0.08816816 -0.105939575 0.77135974 0.6552398 0.7469052
-0.18662667 -0.25283116 -0.06538133 0.30132678 0.32935703 0.3267849 0.019421076 0.18342821
0.14169486 1.0196826 0.96806324 1.1716182 -0.2466327 -0.336396 -0.099257156 -0.058547635
00000000: 84e1 b039 67d2 c7bc 1dc8 b93c ff38 c43c
00000010: 4c23 95bd a637 aabd 6861 e83d ba38 303d
00000020: 5200 6b3d 8203 a4bc add2 22bd 16f4 e8bc
00000030: f898 753b 1fa2 813d 3de8 1cbd 2f3a d33c
00000040: 5886 eebd 6a26 c5bd bbd4 55bc b2dc 32bc
00000050: 10c1 6ebd 2db9 fd3c 70c7 2b3d e122 c9bd
00000060: 5646 87bd 63b6 9dbd 4583 5dbd 5251 233d
00000070: d0d9 213c e263 02bb 376c b03c 53bb adbd
00000080: 6974 8d3d 34e3 9ebd 9712 24bd 7c51 f5bd
00000090: e7f4 61be 7dad c0bd d777 2ebe 1981 e3bc
000000a0: d76f ae3d 13df e93c a35e c5bd 8ed5 3bbd
000000b0: 560f 693d 8331 f0bd 2528 08be 3951 5bbd
000000c0: 8fd3 6b3d 4499 273d ea1b 6ebd 07f4 093d
000000d0: 85e7 863d eb84 69bc 65d2 f93c d80f 973d
000000e0: d1bc cb3c 3801 76be 7020 efbe 7812 99bd
000000f0: 0f49 62bd 1298 f4bc 17a4 1dbd 0c2b 83bd
00000100: e5d7 ed3b e2f7 1fbd 0049 8bbd 2352 7bbd
00000110: 10f0 953d ec1f c1bd b7c5 c0bd 36bf 7bbd
00000120: b411 92bd fae6 523d e7ce e1b9 e649 c6bd
00000130: 112f 2abe 06df ebbd af71 e0bd 77f0 30bd
00000140: 2a68 61bd cebe 2ebd 2dc1 7bbc 5748 1dbd
00000150: b00e 2ebd 1e94 26bd 1024 963d 7ba1 83bd
00000160: 6546 5a3c ab6a bf3c 5715 2e3d 2ea3 12bc
00000170: 60fa 67bd 4345 cbbd 9777 04bd 9202 39bd
00000180: a6ec b13c 15b7 b23c 0994 8cbd d205 823d
00000190: cf9e f43d 4359 9c3b d52b ebbc 63a4 bebd
000001a0: f941 58bc aaa2 b9bb b3d5 e73d 794c 27bd
000001b0: a7af efbd f02f e8bd 2969 cabd d66a 3bbe
000001c0: 7e2b 4dbe 9745 ddbd 02a9 9f3d 2fb4 173d
000001d0: 0d31 dd3d 411a 763d 17d4 423d 0648 91bb
000001e0: 4e34 d4bd fa0f f6bd 45ab 75bd 477b 81bd
000001f0: 54d7 03be 301b e9bd 2476 67bd b403 803d
00000200: 3d1e ab3d 98cb b33d bb46 963c 6c46 e3bc
00000210: 568d 943d f795 e33d 45d2 993d 700e 4dbd
00000220: 7a0d 413a 7b79 01be 90f5 5b3d d52d 283d
00000230: e1be 5bbd c081 bfbd e8f3 99bd 6e94 aebd
00000240: afcf 9dbd 40a0 42bd f384 afbd 01f2 21be
00000250: 490a 7bbd c87e 41bd 1eba 97bd 89cc 09be
00000260: 1521 8bbd 3bbe fa3d 2ec7 4c3d d63f d23d
00000270: aa30 e13c 1a76 9ebc 6701 a33c a182 273c
00000280: dda2 803d 7127 5bbd e784 a33c 6cfb 0abd
00000290: 3669 b23d 0870 333d 16a9 05bd baec c6bd
000002a0: 6e0e 873d 5c13 dabb 155c ad3d dcbb 893c
000002b0: 2350 acbd 467a bbbd 55c7 f33d f489 a53c
000002c0: 1adf 9e3d a7fd 14bd 4135 51bd 1eaf ef3c
000002d0: 0777 fdbd 176d 77bc 1ee0 90bd 2fb0 42bd
000002e0: c291 ae3c d78e 54bc 44a3 29be 01ad 0bbe
000002f0: 56aa 89bd c026 5fbe e2b4 a6bd 8569 2ebe
00000300: c173 01be 49e5 e5bc dd0a c0bd 5103 cf3c
00000310: 0db8 cc3d 7b7f 6bbb b3ff c93e d894 ef3e
00000320: 4bc5 0a3f 07de 09bd bea7 57bd f622 c5bd
00000330: 638c 90be 6c9a 22be e92e 72be b1a0 2b3e
00000340: 6ca2 223e bb68 6b3e a0ac 88bb be4b e5bc
00000350: 187f e5bd de4f b03e a909 913e 861b 793e
00000360: 9958 523e 5601 123e 94e2 2a3e 4c36 df3e
00000370: 69b4 c53e ca3f f13e 0b95 943e 6219 673e
00000380: e702 823e af83 eb3c d7bf 603a 670f 8bbd
00000390: 9c54 2bbf df63 2bbf 3f3c 38bf 5965 b3be
000003a0: c67a 82be bafe c2be 1f06 aebd 8291 b4bd
000003b0: d9f6 d8bd d577 453f ccbd 273f 2e35 3f3f
000003c0: 101b 3fbe 1673 81be a6e6 85bd 8147 9a3e
000003d0: 7ca1 a83e 5a50 a73e f318 9f3c 9bd4 3b3e
000003e0: 7518 113e f684 823f fed2 773f 96f7 953f
000003f0: 488d 7cbe 193c acbe 5647 cbbd a5cf 6fbd

layers.0.Ah.conv2.bias f4 [16]
0.14674425 -0.110008635 0.6527872 0.9936529 0.9781094 0.025396716 0.0013825197 -0.044225745
0.012513745 0.11978775 -0.31606892 -0.028016143 -0.10128804 -0.0022271643 0.059109773 0.005225702
00000000: 2044 163e 354c e1bd 101d 273f 0960 7e3f
00000010: 6165 7a3f c60c d03c aa35 b53a 0e26 35bd
00000020: 7306 4d3c 4853 f53d c9d3 a1be 1c82 e5bc
00000030: 1b70 cfbd 9ef5 11bb 171d 723d 5e3c ab3b

layers.0.Ah.conv3.weight f4 [1, 16, 3]
0.007148028 0.053180367 -0.059542127 -0.006759839 -0.014872477 -0.026131604 -0.55841184 -0.5614309
-0.6268832 -0.51229966 -0.46130887 -0.5003998 -0.37263265 -0.5564576 -0.28504747 -0.21611622
-0.07092514 0.008837815 -0.053532735 -0.18988304 -0.024613643 -0.25653872 -0.44530076 -0.4063708
-0.08048792 -0.10746674 0.07243851 -0.041397333 -0.14516428 -0.034011867 0.14015819 0.106134385
0.19056346 -0.08062204 0.0452516 -0.02986614 0.017929627 -0.030824227 0.22532359 -0.062906705
-0.1901728 -0.045796245 0.05256742 0.009209823 -0.044276256 -0.012823769 -0.029815825 -0.099233195
00000000: 013a ea3b a8d3 593d 72e2 73bd a481 ddbb
00000010: b1ab 73bc f211 d6bc 14f4 0ebf efb9 0fbf
00000020: 6b7b 20bf 1226 03bf ad30 ecbe 341a 00bf
00000030: b5c9 bebe 0174 0ebf bef1 91be 924d 5dbe
00000040: 3341 91bd 7ccc 103c 2445 5bbd b370 42be
00000050: 8da2 c9bc 0b59 83be 76fe e3be d50f d0be
00000060: dad6 a4bd 8617 dcbd a45a 943d 4090 29bd
00000070: f2a5 14be 0750 0bbd a185 0f3e fc5c d93d
00000080: 1123 433e 2b1d a5bd be59 393d d6a9 f4bc
00000090: 27e1 923c 1783 fcbc 3abb 663e 3bd5 80bd
000000a0: a9bc 42be d894 3bbd ef50 573d cce4 163c
000000b0: 055b 35bd c91a 52bc 5140 f4bc c63a cbbd

layers.1.Aw.conv1.weight f4 [32, 1, 5]
-0.2555744 -0.37908012 0.25621188 0.29183614 0.14654891 -0.048058674 -0.26902032 -0.19363305
0.33672434 0.05974155 -0.08760121 -0.25497332 -0.10584676 -0.111344755 0.06734645 -0.14749417
-0.3455985 -0.17907074 0.36271873 0.34444678 -0.1380947 -0.36014533 0.4363854 -0.42112502
0.287365 -0.10581814 0.019163324 0.20736246 -0.30007508 0.10579785 -0.026954208 0.1566212
-0.1623881 -0.25898454 0.21169902 0.2501277 -0.4306804 0.41718847 0.36157382 0.41373187
0.16494583 0.3858925 -0.38428208 -0.15519471 0.26671937 -0.2362034 -0.1977063 -0.27488768
0.21122237 -0.007369506 -0.17278883 0.19142473 -0.058068246 0.25439695 -0.18048649 -0.18063976
0.20580682 0.20945421 -0.21554273 -0.31149912 -0.30315953 0.35531643 0.012349568 0.06304002
0.13356994 0.00017811544 -0.19364005 0.20188385 0.23337169 -0.40476185 -0.23470819 0.32782266
-0.044940747 0.18658927 -0.29466695 -0.1801112 -0.015466002 0.3394975 0.3841973 0.17304525
-0.2609568 0.12555827 0.38577843 -0.3175585 0.25669163 -0.17141399 0.37901372 0.03594584
0.42827323 -0.1248127 -0.15417458 -0.085498795 -0.26340243 -0.13717309 0.078267425 -0.41325852
-0.25451308 0.3551364 -0.3402172 0.27278116 0.36094996 0.33097985 0.27020085 -0.3514198
0.14592709 0.1583628 -0.23849484 -0.44418013 0.19816524 0.20184478 -0.118871875 0.15401436
-0.23771545 0.04445822 -0.39189574 0.3713683 0.33640718 -0.3154604 -0.44106483 -0.23270684
-0.22618999 -0.39940482 0.023345971 -0.19399603 0.28355035 0.07102104 -0.09265524 0.053702578
0.42653626 0.30108744 0.0870752 -0.13055827 0.25127542 0.097882725 -0.096569486 -0.39808866
-0.2795007 0.17725952 0.24784675 0.32141846 -0.21622889 0.31271547 0.25018016 0.09929672
0.1926878 0.09319388 -0.3658828 -0.26071423 0.081091575 0.3716068 -0.05860022 -0.27835456
0.004597095 0.4180608 -0.29322833 -0.39909664 -0.29073107 -0.20461045 -0.11072961 -0.0670901
00000000: a6da 82be ca16 c2be 342e 833e 8c6b 953e
00000010: eb10 163e 2cd9 44bd 08bd 89be be47 46be
00000020: 2267 ac3e 8eb3 743d 4368 b3bd dd8b 82be
00000030: 30c6 d8bd b808 e4bd f0ec 893d b608 17be
00000040: 49f2 b0be 525e 37be 45b6 b93e 545b b03e
00000050: b268 0dbe f864 b8be e86d df3e b39d d7be
00000060: 8121 933e 2eb7 d8bd 67fc 9c3c d356 543e
00000070: 71a3 99be 8bac d83d 12cf dcbc 4f61 203e
00000080: 1149 26be 9f99 84be a1c7 583e bd10 803e
00000090: 2482 dcbe ba99 d53e 3420 b93e aad4 d33e
000000a0: 8fe7 283e b493 c53e 9fc0 c4be 5deb 1ebe
000000b0: 718f 883e 4edf 71be 8573 4abe 14be 8cbe
000000c0: ad4a 583e e67b f1bb 8eef 30be d804 443e
000000d0: f8d8 6dbd 5140 823e 73d1 38be a1f9 38be
000000e0: 06bf 523e 2a7b 563e 3cb7 5cbe d07c 9fbe
000000f0: ba37 9bbe 09ec b53e d855 4a3c 201b 813d
00000100: 8fc6 083e 80c4 3a39 9449 46be a4ba 4e3e
00000110: fdf8 6e3e f23c cfbe 5857 70be 5fd8 a73e
00000120: ca13 38bd 4211 3f3e 96de 96be 126f 38be
00000130: 1d65 7dbc 9ed2 ad3e 82b5 c43e c632 313e
00000140: 219c 85be 5992 003e c084 c53e 0797 a2be
00000150: 166d 833e 2687 2fbe 160e c23e f23b 133d
00000160: a146 db3e cd9d ffbd f1df 1dbe fe19 afbd
00000170: afdc 86be 1a77 0cbe ac4a a03d 9f96 d3be
00000180: 8a4f 82be 70d4 b53e f330 aebe f9a9 8b3e
00000190: 6fce b83e 3176 a93e c457 8a3e 4ced b3be
000001a0: e96d 153e dc29 223e fe37 74be 946b e3be
000001b0: d4eb 4a3e 66b0 4e3e 1973 f3bd f1b5 1d3e
000001c0: ae6b 73be d319 363d 8fa6 c8be fc23 be3e
000001d0: 903d ac3e 0784 a1be 40d3 e1be b44a 6ebe
000001e0: 599e 67be ca7e ccbe 0d40 bf3c e5a6 46be
000001f0: 832d 913e 7b73 913d 08c2 bdbd 3cf7 5b3d
00000200: f662 da3e 2228 9a3e 7c54 b23d 11b1 05be
00000210: 2ca7 803e bd76 c83d 39c6 c5bd 47d2 cbbe
00000220: b71a 8fbe 8583 353e 8acb 7d3e f690 a43e
00000230: 1b6b 5dbe 3e1c a03e 9d17 803e 145c cb3d
00000240: f34f 453e 6fdc be3d fe54 bbbe 567c 85be
00000250: 5713 a63d 3f43 be3e c906 70bd 7d84 8ebe
00000260: 3aa3 963b 110c d63e 0622 96be 6556 ccbe
00000270: b4da 94be 6785 51be 35c6 e2bd 8966 89bd

layers.1.Aw.conv1.bias f4 [32]
0.2800964 -0.10943963 0.124586076 0.177528 -0.2460138 -0.18061289 0.25285962 -0.3674601
0.1899657 0.024754848 -0.18842323 0.31744042 0.42373878 -0.402083 0.2714311 0.16947953
0.37889403 -0.21394807 0.3750548 -0.09639833 0.08166393 -0.12972717 -0.3043578 -0.41350216
-0.13351037 -0.34620437 -0.23165719 -0.18091913 -0.19094723 0.3873056 -0.30279627 -0.05310095
00000000: cc68 8f3e e221 e0bd fc26 ff3d e6c9 353e
00000010: 0beb 7bbe 96f2 38be d176 813e bb23 bcbe
00000020: 5e86 423e aeca ca3c 05f2 40be 8d87 a23e
00000030: 4af4 d83e d3dd cdbe 04f9 8a3e 0b8c 2d3e
00000040: 66fe c13e 3415 5bbe 2f07 c03e 7d6c c5bd
00000050: 6b3f a73d 33d7 04be c9d4 9bbe 8eb6 d3be
00000060: f1b6 08be b341 b1be 8b37 6dbe dd42 39be
00000070: ac87 43be eb4c c63e 1d08 9bbe 6280 59bd

layers.1.Aw.conv2.weight f4 [16, 32, 3]
-0.024528109 -0.09378733 0.05373371 0.0900703 -0.048430007 -0.037194118 0.034759086 -0.087635785
0.06776685 -0.08507024 -0.07985092 0.014829781 -0.06760015 -0.09258003 0.0144545585 -0.02656705
-0.057235714 0.00085340004 0.07864334 -0.04118469 0.07287719 0.026794037 0.0047643646 -0.039398838
0.041383866 -0.094595104 -0.075694986 0.017486645 0.03711801 0.045918155 -0.097861156 -0.0017271611
-0.07770317 -0.08390097 0.054018244 -0.07371261 0.06229365 -0.053820428 0.021394642 0.03911096
-0.06483441 -0.0068998965 0.055650752 -0.07762674 0.06764934 0.039344415 -0.049937584 0.0959153
0.099004485 0.013316712 0.07883005 0.06451644 -0.10127934 -0.0008508572 0.044107318 -0.079019606
0.10106557 0.05197435 0.07407997 -0.06143743 -0.0813301 -0.08475455 -0.02008977 -0.070851326
-0.032870024 0.029576913 -0.08839683 -0.054015566 -0.00945574 0.08121777 -0.08664685 -0.06575925
0.029752687 -0.08843747 -0.0067166467 0.019422984 0.020758078 0.064817384 0.08499045 0.099751756
-0.035826746 0.08594095 -0.006137011 0.09421054 -0.009381444 0.03181623 0.07658625 -0.046788286
-0.0831308 0.043372717 0.069023356 -0.011361875 -0.06342056 0.01683115 0.01878738 0.09562343
-0.101442195 -0.008609744 -0.097084165 0.057506703 -0.050557405 -0.05954383 0.07355546 0.06999274
0.012360017 -0.06284587 -0.039490666 -0.013104518 -0.09526438 0.063024044 -0.007854001 -0.0175547
-0.04216039 0.04660581 0.08038583 -0.06540953 -0.03638497 0.034948885 -0.087827586 0.011413005
-0.0066096284 -0.029531458 -0.047582258 0.023085162 -0.08153077 -0.08794453 -0.068380706 -0.019207474
-0.0676888 -0.05093444 0.009971282 0.035868656 0.05342897 0.017833581 -0.055277895 0.0073845955
-0.05787245 0.033328094 0.031803828 -0.09191968 -0.038211443 0.07045385 -0.088070035 0.054708
-0.076827005 -0.071329616 -0.044254057 -0.020125438 -0.061256118 0.03763315 -0.008080181 0.022406794
-0.008120635 -0.033767268 -0.07643902 0.007786037 0.017373532 0.028311973 0.09577101 0.007648346
-0.0071609705 0.08923398 -0.02395713 0.09285797 -0.0250651 -0.00499723 0.037776705 0.10099283
-0.06922171 -0.0054513966 -0.031119408 0.05408011 -0.048674952 0.05151923 0.08364821 0.0060087065
0.08139889 -0.08107475 -0.07133763 -0.09360078 -0.020782307 0.059122548 0.05796146 0.035191137
-0.049772315 0.06034163 -0.091083124 0.05177934 -0.0052398955 0.045531414 -0.080853045 0.010539932
-0.06387401 0.03337929 0.007697086 0.06687354 0.06773186 0.057933405 -0.067499004 -0.06824735
-0.02168258 -0.023183087 -0.0007855278 -0.036057647 -0.07346321 0.0019844086 0.048195884 -0.044988677
-0.06070842 -0.032910135 -0.058535777 -0.013049445 0.055081178 -0.06423786 0.013439949 0.031503066
0.05510695 0.06338143 0.04719063 0.0742569 -0.00067165925 0.031942543 -0.035900965 0.045633007
-0.0024659443 0.01837325 -0.027037432 0.09715547 0.08474623 -0.014389704 0.074218094 -0.010294279
-0.049759552 0.028636035 -0.029508274 0.0130324485 0.01730002 0.0035837155 -0.080818936 -0.004144627
-0.016738646 0.05921438 0.04762902 -0.007708985 -0.030588914 -0.030161738 0.08595958 0.08664334
-0.09099913 -0.09568075 -0.021325352 0.033523187 0.044334777 0.032610923 -0.07757073 0.013249004
00000000: 2cef c8bc 9213 c0bd e117 5c3d c776 b83d
00000010: 8b5e 46bd dc58 18bd 8b5f 0e3d 647a b3bd
00000020: 59c9 8a3d 4e39 aebd e188 a3bd 9cf8 723c
00000030: f371 8abd 999a bdbd d0d2 6c3c 24a3 d9bc
00000040: ff6f 6abd b5b6 5f3a c20f a13d 47b1 28bd
00000050: a340 953d 2b7f db3c 631e 9c3b ad60 21bd
00000060: 2182 293d 14bb c1bd f905 9bbd 2740 8f3c
00000070: 0e09 183d ad14 3c3d 6e6b c8bd e961 e2ba
00000080: d722 9fbd 46d4 abbd 3c42 5d3d a3f6 96bd
00000090: a027 7f3d cf72 5cbd d143 af3c d032 203d
000000a0: e7c7 84bd 8718 e2bb 0bf2 633d c5fa 9ebd
000000b0: bd8b 8a3d 9c27 213d 5a8b 4cbd 3e6f c43d
000000c0: ddc2 ca3d 572e 5a3c a671 a13d 3221 843d
000000d0: 8b6b cfbd 0f0c 5fba e0a9 343d 08d5 a1bd
000000e0: 77fb ce3d 0ee3 543d 3db7 973d d1a5 7bbd
000000f0: 6590 a6bd cb93 adbd 4d93 a4bc 801a 91bd
00000100: b8a2 06bd 484b f23c 6609 b5bd 6d3f 5dbd
00000110: 40ec 1abc 8155 a63d e773 b1bd c9ac 86bd
00000120: e8bb f33c b41e b5bd 5117 dcbb f31c 9f3c
00000130: d80c aa3c fabe 843d 790f ae3d a64a cc3d
00000140: 11bf 12bd cf01 b03d fb18 c9bb 75f1 c03d
00000150: a1b4 19bc bc51 023d 40d9 9c3d 13a5 3fbd
00000160: 7b40 aabd 97a7 313d 1e5c 8d3d 2827 3abc
00000170: a3e2 81bd 7be1 893c fee7 993c 38d6 c33d
00000180: edc0 cfbd e20f 0dbc 10d4 c6bd 268c 6b3d
00000190: 4815 4fbd 3be4 73bd 3fa4 963d 5b58 8f3d
000001a0: ab81 4a3c 56b5 80bd f7c0 21bd 55b4 56bc
000001b0: f919 c3bd c012 813d 11ae 00bc e0ce 8fbc
000001c0: 60b0 2cbd bce5 3e3d 53a1 a43d 6ff5 85bd
000001d0: 6808 15bd 9026 0f3d f3de b3bd 9dfd 3a3c
000001e0: 9595 d8bb f5eb f1bc 9de5 42bd 181d bd3c
000001f0: 9bf9 a6bd 431c b4bd 2f0b 8cbd fe58 9dbc
00000200: 6da0 8abd a2a0 50bd 975e 233c 03eb 123d
00000210: 56d8 5a3d bb17 923c 136b 62bd 7afa f13b
00000220: aa0b 6dbd 0a83 083d bb44 023d 6340 bcbd
00000230: 9a83 1cbd 1c4a 903d 105e b4bd 7f15 603d
00000240: 7a57 9dbd 4315 92bd be43 35bd 1ade a4bc
00000250: b2e7 7abd 3825 1a3d bc62 04bc 748e b73c
00000260: 690c 05bc 8c4f 0abd 108c 9cbd 0322 ff3b
00000270: f052 8e3c 83ee e73c 9723 c43d fa9e fa3b
00000280: 93a6 eabb 4ec0 b63d be41 c4bc 522c be3d
00000290: 5355 cdbc cebf a3bb bfbb 1a3d 54d5 ce3d
000002a0: 1dc4 8dbd a1a1 b2bb 21ee febc 1b83 5d3d
000002b0: 635f 47bd d405 533d c14f ab3d afe4 c43b
000002c0: 76b4 a63d 850a a6bd 7719 92bd c4b1 bfbd
000002d0: a83f aabc 7c2a 723d ff68 6d3d 9524 103d
000002e0: 0ede 4bbd c928 773d ca89 babd 9316 543d
000002f0: 6eb3 abbb 267f 3a3d 4896 a5bd aeaf 2c3c
00000300: 61d0 82bd b9b8 083d d637 fc3b fff4 883d
00000310: 00b7 8a3d 944b 6d3d eb3c 8abd 44c5 8bbd
00000320: aa9f b1bc 75ea bdbc e1eb 4dba 2fb1 13bd
00000330: e173 96bd da0c 023b 0c69 453d 0c46 38bd
00000340: 64a9 78bd c7cc 06bd 36c3 6fbd 57cd 55bc
00000350: cd9c 613d 248f 83bd 3b33 5c3c 5c09 013d
00000360: d3b7 613d 20ce 813d f64a 413d 0014 983d
00000370: 4a12 30ba 2fd6 023d e40c 13bd ade9 3a3d
00000380: ae9b 21bb 7f83 963c 9b7d ddbc 72f9 c63d
00000390: 6e8f ad3d cbc2 6bbc a8ff 973d 56a9 28bc
000003a0: acd0 4bbd 1e96 ea3c 56bb f1bc 0d86 553c
000003b0: c6b8 8d3c c5dc 6a3b 6684 a5bd a7cf 87bb
000003c0: 7c1f 89bc c78a 723d a616 433d a79b fcbb
000003d0: 9a95 fabc c015 f7bc 940b b03d 1072 b13d
000003e0: c05d babd 45f4 c3bd 81b2 aebc 9c4f 093d
000003f0: 6298 353d 0893 053d 67dd 9ebd 5a12 593c

layers.1.Aw.conv2.bias f4 [16]
-0.043576796 -0.06450483 0.08444288 -0.012492537 -0.082513526 -0.0040650866 0.059166394 -0.018391663
-0.015037845 -0.068083815 0.022108525 -0.06974731 -0.046170227 0.07195613 -0.058028173 -0.060469065
00000000: 957d 32bd 1c1b 84bd 63f0 ac3d 7fad 4cbc
00000010: dafc a8bd 6b34 85bb 7658 723d 1daa 96bc
00000020: 4b61 76bc 876f 8bbd f01c b53c add7 8ebd
00000030: fe1c 3dbd bc5d 933d f3ae 6dbd 69ae 77bd

layers.1.Aw.conv3.weight f4 [1, 16, 3]
0.049787033 -0.13035665 0.08034605 -0.119633935 0.025223743 -0.029921263 -0.065813124 -0.11983437
0.022098342 -0.0615961 0.098381944 0.09535807 -0.13354163 -0.07656718 0.0024016835 0.029678335
0.06942072 -0.115834035 0.042383336 -0.020105524 0.05591158 0.03296785 -0.027458955 -0.033387445
0.120837435 -0.018253231 0.12748772 -0.13615905 -0.14183898 0.026810583 -0.04026445 -0.14178121
-0.08109062 -0.14334713 0.07769781 0.06089845 0.054194 -0.010713792 0.08557264 -0.0195561
-0.08827154 -0.12888588 -0.14419043 0.12083078 -0.09229479 0.03915716 -0.018211877 0.10088294
00000000: 7ded 4b3d 377c 05be 788c a43d a302 f5bd
00000010: 06a2 ce3c 701d f5bc 08c9 86bd b96b f5bd
00000020: 9507 b53c 314c 7cbd 797c c93d 184b c33d
00000030: 23bf 08be 41cf 9cbd 9065 1d3b fb1f f33c
00000040: 732c 8e3d 653a edbd 269a 2d3d 57b4 a4bc
00000050: 8a03 653d 4c09 073d 9af1 e0bc 46c1 08bd
00000060: 9e79 f73d cd87 95bc 248c 023e 476d 0bbe
00000070: 3d3e 11be dea1 db3c 56ec 24bd 182f 11be
00000080: d712 a6bd 97c9 12be 0820 9f3d a770 793d
00000090: 87fa 5d3d e788 2fbc b540 af3d 1d34 a0bc
000000a0: b6c7 b4bd a9fa 03be a8a6 13be 2176 f73d
000000b0: 0d05 bdbd 4263 203d 1331 95bc b79b ce3d

layers.1.Ah.conv1.weight f4 [32, 1, 5]
-0.4638318 -0.25312886 -0.07800708 0.08450215 -0.5019894 -0.120913126 -0.15363984 0.30405447
0.31315824 -0.12672725 0.25536138 0.24005064 0.03940953 -0.026923604 0.17840306 0.008059294
-0.04096866 0.038021013 0.07932631 0.19459213 -0.17999 0.042985287 -0.0925522 0.0050104735
0.39616144 -0.15205115 0.010577705 0.16073506 -0.31383967 0.06697791 0.19549842 -0.05091506
-0.1153711 0.21423908 -0.2843605 0.20408987 -0.19701599 -0.42505565 -0.2751805 0.11677002
0.09928658 -0.14454614 -0.084529735 -0.15500098 -0.3847363 0.02813185 0.1168455 -0.052688643
0.17579478 -0.005249659 -0.24773704 0.18310173 -0.036980443 0.2357197 0.21240538 -0.27001426
0.13738501 -0.19474854 -0.18396454 -0.28996664 0.10588309 0.12110563 -0.20387062 0.283575
0.45011207 -0.39366448 -0.3255412 0.023340728 -0.28773072 -0.2726622 -0.36677742 0.29103696
0.3901024 -0.26222217 0.3225867 0.036616974 -0.19123939 -0.1811147 -0.018375337 0.30867293
-0.10743505 -0.10029224 0.10771959 0.16049933 0.020229788 -0.21385793 0.055947483 0.38454422
0.4633693 -0.29203716 0.14190744 0.2554355 -0.5332936 -0.4038438 -0.18613127 0.035235032
0.61827826 -0.120467514 0.5866433 0.034224406 -0.07669037 0.034256842 0.21995147 0.018251842
0.15064082 -0.23442416 -0.13211802 0.13244046 0.20363687 -0.22045018 -0.005300835 0.26349902
0.010267643 0.121549286 0.17126866 -0.32224923 -0.4542957 -0.19231749 -0.046539746 -0.36767742
-0.032227416 0.15505691 -0.5264133 -0.056799952 -0.1958598 -0.12772669 0.17033544 0.31268132
-0.18211743 -0.10479653 -0.011656722 0.03423705 -0.16302538 0.20087886 0.2255905 0.23115452
-0.11245211 -0.3214258 0.25322244 0.077027835 -0.32675445 0.26574272 -0.15178636 -0.11359586
-0.24129617 -0.14899449 -0.13948016 -0.21346326 -0.30374584 -0.16992493 -0.08211321 -0.204736
0.21087176 0.3901955 0.024781989 -0.021371046 0.2689855 0.17226098 -0.4463605 -0.0011096641
00000000: 5d7b edbe 1b9a 81be 2dc2 9fbd 770f ad3d
00000010: 6182 00bf 4da1 f7bd c353 1dbe 07ad 9b3e
00000020: 4756 a03e cac4 01be babe 823e d6cf 753e
00000030: e36b 213d e48e dcbc 4baf 363e 210b 043c
00000040: c1ce 27bd ecbb 1b3d d575 a23d 2943 473e
00000050: 4c4f 38be 5711 303d 028c bdbd e62e a43b
00000060: acd5 ca3e 4cb3 1bbe 1c4e 2d3c bb97 243e
00000070: 98af a0be b72b 893d bd30 483e 4f8c 50bd
00000080: af47 ecbd 7d61 5b3e b397 91be effc 503e
00000090: 8fbe 49be e5a0 d9be 75e4 8cbe 1f25 ef3d
000000a0: c356 cb3d e703 14be ed1d adbd 94b8 1ebe
000000b0: 28fc c4be c474 e63c b24c ef3d 0cd0 57bd
000000c0: 8c03 343e 5505 acbb c7ae 7dbe 057f 3b3e
000000d0: ce78 17bd 8160 713e cc80 593e 4f3f 8abe
000000e0: a8ae 0c3e 296c 47be 3361 3cbe 8276 94be
000000f0: 3cd9 d83d 3b06 f83d 76c3 50be be30 913e
00000100: 1775 e63e 648e c9be 56ad a6be 0e35 bf3c
00000110: 7151 93be 619a 8bbe 40ca bbbe cc02 953e
00000120: 80bb c73e fc41 86be 152a a53e aefb 153d
00000130: 42d4 43be 2276 39be e087 96bc 610a 9e3e
00000140: e806 dcbd 0566 cdbd 179c dc3d f059 243e
00000150: f1b8 a53c 93fd 5abe 3029 653d fbe2 c43e
00000160: be3e ed3e e585 95be 2f50 113e 71c8 823e
00000170: ee85 08bf 9dc4 cebe 3299 3ebe 9c52 103d
00000180: 7c47 1e3f acb7 f6bd 412e 163f e42e 0c3d
00000190: d70f 9dbd e750 0c3d f53a 613e e384 953c
000001a0: 9641 1a3e e30c 70be f249 07be 799e 073e
000001b0: 2f86 503e b1bd 61be a0b2 adbb 58e9 863e
000001c0: 9e39 283c d5ee f83d 0d61 2f3e dafd a4be
000001d0: 7299 e8be e0ee 44be 76a0 3ebd 3740 bcbe
000001e0: e500 04bd 3dc7 1e3e 06c3 06bf 11a7 68bd
000001f0: 798f 48be c9ca 02be 6a6c 2e3e c417 a03e
00000200: fe7c 3abe 909f d6bd d6fb 3ebc 263c 0c3d
00000210: 20f0 26be 30b3 4d3e 3201 673e c5b3 6c3e
00000220: 4b4d e6bd ec91 a4be 5fa6 813e c5c0 9d3d
00000230: 5c4c a7be 6e0f 883e e26d 1bbe f2a4 e8bd
00000240: 5816 77be 0392 18be e3d3 0ebe 1d96 5abe
00000250: 9384 9bbe cd00 2ebe f82a a8bd 50a6 51be
00000260: c4ee 573e b4c7 c73e 9903 cb3c 5512 afbc
00000270: 78b8 893e 2f65 303e 5d89 e4be 2672 91ba

layers.1.Ah.conv1.bias f4 [32]
0.18028286 -0.3512754 -0.43697006 -0.37609643 -0.15454575 -0.5433013 -0.49225873 0.05228266
0.08685558 -0.3291283 -0.3308957 -0.043176606 0.17489763 0.08193868 -0.26418483 -0.28939074
-0.06492798 -0.24661112 0.30115753 0.3288804 -0.3472184 -0.028310874 -0.5116886 0.029011698
0.017885515 -0.34500337 -0.23638345 -0.33339307 0.062416792 0.2293555 -0.26268604 -0.20145962
00000000: 129c 383e 5fda b3be 8aba dfbe b68f c0be
00000010: 3e41 1ebe cb15 0bbf 5609 fcbe 5826 563d
00000020: 57e1 b13d 8183 a8be 296b a9be f4d9 30bd
00000030: 5d18 333e 77cf a73d 3c43 87be 062b 94be
00000040: f6f8 84bd a087 7cbe 5231 9a3e 0363 a83e
00000050: 9cc6 b1be 35ec e7bc 06fe 02bf f1a9 ed3c
00000060: a584 923c 48a4 b0be 810e 72be 7fb2 aabe
00000070: c0a8 7f3d 2bdc 6a3e c97e 86be 6e4b 4ebe

layers.1.Ah.conv2.weight f4 [16, 32, 3]
0.02684796 0.1026144 0.014801342 0.07479562 0.0918901 0.10566672 0.06873415 0.048225924
-0.026342409 -0.040175773 0.10530269 -0.008820688 0.073296435 0.019922467 0.035397537 -0.06019927
-0.036280286 -0.029707666 -0.06605822 0.002621328 -0.0072377506 0.16953371 0.13848045 0.09838002
-0.1156484 -0.02636106 -0.037902024 -0.07968715 -0.01137507 0.023043958 0.0061304625 -0.018706638
0.0159864 -0.044724133 -0.06872483 -0.047109652 -0.002610283 0.019674119 -0.0876849 -0.0043808776
0.10191777 0.124119356 0.20040108 0.02104284 0.134081 -0.05660819 -0.0663107 0.03339461
-0.007494383 0.065900214 0.07028239 0.12850231 0.20916024 0.1007423 0.017435672 -0.018450681
-0.054145236 -0.38767755 -0.13138646 -0.44166663 -0.012711684 -0.14191118 0.0134911705 -0.07450969
-0.028356666 0.060301524 0.134135 0.12189565 0.12852363 0.03238128 -0.04717882 -0.06881514
-0.070297174 -0.07555206 0.013791631 0.09882198 0.10396034 0.05450081 -0.12819637 -0.1248813
-0.038462114 -0.022757294 -0.082743816 -0.10339442 0.12218435 0.16536811 0.070790224 -0.071484424
0.027497634 -0.03152186 -0.19917764 -0.2667002 -0.22600263 -0.08554094 -0.11562201 -0.13606161
0.057039853 0.031139782 0.118028045 0.024694512 0.0025901948 0.059478592 0.11328069 -0.028887779
0.019342316 0.4470182 0.2975583 0.38625917 0.041321002 0.11079733 0.11395499 -0.01872358
-0.028493028 -0.109412156 -0.041052263 -0.0013201884 -0.035155073 0.062373657 0.16325198 0.049364727
-0.088530555 -0.03238332 -0.104955144 -0.10608976 0.026096452 -0.111491315 -0.028584655 -0.13187768
-0.009215081 -0.020896899 -0.014194261 -0.087212496 0.1373622 0.10120483 0.07864858 0.063007005
0.09719335 0.032029536 0.065604374 0.018062346 0.1200994 -0.057717934 0.07381237 -0.04978681
0.02525018 0.009446032 0.0666914 0.039501574 0.17787476 0.18219838 0.05115243 0.047736373
-0.1512444 -0.4689546 -0.3400199 -0.6706169 -0.10061017 -0.12420173 -0.049198166 -0.09725052
0.05010205 -0.035548262 0.0069305683 0.12803602 0.071462855 -0.02071384 0.003819402 -0.035647947
-0.11380265 0.044791147 -0.13049823 -0.010437334 -0.005524362 -0.032525808 -0.10702284 -0.10477266
-0.23957628 0.09557067 0.06139192 -0.2393559 0.13158211 0.11673244 0.14164366 0.046111487
0.041276574 -0.026047116 -0.10153916 -0.05688956 -0.057106264 0.032427005 -0.10741595 -0.06794067
0.54742104 0.87837636 0.6626344 -0.71231276 -0.41594765 -0.48675767 -0.767241 -0.6924519
-0.57588047 -0.037987653 -0.08026941 -0.23244683 -0.58111185 -0.7332849 -0.6374495 0.20728812
0.21229559 0.24358495 0.37625572 0.35662735 0.10055667 0.08668732 -0.20583375 -0.14895116
-0.34116846 -0.116202965 -0.17066774 -0.06397877 -0.14658104 -0.13499753 0.030575002 -0.19950715
-0.23415478 -0.1587413 -0.03188869 0.12028548 -0.7277708 -0.8394807 -0.7909979 -0.008522026
-0.106474996 0.043046758 -0.9904408 -1.0215927 -0.6943967 -0.40112248 -0.63366985 -0.52933484
-0.77249813 -0.52393997 -0.53598267 -0.81863487 -0.47162366 -0.62489647 0.9372083 0.5763253
0.94022596 -1.7626561 -1.7663089 -1.8739725 -0.20717041 -0.22077692 -0.39290306 -0.04766591
00000000: 41f0 db3c 8027 d23d 5481 723c 722e 993d
00000010: e030 bc3d cb67 d83d 7dc4 8c3d 8c88 453d
00000020: 09cc d7bc 5a8f 24bd f0a8 d73d a684 10bc
00000030: 711c 963d 7134 a33c 02fd 103d 8293 76bd
00000040: a39a 14bd 7e5d f3bc 8849 87bd 96ca 2b3b
00000050: a72a edbb 3f9a 2d3e d2cd 0d3e 777b c93d
00000060: 11d9 ecbd 26f3 d7bc 273f 1bbd 0433 a3bd
00000070: 805e 3abc afc6 bc3c 0ce2 c83b aa3e 99bc
00000080: e9f5 823c a730 37bd 9bbf 8cbd 0df6 40bd
00000090: 4811 2bbb 9e2b a13c 2494 b3bd 778d 8fbb
000000a0: 44ba d03d 4a32 fe3d f135 4d3e 0962 ac3c
000000b0: 884c 093e fddd 67bd e7cd 87bd c9c8 083d
000000c0: 7193 f5bb b1f6 863d 37f0 8f3d 1c96 033e
000000d0: 1a2e 563e fb51 ce3d 41d5 8e3c e225 97bc
000000e0: 65c7 5dbd ac7d c6be 2c8a 06be 2122 e2be
000000f0: ab44 50bc 2a51 11be 120a 5d3c 8998 98bd
00000100: 3d4c e8bc bbfe 763d af5a 093e 6da4 f93d
00000110: b39b 033e 3ca2 043d 943e 41bd f4ee 8cbd
00000120: f7f7 8fbd 0abb 9abd 4bf6 613c 2e63 ca3d
00000130: 29e9 d43d 3e3c 5f3d e945 03be c4c1 ffbd
00000140: 738a 1dbd 816d babc 9775 a9bd 74c0 d3bd
00000150: ca3b fa3d 4256 293e 77fa 903d 6d66 92bd
00000160: b842 e13c 111d 01bd 39f5 4bbe ee8c 88be
00000170: 3c6d 67be 1730 afbd 3bcb ecbd bc53 0bbe
00000180: 9fa2 693d db18 ff3c b0b8 f13d 254c ca3c
00000190: 42c0 293b d39f 733d b5ff e73d 10a6 ecbc
000001a0: c773 9e3c 92df e43e 9059 983e c3c3 c53e
000001b0: 3640 293d b6e9 e23d 3c61 e93d 3162 99bc
000001c0: 366a e9bc 7b13 e0bd 6b26 28bd 2c0a adba
000001d0: c4fe 0fbd 857b 7f3d 872b 273e ab32 4a3d
000001e0: 824f b5bd 5fa4 04bd b9f2 d6bd 9745 d9bd
000001f0: 3ac8 d53c 8f55 e4bd 5e2a eabc f10a 07be
00000200: dafa 16bc f92f abbc 0c8f 68bc 779c b2bd
00000210: ada8 0c3e 7a44 cf3d 8212 a13d d109 813d
00000220: 4f0d c73d 6731 033d 965b 863d 7cf7 933c
00000230: adf6 f53d a469 6cbd f12a 973d 41ed 4bbd
00000240: 77d9 ce3c 88c3 1a3c 8095 883d 67cc 213d
00000250: cd24 363e 3692 3a3e 3685 513d 3787 433d
00000260: d0df 1abe d11a f0be 1717 aebe 8dad 2bbf
00000270: b40c cebd 7a5d febd 0484 49bd 482b c7bd
00000280: cf37 4d3d 0e9b 11bd d219 e33b e01b 033e
00000290: 1e5b 923d 12b0 a9bc ef4e 7a3b 9503 12bd
000002a0: 5d11 e9bd ec76 373d 54a1 05be 5a01 2bbc
000002b0: b505 b5bb c839 05bd ca2e dbbd 0c93 d6bd
000002c0: 7c53 75be 8eba c33d 1876 7b3d b719 75be
000002d0: 76bd 063e 6b11 ef3d 090b 113e 66df 3c3d
000002e0: a011 293d c360 d5bc c3f3 cfbd 0705 69bd
000002f0: 42e8 69bd 2ed2 043d e5fc dbbd 7a24 8bbd
00000300: c923 0c3f 46dd 603f 68a2 293f 215a 36bf
00000310: 17f7 d4be 4d38 f9be e869 44bf 8744 31bf
00000320: e76c 13bf f198 1bbd 4a64 a4bd 8b06 6ebe
00000330: bfc3 14bf 8fb8 3bbf e42f 23bf 5643 543e
00000340: 0464 593e 556e 793e 97a4 c03e dc97 b63e
00000350: a8f0 cd3d 1f89 b13d 15c6 52be a786 18be
00000360: a2ad aebe d2fb edbd 86c3 2ebe 4d07 83bd
00000370: 5719 16be cb3c 0abe 6d78 fa3c 9a4b 4cbe
00000380: 45c6 6fbe 148d 22be b79d 02bd 3c58 f63d
00000390: 304f 3abf 35e8 56bf d77e 4abf f89f 0bbc
000003a0: 900f dabd cc51 303d 878d 7dbf 8dc3 82bf
000003b0: fbc3 31bf ed5f cdbe 3038 22bf 7d82 07bf
000003c0: 70c2 45bf ee20 06bf 2936 09bf 0e92 51bf
000003d0: a878 f1be 37f9 1fbf e2ec 6f3f 0e8a 133f
000003e0: a6b2 703f b79e e1bf 6916 e2bf 55de efbf
000003f0: 7b24 54be 5813 62be 972a c9be 543d 43bd

layers.1.Ah.conv2.bias f4 [16]
-0.14421168 -0.15161566 1.08046 -0.052180026 0.13898595 -0.0688511 0.055808622 0.006000652
-0.055350035 -0.0736516 -0.14516534 -0.14433551 0.23271017 -0.11127304 -0.023610804 -0.15636466
00000000: 3aac 13be 2341 1bbe 834c 8a3f b9ba 55bd
00000010: 5552 0e3e ce01 8dbd 9597 643d 1ea1 c43b
00000020: b8b6 62bd a6d6 96bd 39a6 14be b0cc 13be
00000030: 934b 6e3e 1fe3 e3bd 726b c1bc 0f1e 20be

layers.1.Ah.conv3.weight f4 [1, 16, 3]
-0.15434946 0.012993123 0.00737746 -0.04860003 0.050830312 0.051139224 -0.739683 -0.599571
-0.22985396 0.14152908 0.011732379 -0.047091313 0.0053841537 -0.043597475 -0.0350733 -0.07022947
-0.04158993 0.20684426 0.09983774 -0.016303303 -0.02255598 0.08087127 0.17336723 -0.026068578
0.14410377 0.07458932 0.08417407 0.18402006 -0.03075914 0.1515123 0.12949045 0.31410298
0.31801516 0.06733134 0.05450668 0.046761237 0.045132577 -0.18906242 -0.25714582 0.038318213
0.060918607 -0.090881094 0.06571849 0.10779183 -0.059369802 0.015239739 0.09239372 0.14678164
00000000: c90d 1ebe 1ce1 543c 9fbe f13b d310 47bd
00000010: 7233 503d 5d77 513d dd5b 3dbf 7c7d 19bf
00000020: d65e 6bbe 00ed 103e 2a39 403c d2e2 40bd
00000030: 8e6d b03b 4493 32bd 05a9 0fbd 78d4 8fbd
00000040: 345a 2abd fbce 533e bb77 cc3d 818e 85bc
00000050: 52c7 b8bc d69f a53d 2e87 313e c58d d5bc
00000060: f08f 133e 49c2 983d 7463 ac3d c16f 3c3e
00000070: 98fa fbbc 0a26 1b3e 2599 043e 1bd2 a03e
00000080: e2d2 a23e 03e5 893d 6642 5f3d b688 3f3d
00000090: f0dc 383d 9499 41be 9ea8 83be 8ff3 1c3d
000000a0: ca85 793d de1f babd 6a97 863d f7c1 dc3d
000000b0: c02d 73bd 19b0 793c eb38 bd3d ed4d 163e
