models/1lr_clip_10%.pt (torch, 581019 bytes, 300 tensors)

layers.0.Aw.conv1.weight f4 [32, 1, 5]
00000000: 8467 163e 77d6 a7be 6528 d8be bf88 da3e
00000010: 3f9a aebe 0bff 7bbe ef79 86be 1190 e13d
00000020: 5ae3 c83e 05fe 733e 3a68 d13d ef70 6abc
00000030: 786e 46be 030f c1be b083 e5be cffe 86be
00000040: 929d 79bd 77cb 623d af5a 96be ae9f 79be
00000050: 4533 2c3d 640f b83e 69a3 0a3e 3680 b63e
00000060: 0b0c a2be e0f1 c0be e01a 463e d310 dc3e
00000070: 0928 8d3e aa28 9ebe 41c6 8bbe 11da b03e
00000080: b85b 8c3e f40c 353e 65b7 29be d991 d53c
00000090: f7ca 7f3e 0af6 2cbd 8946 d6be 1e2f 03bd
000000a0: f6be b0bd 7d41 a43e cc54 d9be 8038 2fbd
000000b0: 0f12 8abe 64a5 f6bd f8f7 dbbe 1997 26be
000000c0: b05e 123e 6eb3 a23e 379e 683e 7178 543e
000000d0: 218e 38bd ca1c 813e 5255 483c 14ab dabe
000000e0: 8872 9f3e 4894 353e 141e cc3d a4a3 1f3e
000000f0: 4aeb ce3e b234 803e 9c25 96bc a511 a33e
00000100: 59be a1bc 2141 90be f63a 28be 794e c0bd
00000110: 1d66 e6bd e131 7f3d 88b8 a1be 50ed 923d
00000120: 7218 523e 7365 b5be 70c5 2b3d d876 1fbe
00000130: 7f4f a43e ed12 e23e 21c3 953e 0eb9 84be
00000140: 4380 b23e 2a56 fb3d 9fdb 9c3e 1f14 f8bc
00000150: 2e15 bf3e fc5f 5dbe 3796 d2be 107f 143e
00000160: 6e78 c73e 26d7 7abe 3d60 69be e7de 203e
00000170: 23f5 893e 56a9 a93e 0b8c cb3e 3bc5 0e3e
00000180: 4fbb 78be ed65 ad3e e39c 25bd e7fb 713e
00000190: ab04 dcbe f1c2 b33e 65f6 d83e 5554 c73e
000001a0: 2775 813e 63ec 8abe b04c 48be 8d55 dc3d
000001b0: 825b 933d 4824 d4be a082 7b3e 4823 94be
000001c0: 9136 203e 4b24 563e 4da3 d7be da82 babe
000001d0: 7cbf 83be 7da4 dc3c df88 1bbe 7bb3 7a3e
000001e0: a103 803e 4b52 a7be 9b3a 883e 2a51 dfbe
000001f0: 5e9c e3be 2d89 dcbd 5f10 d1be a427 aebe
00000200: 94ea 573e e2c3 28be 3228 2abe 7de6 babe
00000210: b404 5e3e fb05 d0bd 0b18 66be 515f 9f3e
00000220: e5f8 df3e 11f6 07bd 9c9c 5e3e 0ee6 e63e
00000230: fe48 1dbe 2ef0 b8bc 06b0 3fbe 10f6 9b3e
00000240: a05d c13e a147 cd3e 68d0 e8be 90be 693e
00000250: c7bd ad3e 6565 443d b89b cbbe 22bb 8a3d
00000260: 49a7 233e 9345 c03e c784 ca3e 6c63 64be
00000270: 4e28 ad3e 9e3e e1bb 60cc 93be 3ca9 93bd
0.14687926 -0.3278081 -0.4221832 0.42682454 -0.34102055 -0.2460901 -0.26264903 0.110138066
0.39235955 0.2382737 0.10224958 -0.014309152 -0.19378078 -0.37706766 -0.44827032 -0.2636628
-0.060941286 0.05536982 -0.2936606 -0.24377319 0.042041082 0.35949242 0.13538899 0.35644692
-0.31649813 -0.37684536 0.1934619 0.42981586 0.27569607 -0.308904 -0.27299693 0.3454137
0.27413726 0.17680722 -0.16573866 0.026070522 0.24979769 -0.04222683 -0.4185069 -0.032027356
-0.08630173 0.32081214 -0.42447507 -0.042778492 -0.26966903 -0.120432645 -0.42962623 -0.16268577
0.14293933 0.3177752 0.22716604 0.2074907 -0.04505742 0.25217277 0.012227373 -0.42708647
0.31142068 0.17732346 0.099666744 0.15589768 0.40413886 0.25040203 -0.01832848 0.318494
-0.019744085 -0.2817469 -0.16428742 -0.093899675 -0.11249945 0.062303428 -0.315861 0.0717417
0.20517138 -0.35428962 0.041936338 -0.15572679 0.320919 0.44155064 0.29250434 -0.25922436
0.3486348 0.12272294 0.30636308 -0.030283032 0.37320846 -0.21618646 -0.4113023 0.14501595
0.38959068 -0.24496135 -0.22790618 0.1571003 0.26944837 0.33137006 0.39755282 0.13942425
-0.24290203 0.33866826 -0.040432822 0.2363125 -0.4297231 0.35109666 0.42375484 0.38931528
0.25284693 -0.27133474 -0.19560504 0.10758505 0.07195188 -0.4143393 0.24561548 -0.28933167
0.15645815 0.20912282 -0.42116776 -0.36427957 -0.25732028 0.026933903 -0.15188931 0.24482529
0.2500277 -0.32679972 0.26607212 -0.4361661 -0.44455236 -0.10768352 -0.40832803 -0.34014618
0.21085578 -0.16480973 -0.16616896 -0.36503974 0.21681482 -0.10157391 -0.22470109 0.31127408
0.4374458 -0.03319365 0.21739429 0.45097393 -0.15359876 -0.022575464 -0.18719491 0.30461168
0.37766743 0.4009371 -0.454715 0.228266 0.3393385 0.04794826 -0.3976724 0.06773974
0.15981783 0.3755308 0.39554426 -0.22303551 0.33819813 -0.0068739196 -0.28866863 -0.07210013

layers.0.Aw.conv1.bias f4 [32]
00000000: c0a2 a3be f7bf b6be 7eaa 3f3d 3064 d43e
00000010: bb5f 5dbe 2022 2e3e 726f 0f3e 0540 89be
00000020: 8a67 8cbd 70ca 36bd 47b2 9c3e a3c9 4f3e
00000030: 66b4 f33e dd18 a53e 5653 00be 6daa babd
00000040: ca17 b53e 4369 d0be 6903 bbbd 4029 933e
00000050: f7bc 2dbd f21f 97be fc24 c63e e690 c4be
00000060: 535b 8ebe cf5c acbe a924 b63e 92c6 a4be
00000070: 1b6b 4bbe e344 e23e 3dd1 d53e b925 a3be
-0.31960106 -0.35693333 0.046793453 0.41482687 -0.2161855 0.17005205 0.14007357 -0.26806656
-0.06855686 -0.044626653 0.30604765 0.20291762 0.4759857 0.32245532 -0.1253179 -0.091145374
0.35369712 -0.40705308 -0.0913151 0.2874241 -0.04241654 -0.2951656 0.38700092 -0.383918
-0.2780405 -0.33664557 0.35574844 -0.32182747 -0.19865076 0.4419318 0.417612 -0.31864718

layers.0.Aw.conv2.weight f4 [16, 32, 3]
00000000: d69e db3c 9711 103d c45e 8d3c 8bc8 23bc
00000010: e107 d5bd 7732 d2bd 6f26 6dbd f801 af3d
00000020: f89b f9bb ad80 af3d 8c3a 463c bdcf 463d
00000030: bc91 6d3d 6695 65bd 9ff1 2bbd 8dcc 8b3c
00000040: 9268 133d c17e a7bd 29db b2bd 2ad8 063d
00000050: e76d 993c b579 98bb 095e 843d 5149 3e3d
00000060: 9efb 0a3d ec1a 8a3d 3ef1 92bd 0ed1 bdbd
00000070: 2b9e af3d 15c8 743d 75e8 62bd 9d7c ab3d
00000080: cb6b 6cbb c99b 3a3d 8851 b5bd 7b12 c9bd
00000090: abc9 43bc b632 87bc 9499 d63a 3c64 883b
000000a0: 0531 f6bb 84eb 53bd f4b8 81bc 1702 763d
000000b0: 065b 9a3d a2a2 013d ee22 cabc fcbf 12bd
000000c0: 2d60 f6bc cc7a e53c f0cf cebd ca11 20bd
000000d0: 4418 ab39 5faa 1c3d e2c2 e2bd 3d8e 9dbd
000000e0: 6974 cebd 271f 893b b873 aebd bf7a 10bd
000000f0: e0c6 92bd 5406 0cbd 2d9e 50bd e202 8d3d
00000100: 9b78 8cbd ccf4 92bd 947b 0abd be8d 253d
00000110: ec0e 873d 1416 b03c 05a1 81bd f32b bd3d
00000120: 6b4c fcbc 90f8 86bd b687 7f3d 5b75 893c
00000130: 62ba 443d 508d 26bd c9f3 c6bd 740f 763d
00000140: 0e39 b13d 9efc 54bd dc70 74ba 9b19 90bd
00000150: 2409 b23c da05 c23c 41b9 813d 6614 78bc
00000160: 313a 70bd ba21 9c3d cce7 49bd 10d5 b7bd
00000170: 5902 b13c 45f5 873d 1837 7bbd 2fa3 fcbc
00000180: 6bd6 5d3d 5870 d8bc 0984 953c 0d6e 863b
00000190: 41ed 46bd 7597 89bc 768b ac3d 34b0 5b3d
000001a0: 1b52 b2bd e319 af3c 3598 023e cd28 3abd
000001b0: 7c15 8fbc 8b0d 92bd 6642 be3b a56c 983d
000001c0: 581b 863d fb9a c3bd d7ee a6bc 4240 973d
000001d0: 7dec 91bd f73a d7bd fea2 9e3c a12f dcbb
000001e0: fccd 06be cda2 81bd ac1d a8bd 9198 99bc
000001f0: c326 a0bd 68f3 a83d 1423 e13d 87b4 a6bd
00000200: 2fed 1b3a 733b 67bd de2f 26bd 36c5 03bd
00000210: b766 a63d e9e8 98bc 63d9 babc 7f93 b93d
00000220: 5966 ca3d 673a 7f3c 8ddb 7abb 0368 e13c
00000230: 165e f13a 6651 07be e86e e1bd 6f28 1abd
00000240: f31d aa3d 71e9 9c3d 6dd8 d83d d56d 113b
00000250: fdc0 283d ef08 b3bc 5e12 063d b1f1 df3c
00000260: 9a3a c7bd 30e0 873c 50f4 b53c 9fa0 b43d
00000270: f63f afbd 6ad9 a5bd f6ca 91bd d4d7 e4bc
00000280: 0bad 9a3d 3d67 09bd cea8 b53d 8ad0 ca3d
00000290: c29f 853d aee1 3d3d 896b efbd 6ff1 1fbd
000002a0: be1a 963d c420 4bbd 3b25 05be 0a0e 323c
000002b0: f40c 8cbc f29b c7bd ef98 00bd a090 003d
000002c0: af01 91bd efc3 eebc 8bb1 e0bd 7683 e4bd
000002d0: 54c4 633c 37ff e43c 940d 4abd a6e2 6f3d
000002e0: c007 f0bb 4a5c 723d d11f 9dbd 5b42 183b
000002f0: 228b d23a a776 9cbd fb67 9dbc 70eb 5abd
00000300: d7c2 613d 58ec dbbc 3659 223d cb96 b03d
00000310: cbf9 bd3d 4ae0 cd3c 1ce4 873c a906 c6bc
00000320: a2f6 8fbd 8a21 8fbd 05db 803d 42af 43bd
00000330: ebb0 5f3d 7da3 ac3b 2107 993b a56f 08bd
00000340: 7d67 a5bd 5f22 903d 3034 bd3d 0a1c 3c3d
00000350: df8e 323d 7fb4 cbbd a9de 7b3d bee6 95bd
00000360: 3782 c4bc ba3c b43d 6560 0e3d bd10 e1bd
00000370: 30eb 93ba a60d ac3d 33b3 d5bc a9e1 1e3b
00000380: 0481 1abd 3c21 98bd ac32 913c bf83 643b
00000390: 0e1a c5bc 908f afbc 1db5 96bd 4169 133b
000003a0: 4ca2 df3d 27aa b43c 621c 93bd d2da c1bd
000003b0: 566b acbd ff8d a0bc 2048 8abd aa41 a2bc
000003c0: 37c6 123d d58f b83d 18ca 263d e8a5 333d
000003d0: b4f0 653b 483d 9a3c 29b5 8ebd 455e 8abd
000003e0: 100c 0bbe aeff 313d 8189 603d e724 c9bd
000003f0: 62f2 923c ca2c 1ebb c0f4 a0ba 7205 04bd
0.026809137 0.035173025 0.017257102 -0.009996544 -0.104018934 -0.10263532 -0.05789798 0.085452974
-0.00761747 0.08569465 0.01209892 0.04853796 0.05800031 -0.05605068 -0.041978475 0.01706531
0.035988398 -0.08178473 -0.08733208 0.032920994 0.018729163 -0.0046531805 0.06463248 0.04645664
0.033931367 0.06743416 -0.071749195 -0.0926839 0.0857509 0.059761126 -0.05539747 0.083733775
-0.0036074992 0.045558725 -0.088534415 -0.09817978 -0.011949937 -0.016503673 0.0016372674 0.0041623395
-0.007513168 -0.051738277 -0.015835263 0.060060587 0.075368926 0.03164924 -0.024674859 -0.03582762
-0.030075157 0.028012656 -0.10098255 -0.039079465 0.0003263374 0.038248416 -0.11072327 -0.076931454
-0.10080797 0.004184622 -0.08518165 -0.03527331 -0.07166839 -0.034185722 -0.0509321 0.068853155
-0.06858941 -0.071755975 -0.03380926 0.04041838 0.06594643 0.021494903 -0.0632954 0.09236898
-0.030798158 -0.06590378 0.062385283 0.016779592 0.04802931 -0.04066211 -0.09714467 0.06007333
0.086534604 -0.051998727 -0.00093246787 -0.07036134 0.021732874 0.02368443 0.063341625 -0.015141582
-0.058649246 0.0762362 -0.049293324 -0.08976185 0.021607565 0.06638578 -0.06133184 -0.03083953
0.054159563 -0.026420757 0.018251436 0.0041024745 -0.048566107 -0.016795853 0.084250376 0.053634837
-0.087070666 0.021374648 0.12753375 -0.045449067 -0.0174663 -0.07131489 0.005806255 0.07442597
0.06548184 -0.095510446 -0.02037756 0.07385303 -0.07125185 -0.105092935 0.01936483 -0.006719545
-0.13164514 -0.0632988 -0.082087845 -0.018749507 -0.07819893 0.08249551 0.10993019 -0.081399016
0.0005948124 -0.05645318 -0.040572993 -0.032170497 0.0812506 -0.018665748 -0.022808736 0.09061336
0.098828025 0.015577889 -0.0038277835 0.027515417 0.0018414881 -0.13214645 -0.11007482 -0.037636217
0.083064936 0.07661713 0.10588155 0.002219071 0.041199673 -0.021854846 0.03273236 0.027336927
-0.09727974 0.016586393 0.022211224 0.088196985 -0.085571215 -0.08098109 -0.0711879 -0.027934946
0.075525366 -0.03354572 0.088700876 0.09903057 0.06524612 0.046357803 -0.116904326 -0.03904861
0.073293194 -0.049591795 -0.13002484 0.010867605 -0.01709602 -0.09746541 -0.03139585 0.031387925
-0.07080399 -0.029146163 -0.10971364 -0.11157887 0.013901789 0.027953727 -0.049329355 0.05856576
-0.0073251426 0.059170045 -0.07672084 0.002323291 0.0016063193 -0.07639819 -0.01921462 -0.053447187
0.055117454 -0.026846096 0.03963586 0.086225115 0.0927616 0.025131363 0.016588263 -0.024173098
-0.07029463 -0.06988819 0.06291775 -0.04777456 0.05461208 0.0052685128 0.0046700393 -0.033309598
-0.080763794 0.07037806 0.092384696 0.045925178 0.043593284 -0.09946536 0.061491642 -0.07319401
-0.023987873 0.08800645 0.034759898 -0.10989521 -0.0011285301 0.08401041 -0.026086425 0.002424339
-0.037720695 -0.07428214 0.017724358 0.0034868566 -0.024060275 -0.02143076 -0.07358763 0.0022493156
0.109196275 0.022053791 -0.07183148 -0.09465565 -0.0841891 -0.019598959 -0.06752038 -0.019806702
0.035833564 0.09011809 0.040720075 0.043859392 0.0035086097 0.01882805 -0.06968147 -0.06756262
-0.1357882 0.043456726 0.054818634 -0.09821492 0.017937843 -0.0024135583 -0.0012279972 -0.032231756

layers.0.Aw.conv2.bias f4 [16]
00000000: bd5c 89bc db01 7d3d 9b4c e2bc b785 acbc
00000010: 69ad 23bd 0efc f23c 6966 9dbc cde0 783d
00000020: 06f5 ac3d 5fbd b3bd f3da b3bd d0b6 e43d
00000030: ac41 403c 0bde b03d 1af7 c6bb b9b1 883c
-0.016767854 0.061769348 -0.027624419 -0.021059854 -0.0399603 0.029661205 -0.019213872 0.06076126
0.08445172 -0.08776354 -0.087819956 0.11167681 0.011734407 0.08636101 -0.0060719373 0.016686307

layers.0.Aw.conv3.weight f4 [1, 16, 3]
00000000: 67f0 fb3d 5eb2 a3bc 10be da3d 8ae4 203e
00000010: 1a59 693d 139a 0d3d e908 b83d 395b 563d
00000020: db17 543c f03a 343c 26bb 573d 7a83 fb3d
00000030: 8ca4 bcbd f90d 513d 3fca d23d 5e65 8ebd
00000040: 5dc1 643d 7d06 713d 316c 973d c46e 6b3d
00000050: 0d48 b73d d155 ce3d 0279 7ebd 4fde f83d
00000060: f568 0ebd 3cce 893d 7702 5cbd 17da c33d
00000070: 2e87 0cbb 6be2 fbbd e7ba a8bd c57c bbbc
00000080: 17b2 67bd 4857 7dbd 9acb 073e c479 d13c
00000090: 8e98 06be 9582 ea3c 28aa ff3d dcb4 8ebd
000000a0: d7fd a1bd 0b9b d33d 7d23 e13d e251 153c
000000b0: 1a6d d5bd 9b20 653d 89fb 0c3e 7c25 8e3c
0.123017125 -0.019982513 0.10680783 0.1571218 0.05696974 0.034570765 0.089860745 0.05233309
0.012945141 0.01100038 0.052668713 0.122809365 -0.09211072 0.051038716 0.10292482 -0.06952928
0.055848468 0.05884408 0.07393683 0.05747868 0.089492895 0.10074962 -0.06212712 0.12151777
-0.034768064 0.06728789 -0.05371329 0.09563082 -0.0021442878 -0.12299045 -0.08238774 -0.022886643
-0.056566324 -0.061850816 0.13261262 0.025570758 -0.13144132 0.02862672 0.124836266 -0.0696809
-0.07909744 0.103323065 0.10993097 0.009113761 -0.104212 0.055939298 0.13767828 0.017351858

layers.0.Ah.conv1.weight f4 [32, 1, 5]
00000000: 23f7 e23d 1726 c53e d388 b0be 5a7e b93e
00000010: 0e22 913e 9590 91be c359 373e 616e c4be
00000020: 1a82 453e 8eba c0be a3a7 9d3e 73e3 5bbe
00000030: 03c7 f4bc 2065 b03e fa66 21bd 70f7 e3be
00000040: 756f 383e 02af 2f3d 7548 373e 4375 03bd
00000050: 60ee b03d f2f6 4abe 52ad 4abe a8f2 3e3e
00000060: c097 b43e e817 763e fe85 5abd cf9a cc3d
00000070: 05a6 3cbd 3333 86be f0f3 b6be 1719 9b3e
00000080: 4a2d 3b3e 7704 60be 322d 5bbb eaa4 523d
00000090: e619 4e3e 8f9e bd3e 7457 ccbe af72 d23e
000000a0: 9cfd 43bd 19cb c4be 57f0 0bbc 93d8 c93e
000000b0: 3d5b c33d 3491 3e3a ca10 91be 34fb e03c
000000c0: 3a2a eb3d e959 fdbd 2ec7 8fbe f46c 84bd
000000d0: d3f3 27bb 7f7e a73e d480 353e def0 80be
000000e0: 9fd8 b63e 7b7d 8dbd 9a6e cfbe 962b 673e
000000f0: cb57 c7be 1bac 2d3e e0e1 233e e0d3 973e
00000100: 0e5a 003e 3150 fb3e 7937 0a3e fbf3 92be
00000110: 8d17 7c3e 2062 7f3e 874d ce3e 3a48 b3be
00000120: def6 9e3e d1ee 20be 665d e9bd c271 cc3e
00000130: 0060 06be d4b9 403e f8d9 d53d ccfe 45be
00000140: d027 f33d 7831 3a3e 83af 01be 3c4a 813e
00000150: 06f1 033d 223a 803e a8d3 c7be 750e dabd
00000160: 00a5 95be 2416 843e 3bb9 6e3e d65d 063e
00000170: 9b05 6f3d 527f e6be 34a3 d33c f578 25be
00000180: 4915 c8bd 2023 04be 73e6 ddbd 9b1d a93e
00000190: ce2f 86be e67a 0dbe 6bc7 ba3d 0d0b 2ebe
000001a0: b04f 53be 9aba e23d e6a8 9bbe f5d3 76bb
000001b0: 27f1 8b3e c865 0e3b b93b 633e f1c4 e53b
000001c0: 9a32 3f3e 0932 88bd 1a0a 7e3d 4ef7 07be
000001d0: 777b c63d 2236 bcbe 7792 64be ccd5 433e
000001e0: 2bbc 8fbd 1c73 5f3c 91a9 073e 5aa0 dd3e
000001f0: 5358 193e c58d 323d 3666 ad3d 177c b63e
00000200: dfec 3a3d 5f1e c63c 1041 28bc 52d9 d2bd
00000210: 2f4b 19be e555 4f3d 9975 79be 7804 943e
00000220: b91e 973d a679 8b3e 6aac 02be 5c30 5b3e
00000230: b870 7b3e 063e 693e 5227 63be da1b 06be
00000240: 37ac a33e d685 e1be 3619 d63e 85a3 01bd
00000250: fb62 063d c266 a53e 74f0 573e 04e2 5d3e
00000260: d9a1 bdbe a7eb c0bd c197 b03e 7638 3b3d
00000270: bf00 d1be c558 213e db0d 9cbe 548e 423e
0.11082294 0.38505623 -0.3447939 0.3622921 0.28346294 -0.2843062 0.17905335 -0.38365462
0.19287911 -0.3764233 0.3079196 -0.21473484 -0.029880052 0.34452152 -0.039404847 -0.44524717
0.18011267 0.04289151 0.17898734 -0.03209425 0.086392164 -0.19820765 -0.19792679 0.18647254
0.35272026 0.24032557 -0.05335044 0.09990465 -0.046056766 -0.26210937 -0.35732985 0.3029258
0.18278995 -0.21876703 -0.0033443687 0.051426806 0.20127067 0.37035033 -0.3991047 0.41103122
-0.047849283 -0.384362 -0.008541188 0.39423046 0.09538887 0.0007269562 -0.28333122 0.027463533
0.114826635 -0.123706646 -0.2808165 -0.06466094 -0.0025627508 0.32713696 0.17724925 -0.25183767
0.35712144 -0.06908699 -0.4051407 0.2257522 -0.38934168 0.16960184 0.16004133 0.29653835
0.12534353 0.4908462 0.13497724 -0.28701767 0.24618359 0.24939775 0.40293524 -0.35016042
0.3104772 -0.15716101 -0.113947675 0.3993054 -0.13122559 0.18820888 0.10441965 -0.19335479
0.11872828 0.18182933 -0.12664609 0.2525195 0.03221228 0.25044352 -0.39028668 -0.10647289
-0.29227448 0.25798142 0.23312847 0.13121733 0.058354955 -0.45019013 0.025834657 -0.16159423
-0.09769685 -0.12904024 -0.1083497 0.330304 -0.26208347 -0.13816413 0.09120067 -0.16996403
-0.20635867 0.11070748 -0.30402297 -0.0037662957 0.27332422 0.0021728147 0.22190751 0.0070120026
0.18671647 -0.066501684 0.062021352 -0.13277933 0.09691518 -0.3676005 -0.22321497 0.19124526
-0.07018312 0.013638284 0.13248278 0.432864 0.149751 0.043592233 0.08466761 0.35641548
0.045636054 0.024184404 -0.010269418 -0.10295357 -0.14970087 0.050619025 -0.24361266 0.2890966
0.07378907 0.27241248 -0.12761083 0.21405166 0.24554718 0.22777566 -0.22182968 -0.13096562
0.31967327 -0.4404742 0.4181611 -0.031650085 0.03280924 0.3230496 0.2108782 0.2166825
-0.37037542 -0.09419947 0.3449078 0.045708142 -0.40820882 0.15756519 -0.3047932 0.18999606

layers.0.Ah.conv1.bias f4 [32]
00000000: 52ce ba3e 25cf d03e 7a18 cdbe d9ce 2d3d
00000010: 1b4c bcbd 36bd f53d 0fc4 993e 5c64 01bc
00000020: 6df7 773e b6ae 0c3e bc9d 963e 60de 1d3e
00000030: 24b7 cd3d 5900 c3be 8874 cfbe 87c8 3f3e
00000040: b67a 8e3e b316 9b3e 078b d93b c3c3 223e
00000050: 12eb b0be ba3f 0c3e c7cd 8a3e c8cd d83e
00000060: e9d4 943e 2d42 aabe 1aef 423d 65d5 f2bd
00000070: 6648 58be e70e 413c 6b3e 783e 2631 403d
0.36485535 0.4078304 -0.40057737 0.042433593 -0.091942035 0.1199898 0.30032393 -0.007897463
0.24215479 0.13738522 0.29417217 0.1541686 0.10044697 -0.38086203 -0.40518594 0.18728839
0.27827996 0.30290756 0.006638888 0.1589499 -0.34554344 0.13696185 0.2711012 0.423445
0.29068688 -0.33253613 0.047591306 -0.11857108 -0.21121368 0.011783338 0.2424256 0.04692187

layers.0.Ah.conv2.weight f4 [16, 32, 3]
00000000: febd 5e3d 7412 8cbd 07a0 4f3c 446e a6bd
00000010: 3aa5 76bd 58d3 e7bb 0993 14bd 1e01 133c
00000020: 2f1e 3b3c 1772 453d 3f8c b0bd 20b6 c7bd
00000030: a144 b4bd d14a 6e3c 1c34 ddbc af2b 693d
00000040: fe9e 203e eab9 163e 65af 923d c31c 203d
00000050: 3c67 8bbd c678 603c 503e f1bd 19aa a03d
00000060: 7d54 913d e1dc d3bd a35d 78bd 934d ba3d
00000070: 4b76 32bd 4487 7d3d a311 acbd bb61 513d
00000080: 4d59 a4bd f013 12bd aa16 c9bd f164 993c
00000090: d58b 20bd e2c3 403d 3dae 03be 766a a0bb
000000a0: 67cd 0bbe 5f0c 0abe d556 e7bc 613a bb3d
000000b0: 8d1c 33bc e3a1 84bd b838 d23d 85a1 82bd
000000c0: 9cef 183c 0174 b23d a448 b3bd 0717 aebc
000000d0: 6f82 e03c 749e 98bd 83df d3bd 9d15 78bb
000000e0: bc77 863e 8a39 0d3d 4431 803d 1405 08bd
000000f0: 6f75 aebd 7eb4 623c b964 d73d 5b15 b3bd
00000100: bccd 653d 76cd 07be 0d7c 4dbd 1649 b8bb
00000110: d48d c83d 80c6 c1bd 0932 0ebd 5d92 743d
00000120: 573a ffbc 270f a8bd 394e 323d fef8 e43c
00000130: 9852 f73b cd4e fc3d 3e4c 583c 632d 123d
00000140: 2e70 423d 385c 663d 0e36 91bd da63 14bd
00000150: e65f cdbc d8d0 87bd b2f1 0dbd ba68 97bd
00000160: 4eca d9bd 9b7e dfbd f213 b7bc 6c74 e0bc
00000170: 50b4 ae3c 0597 b9bd 9a77 debd c222 9f3d
00000180: 9a56 37bd 815a 68bd 183f bbbc 35d7 40bd
00000190: 1588 2c3d 5f9b 6bbd 0815 c1bd 9230 c83c
000001a0: 0dad b73d 501b 12be 3454 543d fdad e1bd
000001b0: 864c 2a3d 4b66 dbbc 5dd6 70bc 068c d53d
000001c0: d369 f03c 740c a3bd 685a 11bd 90d0 37bd
000001d0: 1dba 6f3c ce0c 503d 16ef 813c 627b 2bbd
000001e0: 06c4 d3b8 d25c edbc 9758 a4bd fe9b cf3d
000001f0: 9fc8 e83d e484 c0bd 4cea dbb9 fab9 72bd
00000200: fc89 c3bd 02e3 8fbc 07a9 ef3d d962 2a3d
00000210: 5144 9b3d 6e7b a9bc 7357 893d b4fa 2cbc
00000220: fe6e 95bd 0647 043d faa2 753d 03d9 5a3d
00000230: 3d54 34bd 4b5a 53bd 09db 42bd f0d3 bbbd
00000240: 8240 53bd e9fe ee3c 0255 013d 06cd 39bd
00000250: 5d8c 813c c323 c2bd 2697 18bd 62dc e23d
00000260: e1bd 32bd 0422 b83d a635 3bbd ab11 fe3c
00000270: c570 c03c 610a 9e3d b587 81bd 42c4 c0bd
00000280: f1a2 9f3c aaf2 1cbd 2400 093d 8ebc 253d
00000290: c354 cb3b 80d0 ec3c 7d86 003e 3120 5cbd
000002a0: aa1c 983d 9a87 1bbd 942a 903d 1886 e8bd
000002b0: f2fa 12be 3f89 ebbd 84b8 9cbd 55b2 a7bc
000002c0: 8d73 023d 2d28 ba3d b192 e5bc 15b5 ad3d
000002d0: 5bf8 2b3c aedf 37bd a824 ccbd f7bc 843d
000002e0: c137 9d3d fa2f 933c 93f3 c43d 2829 a0bb
000002f0: 20f4 003c f2dd 523c a77e 66bd 6045 e93c
00000300: 8dc8 ddbd b0e0 8a3d 99bc b3bd 4d7b f93b
00000310: 4dc8 d5bd 2427 a63d 28f9 2cbd a94f 843d
00000320: 80ec 883d b892 273d ed15 de3d e1df 5b3d
00000330: a0c6 e03c 8819 adbd c6db bcbd 168f 5b3d
00000340: c638 13bd 6f0e 81bd 1ea0 a0bb c8b7 41bd
00000350: 91af 8c3d acb0 a3bd 9fe7 923d 7607 1d3c
00000360: b553 14bb 4808 a43d 6e05 0d3d 56fe 7bbd
00000370: e7f9 22bd 3177 f5bc 34f3 853c fb81 93bc
00000380: ee58 15bb 9f0a 88bb ba62 ec3c 7ff2 89bd
00000390: 495e 203d 1d9f a3bd 69d1 7abd a7ad a73d
000003a0: 1366 9abd b2b6 7f3d 2f95 c6bc 0ddc 753d
000003b0: 6849 183d d7fb 413d 7a8f 573d 7933 3b3d
000003c0: 8ece d8bc 6a45 4bbd 34ef 8e3c 453d fcba
000003d0: 37f8 ad3c d0cf e5bc eda6 22bd f203 f0bd
000003e0: cacd bfbc 0ed2 213d 8cb5 9fbb 3322 3f3d
000003f0: b427 b4bc e2d8 063d 0ef3 993d 371d 683d
0.05438041 -0.06839457 0.012672431 -0.081265 -0.060216166 -0.0070747547 -0.036273036 0.008972434
0.011420771 0.048204508 -0.086205 -0.097515345 -0.088021524 0.014544205 -0.027002387 0.056926426
0.1568565 0.14719358 0.0716236 0.03908993 -0.068068 0.01370067 -0.11779463 0.078449436
0.07096193 -0.10344864 -0.060636174 0.09096827 -0.043569844 0.061896577 -0.084018014 0.051118594
-0.08024845 -0.035663545 -0.09818776 0.01872489 -0.039195854 0.04706181 -0.12859435 -0.0048955036
-0.13652574 -0.13481282 -0.028239647 0.09141994 -0.0109321 -0.0647619 0.102647245 -0.06378464
0.009334471 0.08713532 -0.087540895 -0.021251215 0.027405946 -0.074520975 -0.10345366 -0.003785468
0.26263225 0.0344787 0.06259397 -0.033207968 -0.085184924 0.013836978 0.10517258 -0.087443076
0.056104407 -0.13261971 -0.050167132 -0.005623947 0.097926766 -0.09461689 -0.034715686 0.059709895
-0.031155748 -0.08206015 0.04353163 0.02795076 0.0075476877 0.123197176 0.013201771 0.035687815
0.047470264 0.05624029 -0.07090388 -0.03622804 -0.025070142 -0.06631631 -0.034654327 -0.07393022
-0.1063429 -0.1091282 -0.022348378 -0.027399264 0.021326214 -0.09062008 -0.10862656 0.077703014
-0.044760324 -0.056726936 -0.022857234 -0.047080237 0.042121965 -0.05752122 -0.094278395 0.024437223
0.08968554 -0.14268231 0.051838115 -0.11019514 0.041576885 -0.026782176 -0.014699546 0.10427098
0.029347336 -0.079613596 -0.03548661 -0.044876635 0.014631775 0.05079346 0.015861075 -0.041865714
-0.00010097776 -0.028974924 -0.0802471 0.10137175 0.113663904 -0.09400347 -0.000419455 -0.059259392
-0.09547803 -0.0175643 0.11702161 0.041598175 0.0758139 -0.020688739 0.06706133 -0.010557819
-0.07296561 0.032294296 0.05996988 0.053429615 -0.04402565 -0.051599782 -0.04757217 -0.09171283
-0.05157519 0.029174285 0.03157521 -0.04536154 0.015814 -0.09479477 -0.03725352 0.11077191
-0.043638114 0.08990863 -0.04570546 0.031014284 0.023491273 0.07716823 -0.06324712 -0.09412433
0.019486876 -0.03831736 0.0334474 0.040463023 0.0062051727 0.028908014 0.12551303 -0.053741638
0.07427342 -0.037971117 0.07039371 -0.11353701 -0.1435354 -0.11500787 -0.07652381 -0.020470778
0.03184848 0.09089694 -0.02802405 0.08481804 0.010496224 -0.044891052 -0.09967929 0.06481355
0.0767665 0.017967213 0.096167706 -0.0048877187 0.007870704 0.012870299 -0.05627313 0.028475463
-0.10829268 0.06781137 -0.087762065 0.0076135756 -0.10438595 0.08112934 -0.0422298 0.064605065
0.06685734 0.040911406 0.10844026 0.053680304 0.027438462 -0.08452135 -0.09221606 0.053603254
-0.035942815 -0.06301581 -0.0049019 -0.047294408 0.06869424 -0.07992682 0.071730845 0.009584298
-0.00226329 0.08009392 0.034429006 -0.06152185 -0.039789107 -0.029964061 0.01635132 -0.018006315
-0.0022788602 -0.0041516568 0.02885567 -0.067357056 0.039152417 -0.07989333 -0.061234865 0.081874184
-0.07539 0.06243009 -0.024241058 0.06002431 0.03717938 0.047359314 0.052627064 0.045703385
-0.02646568 -0.049626745 0.017448045 -0.0019244334 0.021236522 -0.028053194 -0.039709974 -0.117195025
-0.023413558 0.039506964 -0.004873937 0.046663474 -0.021991588 0.03292168 0.07517062 0.056668486

layers.0.Ah.conv2.bias f4 [16]
00000000: 72a1 9cbd d013 8fbd 6340 52bb fea5 a1bd
00000010: f669 e33d 46ef 33be 5e81 3ebd 2128 debc
00000020: 9964 1cbe 4741 e53d 1186 2bbc cd47 78bd
00000030: 050f efbd 2270 123e 30b8 3bbe 5824 3dbe
-0.07647981 -0.06986201 -0.0032081835 -0.078929886 0.11104195 -0.17571744 -0.046510093 -0.027118744
-0.1527275 0.11194091 -0.010468976 -0.06061535 -0.116727866 0.14300588 -0.1833198 -0.18470895

layers.0.Ah.conv3.weight f4 [1, 16, 3]
00000000: 3b31 9f3d e796 b9bc 4245 fdbd 687f 83bd
00000010: ad5a 4e3d fd9c dd3d 82ea a53d f7b0 b6bd
00000020: c897 cbbc 6e83 34be f505 88bd f0af acbb
00000030: 7208 9ebd dabe 2a3e 2f7a b43d 9216 1f3d
00000040: 12d6 6fbe a532 cb3c 99c8 fa3d 147c 23bd
00000050: 7e06 bb3d 0985 48be adb9 3ebe b022 bbbd
00000060: 5dc8 1dbe 6214 b5bd c13f bd3c 47c7 503c
00000070: 7d57 2e3e 5188 cd3c 2d29 963d ff5d 3c3e
00000080: c858 aa3d b883 32be d946 68bd e9b7 963c
00000090: 96b5 4cbe 8281 63bd 9e49 913d 2c3e 143d
000000a0: f893 b43e 4c07 babd 098e dcbd 45c7 0ebe
000000b0: 3900 27bb 3d70 d0bd 60f5 52be 27b2 d53d
0.07773062 -0.022654964 -0.123667255 -0.06420785 0.050379444 0.10820959 0.081013694 -0.08920472
-0.024852648 -0.17628261 -0.06641761 -0.005269997 -0.077164546 0.16674367 0.08812367 0.038839884
-0.23421505 0.024804423 0.12245292 -0.039913252 0.09132098 -0.19581999 -0.18625517 -0.091374755
-0.15408464 -0.08841778 0.02310169 0.012742824 0.17025562 0.025089415 0.073320724 0.18395232
0.08317715 -0.17433059 -0.05670819 0.018398242 -0.19991145 -0.05554343 0.070941195 0.036192104
0.3526914 -0.09083423 -0.107692786 -0.13943203 -0.002548231 -0.10177658 -0.20601416 0.104343705

layers.1.Aw.conv1.weight f4 [32, 1, 5]
00000000: dbd7 143e c84b a8be f8cd d8be 4542 d93e
00000010: bdff adbe a84d 7cbe 212c 88be 64c9 dc3d
00000020: a284 c93e a310 813e e1af be3d 7053 9cbc
00000030: b41c 4abe 24b8 c2be 4eb1 e6be 7716 86be
00000040: 2a66 70bd c651 673d 882f 96be ee64 7cbe
00000050: 184b 933d c488 bd3e fd55 1d3e 50fd bf3e
00000060: 916f 9ebe 3c4c c0be 32d8 413e 82fd d73e
00000070: aa94 8f3e 5650 9dbe 66f2 8cbe 8e1d b23e
00000080: af06 8d3e d551 373e f809 29be e9e8 d63c
00000090: 35e4 7d3e 702a 08bd b93f d9be 323a 15bd
000000a0: 8b26 adbd 150b a63e f4a0 dabe a15f 33bd
000000b0: e853 8abe b917 06be cf81 d1be 4a53 24be
000000c0: 3612 0f3e 5250 a03e a1ca 6a3e 102e 563e
000000d0: 1ad1 35bd 8005 813e 2d64 703c 795e d8be
000000e0: d974 a13e e4a4 313e 6204 c73d 3425 1e3e
000000f0: 6a30 d03e b7cc 803e c111 82bc 47a0 a33e
00000100: 1e84 9ebc c17e 8fbe 837b 26be c6a4 bcbd
00000110: 040c e4bd 32fd 7f3d 8a68 a2be 2a86 8e3d
00000120: ebf3 503e edb6 b5be 6ab7 273d 6c6e 2bbe
00000130: 6f80 9d3e 3cce da3e 8218 8c3e dd4c 92be
00000140: 1775 bc3e c380 ff3d 3254 9e3e fef3 f6bc
00000150: 0b27 bd3e 324f 5abe 571a d3be 4f33 103e
00000160: b090 c63e 7a17 7abe 6e5d 69be 954d 0c3e
00000170: 90c9 813e 00ea a23e c38a c33e 9dad 103e
00000180: 5f07 77be e379 ad3e 09b0 22bd 8aaa 713e
00000190: 96da dcbe 59ab b13e 2ab9 d63e e366 c53e
000001a0: 7a5b 7f3e 043f 8cbe dc13 4abe b8de d93d
000001b0: 0be4 b33d ab07 d3be c20c 7d3e c726 93be
000001c0: a72f 223e 3532 573e 72a5 d7be b364 bbbe
000001d0: d8d7 84be 351e d13c f344 1cbe 47b2 7a3e
000001e0: 76d6 7d3e 3538 a8be 0c3a 883e 8b80 ddbe
000001f0: c4f6 e5be 60b8 e0bd a425 d2be ab28 afbe
00000200: 4dcf 573e d314 26be d1c0 28be 840b babe
00000210: d236 5f3e 18df ccbd a3e5 66be 32b2 9f3e
00000220: d5dd de3e 3537 19bd ed74 5a3e 44ff e33e
00000230: 18f4 1abe cd5c 99bc a4ab 02be 46fa a63e
00000240: 1830 cd3e d421 ce3e 4f11 e8be 741c 6c3e
00000250: ade6 ad3e 6f2d 433d 33d3 cabe 9516 8f3d
00000260: 183e 253e 54d3 bf3e a1ac d03e ac3d 66be
00000270: 229c ac3e f864 edbb 9f2d 94be 049e 97bd
0.14535467 -0.32870317 -0.42344642 0.42433372 -0.33984175 -0.24638999 -0.26596168 0.107806
0.39359003 0.25208005 0.0931089 -0.019082755 -0.19737512 -0.38031113 -0.45057148 -0.26189014
-0.05869118 0.05647447 -0.29333138 -0.24647877 0.07192057 0.37018406 0.15364833 0.3749795
-0.30944493 -0.37558162 0.18930128 0.421856 0.2804311 -0.30725354 -0.27528685 0.34788173
0.27544162 0.1790231 -0.16507709 0.026234107 0.24794085 -0.033243597 -0.4243143 -0.036432452
-0.08454617 0.3243033 -0.42700922 -0.04379237 -0.2701714 -0.13094987 -0.4091935 -0.16047397
0.1397179 0.3131128 0.2292886 0.20916009 -0.044388868 0.2519951 0.014672321 -0.42259577
0.3153446 0.17348057 0.09717633 0.1544388 0.40661937 0.25156185 -0.015877606 0.3195822
-0.019350108 -0.28026393 -0.16258053 -0.092111155 -0.11135104 0.062497325 -0.31720382 0.069591835
0.20405547 -0.35491124 0.0409464 -0.16741341 0.3076205 0.4273547 0.27362448 -0.28574267
0.36808082 0.12475731 0.3092361 -0.030145641 0.3694385 -0.21319273 -0.41231033 0.14082073
0.38782263 -0.24423018 -0.22789547 0.1370147 0.25349092 0.31819153 0.38191804 0.14128728
-0.24123906 0.33882055 -0.03971866 0.23600212 -0.43135518 0.3470104 0.41938144 0.3855506
0.2493724 -0.27391827 -0.19734138 0.10638183 0.0878373 -0.41216788 0.24711898 -0.28740522
0.1583849 0.21015246 -0.42118412 -0.36600265 -0.25945926 0.0255271 -0.15260677 0.2448207
0.24788842 -0.32855383 0.26606786 -0.43262133 -0.4491483 -0.10972667 -0.41044343 -0.34210715
0.21075173 -0.16218881 -0.16479804 -0.3633691 0.21798256 -0.10003489 -0.22548537 0.3119064
0.4352862 -0.037406165 0.21333666 0.4453069 -0.15132177 -0.018721009 -0.12760788 0.32612818
0.40075755 0.40260184 -0.45325705 0.23057729 0.33965054 0.04765075 -0.39614257 0.06986729
0.16136968 0.37465918 0.40756705 -0.22484463 0.3371287 -0.0072447024 -0.28941056 -0.07403186

layers.1.Aw.conv1.bias f4 [32]
00000000: fbcb a3be 2cd2 b6be e5e0 363d 8883 d43e
00000010: 52ca 45be b289 2e3e 5bcc 0f3e b169 89be
00000020: 545e 8abd 6c6b 59bd 2ad2 9c3e d7ac 4f3e
00000030: 67db f33e 423c a53e 559a 00be 6575 d9bd
00000040: 4d3e b53e 2bb3 d0be 0a2d ddbd 1e52 933e
00000050: 54a0 3dbd 513c 97be 3146 c63e cfb6 c4be
00000060: 267d 8ebe 2d7e acbe fb45 b63e d3d4 a4be
00000070: d901 1fbe 7061 e23e 20f9 d53e 5e43 a3be
-0.31991562 -0.35707223 0.04464807 0.415066 -0.1931546 0.17044714 0.14042799 -0.2683845
-0.06756273 -0.05308096 0.30629092 0.20280777 0.47628328 0.32272536 -0.12558873 -0.10618094
0.35399094 -0.40761694 -0.10799606 0.28773588 -0.04629548 -0.29538205 0.38725427 -0.38420722
-0.27829856 -0.33690014 0.35600266 -0.32193622 -0.15528049 0.44214964 0.4179163 -0.31887335

layers.1.Aw.conv2.weight f4 [16, 32, 3]
00000000: 4f36 e13c df4b 133d 3c5d 923c 752e 16bc
00000010: 104a d3bd 2aa5 d0bd eb88 6ebd 81eb ac3d
00000020: 0f80 0dbc 2ebb ad3d be71 393c b7bd 433d
00000030: ad73 483d 7380 64bd 86c9 2cbd c504 863c
00000040: e4f0 113d 9c2c a8bd 711a b4bd 6dde 043d
00000050: 4176 963c da66 85bb be93 853d 3c7f 413d
00000060: b647 093d 734b 933d c7f9 91bd c299 b7bd
00000070: d098 a53d 7337 6f3d d5a9 65bd e30e aa3d
00000080: ae2d 8ebb 9f42 373d bce1 b6bd 9644 cabd
00000090: 602a 4fbc fe20 8dbc ac8d 693a 15d3 623b
000000a0: 2ef5 05bc 9b16 57bd 4e6f 7cbc d569 783d
000000b0: 59d9 9b3d dbe5 4e3d 0ed1 97bc 55bd c9bc
000000c0: a96a fbbc be87 df3c 0f37 d0bd 320b 1dbd
000000d0: 51fd 973a d6ca 1f3d ba92 c9bd 856d 8ebd
000000e0: 5336 cabd 800c 693b 8af1 afbd e565 13bd
000000f0: c743 8abd 1605 f1bc 3932 3fbd cf4d 8e3d
00000100: 04e5 8abd b968 91bd 7090 0dbd 7c8a 223d
00000110: c07c 853d d71b b63c ad22 80bd 49aa be3d
00000120: ae37 f7bc ce9e 85bd d74c 813d c8e4 8e3c
00000130: 8cbc 473d 42ef 23bd ca8e c8bd 6674 733d
00000140: 9fae af3d f587 52bd a08c 17bb 508c 8ebd
00000150: 9af5 993c e204 b13c 0f8e 823d b022 81bc
00000160: 4930 73bd ef8a 9a3d a3b1 4cbd c21b b9bd
00000170: 0852 ab3c ba1c 893d cc4b 78bd 1507 f6bc
00000180: 88e7 5c3d 8992 d8bc e63b 953c e26f 473b
00000190: 47a0 4abd d96f 8cbc 248b ad3d cda4 5e3d
000001a0: 78f1 b0bd 09e4 b43c 4244 033e 0f26 38bd
000001b0: 94bf a0bc a3b5 9cbd c12a 6abb 3dba 983d
000001c0: 6ae0 853d 9fa3 c4bd b129 a6bc 3c04 973d
000001d0: 5304 93bd 7f0a d7bd f479 9f3c 6b5a e0bb
000001e0: dae7 06be 03c3 7dbd 7529 a5bd 9063 5ebc
000001f0: f7fc debd eabe 9e3d ae51 e13d 6794 a6bd
00000200: 4bc7 113a 6e68 67bd 4dc5 26bd c6c7 04bd
00000210: 8db2 a63d 6122 98bc d3e5 babc 2e30 ba3d
00000220: d958 cb3d cb81 853c 5235 72bb 5b44 e13c
00000230: 3fd4 eb3a 3dd8 e4bd 8540 c1bd 2f93 b0bc
00000240: de38 aa3d 37b3 9c3d 93d7 d83d b3d4 f03a
00000250: e1fe 263d 0f80 b5bc 468e 483d c38b 2e3d
00000260: a310 afbd 7d7d 883c 3f22 b53c 1efb b43d
00000270: 6f2e a3bd a35a 9bbd b99d 89bd 957e e5bc
00000280: a571 9a3d 644b 0abd c194 b63d c566 cb3d
00000290: 74fa 853d 2258 3c3d 13f9 efbd cff6 1fbd
000002a0: f7a5 963d 9b6f 4abd 6f19 05be 3dfc 2d3c
000002b0: 1962 8cbc 5d78 c7bd 7bfa fcbc 6a37 023d
000002c0: be05 90bd a486 f7bc ede6 e2bd 4eac e6bd
000002d0: 966c 98bc a489 ce3b e260 55bd 6933 703d
000002e0: 2aa7 f0bb 450f 733d b166 9dbd a4a7 0c3b
000002f0: 55ad d13a 8184 9cbd ab97 9dbc 1a19 5cbd
00000300: 8ed6 603d 7875 dcbc 9564 223d 774a ae3d
00000310: 3405 bc3d f602 cb3c 1ac2 8a3c 0d68 bebc
00000320: 7337 8ebd f7a4 8dbd 2130 823d febd 41bd
00000330: fbce 583d 51dc eeb9 b566 84bb 096e 07bd
00000340: 6ac1 a5bd 6401 8f3d 3f9e bd3d 2d7e 3b3d
00000350: 734a 303d 357d cbbd 577c 7c3d bf2d 96bd
00000360: 0a69 c4bc a261 b63d 7eef 173d df3a dabd
00000370: 6a26 06bd 3c46 a33d cad0 d4bc 48d2 223b
00000380: 1c96 1abd da2b 98bd 97b6 8f3c 496f 523b
00000390: 74c7 c3bc 6ec1 aebc 12b1 96bd 4187 253b
000003a0: bc8c e03d eb93 ba3c 4adb 92bd 36d3 c1bd
000003b0: 47ad acbd 70a6 39b6 2dc2 51bd 4ad2 8cbb
000003c0: e2ea 123d 0f6e b83d 74b4 263d e510 323d
000003d0: 124d 463b 3cbe 973c daf3 5abd 5528 57bd
000003e0: e133 ffbd 0b28 323d ac3b 603d 89de c8bd
000003f0: 1b1a c63c 5664 3f3b 2cbd 343b b63f 04bd
0.027491717 0.03596103 0.017866723 -0.00916635 -0.10316861 -0.101877525 -0.058236044 0.08443356
-0.008636489 0.08482967 0.011318622 0.047788348 0.048938442 -0.05578656 -0.042184375 0.016359696
0.03563012 -0.082116336 -0.08794106 0.032438684 0.018366935 -0.0040710988 0.0652232 0.04724048
0.033515655 0.07192125 -0.07127719 -0.08964874 0.08085787 0.05840249 -0.056070168 0.08303621
-0.0043389415 0.04474127 -0.08929774 -0.09876363 -0.01264438 -0.017227646 0.00089093554 0.0034610678
-0.008176131 -0.052511793 -0.0154073965 0.060647804 0.07609815 0.050512176 -0.018532302 -0.024626413
-0.030690508 0.027286407 -0.101667516 -0.038340755 0.001159588 0.0390118 -0.09842439 -0.06954483
-0.09873643 0.003556043 -0.08590992 -0.035985846 -0.06751209 -0.02942137 -0.046678755 0.069484346
-0.067819625 -0.071000524 -0.034561574 0.03968285 0.06517935 0.022230072 -0.06256614 0.09309823
-0.030177917 -0.0652443 0.06313484 0.017443076 0.048763797 -0.040023096 -0.0979286 0.059437178
0.08578228 -0.05139919 -0.002312459 -0.06960356 0.01879387 0.021608774 0.06374752 -0.01576361
-0.05937222 0.07546031 -0.049974095 -0.090384975 0.020913139 0.06694932 -0.06061916 -0.030032674
0.053931743 -0.02643706 0.018217038 0.0030431678 -0.04946926 -0.017143177 0.084738046 0.054356385
-0.086398065 0.022081392 0.12819007 -0.04495817 -0.019622602 -0.07651832 -0.003573105 0.07457397
0.06536944 -0.09601521 -0.020283552 0.073738545 -0.07178559 -0.10500049 0.019467331 -0.006846716
-0.13174382 -0.061953556 -0.08064548 -0.013573542 -0.10888093 0.07751258 0.11001907 -0.08133774
0.0005561008 -0.056496076 -0.040715504 -0.03241708 0.081395246 -0.01857108 -0.022814667 0.09091221
0.09929056 0.016297242 -0.003695805 0.027498415 0.0017992331 -0.11174057 -0.09436134 -0.021554558
0.08311628 0.0765137 0.105879925 0.0018373936 0.040770415 -0.02215579 0.048963808 0.042613756
-0.08548095 0.0166614 0.022111056 0.08836959 -0.07967841 -0.07585647 -0.06719536 -0.02801446
0.07541207 -0.033763304 0.08915091 0.09931711 0.06541911 0.045982487 -0.11717429 -0.039053734
0.07355874 -0.04942284 -0.12997983 0.01061922 -0.01713662 -0.09739754 -0.030881157 0.03179113
-0.07032345 -0.030215569 -0.11079202 -0.11263333 -0.018606465 0.006303029 -0.052094348 0.05864278
-0.0073441463 0.059340734 -0.076856025 0.0021462226 0.0015997092 -0.076424606 -0.01923736 -0.053734876
0.054892115 -0.026911482 0.039646704 0.08510297 0.0918068 0.024781685 0.016938258 -0.023242975
-0.0694417 -0.0691623 0.06356836 -0.04730033 0.052931767 -0.00045559046 -0.004040564 -0.033063922
-0.080935314 0.06982687 0.09258699 0.045774627 0.04303975 -0.09935991 0.061642017 -0.07332944
-0.023975868 0.08905341 0.037093632 -0.1065576 -0.03275148 0.079723805 -0.025978465 0.0024844576
-0.03774081 -0.07430239 0.01754312 0.0032109788 -0.023898818 -0.021332469 -0.07357992 0.002525762
0.10964343 0.02277561 -0.07170732 -0.094641134 -0.084314875 -2.7664028e-06 -0.05121057 -0.0042975293
0.035868533 0.09005367 0.040699437 0.043473143 0.003025834 0.018523328 -0.05345521 -0.052528698
-0.12461067 0.04349522 0.054744408 -0.0980807 0.02418237 0.0029204092 0.0027578576 -0.032287322

layers.1.Aw.conv2.bias f4 [16]
00000000: ae06 90bc d535 7e3d 2fe7 dfbc 3b24 babc
00000010: d891 22bd 5f09 f43c 1bfd 9abc 8e17 753d
00000020: 376b ba3d 6c61 b4bd 714a b7bd 8550 e53d
00000030: 673c 463c f05a b03d a30c c6bb 6720 8b3c
-0.01758131 0.062063057 -0.027331917 -0.022722354 -0.03968987 0.029789625 -0.018919518 0.059836917
0.09102481 -0.08807644 -0.089497454 0.111969985 0.012099362 0.08611095 -0.006043987 0.016983224

layers.1.Aw.conv3.weight f4 [1, 16, 3]
00000000: 33f0 fe3d 0759 99bc 89b7 d53d 9754 213e
00000010: 3779 6a3d f7e2 0e3d 6a82 b73d d288 553d
00000020: dd7a 4c3c 41a5 433c 1a10 5a3d 57c4 fa3d
00000030: 1b0f bcbd af8c 513d dbd9 d33d eb51 8fbd
00000040: 7952 693d d992 763d 56e2 973d 91a0 6c3d
00000050: 4bf6 b73d c9f6 cd3d ea79 7abd 164e fb3d
00000060: f83b 07bd 99d0 8b3d d3b9 63bd 1765 c33d
00000070: 89ed 18bb 4840 fcbd 018d a9bd 3e87 c4bc
00000080: 3d80 6abd 2b7f 7bbd 5e2a 083e 9997 d33c
00000090: 2577 06be a9d9 ea3c 8f22 003e 3b31 8fbd
000000a0: 1290 a2bd 873f d33d f6e0 e23d 0b3f 1f3c
000000b0: d5cf d4bd acf8 653d 4646 0d3e ebd6 903c
0.12448158 -0.01871921 0.10435397 0.15754925 0.057244506 0.03488442 0.089604214 0.052132435
0.012480465 0.011941255 0.053238012 0.1224448 -0.09182569 0.051159557 0.10344287 -0.069980465
0.056963418 0.06019864 0.07416217 0.057770316 0.089825235 0.10056836 -0.061151423 0.12270753
-0.033016175 0.06826896 -0.055597138 0.09540766 -0.0023334941 -0.12316948 -0.082788475 -0.02399027
-0.057251204 -0.061400574 0.13297412 0.025829123 -0.13131388 0.028668242 0.12513183 -0.06991812
-0.079376355 0.10314851 0.11078064 0.00971962 -0.10391203 0.056145355 0.13796338 0.017680606

layers.1.Ah.conv1.weight f4 [32, 1, 5]
00000000: ceff df3d ec68 c43e cb42 b1be 8ec5 b83e
00000010: ff63 903e 6696 91be fe6f 373e 0a79 c4be
00000020: e49e 453e c6ce c0be 5bd7 9d3e 2daf 5bbe
00000030: 4824 f1bc fe96 b03e c4ac 1fbd de89 e3be
00000040: 8712 393e 7399 323d 48f7 373e 6b42 00bd
00000050: 5ac6 b33d 9e83 49be 902f 49be f950 403e
00000060: ff43 b53e c3ac 743e 9145 60bd d1d0 c93d
00000070: 5a53 42bd d5ea 86be 33b0 b7be 2f60 9a3e
00000080: 1abd 393e 8e76 61be 0e82 9cbb 2691 4b3d
00000090: f34a 4c3e 32b3 bc3e d93f cdbe 7580 d13e
000000a0: aeec 49bd 8689 c5be 9a39 23bc a41e c93e
000000b0: de6d c03d 2213 563a 2329 91be c347 e23c
000000c0: ed7b eb3d 417a fdbd 8e80 90be 5b4c 87bd
000000d0: 3e9c 81bb 77c7 a63e ce0e 343e a5b8 81be
000000e0: 5119 b63e 1e7e 90bd 5a35 d0be 05ac 653e
000000f0: 41c4 c6be 1584 2e3e e84a 253e 3353 983e
00000100: 1972 013e 8d2e fc3e 8cfd 0b3e 040c 92be
00000110: 4dd9 7d3e a591 803e ff0c cf3e 578d b2be
00000120: f3b2 9f3e 3569 1fbe f05d e6bd e5a9 cb3e
00000130: dafd 07be c332 3f3e c0aa d23d 639b 47be
00000140: 7cf2 ef3d 1f9b 383e e041 03be 4287 803e
00000150: 0b59 fb3c a701 7f3e 558b c8be 57f0 dcbd
00000160: e35a 96be 235e 833e 2a8f 6f3e 2231 073e
00000170: 2d7a 723d 5f08 e6be 6980 da3c 28e2 26be
00000180: 63da cabd c67b 05be b4c5 e0bd af72 a83e
00000190: b176 85be 0d09 0cbe ed9e bd3d 1a99 2cbe
000001a0: 3edb 51be 9b60 df3d 5383 9cbe 8f83 afbb
000001b0: 3f20 8b3e 018b 0c3a b3d0 613e aa63 b83b
000001c0: a0cc 3d3e 81fd 8abd fd54 783d 8681 09be
000001d0: be94 c33d eaf5 bcbe 5c11 66be 2f55 423e
000001e0: 0715 93bd 3cf2 443c ab03 063e b4db dc3e
000001f0: 0ab6 173e 9310 3b3d ec9f b13d ff83 b73e
00000200: 4259 433d 1800 d73c 4dad 1dbc 31ba d1bd
00000210: a464 18be c88b 533d a6ee 78be 8daf 943e
00000220: 73d6 993d 3b20 8c3e 5f4d 01be bd87 5c3e
00000230: c0cc 7c3e be91 6a3e 0fab 61be 83be 04be
00000240: 4754 a43e f9ef e0be 5fa7 d63e 3eb6 f9bc
00000250: f8f0 0a3d 00ea a53e 9775 563e d76e 5c3e
00000260: d75b bebe 46d8 c3bd 98da af3e 41fa 3a3d
00000270: db0f d1be 7164 213e 6afb 9bbe c395 423e
0.10937463 0.383613 -0.34621271 0.36088222 0.2820129 -0.28435057 0.17913815 -0.38373595
0.19298893 -0.37657756 0.30828366 -0.21453543 -0.029436246 0.34490198 -0.03898312 -0.44441122
0.18073474 0.04360337 0.17965424 -0.03131334 0.08778067 -0.19679114 -0.1964705 0.18780889
0.3540344 0.23894028 -0.054753844 0.09854282 -0.04744277 -0.26351038 -0.35876617 0.30151507
0.18138543 -0.22017881 -0.004776246 0.04969897 0.19950466 0.36855465 -0.40087774 0.40918317
-0.04929798 -0.38581485 -0.009962464 0.3928119 0.093959555 0.0008166303 -0.28351697 0.02762211
0.11498246 -0.12376834 -0.2822308 -0.066063605 -0.003955393 0.32574055 0.17583773 -0.25336185
0.3556619 -0.07055305 -0.40665704 0.22428901 -0.38821605 0.17042573 0.16141856 0.29750976
0.12641181 0.49254265 0.13670939 -0.28524792 0.24789925 0.25111118 0.40439603 -0.3487346
0.31191215 -0.15567477 -0.11248386 0.39778057 -0.1328043 0.18671708 0.10286474 -0.19492869
0.11716172 0.18027924 -0.12818098 0.25103194 0.030682107 0.24902974 -0.39168802 -0.10788029
-0.29366216 0.25657758 0.23394457 0.13202336 0.059198547 -0.44928262 0.026672559 -0.1629721
-0.09904935 -0.13035497 -0.10975209 0.32899997 -0.26067117 -0.13675328 0.09258828 -0.16855279
-0.2049379 0.10907098 -0.30568942 -0.005356259 0.2717304 0.00053612894 0.22052269 0.0056271153
0.1853509 -0.06786633 0.060627926 -0.13428316 0.09549855 -0.36906368 -0.2246756 0.18977807
-0.07181745 0.012020644 0.13087337 0.4313637 0.14815536 0.045670103 0.08673081 0.35842893
0.047692545 0.026245162 -0.009623838 -0.10240591 -0.14882141 0.051646978 -0.24309787 0.29040185
0.07511606 0.2736834 -0.12627171 0.21536155 0.24687481 0.22907159 -0.2203791 -0.129633
0.3209555 -0.43933085 0.4192457 -0.030482408 0.033921212 0.3240509 0.20943294 0.21526657
-0.37179443 -0.09562735 0.3434646 0.045648817 -0.4083241 0.15760972 -0.3046525 0.19002442

layers.1.Ah.conv1.bias f4 [32]
00000000: 5b9b ba3e c222 d13e e9b4 ccbe 0ee9 2c3d
00000010: 686e babd 6812 f53d a594 993e 5bc7 08bc
00000020: 908c 773e d94e 0d3e 326f 963e 7579 1d3e
00000030: 526c cc3d 9243 c2be 7042 cfbe 9370 3f3e
00000040: 453c 8e3e d9fb 9a3e 4e64 dc3b 487a 223e
00000050: b3c0 b0be 4395 0b3e 8dab 8a3e 47a3 d83e
00000060: 9988 943e 734a a9be dd9e 483d 3d29 f1bd
00000070: 1675 57be 4c8d 5e3c 4cd1 773e c64d 413d
0.36446652 0.4084683 -0.39981773 0.042214446 -0.091030896 0.11966401 0.2999622 -0.008348311
0.24174714 0.13799609 0.2938171 0.15378363 0.09981598 -0.37942177 -0.40480375 0.18695287
0.27780357 0.3027027 0.0067258244 0.15866959 -0.34522018 0.13631158 0.27084008 0.4231207
0.29010466 -0.33064613 0.04897963 -0.11775444 -0.21040758 0.0135834925 0.24200934 0.04719331

layers.1.Ah.conv2.weight f4 [16, 32, 3]
00000000: fd06 623d 2f73 8abd f8f6 5c3c 309f a8bd
00000010: 33e3 7bbd 3b0f 07bc 42e3 0cbd 5f84 583c
00000020: 4fbf 473c 0f2b 3f3d bf56 b4bd 5f64 cabd
00000030: 1196 b1bd f52e 843c ffa0 d0bc 8bae 693d
00000040: 85ad 203e 59a9 163e 75e4 923d 992e 203d
00000050: 2932 8bbd 3427 753c b897 eebd 365b a33d
00000060: 3103 923d 72de d2bd db72 76bd 0a81 b73d
00000070: a484 36bd 316e 783d b31c abbd ac82 533d
00000080: 961b a3bd 7d4f 13bd 2232 cabd fdcd 943c
00000090: bc37 1dbd 6f31 443d 6ca6 02be e04c 43bb
000000a0: e7a7 09be 28de 07be 3d0d e9bc a209 bb3d
000000b0: eac8 35bc ec37 83bd dcb8 d33d 523b 81bd
000000c0: 0a83 243c d9e3 b33d 9ad0 b1bd ccbd b0bc
000000d0: 0d7f de3c 3b77 99bd b5e5 d3bd a99a 7ebb
000000e0: 9c07 863e dbbe 0b3d 7d4c 7e3d d9c3 09bd
000000f0: 1e02 b0bd 0a15 563c f1d2 d53d a22b b2bd
00000100: 1c44 683d d639 07be f9c5 4abd bdcf a1bb
00000110: 25ec c93d 8f93 c2bd f84a 10bd 6a59 723d
00000120: 82f4 f8bc 8466 a6bd 14d8 353d ad99 f63c
00000130: 2a97 1e3c 935d 003e 25de 2d3c 6421 073d
00000140: ded5 373d 167e 6c3d 21fc 8dbd f80e 0ebd
00000150: c96c bfbc c5ed 83bd 072a 06bd 4214 95bd
00000160: 819c d7bd 44ce dcbd 4f45 b1bc 77e0 dabc
00000170: f9ec b33c 03bf bebd 84f1 e3bd 22eb 993d
00000180: 608b 3abd 2d58 6bbd 5ef7 c0bc 6083 3cbd
00000190: b245 313d 34a6 66bd 47af c3bd afe7 b23c
000001a0: 1649 b53d ea72 10be b109 5c3d e302 dfbd
000001b0: 9bd8 253d f786 e4bc 414f 81bc 75b9 d43d
000001c0: 8f5a ec3c be64 a3bd 76d2 11bd 474c 38bd
000001d0: 9e4b 6d3c ca10 4b3d e51f 703c 2975 30bd
000001e0: 4c2c dbb9 7e19 f0bc f809 a5bd 3166 d23d
000001f0: da63 eb3d 21be bdbd 6940 5fba 715e 74bd
00000200: cf79 c4bd cad1 8bbc 3285 f03d 85d5 2b3d
00000210: 58bd 993d 9031 afbc 8ac3 873d 2780 4bbc
00000220: e444 99bd 98bc f93c 064d 763d 50bf 5a3d
00000230: 65b8 33bd ec89 56bd ba27 46bd 4b2d bdbd
00000240: cb34 56bd 6c62 e93c 2b7a fd3c 0303 38bd
00000250: b5ff 833c 5350 c1bd b255 18bd e820 e23d
00000260: 4db5 31bd 8e67 b93d 8c63 38bd 0905 013d
00000270: 609f c63c 8c89 9f3d 5b26 80bd d0c4 c1bd
00000280: 807f 9b3c 80cd 1ebd be2d 063d 57e0 223d
00000290: 89ec b63b fe6c f13c 3117 013e 32dd 59bd
000002a0: 798e 963d 9a8e 1ebd 98ae 8e3d d4c3 ecbd
000002b0: 7506 15be e480 efbd 8dfc 96bd 7d50 8fbc
000002c0: af70 0d3d fc37 b73d ba58 f1bc b5ef aa3d
000002d0: eab1 113c 244c 3ebd d45e cfbd 31d7 823d
000002e0: 4897 9b3d df46 8b3c e894 c33d 7770 b4bb
000002f0: ee35 ef3b 229d 813c 9b40 5bbd f9ea fe3c
00000300: 637f dbbd 4747 8d3d 4b08 b1bd 0703 bd3b
00000310: 8440 d9bd 1b50 a33d abcc 4ebd abc3 8b3d
00000320: 7a55 953d de37 243d 509b dd3d db55 5a3d
00000330: 7fcd ec3c e77c a9bd 241e b9bd f996 5c3d
00000340: 66ac 13bd 6374 7fbd d285 9fbb 9d1b 40bd
00000350: a1ae 8d3d 0920 a0bd 7630 963d 464f 3b3c
00000360: 2999 bfba 4e9a a53d 5927 103d 8a1a 81bd
00000370: f538 2abd e3a3 00bd d799 8c3c 39d8 8bbc
00000380: 282f afba 275b 9cbb 00d4 ea3c bceb 8abd
00000390: f41c 253d f0f0 a0bd f225 75bd 25b7 ac3d
000003a0: b350 95bd 11f2 843d 110b c3bc c99f 723d
000003b0: de38 163d 5e70 463d 249d 5b3d b77f 403d
000003c0: 646f d0bc 36ea 46bd 0623 993c b677 09bb
000003d0: 073a a73c ebff e9bc 013f 20bd 5e07 f0bd
000003e0: 7083 b8bc bc7d 1f3d ae12 acbb d2a1 3b3d
000003f0: 2537 bdbc 3952 023d 0e4e 973d cc11 6c3d
0.055182446 -0.06760251 0.013486616 -0.082334876 -0.06149597 -0.008243377 -0.034396417 0.0132151535
0.012191608 0.046671923 -0.08805608 -0.098824255 -0.08671201 0.016135672 -0.025467394 0.057051223
0.15691192 0.14713039 0.07172481 0.03910694 -0.06796677 0.01496296 -0.11650032 0.079763815
0.07129515 -0.10296334 -0.06016813 0.08960159 -0.04456009 0.06065196 -0.08355083 0.05163829
-0.07964246 -0.035964478 -0.09872843 0.01816463 -0.03838323 0.047898706 -0.12758797 -0.002980046
-0.13442956 -0.1326834 -0.028448695 0.09132697 -0.011095265 -0.064071506 0.103379935 -0.063101426
0.010041008 0.08783693 -0.08682366 -0.021574877 0.027160192 -0.074934445 -0.103465475 -0.003884951
0.2617768 0.03411756 0.062084664 -0.03363404 -0.08594154 0.01306654 0.104406245 -0.086997285
0.05670558 -0.13205656 -0.049505208 -0.0049380944 0.09859494 -0.09500801 -0.035227746 0.059167303
-0.030390028 -0.08125022 0.04439552 0.030102575 0.009679595 0.12535696 0.010612045 0.03299083
0.044881694 0.057737432 -0.069328554 -0.034682244 -0.023367302 -0.06441835 -0.032754924 -0.072792545
-0.105278976 -0.107815295 -0.021639494 -0.026718361 0.021963583 -0.09313776 -0.1113005 0.07515551
-0.045543075 -0.057457138 -0.023555454 -0.046023726 0.043279357 -0.056310847 -0.09554916 0.021838991
0.08851831 -0.14106336 0.05372018 -0.108892225 0.040489774 -0.027896388 -0.015784862 0.103869356
0.028851775 -0.079781994 -0.0356011 -0.04499462 0.014483361 0.04957656 0.014656042 -0.043080483
-0.0004180394 -0.02930903 -0.08058542 0.10273398 0.114936545 -0.0926478 -0.0008516373 -0.05966038
-0.09593546 -0.017067809 0.11744155 0.041951675 0.075068176 -0.021385938 0.06629093 -0.012420691
-0.07483843 0.030485436 0.06013205 0.053405106 -0.043877024 -0.052377626 -0.04837773 -0.092371546
-0.05229644 0.028489314 0.030942043 -0.044924747 0.016113142 -0.09439149 -0.0371911 0.110414326
-0.043385793 0.090529546 -0.04501681 0.031498943 0.024245918 0.07789907 -0.06257316 -0.09461367
0.018981695 -0.0387702 0.032758467 0.03976473 0.0055823964 0.029470917 0.12606503 -0.053189464
0.07351393 -0.038710214 0.06966895 -0.11560789 -0.14553244 -0.11694506 -0.07372389 -0.017494434
0.03453129 0.08946225 -0.029461253 0.08346502 0.008892516 -0.046459332 -0.10125509 0.06388701
0.07597214 0.017001567 0.09549886 -0.005506571 0.00730013 0.015821997 -0.05352841 0.031117903
-0.107176565 0.06898361 -0.0864416 0.005768183 -0.106080085 0.07974263 -0.050488155 0.0682443
0.07291694 0.04009234 0.10820639 0.053304534 0.028906582 -0.08275776 -0.09038952 0.053854916
-0.036053084 -0.062366854 -0.0048682475 -0.046901334 0.069180734 -0.0781861 0.07333462 0.0114324745
-0.0014617789 0.08086072 0.035193775 -0.0630389 -0.041558225 -0.031406295 0.0171632 -0.017070876
-0.0013365494 -0.0047716084 0.028665543 -0.06783244 0.040310815 -0.07858455 -0.05985064 0.084333695
-0.07290783 0.06491483 -0.023808988 0.059234414 0.036675327 0.048447005 0.053616658 0.0469968
-0.02544374 -0.048563205 0.018693458 -0.0020975894 0.020413412 -0.028564414 -0.039122585 -0.11720155
-0.022523612 0.03893827 -0.00525125 0.04580862 -0.023097584 0.031816695 0.073879346 0.05763416

layers.1.Ah.conv2.bias f4 [16]
00000000: ba20 9cbd 2499 8fbd 945f 32bb 4cff a0bd
00000010: 50ba e43d 689d 33be 98cc 3fbd 4698 dbbc
00000020: 3e11 1cbe 939d e43d 269b 30bc 44f7 76bd
00000030: 0866 eebd 0ef5 103e 9e65 3bbe 1ed0 3cbe
-0.076234296 -0.07011631 -0.0027217614 -0.07861194 0.11168349 -0.17540514 -0.046825975 -0.026806008
-0.15240952 0.111628674 -0.010779178 -0.060294405 -0.11640555 0.14155981 -0.18300483 -0.18438765

layers.1.Ah.conv3.weight f4 [1, 16, 3]
00000000: c7b1 a03d a4a3 b3bc 3cc5 fbbd 02cf 82bd
00000010: 97d3 4f3d 585b de3d c7d1 a83d b8b0 b3bd
00000020: ab77 bfbc 8c1e 34be 163d 87bd 50f8 9fbb
00000030: fbd8 9bbd b1d6 2b3e d195 b63d 3aa0 203d
00000040: 9d75 6fbe 2c72 ce3c c093 f93d 04e4 25bd
00000050: 18d4 b93d 9d17 48be d648 3ebe 173f babd
00000060: 0f66 1dbe bd51 b4bd a449 c03c 7453 4a3c
00000070: 23f0 2d3e 0743 ca3c 0a3c 953d f6e3 3b3e
00000080: 8e68 a93d 7006 32be e44d 66bd 11b3 9a3c
00000090: f743 4cbe 4cb7 61bd bb2e 923d aec3 1b3d
000000a0: 715d b53e e746 b7bd f8ed dbbd 0776 0ebe
000000b0: 409d 12bb f2a8 cfbd 9b90 52be d47c d63d
0.07846408 -0.021928616 -0.12293479 -0.0638714 0.050738897 0.10857266 0.08243137 -0.08773941
-0.023372492 -0.17589778 -0.06603448 -0.004881896 -0.07609745 0.16781117 0.08915294 0.039215304
-0.2338471 0.025200926 0.12186384 -0.040500656 0.09073657 -0.19540258 -0.18582472 -0.09094065
-0.15370964 -0.08804653 0.023472615 0.012348998 0.16986136 0.024690164 0.07286842 0.18348679
0.08271895 -0.17385268 -0.056226626 0.018884214 -0.19947802 -0.055106446 0.071378194 0.03802841
0.35422853 -0.089490704 -0.10738748 -0.13912211 -0.002237156 -0.10139646 -0.20562975 0.10473028
