models/clip_10%_15.pt (torch, 78389 bytes, 120 tensors)

layers.0.Aw.conv1.weight f4 [32, 1, 5]
-0.34082562 -0.13010031 -0.111387216 0.29206455 0.37023002 0.09564168 -0.48046452 0.09005488
-0.33278838 -0.1786381 0.43019572 0.18249397 -0.18991828 0.57109237 0.40242195 0.2730176
-0.1397825 0.23191166 0.2743856 0.33704194 0.20659897 0.36482608 -0.53906775 0.11127593
0.50439674 -0.17805709 0.36199713 0.31567228 0.19069882 0.40342414 0.11332716 0.08531104
0.13743122 0.3025586 -0.06895327 -0.8579399 -0.5001443 -0.37416112 0.03593342 0.4358955
0.14207229 0.19852376 0.24365222 -0.1327108 -0.02976265 0.35230678 -0.18024106 0.25447884
0.2932678 -0.2816423 -0.37220016 -0.34868902 0.17952889 -0.39750028 -0.40679353 -0.2581166
-0.007440563 -0.39571485 0.08430634 0.24048506 -0.5821971 0.076980546 0.22152784 0.52118593
-0.0073570977 0.09288092 -0.07201964 0.15717945 0.06563241 0.21721636 -0.41112268 -0.03559952
0.009737435 -0.25430104 -0.47004727 -0.13935666 0.49185744 -0.15260053 0.71610075 -0.50596654
0.21216814 0.07757809 -0.09223217 0.565514 0.075174384 -0.29196337 0.16398618 -0.20229697
-0.268572 -0.29661816 -0.026417824 0.45635045 -0.25499806 0.22790343 -0.46021694 -0.27476415
-0.2935829 -0.10627787 0.3638934 0.44163135 -0.1708577 -0.46918315 -0.75831765 0.029377013
0.3343904 -0.38979393 -0.45061004 -0.2809757 0.21959083 -0.24325436 0.40325126 -0.058443982
0.39235866 0.19450206 0.33420724 0.041151475 -0.32312024 -0.19505996 0.4919025 0.55520713
-0.1407689 0.3672854 0.065309204 0.60926735 -0.21208796 -0.008002455 0.1909774 -0.17250894
-0.07795959 -0.48643827 -0.49712345 -0.23075718 0.48797274 0.3739671 -0.036320727 -0.088276766
-0.2648175 -0.10741177 0.17868759 0.34924933 0.025750116 0.44364312 0.053396687 0.27517822
-0.15852676 0.18400255 -0.13916673 -0.45657435 -0.22490379 -0.4354473 -0.04188697 -0.19938442
0.7674484 0.5413046 0.36617965 0.27986482 0.2282383 -0.267289 -0.42372257 0.31976846
00000000: b280 aebe 0439 05be fb1e e4bd 7c89 953e
00000010: ca8e bd3e c9df c33d 72ff f5be b16e b83d
00000020: 3d63 aabe e8ec 36be 9d42 dc3e b3df 3a3e
00000030: f079 42be 1c33 123f 400a ce3e f6c8 8b3e
00000040: 2523 0fbe 407a 6d3e 457c 8c3e c390 ac3e
00000050: ae8e 533e 7cca ba3e 5800 0abf a3e4 e33d
00000060: 2520 013f 9954 36be b057 b93e cc9f a13e
00000070: 8d46 433e 9c8d ce3e 1218 e83d 8eb7 ae3d
00000080: c5ba 0c3e f6e8 9a3e 5f37 8dbd f3a1 5bbf
00000090: 7509 00bf 0c92 bfbe ec2e 133d b22d df3e
000000a0: 667b 113e d049 4b3e f87f 793e 57e5 07be
000000b0: cdd0 f3bc 8e61 b43e 1d91 38be 0d4b 823e
000000c0: 3227 963e 6b33 90be 0591 bebe 5e87 b2be
000000d0: 6cd6 373e 2885 cbbe 3e47 d0be dc27 84be
000000e0: f7cf f3bb 239b cabe cda8 ac3d b741 763e
000000f0: df0a 15bf faa7 9d3d 32d8 623e 716c 053f
00000100: cf13 f1bb 5a38 be3d 087f 93bd a6f3 203e
00000110: 496a 863d f76d 5e3e ac7e d2be cdd0 11bd
00000120: c389 1f3c bf33 82be 09aa f0be 83b3 0ebe
00000130: bdd4 fb3e 5043 1cbe 6152 373f 0687 01bf
00000140: 9b42 593e 43e1 9e3d 38e4 bcbd 87c5 103f
00000150: 07f5 993d 397c 95be feeb 273e f026 4fbe
00000160: 4582 89be 56de 97be 316a d8bc c4a6 e93e
00000170: 1b8f 82be 845f 693e 8ea1 ebbe e3ad 8cbe
00000180: 7f50 96be 36a8 d9bd 3c50 ba3e 811d e23e
00000190: 52f5 2ebe c638 f0be 1b21 42bf 10a8 f03c
000001a0: 3835 ab3e 1293 c7be 5cb6 e6be 0cdc 8fbe
000001b0: 6bdc 603e ac17 79be f376 ce3e f562 6fbd
000001c0: 3ce3 c83e 8c2b 473e 361d ab3e 738e 283d
000001d0: 0470 a5be ccbd 47be a5da fb3e 0e22 0e3f
000001e0: b925 10be d50c bc3e d5c0 853d f2f8 1b3f
000001f0: 962d 59be bb1c 03bc 948f 433e 2fa6 30be
00000200: 47a9 9fbd 700e f9be f786 febe 9c4b 6cbe
00000210: 90d7 f93e 9e78 bf3e 0bc5 14bd 73ca b4bd
00000220: 2996 87be b4fa dbbd e1f9 363e cfd0 b23e
00000230: e8f1 d23c 3125 e33e 7cb6 5a3d 29e4 8c3e
00000240: d754 22be 2a6b 3c3e b981 0ebe 1dc4 e9be
00000250: 2e4d 66be f3f2 debe ac91 2bbd 6e2b 4cbe
00000260: 8077 443f f092 0a3f e67b bb3e 714a 8f3e
00000270: 4db7 693e 1bda 88be 2af2 d8be b1b8 a33e

layers.0.Aw.conv1.bias f4 [32]
0.26102853 0.094275795 -0.11435862 -0.33739868 0.035181116 -0.066397876 0.123576365 -0.008193872
0.39975062 -0.16187684 -0.17559952 0.39257783 -0.027317164 -0.13550884 0.43458587 0.0479893
-0.303391 0.27422982 0.0915952 -0.04955372 -0.013402626 0.34265035 0.027281191 -0.07094229
-0.32010332 -0.0928595 -0.030916326 0.13324182 -0.23531193 0.20592962 -0.12174009 0.10733145
00000000: 88a5 853e ab13 c13d da34 eabd 85bf acbe
00000010: 131a 103d 9cfb 87bd 9b15 fd3d 973f 06bc
00000020: 1dac cc3e 0bc3 25be 5cd0 33be f6ff c83e
00000030: 3fc8 dfbc d4c2 0abe 0a82 de3e 6e90 443d
00000040: 1156 9bbe da67 8c3e 4496 bb3d d7f8 4abd
00000050: b096 5bbc de6f af3e ce7c df3c 314a 91bd
00000060: 95e4 a3be 1f2d bebd 3c44 fdbc 8b70 083e
00000070: 9cf5 70be 37df 523e de52 f9bd 97d0 db3d

layers.0.Aw.conv2.weight f4 [16, 32, 3]
-0.03939787 -0.02303528 -0.022372324 -0.044176586 -0.117733955 -0.055462785 0.007771467 -0.04404511
0.13645259 0.12992644 0.07373316 0.17192556 -0.07511751 0.031648148 0.03884082 -0.056011677
-0.052797902 -0.16728352 0.045505457 -0.05647431 -0.064900026 0.09351372 0.039683618 -0.04244005
-0.058190223 0.0032567184 -0.0937823 0.11043653 -0.06888876 0.10234981 0.05849747 0.01760552
-0.09609033 0.036499254 0.0226759 -0.03579001 0.09958519 -0.20930023 -0.101857334 0.14847066
-0.025764816 0.094512105 -0.066323884 -0.06801146 -0.020989574 0.13929094 0.00865648 -0.0005884706
-0.04804483 0.057659972 -0.01030056 -0.03219917 -0.0077834064 -0.006907894 0.04887776 -0.017708985
-0.00457971 -0.20276153 -0.057985447 -0.044788074 0.0056596156 -0.021397928 0.05602008 -0.03863973
-0.047434613 -0.11654766 -0.005842046 -0.005768424 0.011204671 -0.12766722 -0.08625688 0.07950763
-0.020538813 0.14321351 0.051549476 -0.06545485 0.106801435 -0.07712312 0.06455255 -0.21188325
0.06334454 -0.10661021 -0.040118653 -0.0077633294 -0.09329425 0.1385812 -0.06059152 -0.020319091
-0.0072840857 0.038901567 0.036547933 0.014908956 0.12221221 -0.103037946 0.033513453 0.08958948
-0.07027816 -0.092157595 -0.05402194 0.0008295371 0.061155282 0.017633907 -0.0031916553 -0.07019734
-0.09417511 0.018072296 0.008647105 0.04287867 0.052651633 0.01803386 0.009587372 -0.055704635
-0.11840298 -0.07120054 -0.05280068 0.07872767 0.03830107 0.03287245 -0.10501048 0.08942828
-0.073349096 0.030893154 -0.098460905 0.027791083 -0.07025306 -0.09115996 -0.0016097559 -0.0047386657
0.08764599 0.05102404 0.033868752 0.028985472 0.008633674 -0.108084396 -0.052465267 -0.10374288
0.01659872 0.01541075 0.066210054 0.107282594 -0.055637423 -0.36293012 0.12584522 -0.03589151
0.07011568 -0.0080869645 -0.021657867 -0.039918028 0.02258377 0.015693726 -0.01545932 -0.008623722
-0.03611299 -0.022021696 0.07100054 -0.11896425 0.01298631 -0.08872746 -0.0022162478 -0.006404581
0.011650021 -0.047736414 -0.006420754 0.03276957 0.01850797 0.0168946 -0.05578244 -0.14840624
-0.0130166765 0.049926642 -0.035705235 0.0049885046 -0.08394597 0.059508182 0.060070883 0.0152917
-0.042488966 0.050277814 0.04580233 0.06540814 0.004411622 -0.1699013 0.13773142 0.022163011
0.13376297 -0.08904005 0.04253005 0.0010955367 -0.044375885 -0.090404116 0.013433924 0.057190295
0.019930996 -0.042412132 0.05402163 0.053626783 -0.06340601 0.018513283 -0.138808 -0.19270599
-0.08400012 -0.10366469 0.032878507 -0.031939626 0.06448432 -0.06498472 -0.025983488 -0.13851182
-0.021324528 -0.20296839 -0.0003129326 -0.011265398 0.037139192 -0.114516534 -0.06966353 0.13717967
-0.09420594 0.06681569 0.006430798 0.018986948 0.05243271 -0.022591429 0.07411684 0.094542384
-0.046747852 0.08702467 -0.010340565 0.060113534 -0.056526683 -0.045184903 -0.1264999 -0.050865628
0.0049638334 -0.015754376 -0.030587869 0.045521054 0.096685454 -0.1891486 0.14871754 -0.1420141
0.057599343 -0.079017 -0.016369382 0.0688992 0.041523643 0.073523656 -0.014601983 0.09248021
-0.084577076 -0.2963405 -0.28482884 -0.03663689 -0.08322546 -0.07225672 0.106765635 0.00063183595
00000000: a95f 21bd 7cb4 bcbc 2a46 b7bc 82f2 34bd
00000010: 801e f1bd f22c 63bd caa7 fe3b a568 34bd
00000020: 3aba 0b3e 700b 053e 6901 973d 410d 303e
00000030: 36d7 99bd 7da1 013d 8d17 1f3d 806c 65bd
00000040: 9d42 58bd 5f4c 2bbe ee63 3a3d 9b51 67bd
00000050: 4eea 84bd 1f84 bf3d 4a8b 223d 9ed5 2dbd
00000060: df58 6ebd ab6e 553b ef10 c0bd 8c2c e23d
00000070: 8d15 8dbd c79c d13d 0b9b 6f3d 7439 903c
00000080: 02cb c4bd 3e80 153d cfc2 b93c 8c98 12bd
00000090: 52f3 cb3d cd52 56be 949a d0bd b108 183e
000000a0: bc10 d3bc 908f c13d d1d4 87bd 9849 8bbd
000000b0: 54f2 abbc 49a2 0e3e e9d3 0d3c 9843 1aba
000000c0: a8ca 44bd dd2c 6c3d aec3 28bc 47e3 03bd
000000d0: f20b ffbb 9d5b e2bb 0c34 483d 6f12 91bc
000000e0: 6411 96bb b8a0 4fbe 2682 6dbd b373 37bd
000000f0: 4c74 b93b b54a afbc 5075 653d b244 1ebd
00000100: cc4a 42bd 8ab0 eebd a26e bfbb 0c05 bdbb
00000110: cc93 373c 32bb 02be 72a7 b0bd e5d4 a23d
00000120: 0341 a8bc 90a6 123e 8b25 533d 310d 86bd
00000130: b6ba da3d baf2 9dbd 2134 843d ecf7 58be
00000140: c8ba 813d 7456 dabd 7553 24bd 8763 febb
00000150: 0e11 bfbd 3be8 0d3e d02e 78bd 3974 a6bc
00000160: 57af eebb 4057 1f3d 49b3 153d b244 743c
00000170: 654a fa3d 8f05 d3bd 6745 093d b07a b73d
00000180: ffed 8fbd 1fbd bcbd 1c46 5dbd 4b75 593a
00000190: f67d 7a3d fc74 903c 172b 51bb 9fc3 8fbd
000001a0: e1de c0bd 5a0c 943c 96ac 0d3c 8ba1 2f3d
000001b0: 3da9 573d bfbb 933c 5a14 1d3c 8b2a 64bd
000001c0: 437d f2bd 97d1 91bd 8745 58bd f93b a13d
000001d0: 95e1 1c3d 43a5 063d bc0f d7bd 2d26 b73d
000001e0: 0d38 96bd a413 fd3c dfa5 c9bd 20aa e33c
000001f0: d6e0 8fbd 13b2 babd 72fe d2ba cf46 9bbb
00000200: be7f b33d 95fe 503d f6b9 0a3d f172 ed3c
00000210: 4174 0d3c 5a5b ddbd d2e5 56bd 2677 d4bd
00000220: 0afa 873c 5f7d 7c3c 2399 873d fab6 db3d
00000230: 11e4 63bd fad1 b9be 92dd 003e fa02 13bd
00000240: cf98 8f3d 307f 04bc d76b b1bc 1681 23bd
00000250: 9901 b93c 2190 803c 1649 7dbc 834a 0dbc
00000260: 37eb 13bd d866 b4bc bb68 913d 87a3 f3bd
00000270: 88c4 543c beb6 b5bd 783e 11bb 85dd d1bb
00000280: bbdf 3e3c 4287 43bd 3065 d2bb 6239 063d
00000290: 079e 973c 8b66 8a3c 217c 64bd cef7 17be
000002a0: e643 55bc e17f 4c3d a73f 12bd 9c76 a33b
000002b0: ddeb abbd dabe 733d e30c 763d 0a8a 7a3c
000002c0: e908 2ebd 1cf0 4d3d 399b 3b3d b4f4 853d
000002d0: 5e8f 903b 9bfa 2dbe 7709 0d3e 348f b53c
000002e0: 29f9 083e a15a b6bd fd33 2e3d 1d98 8f3a
000002f0: 7dc3 35bd cb25 b9bd f619 5c3c 5f40 6a3d
00000300: 5446 a33c 58b8 2dbd c945 5d3d c2a7 5b3d
00000310: 03db 81bd 2ba9 973c af23 0ebe b854 45be
00000320: 4108 acbd 274e d4bd 9dab 063d 20d3 02bd
00000330: 5b10 843d b516 85bd 53db d4bc 0bd6 0dbe
00000340: c7b0 aebc f2d6 4fbe 1a11 a4b9 8192 38bc
00000350: 441f 183d a587 eabd c1ab 8ebd d478 0c3e
00000360: 0bef c0bd aad6 883d 72b9 d23b 848a 9b3c
00000370: aec3 563d a911 b9bc 92ca 973d 709f c13d
00000380: ad7a 3fbd fd39 b23d 796b 29bc 9c39 763d
00000390: 8688 67bd ce13 39bd 3189 01be 7a58 50bd
000003a0: a7a7 a23b 520f 81bc 6993 fabc 4974 3a3d
000003b0: 0603 c63d 2cb0 41be 6949 183e 256c 11be
000003c0: 4aed 6b3d aad3 a1bd 1519 86bc 061b 8d3d
000003d0: b214 2a3d 9293 963d 283d 6fbc 4466 bd3d
000003e0: bf36 adbd f1b9 97be 16d5 91be 9010 16bd
000003f0: 1c72 aabd 55fb 93bd f1a7 da3d cba1 253a

layers.0.Aw.conv2.bias f4 [16]
0.0089035705 -0.036366202 -0.016591502 0.06959428 0.013812122 0.075090155 0.03606961 0.08354223
0.05794062 0.02918659 -0.025574533 0.035333138 -0.08520552 0.05154352 0.09292856 0.00817639
00000000: 48e0 113c baf4 14bd e7ea 87bc 7287 8e3d
00000010: 3d4c 623c dec8 993d babd 133d 3018 ab3d
00000020: 2553 6d3d b718 ef3c af81 d1bc 7bb9 103d
00000030: 3b80 aebd 4c1f 533d 5451 be3d 44f6 053c

layers.0.Aw.conv3.weight f4 [1, 16, 3]
0.008809034 0.0750099 -0.10455179 0.08598825 -0.13950786 0.05300612 0.06792494 -0.029106356
0.10141202 -0.17459789 0.15312196 0.017644105 0.038529612 -0.1280228 -0.07361463 0.08841119
0.1326838 0.055619977 -0.13089564 -0.19622011 -0.20763898 0.06994404 0.10014705 -0.01714062
-0.21570931 0.23025504 -0.032297384 0.014962273 0.008741484 0.11898976 -0.035570644 0.10712386
0.025723504 0.04184278 0.10714741 0.10872318 -0.13576142 0.14537868 0.0165859 -0.1575529
-0.050356876 0.23457672 0.06666487 -0.07846502 0.121204756 0.11998265 0.029227693 0.081872575
00000000: c453 103c ca9e 993d 401f d6bd 9c1a b03d
00000010: 26db 0ebe f21c 593d 3b1c 8b3d 7470 eebc
00000020: 1bb1 cf3d cac9 32be 01cc 1c3e 5f8a 903c
00000030: 3ad1 1d3d 6918 03be 44c3 96bd ed10 b53d
00000040: 43de 073e c6d1 633d 8209 06be eded 48be
00000050: 509f 54be d23e 8f3d e619 cd3d 7c6a 8cbc
00000060: e7e2 5cbe fac7 6b3e 434a 04bd 5224 753c
00000070: 7138 0f3c e7b0 f33d 86b2 11bd c163 db3d
00000080: 19ba d23c 5663 2b3d 1a70 db3d 42aa de3d
00000090: 0b05 0bbe 26de 143e 27df 873c 8c55 21be
000000a0: 0343 4ebd e134 703e 9787 883d 45b2 a0bd
000000b0: 333a f83d 77b9 f53d ea6e ef3c cfac a73d

layers.0.Ah.conv1.weight f4 [32, 1, 5]
-0.4173518 0.24496372 -0.001054943 0.032216776 0.07213206 0.28879142 -0.1717736 -0.03573489
-0.374947 -0.119430065 -0.2771483 0.43714 0.18406703 -0.25572675 0.25986707 0.17909782
-0.029323718 0.30132762 -0.28173777 -0.21310577 -0.27849036 -0.1359429 0.034428004 0.29231536
-0.31010485 0.28161958 0.4399033 0.1213865 0.384914 -0.110006295 0.42933273 -0.053189307
-0.3357009 -0.12043236 -0.15442955 -0.14995256 -0.37095776 -0.15071973 -0.37717804 0.17718624
0.14502898 0.18059006 -0.40056983 -0.15567777 0.5444675 0.06639581 0.16803342 0.51343995
-0.025469264 0.12062278 0.30254918 0.080907516 0.29068425 -0.33730352 -0.26278332 0.0792695
0.047378946 0.24640231 0.31974655 0.15500991 -0.077182904 -0.3934744 0.2432988 0.02676053
-0.054217815 0.3796703 0.07269998 -0.37509164 0.28825122 -0.05799576 0.2934148 0.30704263
0.106050126 0.3845568 -0.3131915 0.0769162 -0.12808648 -0.043477297 0.4116859 0.17764887
-0.107315674 0.1346374 0.46295634 -0.2801704 -0.2430086 -0.24361502 0.111575626 -0.32917494
0.007066443 -0.25347283 -0.27843103 0.094121516 0.009204324 -0.071368225 -0.21218503 -0.24499036
-0.062128868 0.15998265 -0.10300956 -0.20121367 -0.42259657 0.2784613 -0.10645894 0.36864135
-0.033486743 0.34087574 0.14747831 0.062150877 0.0051951585 0.0208468 0.029092565 0.38632932
0.2924478 -0.25890446 -0.0095334025 -0.27244705 -0.11612676 0.15004149 0.05398035 -0.046833184
-0.41354728 -0.16931379 -0.2275577 -0.33291352 -0.12151646 0.4182996 -0.3732765 0.20601204
-0.41467065 0.19051029 -0.36083558 0.19207501 -0.0018245843 -0.4139286 0.12577815 0.28103298
-0.066246726 0.13246524 -0.37906754 -0.009637158 0.12440116 -0.23885052 -0.42927957 0.29155052
0.08331997 0.45569244 0.36787516 -0.022686059 -0.0875599 -0.41056547 -0.41184565 0.29503462
0.13302691 -0.14557436 0.38038316 0.10381623 0.16065027 0.0056274175 0.30214462 0.031613756
00000000: 23af d5be c5d7 7a3e 0346 8aba bdf5 033d
00000010: f9b9 933d 78dc 933e 6be5 2fbe bf5e 12bd
00000020: 0ef9 bfbe c097 f4bd 62e6 8dbe d0d0 df3e
00000030: 117c 3c3e 9eee 82be 4c0d 853e 6b65 373e
00000040: 4b38 f0bc 9d47 9a3e ef3f 90be 6638 5abe
00000050: 4a96 8ebe 9e34 0bbe 6104 0d3d 5caa 953e
00000060: 10c6 9ebe 7130 903e 013b e13e 7c99 f83d
00000070: 7313 c53e fb4a e1bd 80d1 db3e 08dd 59bd
00000080: fde0 abbe 3ea5 f6bd c822 1ebe 2a8d 19be
00000090: 2dee bdbe 4656 1abe 7b1d c1be 4f70 353e
000000a0: 7a82 143e 9aec 383e 7d17 cdbe fe69 1fbe
000000b0: 3962 0b3f 87fa 873d f410 2c3e cd70 033f
000000c0: eba4 d0bc 1309 f73d bae7 9a3e d7b2 a53d
000000d0: 91d4 943e 0cb3 acbe 898b 86be 0c58 a23d
000000e0: 6d10 423d e350 7c3e d2b5 a33e ebba 1e3e
000000f0: 1212 9ebd 7a75 c9be 5223 793e e638 db3c
00000100: 8013 5ebd 2564 c23e bae3 943d 030c c0be
00000110: aa95 933e f68c 6dbd 773a 963e b134 9d3e
00000120: cf30 d93d a1e4 c43e a35a a0be 3e86 9d3d
00000130: 1a29 03be 4015 32bd 7fc8 d23e 96e9 353e
00000140: 52c8 dbbd 63de 093e 9d08 ed3e 7f72 8fbe
00000150: 3fd7 78be 3776 79be c381 e43d 9e89 a8be
00000160: 9f8d e73b 31c7 81be 838e 8ebe c8c2 c03d
00000170: bccd 163c 8129 92bd 0847 59be c1de 7abe
00000180: d77a 7ebd 7ed2 233e adf6 d2bd f50a 4ebe
00000190: 945e d8be 7b92 8e3e 2507 dabd 8fbe bc3e
000001a0: 6529 09bd 4487 ae3e 8e04 173e eb91 7e3d
000001b0: 263c aa3b e9c6 aa3c 8853 ee3c f5cc c53e
000001c0: b8bb 953e 208f 84be fd31 1cbc 2e7e 8bbe
000001d0: ded3 edbd 7aa4 193e 801a 5d3d 27d4 3fbd
000001e0: 78bc d3be 9860 2dbe e304 69be a473 aabe
000001f0: 9fdd f8bd 5d2b d63e 191e bfbe d2f4 523e
00000200: b64f d4be 2115 433e 71bf b8be 50af 443e
00000210: e426 efba 73ee d3be fdcb 003e 8ee3 8f3e
00000220: 5dac 87bd f8a4 073e 2415 c2be 2ce5 1dbc
00000230: 09c6 fe3d 3b95 74be 88ca dbbe 1c46 953e
00000240: a9a3 aa3d 8550 e93e 225a bc3e 1dd8 b9bc
00000250: 9b52 b3bd a335 d2be 6fdd d2be c70e 973e
00000260: 3538 083e 7211 15be 95c1 c23e 9b9d d43d
00000270: 8181 243e 3366 b83b b3b2 9a3e 6d7d 013d

layers.0.Ah.conv1.bias f4 [32]
0.077872515 -0.3060941 -0.14902933 0.15260538 0.20503506 -0.41053376 0.30379495 -0.10866729
-0.13260126 -0.3406278 0.16071619 -0.27033553 0.31691164 0.29169115 -0.19804294 0.03899236
0.025581013 0.12156461 0.19138934 0.27338812 0.0040250085 0.34995282 -0.11045346 -0.36433887
-0.12499945 0.033671867 0.3331072 -0.05577139 -0.20109968 -0.13245992 0.41550478 0.25607094
00000000: a07b 9f3d 5eb8 9cbe 259b 18be 9644 1c3e
00000010: b6f4 513e 7b31 d2be 038b 9b3e f58c debd
00000020: a0c8 07be c466 aebe c992 243e 6b69 8abe
00000030: 3e42 a23e 8b58 953e c5cb 4abe 74b6 1f3d
00000040: 468f d13c def6 f83d 91fb 433e 87f9 8b3e
00000050: 38e4 833b 042d b33e 6c35 e2bd a08a babe
00000060: b6ff ffbd 83eb 093d 078d aa3e 8b70 64bd
00000070: 13ed 4dbe 93a3 07be 0bbd d43e bb1b 833e

layers.0.Ah.conv2.weight f4 [16, 32, 3]
0.006073256 -0.07628771 -0.09828899 0.049303092 0.109475695 0.12645589 0.030365387 0.056981955
-0.012987185 -0.06300802 -0.02980648 0.0018045722 -0.05809912 -0.059505407 -0.04284756 0.1327257
0.081850395 0.1084594 -0.023241328 0.014204787 -0.024650685 -0.077464886 0.10119163 0.018154696
0.00869272 -0.017496433 -0.16671987 0.029470026 0.05719496 0.066935204 -0.10787801 -0.04878643
0.044932608 -0.004817041 0.029305805 0.110713 -0.023413703 0.013861385 -0.08610039 -0.033520576
0.06815917 -0.04715368 0.018378783 0.09077878 0.004830571 0.07469535 -0.09952399 -0.061884258
-0.030202813 -0.11983351 0.11575615 -0.037260562 0.06804395 0.0778624 0.056304783 0.022419361
0.05542415 0.037925757 0.006132502 -0.035102345 -0.06303786 -0.008425672 -0.019457044 -0.08874533
-0.02172558 -0.11419822 0.035807915 0.04273624 -0.085516006 0.058073267 -0.02640637 -0.039902966
0.0011263547 -0.019420996 -0.03869382 -0.08285431 -0.020763895 0.07335452 -0.018788856 -0.10892246
0.007338347 0.018036902 -0.10409251 0.029968927 0.09944908 0.029792538 -0.02933142 -0.020347692
-0.011169216 0.0029397472 -0.03468899 -0.11995737 -0.030047664 -0.10487726 0.042274043 0.05574129
-0.028058533 -0.050833084 -0.030968094 0.006735165 -0.07728735 -0.10974964 -0.104642905 -0.12885988
-0.032701228 -0.023017235 0.10209275 0.0280419 0.016238524 0.09330969 -0.032092746 -0.10679736
-0.060717802 -0.018788869 -0.052755475 -0.033891484 -0.0043463097 0.07746008 -0.08562234 0.0026820633
-0.084158845 0.027072927 0.13524164 -0.2873903 -0.12994722 -0.2226034 0.082234524 -0.006721539
-0.04679795 -0.13621812 -0.039571293 0.035168692 -0.013537511 0.05666333 -0.027071156 -0.05010582
0.10849803 -0.0418352 -0.050242875 0.04213477 0.046128225 0.044421673 -0.077479646 0.0663982
0.118202314 0.16009535 0.016517311 -0.016837532 -0.03269983 0.052747905 -0.024521926 0.019429289
-0.002628859 0.13263537 -0.06771932 0.10911919 0.097236656 0.032381676 0.011923827 0.026180262
0.06830643 0.061758503 0.08947125 0.011863242 -0.09596261 0.072513066 0.079385 -0.08635655
-0.05841844 0.020033877 0.01950541 0.055843562 0.023355423 -0.09396628 0.110353105 -0.019581886
-0.033234768 0.024733325 0.047444403 -0.062158 -0.011527567 -0.10814939 -0.0064249355 -0.011660026
-0.17941749 -0.11704661 -0.05117094 -0.045907337 0.123615175 0.018763669 0.045213208 0.029662369
-0.042483386 -0.11524158 -0.09343627 -0.034817338 0.1045553 0.11904447 0.13767347 0.012539237
0.045684285 0.040724423 0.010813342 0.079894625 0.033357188 -0.062563084 0.03389726 0.11682184
0.16555135 0.14785218 -0.066099115 -0.10011257 0.02023564 -0.07019899 0.04179008 -0.0097269965
0.035652135 -0.061049785 -0.06872735 0.26665023 0.20399632 0.13998736 0.053246234 0.0042222836
0.071083225 0.13586736 0.09562718 0.08382879 -0.11042305 0.0046987506 -0.07672289 -0.05469796
-0.07830871 -0.071957454 -0.02344421 0.08873054 0.10170643 0.04118324 0.047025666 -0.025672
-0.17361689 -0.008467787 0.110572524 0.06300551 0.032346398 0.02168492 0.039478015 -0.12122945
-0.08086318 0.015096672 -0.04545404 -0.017618524 -0.0049558 -0.11263858 0.08750778 0.056877688
00000000: 2a02 c73b bb3c 9cbd bd4b c9bd 0af2 493d
00000010: cb34 e03d a77d 013e d5c0 f83c e965 693d
00000020: 34c8 54bc 590a 81bd b82c f4bc 6587 ec3a
00000030: 58f9 6dbd f1bb 73bd ec80 2fbd 3fe9 073e
00000040: 2ea1 a73d f61f de3d 9964 bebc 32bb 683c
00000050: 3cf0 c9bc e9a5 9ebd 8f3d cf3d 28b9 943c
00000060: e96b 0e3c ae54 8fbc 9db8 2abe 206b f13c
00000070: 4345 6a3d 5315 893d 25ef dcbd 48d4 47bd
00000080: 410b 383d 45d8 9dbb ba12 f03c 7fbd e23d
00000090: 18ce bfbc dd1a 633c 6755 b0bd df4c 09bd
000000a0: 0997 8b3d 3824 41bd 1a8f 963c 3aea b93d
000000b0: c449 9e3b e0f9 983d 3cd3 cbbd 597a 7dbd
000000c0: e46b f7bc 456b f5bd 8f11 ed3d 889e 18bd
000000d0: a05a 8b3d 5276 9f3d d89f 663d cfa8 b73c
000000e0: 6f04 633d 0a58 1b3d 28f3 c83b 7ac7 0fbd
000000f0: fe19 81bd d40b 0abc 6164 9fbc 1dc0 b5bd
00000100: d8f9 b1bc c2e0 e9bd 52ab 123d 320c 2f3d
00000110: 0423 afbd 3cde 6d3d 2c52 d8bc 4b71 23bd
00000120: 31a2 933a c818 9fbc 697d 1ebd 85af a9bd
00000130: 0b19 aabc e53a 963d 16eb 99bc bd12 dfbd
00000140: 8476 f03b 20c2 933c 742e d5bd 6581 f53c
00000150: f6ab cb3d 7b0f f43c 7248 f0bc 34b0 a6bc
00000160: 16ff 36bc c6a8 403b 0b16 0ebd 36ac f5bd
00000170: 8526 f6bc e4c9 d6bd 8c27 2d3d fb50 643d
00000180: 02db e5bc 5a36 50bd cdb0 fdbc a9b2 dc3b
00000190: d548 9ebd 6bc4 e0bd 054f d6bd d8f3 03be
000001a0: b9f1 05bd a48e bcbc 0116 d13d 20b8 e53c
000001b0: a706 853c 2719 bf3d af73 03bd 93b8 dabd
000001c0: 3bb3 78bd 1deb 99bc 2016 58bd ccd1 0abd
000001d0: 7d6b 8ebb 64a3 9e3d c45a afbd 8ec5 2f3b
000001e0: 795b acbd 0bc8 dd3c c97c 0a3e d224 93be
000001f0: e210 05be 25f2 63be 936a a83d 5b40 dcbb
00000200: 35af 3fbd c37c 0bbe 8215 22bd 0c0d 103d
00000210: 70cc 5dbc cf17 683d 54c4 ddbc c33b 4dbd
00000220: 3734 de3d 635b 2bbd 79cb 4dbd 8295 2c3d
00000230: f3f0 3c3d 80f3 353d a6ad 9ebd c8fb 873d
00000240: 0e14 f23d 09f0 233e 504f 873c ddee 89bc
00000250: 42f0 05bd 300e 583d 35e2 c8bc 2c2a 9f3c
00000260: ef48 2cbb 91d1 073e 6db0 8abd e279 df3d
00000270: 0324 c73d a6a2 043d 285c 433c fd77 d63c
00000280: 3ee4 8b3d 7cf6 7c3d b43c b73d 0b5e 423c
00000290: 0b88 c4bd bb81 943d 9a94 a23d b4db b0bd
000002a0: 2d48 6fbd 161e a43c cfc9 9f3c 38bc 643d
000002b0: df53 bf3c 6571 c0bd cf00 e23d 316a a0bc
000002c0: 2e21 08bd 8b9d ca3c 1055 423d 6399 7ebd
000002d0: 1fde 3cbc 6d7d ddbd 4488 d2bb b209 3fbc
000002e0: 38b9 37be 22b6 efbd 9f98 51bd 5509 3cbd
000002f0: f429 fd3d 44b6 993c 7c31 393d 7ffe f23c
00000300: 0f03 2ebd c703 ecbd 845b bfbd a09c 0ebd
00000310: 1721 d63d 96cd f33d 46fa 0c3e 5f71 4d3c
00000320: 721f 3b3d a7ce 263d 722a 313c cb9f a33d
00000330: 8ca1 083d 1321 80bd dad7 0a3d 4a40 ef3d
00000340: 4b86 293e 9066 173e f95e 87bd d207 cdbd
00000350: 37c5 a53c 7dc4 8fbd 132c 2b3d fb5d 1fbc
00000360: f907 123d 570f 7abd edc0 8cbd 6186 883e
00000370: 69e4 503e d958 0f3e b918 5a3d 155b 8a3b
00000380: 1594 913d d020 0b3e 2fd8 c33d 6eae ab3d
00000390: 7b25 e2bd faf7 993b e420 9dbd f80a 60bd
000003a0: 5160 a0bd 6e5e 93bd 120e c0bc 5bb8 b53d
000003b0: 764b d03d c2af 283d fc9d 403d 164e d2bc
000003c0: a0c8 31be 79bc 0abc d973 e23d 0809 813d
000003d0: a87d 043d 93a4 b13c b3b3 213d 2547 f8bd
000003e0: 989b a5bd 0858 773c 042e 3abd b954 90bc
000003f0: 4364 a2bb 0eaf e6bd 4737 b33d 94f8 683d

layers.0.Ah.conv2.bias f4 [16]
-0.018960714 -0.07037545 0.012512899 0.082111105 0.062361 -0.047653735 -0.08121859 -0.0135681275
0.00211485 0.0050679715 -0.12548329 0.023826804 -0.0336022 0.039603002 -0.11516162 -0.104845434
00000000: 8053 9bbc 0121 90bd e702 4d3c de29 a83d
00000010: 3f6e 7f3d 9030 43bd ef55 a6bd da4c 5ebc
00000020: 4c99 0a3b 3a11 a63b b17e 00be 6e30 c33c
00000030: 76a2 09bd c236 223d dbd9 ebbd 34b9 d6bd

layers.0.Ah.conv3.weight f4 [1, 16, 3]
-0.13312572 0.0047763893 -0.08240904 0.07994114 -0.015450682 -0.005458198 -0.040361054 -0.103045955
0.01770153 0.10741094 -0.026479011 -0.013844997 -0.12410025 0.0701749 0.09252807 0.12727948
0.023181794 -0.012261997 -0.039337248 -0.086778104 0.12735347 -0.034927245 -0.02730163 0.13466932
-0.14238521 0.103445694 -0.07089726 0.0060685044 -0.111961186 0.041368723 -0.1719848 -0.03954999
0.20758274 0.08210461 -0.019835915 0.046270616 0.10455301 0.057375688 -0.12948763 0.07213315
0.045578703 0.004178729 -0.051884506 -0.0008795056 -0.07456956 0.030850451 -0.14024484 -0.06865592
00000000: 1c52 08be 4283 9c3b 12c6 a8bd 2eb8 a33d
00000010: db24 7dbc afda b2bb a251 25bd c209 d3bd
00000020: cd02 913c 44fa db3d 83ea d8bc 20d6 62bc
00000030: 4628 febd dcb7 8f3d 5b7f bd3d 8d55 023e
00000040: bfe7 bd3c 8be6 48bc 1820 21bd b8b8 b1bd
00000050: f368 023e df0f 0fbd aba7 dfbc c1e6 093e
00000060: 6ecd 11be 56db d33d 9532 91bd 4eda c63b
00000070: e84b e5bd 4072 293d c91c 30be 2cff 21bd
00000080: 9290 543e 7626 a83d ee7e a2bc 4286 3d3d
00000090: e31f d63d c502 6b3d 6898 04be 8cba 933d
000000a0: bcb0 3a3d b8ed 883b d984 54bd 9f8e 66ba
000000b0: edb7 98bd 16ba fc3c 589c 0fbe 7a9b 8cbd

layers.1.Aw.conv1.weight f4 [32, 1, 5]
-0.34082562 -0.13010031 -0.111387216 0.29206455 0.37023002 0.09564168 -0.48046452 0.09005488
-0.33278838 -0.1786381 0.43019572 0.18249397 -0.18991828 0.57109237 0.40242195 0.2730176
-0.1397825 0.23191166 0.2743856 0.33704194 0.20659897 0.36482608 -0.53906775 0.11127593
0.50439674 -0.17805709 0.36199713 0.31567228 0.19069882 0.40342414 0.11332716 0.08531104
0.13743122 0.3025586 -0.06895327 -0.8579399 -0.5001443 -0.37416112 0.03593342 0.4358955
0.14207229 0.19852376 0.24365222 -0.1327108 -0.02976265 0.35230678 -0.18024106 0.25447884
0.2932678 -0.2816423 -0.37220016 -0.34868902 0.17952889 -0.39750028 -0.40679353 -0.2581166
-0.007440563 -0.39571485 0.08430634 0.24048506 -0.5821971 0.076980546 0.22152784 0.52118593
-0.0073570977 0.09288092 -0.07201964 0.15717945 0.06563241 0.21721636 -0.41112268 -0.03559952
0.009737435 -0.25430104 -0.47004727 -0.13935666 0.49185744 -0.15260053 0.71610075 -0.50596654
0.21216814 0.07757809 -0.09223217 0.565514 0.075174384 -0.29196337 0.16398618 -0.20229697
-0.268572 -0.29661816 -0.026417824 0.45635045 -0.25499806 0.22790343 -0.46021694 -0.27476415
-0.2935829 -0.10627787 0.3638934 0.44163135 -0.1708577 -0.46918315 -0.75831765 0.029377013
0.3343904 -0.38979393 -0.45061004 -0.2809757 0.21959083 -0.24325436 0.40325126 -0.058443982
0.39235866 0.19450206 0.33420724 0.041151475 -0.32312024 -0.19505996 0.4919025 0.55520713
-0.1407689 0.3672854 0.065309204 0.60926735 -0.21208796 -0.008002455 0.1909774 -0.17250894
-0.07795959 -0.48643827 -0.49712345 -0.23075718 0.48797274 0.3739671 -0.036320727 -0.088276766
-0.2648175 -0.10741177 0.17868759 0.34924933 0.025750116 0.44364312 0.053396687 0.27517822
-0.15852676 0.18400255 -0.13916673 -0.45657435 -0.22490379 -0.4354473 -0.04188697 -0.19938442
0.7674484 0.5413046 0.36617965 0.27986482 0.2282383 -0.267289 -0.42372257 0.31976846
00000000: b280 aebe 0439 05be fb1e e4bd 7c89 953e
00000010: ca8e bd3e c9df c33d 72ff f5be b16e b83d
00000020: 3d63 aabe e8ec 36be 9d42 dc3e b3df 3a3e
00000030: f079 42be 1c33 123f 400a ce3e f6c8 8b3e
00000040: 2523 0fbe 407a 6d3e 457c 8c3e c390 ac3e
00000050: ae8e 533e 7cca ba3e 5800 0abf a3e4 e33d
00000060: 2520 013f 9954 36be b057 b93e cc9f a13e
00000070: 8d46 433e 9c8d ce3e 1218 e83d 8eb7 ae3d
00000080: c5ba 0c3e f6e8 9a3e 5f37 8dbd f3a1 5bbf
00000090: 7509 00bf 0c92 bfbe ec2e 133d b22d df3e
000000a0: 667b 113e d049 4b3e f87f 793e 57e5 07be
000000b0: cdd0 f3bc 8e61 b43e 1d91 38be 0d4b 823e
000000c0: 3227 963e 6b33 90be 0591 bebe 5e87 b2be
000000d0: 6cd6 373e 2885 cbbe 3e47 d0be dc27 84be
000000e0: f7cf f3bb 239b cabe cda8 ac3d b741 763e
000000f0: df0a 15bf faa7 9d3d 32d8 623e 716c 053f
00000100: cf13 f1bb 5a38 be3d 087f 93bd a6f3 203e
00000110: 496a 863d f76d 5e3e ac7e d2be cdd0 11bd
00000120: c389 1f3c bf33 82be 09aa f0be 83b3 0ebe
00000130: bdd4 fb3e 5043 1cbe 6152 373f 0687 01bf
00000140: 9b42 593e 43e1 9e3d 38e4 bcbd 87c5 103f
00000150: 07f5 993d 397c 95be feeb 273e f026 4fbe
00000160: 4582 89be 56de 97be 316a d8bc c4a6 e93e
00000170: 1b8f 82be 845f 693e 8ea1 ebbe e3ad 8cbe
00000180: 7f50 96be 36a8 d9bd 3c50 ba3e 811d e23e
00000190: 52f5 2ebe c638 f0be 1b21 42bf 10a8 f03c
000001a0: 3835 ab3e 1293 c7be 5cb6 e6be 0cdc 8fbe
000001b0: 6bdc 603e ac17 79be f376 ce3e f562 6fbd
000001c0: 3ce3 c83e 8c2b 473e 361d ab3e 738e 283d
000001d0: 0470 a5be ccbd 47be a5da fb3e 0e22 0e3f
000001e0: b925 10be d50c bc3e d5c0 853d f2f8 1b3f
000001f0: 962d 59be bb1c 03bc 948f 433e 2fa6 30be
00000200: 47a9 9fbd 700e f9be f786 febe 9c4b 6cbe
00000210: 90d7 f93e 9e78 bf3e 0bc5 14bd 73ca b4bd
00000220: 2996 87be b4fa dbbd e1f9 363e cfd0 b23e
00000230: e8f1 d23c 3125 e33e 7cb6 5a3d 29e4 8c3e
00000240: d754 22be 2a6b 3c3e b981 0ebe 1dc4 e9be
00000250: 2e4d 66be f3f2 debe ac91 2bbd 6e2b 4cbe
00000260: 8077 443f f092 0a3f e67b bb3e 714a 8f3e
00000270: 4db7 693e 1bda 88be 2af2 d8be b1b8 a33e

layers.1.Aw.conv1.bias f4 [32]
0.26102853 0.094275795 -0.11435862 -0.33739868 0.035181116 -0.066397876 0.123576365 -0.008193872
0.39975062 -0.16187684 -0.17559952 0.39257783 -0.027317164 -0.13550884 0.43458587 0.0479893
-0.303391 0.27422982 0.0915952 -0.04955372 -0.013402626 0.34265035 0.027281191 -0.07094229
-0.32010332 -0.0928595 -0.030916326 0.13324182 -0.23531193 0.20592962 -0.12174009 0.10733145
00000000: 88a5 853e ab13 c13d da34 eabd 85bf acbe
00000010: 131a 103d 9cfb 87bd 9b15 fd3d 973f 06bc
00000020: 1dac cc3e 0bc3 25be 5cd0 33be f6ff c83e
00000030: 3fc8 dfbc d4c2 0abe 0a82 de3e 6e90 443d
00000040: 1156 9bbe da67 8c3e 4496 bb3d d7f8 4abd
00000050: b096 5bbc de6f af3e ce7c df3c 314a 91bd
00000060: 95e4 a3be 1f2d bebd 3c44 fdbc 8b70 083e
00000070: 9cf5 70be 37df 523e de52 f9bd 97d0 db3d

layers.1.Aw.conv2.weight f4 [16, 32, 3]
-0.03939787 -0.02303528 -0.022372324 -0.044176586 -0.117733955 -0.055462785 0.007771467 -0.04404511
0.13645259 0.12992644 0.07373316 0.17192556 -0.07511751 0.031648148 0.03884082 -0.056011677
-0.052797902 -0.16728352 0.045505457 -0.05647431 -0.064900026 0.09351372 0.039683618 -0.04244005
-0.058190223 0.0032567184 -0.0937823 0.11043653 -0.06888876 0.10234981 0.05849747 0.01760552
-0.09609033 0.036499254 0.0226759 -0.03579001 0.09958519 -0.20930023 -0.101857334 0.14847066
-0.025764816 0.094512105 -0.066323884 -0.06801146 -0.020989574 0.13929094 0.00865648 -0.0005884706
-0.04804483 0.057659972 -0.01030056 -0.03219917 -0.0077834064 -0.006907894 0.04887776 -0.017708985
-0.00457971 -0.20276153 -0.057985447 -0.044788074 0.0056596156 -0.021397928 0.05602008 -0.03863973
-0.047434613 -0.11654766 -0.005842046 -0.005768424 0.011204671 -0.12766722 -0.08625688 0.07950763
-0.020538813 0.14321351 0.051549476 -0.06545485 0.106801435 -0.07712312 0.06455255 -0.21188325
0.06334454 -0.10661021 -0.040118653 -0.0077633294 -0.09329425 0.1385812 -0.06059152 -0.020319091
-0.0072840857 0.038901567 0.036547933 0.014908956 0.12221221 -0.103037946 0.033513453 0.08958948
-0.07027816 -0.092157595 -0.05402194 0.0008295371 0.061155282 0.017633907 -0.0031916553 -0.07019734
-0.09417511 0.018072296 0.008647105 0.04287867 0.052651633 0.01803386 0.009587372 -0.055704635
-0.11840298 -0.07120054 -0.05280068 0.07872767 0.03830107 0.03287245 -0.10501048 0.08942828
-0.073349096 0.030893154 -0.098460905 0.027791083 -0.07025306 -0.09115996 -0.0016097559 -0.0047386657
0.08764599 0.05102404 0.033868752 0.028985472 0.008633674 -0.108084396 -0.052465267 -0.10374288
0.01659872 0.01541075 0.066210054 0.107282594 -0.055637423 -0.36293012 0.12584522 -0.03589151
0.07011568 -0.0080869645 -0.021657867 -0.039918028 0.02258377 0.015693726 -0.01545932 -0.008623722
-0.03611299 -0.022021696 0.07100054 -0.11896425 0.01298631 -0.08872746 -0.0022162478 -0.006404581
0.011650021 -0.047736414 -0.006420754 0.03276957 0.01850797 0.0168946 -0.05578244 -0.14840624
-0.0130166765 0.049926642 -0.035705235 0.0049885046 -0.08394597 0.059508182 0.060070883 0.0152917
-0.042488966 0.050277814 0.04580233 0.06540814 0.004411622 -0.1699013 0.13773142 0.022163011
0.13376297 -0.08904005 0.04253005 0.0010955367 -0.044375885 -0.090404116 0.013433924 0.057190295
0.019930996 -0.042412132 0.05402163 0.053626783 -0.06340601 0.018513283 -0.138808 -0.19270599
-0.08400012 -0.10366469 0.032878507 -0.031939626 0.06448432 -0.06498472 -0.025983488 -0.13851182
-0.021324528 -0.20296839 -0.0003129326 -0.011265398 0.037139192 -0.114516534 -0.06966353 0.13717967
-0.09420594 0.06681569 0.006430798 0.018986948 0.05243271 -0.022591429 0.07411684 0.094542384
-0.046747852 0.08702467 -0.010340565 0.060113534 -0.056526683 -0.045184903 -0.1264999 -0.050865628
0.0049638334 -0.015754376 -0.030587869 0.045521054 0.096685454 -0.1891486 0.14871754 -0.1420141
0.057599343 -0.079017 -0.016369382 0.0688992 0.041523643 0.073523656 -0.014601983 0.09248021
-0.084577076 -0.2963405 -0.28482884 -0.03663689 -0.08322546 -0.07225672 0.106765635 0.00063183595
00000000: a95f 21bd 7cb4 bcbc 2a46 b7bc 82f2 34bd
00000010: 801e f1bd f22c 63bd caa7 fe3b a568 34bd
00000020: 3aba 0b3e 700b 053e 6901 973d 410d 303e
00000030: 36d7 99bd 7da1 013d 8d17 1f3d 806c 65bd
00000040: 9d42 58bd 5f4c 2bbe ee63 3a3d 9b51 67bd
00000050: 4eea 84bd 1f84 bf3d 4a8b 223d 9ed5 2dbd
00000060: df58 6ebd ab6e 553b ef10 c0bd 8c2c e23d
00000070: 8d15 8dbd c79c d13d 0b9b 6f3d 7439 903c
00000080: 02cb c4bd 3e80 153d cfc2 b93c 8c98 12bd
00000090: 52f3 cb3d cd52 56be 949a d0bd b108 183e
000000a0: bc10 d3bc 908f c13d d1d4 87bd 9849 8bbd
000000b0: 54f2 abbc 49a2 0e3e e9d3 0d3c 9843 1aba
000000c0: a8ca 44bd dd2c 6c3d aec3 28bc 47e3 03bd
000000d0: f20b ffbb 9d5b e2bb 0c34 483d 6f12 91bc
000000e0: 6411 96bb b8a0 4fbe 2682 6dbd b373 37bd
000000f0: 4c74 b93b b54a afbc 5075 653d b244 1ebd
00000100: cc4a 42bd 8ab0 eebd a26e bfbb 0c05 bdbb
00000110: cc93 373c 32bb 02be 72a7 b0bd e5d4 a23d
00000120: 0341 a8bc 90a6 123e 8b25 533d 310d 86bd
00000130: b6ba da3d baf2 9dbd 2134 843d ecf7 58be
00000140: c8ba 813d 7456 dabd 7553 24bd 8763 febb
00000150: 0e11 bfbd 3be8 0d3e d02e 78bd 3974 a6bc
00000160: 57af eebb 4057 1f3d 49b3 153d b244 743c
00000170: 654a fa3d 8f05 d3bd 6745 093d b07a b73d
00000180: ffed 8fbd 1fbd bcbd 1c46 5dbd 4b75 593a
00000190: f67d 7a3d fc74 903c 172b 51bb 9fc3 8fbd
000001a0: e1de c0bd 5a0c 943c 96ac 0d3c 8ba1 2f3d
000001b0: 3da9 573d bfbb 933c 5a14 1d3c 8b2a 64bd
000001c0: 437d f2bd 97d1 91bd 8745 58bd f93b a13d
000001d0: 95e1 1c3d 43a5 063d bc0f d7bd 2d26 b73d
000001e0: 0d38 96bd a413 fd3c dfa5 c9bd 20aa e33c
000001f0: d6e0 8fbd 13b2 babd 72fe d2ba cf46 9bbb
00000200: be7f b33d 95fe 503d f6b9 0a3d f172 ed3c
00000210: 4174 0d3c 5a5b ddbd d2e5 56bd 2677 d4bd
00000220: 0afa 873c 5f7d 7c3c 2399 873d fab6 db3d
00000230: 11e4 63bd fad1 b9be 92dd 003e fa02 13bd
00000240: cf98 8f3d 307f 04bc d76b b1bc 1681 23bd
00000250: 9901 b93c 2190 803c 1649 7dbc 834a 0dbc
00000260: 37eb 13bd d866 b4bc bb68 913d 87a3 f3bd
00000270: 88c4 543c beb6 b5bd 783e 11bb 85dd d1bb
00000280: bbdf 3e3c 4287 43bd 3065 d2bb 6239 063d
00000290: 079e 973c 8b66 8a3c 217c 64bd cef7 17be
000002a0: e643 55bc e17f 4c3d a73f 12bd 9c76 a33b
000002b0: ddeb abbd dabe 733d e30c 763d 0a8a 7a3c
000002c0: e908 2ebd 1cf0 4d3d 399b 3b3d b4f4 853d
000002d0: 5e8f 903b 9bfa 2dbe 7709 0d3e 348f b53c
000002e0: 29f9 083e a15a b6bd fd33 2e3d 1d98 8f3a
000002f0: 7dc3 35bd cb25 b9bd f619 5c3c 5f40 6a3d
00000300: 5446 a33c 58b8 2dbd c945 5d3d c2a7 5b3d
00000310: 03db 81bd 2ba9 973c af23 0ebe b854 45be
00000320: 4108 acbd 274e d4bd 9dab 063d 20d3 02bd
00000330: 5b10 843d b516 85bd 53db d4bc 0bd6 0dbe
00000340: c7b0 aebc f2d6 4fbe 1a11 a4b9 8192 38bc
00000350: 441f 183d a587 eabd c1ab 8ebd d478 0c3e
00000360: 0bef c0bd aad6 883d 72b9 d23b 848a 9b3c
00000370: aec3 563d a911 b9bc 92ca 973d 709f c13d
00000380: ad7a 3fbd fd39 b23d 796b 29bc 9c39 763d
00000390: 8688 67bd ce13 39bd 3189 01be 7a58 50bd
000003a0: a7a7 a23b 520f 81bc 6993 fabc 4974 3a3d
000003b0: 0603 c63d 2cb0 41be 6949 183e 256c 11be
000003c0: 4aed 6b3d aad3 a1bd 1519 86bc 061b 8d3d
000003d0: b214 2a3d 9293 963d 283d 6fbc 4466 bd3d
000003e0: bf36 adbd f1b9 97be 16d5 91be 9010 16bd
000003f0: 1c72 aabd 55fb 93bd f1a7 da3d cba1 253a

layers.1.Aw.conv2.bias f4 [16]
0.0089035705 -0.036366202 -0.016591502 0.06959428 0.013812122 0.075090155 0.03606961 0.08354223
0.05794062 0.02918659 -0.025574533 0.035333138 -0.08520552 0.05154352 0.09292856 0.00817639
00000000: 48e0 113c baf4 14bd e7ea 87bc 7287 8e3d
00000010: 3d4c 623c dec8 993d babd 133d 3018 ab3d
00000020: 2553 6d3d b718 ef3c af81 d1bc 7bb9 103d
00000030: 3b80 aebd 4c1f 533d 5451 be3d 44f6 053c

layers.1.Aw.conv3.weight f4 [1, 16, 3]
0.008809034 0.0750099 -0.10455179 0.08598825 -0.13950786 0.05300612 0.06792494 -0.029106356
0.10141202 -0.17459789 0.15312196 0.017644105 0.038529612 -0.1280228 -0.07361463 0.08841119
0.1326838 0.055619977 -0.13089564 -0.19622011 -0.20763898 0.06994404 0.10014705 -0.01714062
-0.21570931 0.23025504 -0.032297384 0.014962273 0.008741484 0.11898976 -0.035570644 0.10712386
0.025723504 0.04184278 0.10714741 0.10872318 -0.13576142 0.14537868 0.0165859 -0.1575529
-0.050356876 0.23457672 0.06666487 -0.07846502 0.121204756 0.11998265 0.029227693 0.081872575
00000000: c453 103c ca9e 993d 401f d6bd 9c1a b03d
00000010: 26db 0ebe f21c 593d 3b1c 8b3d 7470 eebc
00000020: 1bb1 cf3d cac9 32be 01cc 1c3e 5f8a 903c
00000030: 3ad1 1d3d 6918 03be 44c3 96bd ed10 b53d
00000040: 43de 073e c6d1 633d 8209 06be eded 48be
00000050: 509f 54be d23e 8f3d e619 cd3d 7c6a 8cbc
00000060: e7e2 5cbe fac7 6b3e 434a 04bd 5224 753c
00000070: 7138 0f3c e7b0 f33d 86b2 11bd c163 db3d
00000080: 19ba d23c 5663 2b3d 1a70 db3d 42aa de3d
00000090: 0b05 0bbe 26de 143e 27df 873c 8c55 21be
000000a0: 0343 4ebd e134 703e 9787 883d 45b2 a0bd
000000b0: 333a f83d 77b9 f53d ea6e ef3c cfac a73d

layers.1.Ah.conv1.weight f4 [32, 1, 5]
-0.4173518 0.24496372 -0.001054943 0.032216776 0.07213206 0.28879142 -0.1717736 -0.03573489
-0.374947 -0.119430065 -0.2771483 0.43714 0.18406703 -0.25572675 0.25986707 0.17909782
-0.029323718 0.30132762 -0.28173777 -0.21310577 -0.27849036 -0.1359429 0.034428004 0.29231536
-0.31010485 0.28161958 0.4399033 0.1213865 0.384914 -0.110006295 0.42933273 -0.053189307
-0.3357009 -0.12043236 -0.15442955 -0.14995256 -0.37095776 -0.15071973 -0.37717804 0.17718624
0.14502898 0.18059006 -0.40056983 -0.15567777 0.5444675 0.06639581 0.16803342 0.51343995
-0.025469264 0.12062278 0.30254918 0.080907516 0.29068425 -0.33730352 -0.26278332 0.0792695
0.047378946 0.24640231 0.31974655 0.15500991 -0.077182904 -0.3934744 0.2432988 0.02676053
-0.054217815 0.3796703 0.07269998 -0.37509164 0.28825122 -0.05799576 0.2934148 0.30704263
0.106050126 0.3845568 -0.3131915 0.0769162 -0.12808648 -0.043477297 0.4116859 0.17764887
-0.107315674 0.1346374 0.46295634 -0.2801704 -0.2430086 -0.24361502 0.111575626 -0.32917494
0.007066443 -0.25347283 -0.27843103 0.094121516 0.009204324 -0.071368225 -0.21218503 -0.24499036
-0.062128868 0.15998265 -0.10300956 -0.20121367 -0.42259657 0.2784613 -0.10645894 0.36864135
-0.033486743 0.34087574 0.14747831 0.062150877 0.0051951585 0.0208468 0.029092565 0.38632932
0.2924478 -0.25890446 -0.0095334025 -0.27244705 -0.11612676 0.15004149 0.05398035 -0.046833184
-0.41354728 -0.16931379 -0.2275577 -0.33291352 -0.12151646 0.4182996 -0.3732765 0.20601204
-0.41467065 0.19051029 -0.36083558 0.19207501 -0.0018245843 -0.4139286 0.12577815 0.28103298
-0.066246726 0.13246524 -0.37906754 -0.009637158 0.12440116 -0.23885052 -0.42927957 0.29155052
0.08331997 0.45569244 0.36787516 -0.022686059 -0.0875599 -0.41056547 -0.41184565 0.29503462
0.13302691 -0.14557436 0.38038316 0.10381623 0.16065027 0.0056274175 0.30214462 0.031613756
00000000: 23af d5be c5d7 7a3e 0346 8aba bdf5 033d
00000010: f9b9 933d 78dc 933e 6be5 2fbe bf5e 12bd
00000020: 0ef9 bfbe c097 f4bd 62e6 8dbe d0d0 df3e
00000030: 117c 3c3e 9eee 82be 4c0d 853e 6b65 373e
00000040: 4b38 f0bc 9d47 9a3e ef3f 90be 6638 5abe
00000050: 4a96 8ebe 9e34 0bbe 6104 0d3d 5caa 953e
00000060: 10c6 9ebe 7130 903e 013b e13e 7c99 f83d
00000070: 7313 c53e fb4a e1bd 80d1 db3e 08dd 59bd
00000080: fde0 abbe 3ea5 f6bd c822 1ebe 2a8d 19be
00000090: 2dee bdbe 4656 1abe 7b1d c1be 4f70 353e
000000a0: 7a82 143e 9aec 383e 7d17 cdbe fe69 1fbe
000000b0: 3962 0b3f 87fa 873d f410 2c3e cd70 033f
000000c0: eba4 d0bc 1309 f73d bae7 9a3e d7b2 a53d
000000d0: 91d4 943e 0cb3 acbe 898b 86be 0c58 a23d
000000e0: 6d10 423d e350 7c3e d2b5 a33e ebba 1e3e
000000f0: 1212 9ebd 7a75 c9be 5223 793e e638 db3c
00000100: 8013 5ebd 2564 c23e bae3 943d 030c c0be
00000110: aa95 933e f68c 6dbd 773a 963e b134 9d3e
00000120: cf30 d93d a1e4 c43e a35a a0be 3e86 9d3d
00000130: 1a29 03be 4015 32bd 7fc8 d23e 96e9 353e
00000140: 52c8 dbbd 63de 093e 9d08 ed3e 7f72 8fbe
00000150: 3fd7 78be 3776 79be c381 e43d 9e89 a8be
00000160: 9f8d e73b 31c7 81be 838e 8ebe c8c2 c03d
00000170: bccd 163c 8129 92bd 0847 59be c1de 7abe
00000180: d77a 7ebd 7ed2 233e adf6 d2bd f50a 4ebe
00000190: 945e d8be 7b92 8e3e 2507 dabd 8fbe bc3e
000001a0: 6529 09bd 4487 ae3e 8e04 173e eb91 7e3d
000001b0: 263c aa3b e9c6 aa3c 8853 ee3c f5cc c53e
000001c0: b8bb 953e 208f 84be fd31 1cbc 2e7e 8bbe
000001d0: ded3 edbd 7aa4 193e 801a 5d3d 27d4 3fbd
000001e0: 78bc d3be 9860 2dbe e304 69be a473 aabe
000001f0: 9fdd f8bd 5d2b d63e 191e bfbe d2f4 523e
00000200: b64f d4be 2115 433e 71bf b8be 50af 443e
00000210: e426 efba 73ee d3be fdcb 003e 8ee3 8f3e
00000220: 5dac 87bd f8a4 073e 2415 c2be 2ce5 1dbc
00000230: 09c6 fe3d 3b95 74be 88ca dbbe 1c46 953e
00000240: a9a3 aa3d 8550 e93e 225a bc3e 1dd8 b9bc
00000250: 9b52 b3bd a335 d2be 6fdd d2be c70e 973e
00000260: 3538 083e 7211 15be 95c1 c23e 9b9d d43d
00000270: 8181 243e 3366 b83b b3b2 9a3e 6d7d 013d

layers.1.Ah.conv1.bias f4 [32]
0.077872515 -0.3060941 -0.14902933 0.15260538 0.20503506 -0.41053376 0.30379495 -0.10866729
-0.13260126 -0.3406278 0.16071619 -0.27033553 0.31691164 0.29169115 -0.19804294 0.03899236
0.025581013 0.12156461 0.19138934 0.27338812 0.0040250085 0.34995282 -0.11045346 -0.36433887
-0.12499945 0.033671867 0.3331072 -0.05577139 -0.20109968 -0.13245992 0.41550478 0.25607094
00000000: a07b 9f3d 5eb8 9cbe 259b 18be 9644 1c3e
00000010: b6f4 513e 7b31 d2be 038b 9b3e f58c debd
00000020: a0c8 07be c466 aebe c992 243e 6b69 8abe
00000030: 3e42 a23e 8b58 953e c5cb 4abe 74b6 1f3d
00000040: 468f d13c def6 f83d 91fb 433e 87f9 8b3e
00000050: 38e4 833b 042d b33e 6c35 e2bd a08a babe
00000060: b6ff ffbd 83eb 093d 078d aa3e 8b70 64bd
00000070: 13ed 4dbe 93a3 07be 0bbd d43e bb1b 833e

layers.1.Ah.conv2.weight f4 [16, 32, 3]
0.006073256 -0.07628771 -0.09828899 0.049303092 0.109475695 0.12645589 0.030365387 0.056981955
-0.012987185 -0.06300802 -0.02980648 0.0018045722 -0.05809912 -0.059505407 -0.04284756 0.1327257
0.081850395 0.1084594 -0.023241328 0.014204787 -0.024650685 -0.077464886 0.10119163 0.018154696
0.00869272 -0.017496433 -0.16671987 0.029470026 0.05719496 0.066935204 -0.10787801 -0.04878643
0.044932608 -0.004817041 0.029305805 0.110713 -0.023413703 0.013861385 -0.08610039 -0.033520576
0.06815917 -0.04715368 0.018378783 0.09077878 0.004830571 0.07469535 -0.09952399 -0.061884258
-0.030202813 -0.11983351 0.11575615 -0.037260562 0.06804395 0.0778624 0.056304783 0.022419361
0.05542415 0.037925757 0.006132502 -0.035102345 -0.06303786 -0.008425672 -0.019457044 -0.08874533
-0.02172558 -0.11419822 0.035807915 0.04273624 -0.085516006 0.058073267 -0.02640637 -0.039902966
0.0011263547 -0.019420996 -0.03869382 -0.08285431 -0.020763895 0.07335452 -0.018788856 -0.10892246
0.007338347 0.018036902 -0.10409251 0.029968927 0.09944908 0.029792538 -0.02933142 -0.020347692
-0.011169216 0.0029397472 -0.03468899 -0.11995737 -0.030047664 -0.10487726 0.042274043 0.05574129
-0.028058533 -0.050833084 -0.030968094 0.006735165 -0.07728735 -0.10974964 -0.104642905 -0.12885988
-0.032701228 -0.023017235 0.10209275 0.0280419 0.016238524 0.09330969 -0.032092746 -0.10679736
-0.060717802 -0.018788869 -0.052755475 -0.033891484 -0.0043463097 0.07746008 -0.08562234 0.0026820633
-0.084158845 0.027072927 0.13524164 -0.2873903 -0.12994722 -0.2226034 0.082234524 -0.006721539
-0.04679795 -0.13621812 -0.039571293 0.035168692 -0.013537511 0.05666333 -0.027071156 -0.05010582
0.10849803 -0.0418352 -0.050242875 0.04213477 0.046128225 0.044421673 -0.077479646 0.0663982
0.118202314 0.16009535 0.016517311 -0.016837532 -0.03269983 0.052747905 -0.024521926 0.019429289
-0.002628859 0.13263537 -0.06771932 0.10911919 0.097236656 0.032381676 0.011923827 0.026180262
0.06830643 0.061758503 0.08947125 0.011863242 -0.09596261 0.072513066 0.079385 -0.08635655
-0.05841844 0.020033877 0.01950541 0.055843562 0.023355423 -0.09396628 0.110353105 -0.019581886
-0.033234768 0.024733325 0.047444403 -0.062158 -0.011527567 -0.10814939 -0.0064249355 -0.011660026
-0.17941749 -0.11704661 -0.05117094 -0.045907337 0.123615175 0.018763669 0.045213208 0.029662369
-0.042483386 -0.11524158 -0.09343627 -0.034817338 0.1045553 0.11904447 0.13767347 0.012539237
0.045684285 0.040724423 0.010813342 0.079894625 0.033357188 -0.062563084 0.03389726 0.11682184
0.16555135 0.14785218 -0.066099115 -0.10011257 0.02023564 -0.07019899 0.04179008 -0.0097269965
0.035652135 -0.061049785 -0.06872735 0.26665023 0.20399632 0.13998736 0.053246234 0.0042222836
0.071083225 0.13586736 0.09562718 0.08382879 -0.11042305 0.0046987506 -0.07672289 -0.05469796
-0.07830871 -0.071957454 -0.02344421 0.08873054 0.10170643 0.04118324 0.047025666 -0.025672
-0.17361689 -0.008467787 0.110572524 0.06300551 0.032346398 0.02168492 0.039478015 -0.12122945
-0.08086318 0.015096672 -0.04545404 -0.017618524 -0.0049558 -0.11263858 0.08750778 0.056877688
00000000: 2a02 c73b bb3c 9cbd bd4b c9bd 0af2 493d
00000010: cb34 e03d a77d 013e d5c0 f83c e965 693d
00000020: 34c8 54bc 590a 81bd b82c f4bc 6587 ec3a
00000030: 58f9 6dbd f1bb 73bd ec80 2fbd 3fe9 073e
00000040: 2ea1 a73d f61f de3d 9964 bebc 32bb 683c
00000050: 3cf0 c9bc e9a5 9ebd 8f3d cf3d 28b9 943c
00000060: e96b 0e3c ae54 8fbc 9db8 2abe 206b f13c
00000070: 4345 6a3d 5315 893d 25ef dcbd 48d4 47bd
00000080: 410b 383d 45d8 9dbb ba12 f03c 7fbd e23d
00000090: 18ce bfbc dd1a 633c 6755 b0bd df4c 09bd
000000a0: 0997 8b3d 3824 41bd 1a8f 963c 3aea b93d
000000b0: c449 9e3b e0f9 983d 3cd3 cbbd 597a 7dbd
000000c0: e46b f7bc 456b f5bd 8f11 ed3d 889e 18bd
000000d0: a05a 8b3d 5276 9f3d d89f 663d cfa8 b73c
000000e0: 6f04 633d 0a58 1b3d 28f3 c83b 7ac7 0fbd
000000f0: fe19 81bd d40b 0abc 6164 9fbc 1dc0 b5bd
00000100: d8f9 b1bc c2e0 e9bd 52ab 123d 320c 2f3d
00000110: 0423 afbd 3cde 6d3d 2c52 d8bc 4b71 23bd
00000120: 31a2 933a c818 9fbc 697d 1ebd 85af a9bd
00000130: 0b19 aabc e53a 963d 16eb 99bc bd12 dfbd
00000140: 8476 f03b 20c2 933c 742e d5bd 6581 f53c
00000150: f6ab cb3d 7b0f f43c 7248 f0bc 34b0 a6bc
00000160: 16ff 36bc c6a8 403b 0b16 0ebd 36ac f5bd
00000170: 8526 f6bc e4c9 d6bd 8c27 2d3d fb50 643d
00000180: 02db e5bc 5a36 50bd cdb0 fdbc a9b2 dc3b
00000190: d548 9ebd 6bc4 e0bd 054f d6bd d8f3 03be
000001a0: b9f1 05bd a48e bcbc 0116 d13d 20b8 e53c
000001b0: a706 853c 2719 bf3d af73 03bd 93b8 dabd
000001c0: 3bb3 78bd 1deb 99bc 2016 58bd ccd1 0abd
000001d0: 7d6b 8ebb 64a3 9e3d c45a afbd 8ec5 2f3b
000001e0: 795b acbd 0bc8 dd3c c97c 0a3e d224 93be
000001f0: e210 05be 25f2 63be 936a a83d 5b40 dcbb
00000200: 35af 3fbd c37c 0bbe 8215 22bd 0c0d 103d
00000210: 70cc 5dbc cf17 683d 54c4 ddbc c33b 4dbd
00000220: 3734 de3d 635b 2bbd 79cb 4dbd 8295 2c3d
00000230: f3f0 3c3d 80f3 353d a6ad 9ebd c8fb 873d
00000240: 0e14 f23d 09f0 233e 504f 873c ddee 89bc
00000250: 42f0 05bd 300e 583d 35e2 c8bc 2c2a 9f3c
00000260: ef48 2cbb 91d1 073e 6db0 8abd e279 df3d
00000270: 0324 c73d a6a2 043d 285c 433c fd77 d63c
00000280: 3ee4 8b3d 7cf6 7c3d b43c b73d 0b5e 423c
00000290: 0b88 c4bd bb81 943d 9a94 a23d b4db b0bd
000002a0: 2d48 6fbd 161e a43c cfc9 9f3c 38bc 643d
000002b0: df53 bf3c 6571 c0bd cf00 e23d 316a a0bc
000002c0: 2e21 08bd 8b9d ca3c 1055 423d 6399 7ebd
000002d0: 1fde 3cbc 6d7d ddbd 4488 d2bb b209 3fbc
000002e0: 38b9 37be 22b6 efbd 9f98 51bd 5509 3cbd
000002f0: f429 fd3d 44b6 993c 7c31 393d 7ffe f23c
00000300: 0f03 2ebd c703 ecbd 845b bfbd a09c 0ebd
00000310: 1721 d63d 96cd f33d 46fa 0c3e 5f71 4d3c
00000320: 721f 3b3d a7ce 263d 722a 313c cb9f a33d
00000330: 8ca1 083d 1321 80bd dad7 0a3d 4a40 ef3d
00000340: 4b86 293e 9066 173e f95e 87bd d207 cdbd
00000350: 37c5 a53c 7dc4 8fbd 132c 2b3d fb5d 1fbc
00000360: f907 123d 570f 7abd edc0 8cbd 6186 883e
00000370: 69e4 503e d958 0f3e b918 5a3d 155b 8a3b
00000380: 1594 913d d020 0b3e 2fd8 c33d 6eae ab3d
00000390: 7b25 e2bd faf7 993b e420 9dbd f80a 60bd
000003a0: 5160 a0bd 6e5e 93bd 120e c0bc 5bb8 b53d
000003b0: 764b d03d c2af 283d fc9d 403d 164e d2bc
000003c0: a0c8 31be 79bc 0abc d973 e23d 0809 813d
000003d0: a87d 043d 93a4 b13c b3b3 213d 2547 f8bd
000003e0: 989b a5bd 0858 773c 042e 3abd b954 90bc
000003f0: 4364 a2bb 0eaf e6bd 4737 b33d 94f8 683d

layers.1.Ah.conv2.bias f4 [16]
-0.018960714 -0.07037545 0.012512899 0.082111105 0.062361 -0.047653735 -0.08121859 -0.0135681275
0.00211485 0.0050679715 -0.12548329 0.023826804 -0.0336022 0.039603002 -0.11516162 -0.104845434
00000000: 8053 9bbc 0121 90bd e702 4d3c de29 a83d
00000010: 3f6e 7f3d 9030 43bd ef55 a6bd da4c 5ebc
00000020: 4c99 0a3b 3a11 a63b b17e 00be 6e30 c33c
00000030: 76a2 09bd c236 223d dbd9 ebbd 34b9 d6bd

layers.1.Ah.conv3.weight f4 [1, 16, 3]
-0.13312572 0.0047763893 -0.08240904 0.07994114 -0.015450682 -0.005458198 -0.040361054 -0.103045955
0.01770153 0.10741094 -0.026479011 -0.013844997 -0.12410025 0.0701749 0.09252807 0.12727948
0.023181794 -0.012261997 -0.039337248 -0.086778104 0.12735347 -0.034927245 -0.02730163 0.13466932
-0.14238521 0.103445694 -0.07089726 0.0060685044 -0.111961186 0.041368723 -0.1719848 -0.03954999
0.20758274 0.08210461 -0.019835915 0.046270616 0.10455301 0.057375688 -0.12948763 0.07213315
0.045578703 0.004178729 -0.051884506 -0.0008795056 -0.07456956 0.030850451 -0.14024484 -0.06865592
00000000: 1c52 08be 4283 9c3b 12c6 a8bd 2eb8 a33d
00000010: db24 7dbc afda b2bb a251 25bd c209 d3bd
00000020: cd02 913c 44fa db3d 83ea d8bc 20d6 62bc
00000030: 4628 febd dcb7 8f3d 5b7f bd3d 8d55 023e
00000040: bfe7 bd3c 8be6 48bc 1820 21bd b8b8 b1bd
00000050: f368 023e df0f 0fbd aba7 dfbc c1e6 093e
00000060: 6ecd 11be 56db d33d 9532 91bd 4eda c63b
00000070: e84b e5bd 4072 293d c91c 30be 2cff 21bd
00000080: 9290 543e 7626 a83d ee7e a2bc 4286 3d3d
00000090: e31f d63d c502 6b3d 6898 04be 8cba 933d
000000a0: bcb0 3a3d b8ed 883b d984 54bd 9f8e 66ba
000000b0: edb7 98bd 16ba fc3c 589c 0fbe 7a9b 8cbd
