models/full_dataset_0.pt (torch, 78581 bytes, 120 tensors)

layers.0.Aw.conv1.weight f4 [32, 1, 5]
000000 ac 5a a5 3e a4 59 ba bb 67 b9 15 3e 7e 70 2e 3d
       0.3229574 -0.0056869555 0.14621507 0.04258775
000010 d7 3d 26 3c c6 a7 2b bd 2d 22 d9 3d 96 91 07 be
       0.01014658 -0.041908048 0.10602222 -0.1323913
000020 1f 82 a8 be 4e 62 bd 3e 67 75 db 3e 83 92 9b 3e
       -0.32911775 0.36989063 0.42863008 0.30385217
000030 ef 1c d9 be ef 99 b2 3d 7b 6f e1 3e 9f 3d b7 3e
       -0.42404887 0.08720767 0.44030365 0.357892
000040 4f 08 81 be bd be 38 3d 5b 4f 7e 3c 79 19 c0 3e
       -0.2520165 0.045103777 0.0155218495 0.37519434
000050 e1 cd 90 3e 0b cd 48 bc 70 c4 78 3e c5 ff 06 3d
       0.28282073 -0.012255917 0.24293685 0.032958765
000060 02 27 d7 3e 7f 93 4a bd cc 44 03 3e 78 73 e3 3e
       0.42021948 -0.04945707 0.12819213 0.44424033
000070 e3 fd b0 be 4d e6 82 3e a3 5f ad 3e 43 b0 f7 bd
       -0.345687 0.2556633 0.33862028 -0.12094166
000080 eb b0 fc 3d 30 c8 54 be b5 83 35 bd 4f 34 60 bd
       0.12338432 -0.2077949 -0.04431506 -0.054737385
000090 28 40 4c bd 3b 8e 84 be 86 b2 9b be 33 1b a3 be
       -0.04986587 -0.25889763 -0.3040964 -0.3185669
0000a0 bf a3 8c be f6 21 e2 3e 18 11 b5 be 8e 65 46 be
       -0.27468678 0.44166535 -0.35364604 -0.19374678
0000b0 28 b5 bd be 6e 57 45 3d 73 e6 95 3e 61 71 a5 bd
       -0.37052274 0.048179083 0.2927738 -0.08078266
0000c0 ab 5f 17 3e 27 13 8c 3e 2c 5f ca 3e a2 68 2c be
       0.14782588 0.27358362 0.39525735 -0.16836789
0000d0 8b b5 e6 be 9e fe cc 3e 99 c1 b8 3e 42 1d 33 be
       -0.4506038 0.40038007 0.36085203 -0.1749163
0000e0 98 ec 0f be 09 fc ff 3d 68 9f 4f be 60 c7 a8 3e
       -0.14055097 0.12499244 -0.20275652 0.3296461
0000f0 11 e6 32 3e ba fd d2 3d 4a 4c 62 be 32 1d 70 be
       0.17470576 0.10302301 -0.22099414 -0.23448637
000100 d7 9d ad 3e 59 5f 81 be 8c 83 1c 3e 2a 5f 81 3d
       0.33909485 -0.25268057 0.15284556 0.06316979
000110 8a ff c9 3e a3 06 55 3c 4e 6f cf be 1c 6a 14 3e
       0.39452773 0.013002071 -0.40514606 0.14493603
000120 74 40 e0 3e a0 4b b2 3e f1 35 cd be 59 1b 80 3e
       0.43799174 0.34823322 -0.40080217 0.25020865
000130 d6 a3 26 3e 3d 7f 5f be 81 83 98 3e 6c b5 bf 3c
       0.16273436 -0.21825881 0.2978783 0.023401938
000140 79 b7 a1 bd 34 ea af 3e a9 35 b6 be 84 78 22 be
       -0.07896323 0.3435837 -0.35587814 -0.15866286
000150 8f bf b2 be 11 3c b4 be d0 52 8d be 9d dc b2 3e
       -0.34911773 -0.35202077 -0.27602243 0.3493394
000160 00 55 b0 be 14 c8 aa be 9b 09 bf be a5 93 c5 3e
       -0.3443985 -0.33355772 -0.37312016 0.38589206
000170 48 ca 25 bd 43 03 94 be ff 21 bc 3e 0b 4b b7 3e
       -0.040476114 -0.28908738 0.36744687 0.3579944
000180 52 64 d7 3e 88 39 ac 3e bc 77 d7 bc 0b 46 17 be
       0.42068726 0.33637643 -0.026302211 -0.14772813
000190 87 65 95 be 55 f6 cb 3e 09 dc a8 bc ae 94 7d be
       -0.29179022 0.39836374 -0.020612733 -0.24763748
0001a0 50 20 20 3e c3 f7 36 3e ef d9 d2 3e 8e cb 90 3e
       0.15637326 0.17867951 0.41181895 0.282803
0001b0 07 68 c1 be 6b 8c ad bd cb bb e7 be 7c 70 05 be
       -0.3777468 -0.08474048 -0.45260462 -0.1303119
0001c0 34 f6 6a be 1a 2f 4e be 8e 10 90 be 6c 12 76 3e
       -0.22945482 -0.20135155 -0.2813763 0.24030465
0001d0 91 8f 23 be a7 8b 47 3e 24 2f d4 3d d2 2a e5 3e
       -0.15972735 0.19486867 0.10360554 0.44759232
0001e0 db 7d ae be 3f 9f 88 bd 9e f1 3e 3e 89 45 1f be
       -0.34080395 -0.06670999 0.18646857 -0.1555387
0001f0 6d 9d d7 be ce cc 48 bd e7 95 9f 3e 26 f2 02 3e
       -0.42112294 -0.049023442 0.31169054 0.12787685
000200 78 7f 96 be b7 db 25 bd 66 d5 5e 3d aa 6e 4b 3e
       -0.29394126 -0.04049274 0.05440273 0.19866434
000210 f3 16 a6 3e dd 73 43 bd 77 8b 8e be 57 0d 6c 3e
       0.32439384 -0.047717918 -0.27840778 0.23051964
000220 ea 94 5a be 2a 6a 52 3e dc f2 77 3e cb 5d a9 3e
       -0.21345869 0.20548311 0.24213737 0.3307937
000230 f7 64 50 be 71 56 4b 3e 40 0a 79 be a8 79 db 3e
       -0.20351015 0.19857194 -0.24320316 0.42866254
000240 65 8f 9f 3e 18 fb a7 be e5 39 bb 3d 0e 88 93 3e
       0.3116409 -0.32808757 0.09141902 0.2881474
000250 bc 1e 52 3e fa 9f c3 be 9c bc 85 3e 5b bc cd 3d
       0.20519537 -0.3820799 0.2612046 0.100456916
000260 0e 4e d2 3e 20 20 07 3e 4c 9b d6 3b e6 f2 29 be
       0.41075176 0.13195848 0.0065492745 -0.16596565
000270 03 82 a4 3e df 2e 00 bb 15 df ae be ee 6b 10 be
       0.3213044 -0.0019559187 -0.34154573 -0.14103672

layers.0.Aw.conv1.bias f4 [32]
000000 27 a2 d8 3d 8b fb 82 3e 01 cf 9a bd 7a 32 55 be
       0.10577803 0.25582537 -0.07559014 -0.20820037
000010 25 04 dc 3e 13 fc 92 be 76 66 b0 3e 1a 07 af be
       0.42971912 -0.28707942 0.34453171 -0.34185106
000020 22 9a 87 be f2 de b4 be 46 9e 04 bc bb 0f 9f be
       -0.26484782 -0.35326344 -0.008094376 -0.3106669
000030 d5 04 4d 3d 55 c3 5a 3e 21 a3 a1 be 0d b2 bc be
       0.050053436 0.21363576 -0.3156977 -0.36854592
000040 8f 74 41 be 86 55 9a 3e b6 cd c5 3e 9d 76 18 3e
       -0.1889212 0.30143374 0.38633507 0.14888997
000050 f2 09 19 3e 99 b0 35 be ae 78 c0 be 46 33 4d bc
       0.149452 -0.17743148 -0.3759207 -0.012524432
000060 cc cd 02 3e 0d fd 79 3e 51 47 ab 3e 45 05 42 3e
       0.12773818 0.24412937 0.33452848 0.18947323
000070 da 24 a1 3c c8 0f d2 3e ed 33 cb be 94 5c 54 be
       0.019670893 0.41027665 -0.39688054 -0.20738441

layers.0.Aw.conv2.weight f4 [16, 32, 3]
000000 7e 9f 38 bd e9 06 5d 3d 5a 0f 0b bd d2 e6 ad bd
       -0.04507398 0.05396167 -0.033950187 -0.08491291
000010 e6 c1 a8 3d e1 0f e3 bd 01 ed d9 bc 7c fc 12 bd
       0.08240108 -0.11087013 -0.02660227 -0.03588532
000020 7d e8 38 3d 35 19 af bd 30 86 e4 3b ed b8 ba 3b
       0.045143593 -0.0854973 0.006974004 0.0056983144
000030 db 0c 8f bc 96 12 a3 3d fb fd a5 3d d4 be 68 bd
       -0.017462185 0.07962529 0.081050836 -0.056822613
000040 d6 ed 38 3b b3 1e a7 3d fc 68 a9 3d d3 ae 01 bd
       0.0028217933 0.08160152 0.08271977 -0.031660866
000050 4f 7f 9c 3d 85 72 a7 3b f9 f3 b3 3d 3c 01 7e bd
       0.0764147 0.0051100873 0.087867685 -0.062012896
000060 04 f1 97 3d d3 d3 2e bd 71 a1 56 bd 06 f4 8e 3c
       0.07419017 -0.04268248 -0.052400056 0.017450344
000070 fd 0f 8f 3c 5b b8 22 bc 2a 77 b2 3d a1 a8 80 3d
       0.017463678 -0.009931649 0.08714135 0.062821634
000080 c0 29 85 3d c9 e8 6d bd d6 4a 37 bd 75 6c a9 bd
       0.06502104 -0.05808333 -0.044749103 -0.0827264
000090 4d 2d 7a bd ed 43 8b bd b1 2c b3 bd 77 a5 70 3c
       -0.06107836 -0.06800065 -0.087487586 0.014687887
0000a0 09 7f ea bd 08 f4 88 bc 32 97 a4 bd 12 91 a6 3d
       -0.11450011 -0.016717926 -0.08036651 0.08133139
0000b0 7d 79 ab bc 58 70 33 bd 7a 35 8a bd f6 00 13 bd
       -0.020931954 -0.04380831 -0.06748481 -0.03588959
0000c0 cf 0e 3f bd ed d5 20 3d 95 1b 19 3c 16 84 55 3d
       -0.046644982 0.039266516 0.009344955 0.05212792
0000d0 53 5e 24 3d f0 42 6f 3d ea d1 74 3d 88 58 bb bd
       0.040129017 0.058413446 0.059770502 -0.09147745
0000e0 d2 0a 87 bc 97 5b 7c bd ec 97 41 3c 36 73 1f bd
       -0.016484652 -0.061610784 0.011816006 -0.038928233
0000f0 fb 1f 98 bb f4 d3 6b 3c f7 d8 54 3d 41 98 9d 3d
       -0.0046424842 0.014393795 0.051964726 0.07695056
000100 66 a0 84 3d 1b 54 b9 bd ce 29 f1 3c 02 e0 25 bc
       0.06475906 -0.09049245 0.02943888 -0.010124208
000110 57 e9 d0 3d 3c e8 d3 3c 48 68 05 3d 96 99 03 bb
       0.10200756 0.025867574 0.032570153 -0.0020080558
000120 84 29 a6 bc 7d da b4 bd f6 68 61 bd 63 bd 23 bd
       -0.020283468 -0.08830736 -0.05503174 -0.039975535
000130 fb 94 4b 3d ef 1b 87 3a 35 ca ec bd ef d0 70 bd
       0.049702626 0.0010308007 -0.115620054 -0.058793005
000140 e2 d5 6b bd e5 4e b8 bb 1b 1d c2 bd 3d ff a9 3c
       -0.05757702 -0.0056246393 -0.09478208 0.02075159
000150 d4 59 d6 bd 5a a9 bc bb 6a d5 6f 3c 68 6c 58 3d
       -0.10466352 -0.005757493 0.014638284 0.05283776
000160 1f d8 12 3b ab 92 8b 3d a5 91 80 3c 0e e5 e7 3d
       0.002240665 0.06815084 0.015694449 0.113229856
000170 ad a4 37 3d 6b 13 a7 3c 63 4b a2 3d d5 64 e4 bc
       0.04483478 0.020395001 0.07924535 -0.027880112
000180 ad f6 b9 3c 6d 22 9e bd e1 a1 a0 bd 52 30 d2 3d
       0.022700632 -0.0772141 -0.07843376 0.102631226
000190 0c 02 58 3c 1a 75 30 3d d2 2b 3b 3d 7e 37 11 3d
       0.013184082 0.043080427 0.045696087 0.035453312
0001a0 30 0e de 3d 9c 1c 2f bd 40 cb a0 bd 9f 73 b1 bd
       0.1084255 -0.042751893 -0.07851267 -0.08664631
0001b0 67 65 7d 3d 62 ca 93 3d 3a 1a be 3d 4d 1a 86 3b
       0.061864283 0.07216336 0.09282346 0.0040924908
0001c0 14 7e 88 bd eb fd e4 bd 4d 69 44 3d 85 69 a2 bd
       -0.066646725 -0.111812435 0.047951985 -0.079302825
0001d0 56 aa 4d bc c8 7b cc bd 9f 43 50 3d 1c b1 c7 bc
       -0.012552818 -0.09984547 0.05084574 -0.024376445
0001e0 2c 27 dc bd 61 c2 d2 bb d3 78 aa 3d ca c4 d8 bc
       -0.10749659 -0.006431863 0.08323827 -0.026461024
0001f0 ad 23 86 3c 4e bd a7 3c 4b a2 c7 3d 39 3c ab bc
       0.016374433 0.02047601 0.09747752 -0.02090274
000200 8d 8b 03 3d ea ae 72 3d c7 a8 3f 3d c9 63 9a bd
       0.032115508 0.059248842 0.046791818 -0.07538564
000210 15 cf 08 bc 89 72 c5 3c 7c a3 09 3c 75 48 e6 bc
       -0.008350153 0.024102466 0.008400794 -0.028110722
000220 1d 3a 09 bd c0 40 35 bd 7e e1 1e bd b9 c2 09 3d
       -0.033502687 -0.044251204 -0.038789265 0.033632968
000230 c3 07 75 bc 02 49 16 bd 04 84 a5 bb 2a 04 cf bd
       -0.014955464 -0.03669072 -0.005051138 -0.10108216
000240 92 5d 5e 3a ba 00 ae 3d 4c d8 dc 3c 55 42 8b 3d
       0.0008482571 0.08496232 0.026958607 0.06799761
000250 db 98 87 3d 70 62 2e bd 61 32 2b bd e8 6b 7f bd
       0.06620952 -0.042574346 -0.041796092 -0.062358767
000260 37 06 d3 bb 20 2e 71 3d 40 09 b1 ba c0 c1 b0 3d
       -0.00643995 0.05888188 -0.0013506785 0.08630705
000270 20 9c 8f 3d bf 94 01 3d e8 3a 30 3c b7 c7 79 3d
       0.070122 0.031635996 0.010756232 0.06098148
000280 a1 89 61 3d 8c 99 0a bd 86 36 2a 3c 4e 46 82 bd
       0.055062894 -0.03383784 0.010388976 -0.06361066
000290 0f b8 e3 bd 58 a9 5f bd cc b8 fb 3c 30 5d d7 3d
       -0.11119091 -0.05460486 0.030727766 0.10515821
0002a0 a4 c6 ad 3d d6 4c 00 3d a5 d2 09 3d d4 f7 3c bb
       0.08485153 0.031323276 0.033648152 -0.002883424
0002b0 88 11 94 bd af b0 8a bc 78 06 cb 3d d3 e6 1a bc
       -0.07229906 -0.016929952 0.09913343 -0.009454447
0002c0 36 2c 6c 3d 54 60 d2 bc 2e 4f a7 bc 5f 4e ab 3c
       0.05765935 -0.025680698 -0.020423498 0.020911394
0002d0 ef eb 4d 3c 0f 2c 86 bd 64 94 19 3d de c3 ff b8
       0.012568458 -0.06551372 0.037495032 -0.00012195831
0002e0 dc e6 7e bd 48 aa 30 3d c2 84 2a bd 33 1e a5 bd
       -0.062231883 0.043131143 -0.041630514 -0.08062401
0002f0 e8 e1 9d 3d 70 df ac bd c7 d5 d4 bd 60 30 ab 3c
       0.07709104 -0.08441055 -0.10392337 0.02089709
000300 7d 4e 87 39 87 8a e2 3d 4a f8 5b 3d 4e 20 94 bd
       0.00025807685 0.11061578 0.053703584 -0.07232724
000310 6d f1 a1 bd 43 cf 8a 3d 19 ab d3 bc 83 c2 44 3d
       -0.079073764 0.06777813 -0.025838422 0.048037063
000320 20 63 2b 3d f6 20 fd 3c 5e 23 62 39 19 39 3b bd
       0.04184258 0.030899506 0.00021566215 -0.04570875
000330 bc df 98 3d 22 16 3b 3d 98 a6 a5 3d f4 50 5d 3c
       0.07464549 0.045675404 0.08088416 0.01350807
000340 4f 01 b8 bd 58 2a a0 bd 6d 3a b8 3d 85 cf 9d bc
       -0.089846246 -0.078205764 0.08995519 -0.019263992
000350 d2 62 d2 bc c1 66 a2 bd 01 e0 0f 3d 52 7c d7 bd
       -0.025681887 -0.07929755 0.035125736 -0.10521759
000360 00 ab a6 3d 26 a8 3f 3c eb 5f 9f 3c 11 cd e5 bd
       0.081380844 0.011697805 0.019454917 -0.11220754
000370 84 00 01 bd 66 99 29 bd 42 24 a9 3d aa 9d 75 bc
       -0.031494632 -0.041406058 0.08258869 -0.014991203
000380 9c 72 95 3d bb ec 19 bd 5c 7f 24 ba aa 29 9e bd
       0.07297251 -0.03757928 -0.00062750815 -0.077227905
000390 0d 3a 18 3c f6 5f 11 3d 27 1c af bd 5b d3 bd bc
       0.009291184 0.035491906 -0.085502915 -0.023172071
0003a0 56 c5 14 bd dd bd ad bc 4c ed 73 3d 4f 84 86 bd
       -0.036321007 -0.021208698 0.059552476 -0.065682046
0003b0 e7 a6 de bd 78 f2 9b 3d 3f fe 14 bd f6 88 1e 3b
       -0.10871678 0.076146066 -0.03637528 0.0024190522
0003c0 a6 ed 7a 3c 3c 35 b4 bc ad 34 be bd d9 4a f0 3d
       0.015315449 -0.02199804 -0.09287391 0.11733026
0003d0 fd d3 62 3d bb 30 d3 bc 9f 89 a3 3d 8f d6 03 bc
       0.05537795 -0.025780072 0.079852335 -0.00804676
0003e0 c9 b5 d1 3d cb 49 10 3d 84 79 d4 3d f8 b6 cf 3d
       0.10239751 0.035226624 0.1037474 0.101423204
0003f0 5e 30 85 bd ab 40 d2 3d c4 05 58 bd a6 46 6e 3d
       -0.06503366 0.10266241 -0.052739874 0.058172844

layers.0.Aw.conv2.bias f4 [16]
000000 4a a2 dd bd d1 60 85 bc e9 e7 9f bd 45 04 9b 3c
       -0.1082197 -0.016281517 -0.07807905 0.018922934
000010 12 36 a1 3d 95 d9 92 3d b0 07 63 3b 4b 6b 83 bd
       0.07871641 0.07170407 0.0034642033 -0.06416949
000020 4f de a3 bd 07 28 a0 3d 05 c7 8b bd 93 5b 63 bd
       -0.080013864 0.078201346 -0.06825069 -0.055507254
000030 57 a3 33 bc 88 4b 9b 3d 0e 5b 26 bd ce b6 93 bd
       -0.010964236 0.07582766 -0.04061418 -0.072126016

layers.0.Aw.conv3.weight f4 [1, 16, 3]
000000 18 ff dc 3d 62 d6 80 3d d0 4d f6 3c 8f 01 d0 bd
       0.10790843 0.0629089 0.0300664 -0.10156547
000010 32 2a 75 3d 3a bd 14 be c3 a5 e6 bd 31 a1 cd 3d
       0.059854694 -0.14525309 -0.11262085 0.100405104
000020 3b 21 f3 bd 1e 82 1b be fe db 29 3c dd 7c 3e 3b
       -0.118715726 -0.15186355 0.010367392 0.0029066124
000030 7f ff d6 bb 80 bb 59 3c cf 37 00 3e dc d9 01 3b
       -0.006561219 0.013289332 0.1252129 0.0019813692
000040 48 a5 12 be 3e bf dd 3c 1e 4a 4b 3d d5 d7 9c 3d
       -0.14320862 0.02706873 0.04963123 0.07658354
000050 a0 36 93 3d 6b e2 9c 3c 0a a8 d7 bd b4 cb f0 bd
       0.07188153 0.019150933 -0.10530098 -0.11757603
000060 fd 0b 31 bd 2f 3c a5 bd 8f 09 a0 bd bd 11 e5 3d
       -0.043224324 -0.0806812 -0.07814323 0.11185024
000070 c8 44 07 be d4 f0 13 3e 74 7e 24 bd 9f 0e 06 be
       -0.13209832 0.14447337 -0.040159658 -0.13091515
000080 ec 96 fa bd bd cd 18 be 8e 37 60 3d 74 d7 85 bd
       -0.12235817 -0.14922233 0.05474048 -0.06535235
000090 11 52 74 bd aa 07 2d bd 07 e8 42 bd 7c 2b fc 3c
       -0.059648577 -0.042243637 -0.04758456 0.030782454
0000a0 e1 e2 23 be 22 ee 64 bd ad 52 dd bd fa 15 12 3e
       -0.16004516 -0.055891164 -0.10806785 0.14266196
0000b0 28 83 e4 bd 94 81 9a 3d da fa b8 3d b5 ad 02 3e
       -0.111578286 0.07544246 0.09032221 0.12761576

layers.0.Ah.conv1.weight f4 [32, 1, 5]
000000 4b 09 1e be ee e7 97 3d f4 f6 4d be 15 a7 b2 3c
       -0.15433232 0.07417284 -0.20113736 0.021808187
000010 0e 08 1e 3e b0 fe d9 bd 7e 02 95 3d 53 92 96 3e
       0.1543276 -0.10644281 0.07275866 0.29408512
000020 22 fb d1 be a1 50 9b 3c 83 77 40 3e d5 ef c1 be
       -0.41011912 0.018959345 0.1879559 -0.3787829
000030 20 5c a3 be a8 83 f1 bd 85 e7 dd be 77 d2 15 3e
       -0.31906223 -0.117926896 -0.43340698 0.14631067
000040 97 47 b5 3e 9d f7 a9 be d9 29 42 3d 56 b1 20 3e
       0.3540618 -0.33196726 0.04740319 0.15692648
000050 cc 7b 93 3e 44 a8 03 be 55 86 1f 3e 1e 0e bb be
       0.28805387 -0.12857157 0.15578587 -0.36534208
000060 54 87 90 3e 23 a9 2c be f4 76 f6 3d 6b 8a 45 3e
       0.28228247 -0.16861396 0.12034407 0.19291084
000070 65 b9 98 3e 36 e4 e5 bd 76 49 db be 81 80 09 3e
       0.29828945 -0.112251684 -0.42829484 0.13427927
000080 5c 7d 0f 3e 72 9c 28 3e 12 24 b0 3e 55 be b6 3e
       0.14012665 0.16465929 0.3440252 0.35692087
000090 d6 f8 c6 be 08 7c 70 bd f0 a1 82 3e 81 70 d3 3c
       -0.38861722 -0.058712035 0.25514174 0.025810482
0000a0 b5 f7 d0 be fc 09 c4 be fd 10 83 3e f6 da c1 be
       -0.40813985 -0.38288867 0.255989 -0.37862366
0000b0 28 7f 87 3e 55 1f b2 bc a0 a7 07 3d 07 c5 c2 3e
       0.264642 -0.021743456 0.033118844 0.38040945
0000c0 b7 55 55 3e bb be bc 3d 3b 2f 8e be 9c 7c 58 3e
       0.20833479 0.092160664 -0.2777041 0.21141285
0000d0 e9 cc 48 be d5 d9 36 be 2f c2 26 3e 3a 21 bd 3e
       -0.19609417 -0.17856534 0.16285013 0.36939412
0000e0 15 a7 e9 3d 80 e3 54 be 42 1f d5 bc 49 f6 1e 3c
       0.114088215 -0.2078991 -0.026015881 0.009702274
0000f0 e5 bb 84 be fb 8e 09 be ec 06 4d 3e f2 f2 81 3e
       -0.25924602 -0.13433449 0.20022172 0.25380665
000100 66 01 85 3e ea 93 5d be 51 67 83 3e 31 50 a7 3e
       0.2597763 -0.21638456 0.25664762 0.3267837
000110 c7 d2 27 bd 01 4c 79 3e a3 d6 7d be 8d 9c 4c 3e
       -0.040972497 0.243454 -0.24788909 0.19981594
000120 22 67 9f be 35 2e 21 3d c2 7d b5 3e 4f a3 92 be
       -0.31133372 0.039350707 0.35447508 -0.2864022
000130 9e a6 35 be 2c 65 52 3e a1 64 49 be 18 be 7a be
       -0.1773934 0.20546407 -0.19667293 -0.24486578
000140 4d b8 ca be ac 94 88 3d 24 9e fb 3d 38 c1 bb 3e
       -0.39593735 0.06668982 0.12286022 0.36670852
000150 44 51 a2 3e c8 ce 9e bd 14 dc 4f 3e c6 aa bb be
       0.31702626 -0.07754284 0.20298797 -0.36653727
000160 c1 88 e6 be bf ea c1 3d 61 e8 24 be 5d 4a 1b be
       -0.4502621 0.094686024 -0.1610427 -0.15165086
000170 c4 c4 b6 be 01 8a 84 3e 53 3e 47 be 02 8f 97 3e
       -0.35696995 0.2588654 -0.19457369 0.29601294
000180 9d 15 27 3d c8 c6 3e bc a8 a1 59 3d 18 cf 51 be
       0.040792096 -0.011644073 0.053132683 -0.20489156
000190 af d6 dc 3d ad 4d c5 be 21 08 d1 3d d4 e0 a6 3e
       0.10783135 -0.38535824 0.102066286 0.32593405
0001a0 50 52 ad bd b7 55 f2 bd 74 7a 76 be 09 6f 4f 3e
       -0.084629655 -0.11832755 -0.2407015 0.202572
0001b0 d3 0d 52 3e 9b 9d aa 3d 9c c2 5e 3d 0d 13 9d 3e
       0.20513086 0.08330842 0.054384813 0.30678597
0001c0 cf ca c7 3e 76 9d b5 3e 8f a2 49 3e 05 75 36 3d
       0.39021918 0.35471696 0.19690917 0.044545192
0001d0 e5 5b af 3d a3 0c 29 3d 31 8c a5 3e b7 ea 82 be
       0.08562449 0.041271817 0.3233352 -0.25569698
0001e0 7a 9a 64 be e5 b4 ab 3e 91 f9 1b 3b eb 43 91 bc
       -0.22324553 0.3353645 0.0023799876 -0.017732581
0001f0 8f 3a e0 bd 65 1f ce 3e e1 77 6d 3e 17 e0 29 3e
       -0.10948669 0.40258327 0.23190261 0.1658939
000200 df 15 65 3e 04 02 79 be de 65 79 bd 80 3b a5 be
       0.22371624 -0.24317175 -0.060888164 -0.32271957
000210 06 7e 02 3e ca 81 07 be 28 a9 eb bd 2d 26 81 3e
       0.12743387 -0.13233104 -0.11506873 0.25224438
000220 0d e8 02 3e 34 ad f3 3d 26 6a 51 be 22 20 f2 bc
       0.12783833 0.1189827 -0.20450649 -0.029556338
000230 55 64 bb be 3b d7 fa 3d 58 55 59 3e 3e bc 90 be
       -0.36599985 0.12248083 0.21223962 -0.28268617
000240 f8 da 34 3c c2 4a 79 be 90 d1 bf 3e c4 a2 2c 3d
       0.011038534 -0.24344924 0.3746457 0.042147413
000250 d9 cf 9f 3e e5 f4 79 3e 84 9a 77 be 74 f6 32 be
       0.31213263 0.24409826 -0.24180037 -0.17476827
000260 cb 6a f1 3d fc 53 fb bd cb 6e a9 bd 72 b5 cb be
       0.11787947 -0.12271878 -0.08273085 -0.3978687
000270 67 50 83 3e ca df 29 3e 0d 61 80 be 1c 80 d4 3c
       0.2564728 0.16589275 -0.25074044 0.025939994

layers.0.Ah.conv1.bias f4 [32]
000000 ed 28 75 be bb 1c 96 3d 29 17 27 be 2e e8 aa be
       -0.23941393 0.07329699 -0.16317429 -0.33380264
000010 85 a1 c5 3e a2 ea d3 3d 74 3b ff 3d 46 c8 b7 3d
       0.38599792 0.10347487 0.12462512 0.08973746
000020 bb e8 ef 3d 36 ce c2 3e ab 4f 8c be 0e cb 75 3e
       0.11714312 0.3804795 -0.27404532 0.2400324
000030 26 4f b8 3d f3 72 b1 be 95 bd 92 3e 73 20 7f be
       0.08999471 -0.34658012 0.28660265 -0.24914722
000040 26 c1 87 be 77 56 27 bd 4d 92 c5 3d 6c 45 39 be
       -0.26514548 -0.040853944 0.09647045 -0.18092889
000050 b0 cf 7c bd 88 80 e3 bd 44 19 67 bd 71 82 fd bd
       -0.061721504 -0.111085 -0.05642058 -0.12378395
000060 de 05 78 3d 75 e4 23 be 03 6d 84 bd cc e5 83 be
       0.06055247 -0.16005118 -0.06466105 -0.2576126
000070 57 c4 ab be 79 fb e9 3e 62 6f 3f 3e 34 d0 60 be
       -0.33548233 0.4569967 0.18694833 -0.21954423

layers.0.Ah.conv2.weight f4 [16, 32, 3]
000000 f7 d5 9a 3d 7a ca 55 3d 0e 9a 7e bd cf 37 05 bc
       0.07560342 0.05219505 -0.062158637 -0.008130982
000010 d9 eb 1d bd c4 82 80 3d e8 fe d9 3d f5 0f b0 3d
       -0.038555 0.062749416 0.10644323 0.085967936
000020 61 5b e6 3c 73 57 aa 3d 71 cb 69 bd 51 f7 08 bd
       0.028119745 0.08317461 -0.057078782 -0.033438984
000030 48 cc a7 bd 95 d0 97 bd 96 80 aa 3d 88 75 99 bd
       -0.081932604 -0.07412831 0.08325307 -0.074931204
000040 9b c8 a3 bb c4 c1 54 3d 83 49 da bd 0e 13 85 3d
       -0.0049982793 0.0519426 -0.106585525 0.06497775
000050 df 65 e1 bc 6e 4c 9e bd f6 65 35 bd 71 f6 57 3d
       -0.027514396 -0.077294216 -0.04428669 0.05272526
000060 b6 1b c8 bd 0a be 74 bd 1e e3 0b 3d 97 aa 55 3d
       -0.097709104 -0.059751548 0.034152143 0.05216464
000070 8d ca 6a 3d 37 d5 03 bd 96 da c1 3d c2 3a a1 3d
       0.057322074 -0.03218576 0.0946552 0.07872535
000080 f3 c2 88 bd 44 be 95 3d 9f 3d 2a 3d ae f4 52 3d
       -0.066778086 0.07311681 0.041562673 0.051502876
000090 b4 16 ab bd 7b b6 d2 bc ae a4 c0 bc f5 d1 9f bc
       -0.0835394 -0.02572178 -0.023516025 -0.019509295
0000a0 2c 23 18 3d 28 9b 98 bd 45 76 d4 bb f9 fe e3 bc
       0.037142918 -0.07451469 -0.0064838254 -0.027831541
0000b0 d5 de 8d bd e4 74 70 3c 17 17 15 3d 1c c5 73 bd
       -0.069272675 0.014676306 0.036398973 -0.05951415
0000c0 0a a4 c7 bd 99 10 60 3d 26 22 c3 bd 8e 86 ac bd
       -0.09748085 0.05470333 -0.09527998 -0.08424102
0000d0 e0 21 9a 3d 48 f1 d7 3d 56 d5 7d 3d 02 7a b4 bd
       0.075259924 0.105440676 0.06197103 -0.08812334
0000e0 fa 59 44 bc aa 16 33 3d 01 b9 ad bd 1d b5 11 bd
       -0.011984343 0.043722786 -0.08482552 -0.035573114
0000f0 1f 87 c2 3d 5e 21 8f bc 4f 5d 3f bd 61 6a d0 bc
       0.094984286 -0.017471965 -0.046719845 -0.02544135
000100 10 d8 8b 3d 64 17 25 3c 24 84 84 3b 23 67 cf 3a
       0.0682832 0.010076378 0.0040440727 0.0015823584
000110 d3 94 84 3d 06 ac 8e bd 5d b6 c8 bd 8f ff 82 bd
       0.064736985 -0.069664046 -0.09800408 -0.063964
000120 69 e9 99 3d 2d a0 8f 3c 05 77 36 3d bb 17 9e 3d
       0.075152226 0.017532432 0.0445471 0.0771937
000130 89 5e b6 3d 57 e0 94 3d 80 cb f8 3c 09 d9 b4 bd
       0.0890475 0.07269352 0.030370474 -0.08830459
000140 ae 80 1c 3d ec ad 8d bc a7 a4 5f 3c 2a c8 7a bd
       0.038208656 -0.017294846 0.013650096 -0.061226048
000150 ec a6 92 3d 9e ae 88 3d 79 c9 c5 bc 68 37 87 3d
       0.07160744 0.066739306 -0.024143921 0.06602365
000160 d4 d1 b4 bd 3d dc b4 bd 02 0f 88 3c 00 eb 9b bb
       -0.08829084 -0.088310696 0.016608719 -0.004758239
000170 a9 5f 69 bd c2 31 c1 bc 57 3c 11 bd b1 a6 0c 3d
       -0.056975994 -0.023583297 -0.035457935 0.034338657
000180 39 83 56 bc 61 0c 0d 3d 14 bd c3 3c 93 a6 7b 3d
       -0.013092809 0.034435634 0.02389387 0.061438154
000190 99 f6 d0 3d a5 ee 89 3b 88 74 eb bc 37 3b d7 3c
       0.10203285 0.004209357 -0.02874209 0.026273353
0001a0 2e 87 a1 bd 0e d5 61 bb c9 04 f7 bd 6c 59 a0 bc
       -0.078871116 -0.0034459266 -0.120614596 -0.01957389
0001b0 83 6c 88 3d 8b b2 f0 3d 1a 01 13 3d 12 c2 b1 3d
       0.06661322 0.11752804 0.035889722 0.08679594
0001c0 5e 43 cf 3d a4 53 99 bd 6c a7 4a 3d 47 98 91 bd
       0.10120271 -0.07486656 0.049476072 -0.07109123
0001d0 b8 ce ae 3d b9 d9 90 bd e6 2e 4b 3c 59 16 94 bd
       0.08535522 -0.07072777 0.012401318 -0.07230825
0001e0 9c f0 81 bd d8 07 56 3c ae 81 04 3c 7c 3a 71 bd
       -0.06344721 0.0130633935 0.008087559 -0.058893666
0001f0 16 58 46 3b d9 24 fc bc 1e d8 7d 3d f9 fa 4a 3d
       0.0030264906 -0.03077929 0.061973684 0.049555752
000200 64 ec 8e bd 84 6f 65 bd 91 e4 3e bd a0 94 21 3d
       -0.06978682 -0.056014553 -0.046604697 0.03944838
000210 9d 56 3c 3c b1 33 96 bd ff 1d 5e bd 14 5d 88 bd
       0.01149526 -0.07334078 -0.054227825 -0.06658378
000220 d3 c1 43 bc 1c e3 bb bd 10 50 c1 3c b6 8e 34 bd
       -0.011948067 -0.09174177 0.023597747 -0.044081412
000230 37 61 91 3d d4 11 56 bc 12 2a a7 3c f2 ec f0 bd
       0.070986204 -0.013065774 0.020405803 -0.11763944
000240 49 a7 6e 3d 87 3b 35 3d cb b2 50 3d cf a1 cb 3c
       0.058265004 0.044246223 0.05095176 0.02485743
000250 f1 e2 cc 3c b4 ca ab 3c 6a 26 f6 3d 55 ad 2a bd
       0.025010558 0.02097068 0.12019046 -0.04166921
000260 31 7b 92 3d 6a 71 71 3d 8e a9 0b bd be 78 5d bd
       0.07152403 0.05894605 -0.034097247 -0.054070227
000270 cd b3 45 3d ef f5 55 bd 64 f1 7f 3d 2a 57 80 bd
       0.048267175 -0.052236494 0.062486067 -0.06266625
000280 cf 71 f6 3c da 08 53 bb 41 ec 99 3c 04 21 9e bd
       0.030083565 -0.003220132 0.018789412 -0.07721141
000290 70 5d 34 3c 8e 90 d8 bc bb 68 1c 3c 60 74 23 3d
       0.011008605 -0.026436117 0.009546454 0.039905906
0002a0 95 bd a4 3d 1c 44 31 3d 74 a8 53 3d 8a 15 32 bb
       0.080439724 0.043277845 0.05167432 -0.0027173483
0002b0 32 7d 56 3d 8a 00 83 bd d3 95 6d 3d e3 a0 94 3c
       0.05236549 -0.06396587 0.05800421 0.018143123
0002c0 9e ea 4f 3d f3 f0 a2 3d 02 af 71 3d 15 62 0b 3d
       0.050760858 0.07956114 0.05900479 0.034029085
0002d0 cf 5c 8c bd db fc 9e bd a1 09 83 3d f5 e0 1c bd
       -0.06853639 -0.07763072 0.06398321 -0.038300473
0002e0 05 77 a6 3d 64 82 c4 3d a0 e6 9e bc ce 05 d8 3d
       0.0812817 0.095951825 -0.01939708 0.10547982
0002f0 da a8 eb 3d c3 57 a7 3d 96 f0 ac bd 87 73 03 bd
       0.11506815 0.08171036 -0.084443256 -0.032092597
000300 4e e1 1e 3b e2 ae cd 3c 0e 87 85 3c d9 af 88 3d
       0.0024243179 0.025107805 0.01629975 0.06674165
000310 d8 49 b7 bc 6d 07 3e 3d d9 c8 b0 bd 15 a2 12 3c
       -0.022374079 0.0463938 -0.08632059 0.008949776
000320 f1 fa 39 bd 28 48 dc bd 37 a3 27 bd 3b b4 28 bd
       -0.045405332 -0.1075595 -0.04092714 -0.041187506
000330 1d 11 cb 3d 59 dd 64 bd 4c 92 1a 3d d9 f1 ed bc
       0.099153735 -0.055875156 0.037737176 -0.029045986
000340 87 fd 35 bd 62 94 8f bd de 79 de ba 63 a9 78 3d
       -0.044431236 -0.07010724 -0.0016973575 0.060708415
000350 b9 3c 87 3c fa 39 e3 3b 48 99 a0 bd 26 ff ae bd
       0.016508447 0.0069344016 -0.07841736 -0.085447595
000360 08 4b 44 3d 5e ce 54 3d f8 bb 61 3c 5b 13 a4 bd
       0.047923118 0.05195462 0.013777725 -0.08011504
000370 42 e6 e2 bc 92 11 6d bb 11 40 d7 bd 77 82 0a bd
       -0.027697686 -0.0036173803 -0.105102666 -0.033815827
000380 07 08 b7 bd 6e f5 a0 bd 54 88 65 bd 1d e5 8a 3d
       -0.08937078 -0.07859312 -0.056038216 0.06781981
000390 86 f5 c4 3d 5b f2 b4 3d f2 20 93 3d 91 95 d1 bd
       0.096171424 0.08835288 0.07184018 -0.10233606
0003a0 5a 46 47 3d 03 65 8e bd 8a 1d c8 3d 5c 5d fc bb
       0.048651077 -0.0695286 0.09771259 -0.007701559
0003b0 fd 4d ba bd 4e 4e 76 bd c1 c6 b6 3d 37 c5 1a bd
       -0.09096906 -0.06013327 0.08924628 -0.037785735
0003c0 d5 36 8b bd 58 3b b7 3d cf 4b bf 3d ce c8 d0 bd
       -0.06797568 0.08946866 0.09340631 -0.101945505
0003d0 c5 a0 dd bd 00 30 b1 3d ee b3 83 bd ca fa 75 3d
       -0.1082168 0.086517334 -0.06430803 0.060053624
0003e0 4e 34 ab 3d 54 f1 3e bd 6c 1b a5 bc c5 f0 f2 bc
       0.08359586 -0.046616867 -0.020154677 -0.029655823
0003f0 8c 0c 6a bc 0c a5 06 3d 7d cc bf 3d 7f 8e 97 bd
       -0.014285218 0.032872245 0.09365175 -0.07400226

layers.0.Ah.conv2.bias f4 [16]
000000 a1 89 88 bd 36 40 90 bd a4 a3 1b bd 24 68 85 3d
       -0.06666876 -0.07043497 -0.037997857 0.06514004
000010 68 e6 11 bd 95 5d cc bb e1 91 95 3d 10 30 f0 3c
       -0.035620123 -0.006236742 0.07303215 0.029319793
000020 6a 7c 9c bd 7b c3 45 bd 9d 52 29 bc 69 90 b5 3c
       -0.076409176 -0.048282128 -0.010334638 0.022163587
000030 c9 cc 31 3c 76 b7 26 3d 0f 89 e2 3d 42 63 6f 3c
       0.010852047 0.040702306 0.11061298 0.014611067

layers.0.Ah.conv3.weight f4 [1, 16, 3]
000000 27 0a b8 3c 78 a6 c9 bd f9 b5 ea bd 3f 0a 68 3d
       0.022465779 -0.098462045 -0.1146049 0.056650396
000010 7a 94 91 bd 5a 7b bd 3d d3 ba 00 3e 57 4a eb bc
       -0.07108398 0.09252043 0.12571268 -0.028721971
000020 f6 35 6e bd b4 ec 80 3d 30 a7 ec 3d 30 6b 80 3d
       -0.05815693 0.062951475 0.11555326 0.062704444
000030 27 d9 2d 3c 96 28 0a 3e 10 6c 9f bd 93 f5 e9 3c
       0.010610855 0.13492045 -0.07784283 0.028559482
000040 d8 9e f5 bd 70 03 d5 3d 60 c7 a8 bd 31 87 74 3d
       -0.11993188 0.10401046 -0.08241153 0.05969924
000050 c3 b5 f3 bd bb 5c 04 be dc ba b5 bd cb 23 04 be
       -0.11899903 -0.12925999 -0.08873531 -0.12904279
000060 4c 37 c7 bd a7 a2 93 3d 89 d4 9f bd 99 3c 00 3e
       -0.09727344 0.07208758 -0.0780421 0.12523116
000070 78 b2 a3 bb b6 47 cf 3c f6 f2 4e bd 9e c3 24 bd
       -0.0049956404 0.02530275 -0.050524674 -0.040225618
000080 ea b7 e2 3d 9b 15 c5 bd 6a 6f 6b bc 2f 02 fd 3d
       0.11070235 -0.096232615 -0.014369825 0.12353932
000090 80 93 6c bd a0 53 43 3c 31 75 f4 3d 33 9c 88 3d
       -0.057757854 0.011921793 0.11936415 0.06670418
0000a0 de d9 1f bd 3b fc ef bd 14 f5 4b 3d 45 37 05 bd
       -0.039026134 -0.11718031 0.04979427 -0.032523412
0000b0 bc 58 19 3e 66 82 9e 3d c6 83 16 3e 87 0d 13 3e
       0.14975256 0.07739715 0.14698705 0.14360629

layers.1.Aw.conv1.weight f4 [32, 1, 5]
000000 ac 5a a5 3e a4 59 ba bb 67 b9 15 3e 7e 70 2e 3d
       0.3229574 -0.0056869555 0.14621507 0.04258775
000010 d7 3d 26 3c c6 a7 2b bd 2d 22 d9 3d 96 91 07 be
       0.01014658 -0.041908048 0.10602222 -0.1323913
000020 1f 82 a8 be 4e 62 bd 3e 67 75 db 3e 83 92 9b 3e
       -0.32911775 0.36989063 0.42863008 0.30385217
000030 ef 1c d9 be ef 99 b2 3d 7b 6f e1 3e 9f 3d b7 3e
       -0.42404887 0.08720767 0.44030365 0.357892
000040 4f 08 81 be bd be 38 3d 5b 4f 7e 3c 79 19 c0 3e
       -0.2520165 0.045103777 0.0155218495 0.37519434
000050 e1 cd 90 3e 0b cd 48 bc 70 c4 78 3e c5 ff 06 3d
       0.28282073 -0.012255917 0.24293685 0.032958765
000060 02 27 d7 3e 7f 93 4a bd cc 44 03 3e 78 73 e3 3e
       0.42021948 -0.04945707 0.12819213 0.44424033
000070 e3 fd b0 be 4d e6 82 3e a3 5f ad 3e 43 b0 f7 bd
       -0.345687 0.2556633 0.33862028 -0.12094166
000080 eb b0 fc 3d 30 c8 54 be b5 83 35 bd 4f 34 60 bd
       0.12338432 -0.2077949 -0.04431506 -0.054737385
000090 28 40 4c bd 3b 8e 84 be 86 b2 9b be 33 1b a3 be
       -0.04986587 -0.25889763 -0.3040964 -0.3185669
0000a0 bf a3 8c be f6 21 e2 3e 18 11 b5 be 8e 65 46 be
       -0.27468678 0.44166535 -0.35364604 -0.19374678
0000b0 28 b5 bd be 6e 57 45 3d 73 e6 95 3e 61 71 a5 bd
       -0.37052274 0.048179083 0.2927738 -0.08078266
0000c0 ab 5f 17 3e 27 13 8c 3e 2c 5f ca 3e a2 68 2c be
       0.14782588 0.27358362 0.39525735 -0.16836789
0000d0 8b b5 e6 be 9e fe cc 3e 99 c1 b8 3e 42 1d 33 be
       -0.4506038 0.40038007 0.36085203 -0.1749163
0000e0 98 ec 0f be 09 fc ff 3d 68 9f 4f be 60 c7 a8 3e
       -0.14055097 0.12499244 -0.20275652 0.3296461
0000f0 11 e6 32 3e ba fd d2 3d 4a 4c 62 be 32 1d 70 be
       0.17470576 0.10302301 -0.22099414 -0.23448637
000100 d7 9d ad 3e 59 5f 81 be 8c 83 1c 3e 2a 5f 81 3d
       0.33909485 -0.25268057 0.15284556 0.06316979
000110 8a ff c9 3e a3 06 55 3c 4e 6f cf be 1c 6a 14 3e
       0.39452773 0.013002071 -0.40514606 0.14493603
000120 74 40 e0 3e a0 4b b2 3e f1 35 cd be 59 1b 80 3e
       0.43799174 0.34823322 -0.40080217 0.25020865
000130 d6 a3 26 3e 3d 7f 5f be 81 83 98 3e 6c b5 bf 3c
       0.16273436 -0.21825881 0.2978783 0.023401938
000140 79 b7 a1 bd 34 ea af 3e a9 35 b6 be 84 78 22 be
       -0.07896323 0.3435837 -0.35587814 -0.15866286
000150 8f bf b2 be 11 3c b4 be d0 52 8d be 9d dc b2 3e
       -0.34911773 -0.35202077 -0.27602243 0.3493394
000160 00 55 b0 be 14 c8 aa be 9b 09 bf be a5 93 c5 3e
       -0.3443985 -0.33355772 -0.37312016 0.38589206
000170 48 ca 25 bd 43 03 94 be ff 21 bc 3e 0b 4b b7 3e
       -0.040476114 -0.28908738 0.36744687 0.3579944
000180 52 64 d7 3e 88 39 ac 3e bc 77 d7 bc 0b 46 17 be
       0.42068726 0.33637643 -0.026302211 -0.14772813
000190 87 65 95 be 55 f6 cb 3e 09 dc a8 bc ae 94 7d be
       -0.29179022 0.39836374 -0.020612733 -0.24763748
0001a0 50 20 20 3e c3 f7 36 3e ef d9 d2 3e 8e cb 90 3e
       0.15637326 0.17867951 0.41181895 0.282803
0001b0 07 68 c1 be 6b 8c ad bd cb bb e7 be 7c 70 05 be
       -0.3777468 -0.08474048 -0.45260462 -0.1303119
0001c0 34 f6 6a be 1a 2f 4e be 8e 10 90 be 6c 12 76 3e
       -0.22945482 -0.20135155 -0.2813763 0.24030465
0001d0 91 8f 23 be a7 8b 47 3e 24 2f d4 3d d2 2a e5 3e
       -0.15972735 0.19486867 0.10360554 0.44759232
0001e0 db 7d ae be 3f 9f 88 bd 9e f1 3e 3e 89 45 1f be
       -0.34080395 -0.06670999 0.18646857 -0.1555387
0001f0 6d 9d d7 be ce cc 48 bd e7 95 9f 3e 26 f2 02 3e
       -0.42112294 -0.049023442 0.31169054 0.12787685
000200 78 7f 96 be b7 db 25 bd 66 d5 5e 3d aa 6e 4b 3e
       -0.29394126 -0.04049274 0.05440273 0.19866434
000210 f3 16 a6 3e dd 73 43 bd 77 8b 8e be 57 0d 6c 3e
       0.32439384 -0.047717918 -0.27840778 0.23051964
000220 ea 94 5a be 2a 6a 52 3e dc f2 77 3e cb 5d a9 3e
       -0.21345869 0.20548311 0.24213737 0.3307937
000230 f7 64 50 be 71 56 4b 3e 40 0a 79 be a8 79 db 3e
       -0.20351015 0.19857194 -0.24320316 0.42866254
000240 65 8f 9f 3e 18 fb a7 be e5 39 bb 3d 0e 88 93 3e
       0.3116409 -0.32808757 0.09141902 0.2881474
000250 bc 1e 52 3e fa 9f c3 be 9c bc 85 3e 5b bc cd 3d
       0.20519537 -0.3820799 0.2612046 0.100456916
000260 0e 4e d2 3e 20 20 07 3e 4c 9b d6 3b e6 f2 29 be
       0.41075176 0.13195848 0.0065492745 -0.16596565
000270 03 82 a4 3e df 2e 00 bb 15 df ae be ee 6b 10 be
       0.3213044 -0.0019559187 -0.34154573 -0.14103672

layers.1.Aw.conv1.bias f4 [32]
000000 27 a2 d8 3d 8b fb 82 3e 01 cf 9a bd 7a 32 55 be
       0.10577803 0.25582537 -0.07559014 -0.20820037
000010 25 04 dc 3e 13 fc 92 be 76 66 b0 3e 1a 07 af be
       0.42971912 -0.28707942 0.34453171 -0.34185106
000020 22 9a 87 be f2 de b4 be 46 9e 04 bc bb 0f 9f be
       -0.26484782 -0.35326344 -0.008094376 -0.3106669
000030 d5 04 4d 3d 55 c3 5a 3e 21 a3 a1 be 0d b2 bc be
       0.050053436 0.21363576 -0.3156977 -0.36854592
000040 8f 74 41 be 86 55 9a 3e b6 cd c5 3e 9d 76 18 3e
       -0.1889212 0.30143374 0.38633507 0.14888997
000050 f2 09 19 3e 99 b0 35 be ae 78 c0 be 46 33 4d bc
       0.149452 -0.17743148 -0.3759207 -0.012524432
000060 cc cd 02 3e 0d fd 79 3e 51 47 ab 3e 45 05 42 3e
       0.12773818 0.24412937 0.33452848 0.18947323
000070 da 24 a1 3c c8 0f d2 3e ed 33 cb be 94 5c 54 be
       0.019670893 0.41027665 -0.39688054 -0.20738441

layers.1.Aw.conv2.weight f4 [16, 32, 3]
000000 7e 9f 38 bd e9 06 5d 3d 5a 0f 0b bd d2 e6 ad bd
       -0.04507398 0.05396167 -0.033950187 -0.08491291
000010 e6 c1 a8 3d e1 0f e3 bd 01 ed d9 bc 7c fc 12 bd
       0.08240108 -0.11087013 -0.02660227 -0.03588532
000020 7d e8 38 3d 35 19 af bd 30 86 e4 3b ed b8 ba 3b
       0.045143593 -0.0854973 0.006974004 0.0056983144
000030 db 0c 8f bc 96 12 a3 3d fb fd a5 3d d4 be 68 bd
       -0.017462185 0.07962529 0.081050836 -0.056822613
000040 d6 ed 38 3b b3 1e a7 3d fc 68 a9 3d d3 ae 01 bd
       0.0028217933 0.08160152 0.08271977 -0.031660866
000050 4f 7f 9c 3d 85 72 a7 3b f9 f3 b3 3d 3c 01 7e bd
       0.0764147 0.0051100873 0.087867685 -0.062012896
000060 04 f1 97 3d d3 d3 2e bd 71 a1 56 bd 06 f4 8e 3c
       0.07419017 -0.04268248 -0.052400056 0.017450344
000070 fd 0f 8f 3c 5b b8 22 bc 2a 77 b2 3d a1 a8 80 3d
       0.017463678 -0.009931649 0.08714135 0.062821634
000080 c0 29 85 3d c9 e8 6d bd d6 4a 37 bd 75 6c a9 bd
       0.06502104 -0.05808333 -0.044749103 -0.0827264
000090 4d 2d 7a bd ed 43 8b bd b1 2c b3 bd 77 a5 70 3c
       -0.06107836 -0.06800065 -0.087487586 0.014687887
0000a0 09 7f ea bd 08 f4 88 bc 32 97 a4 bd 12 91 a6 3d
       -0.11450011 -0.016717926 -0.08036651 0.08133139
0000b0 7d 79 ab bc 58 70 33 bd 7a 35 8a bd f6 00 13 bd
       -0.020931954 -0.04380831 -0.06748481 -0.03588959
0000c0 cf 0e 3f bd ed d5 20 3d 95 1b 19 3c 16 84 55 3d
       -0.046644982 0.039266516 0.009344955 0.05212792
0000d0 53 5e 24 3d f0 42 6f 3d ea d1 74 3d 88 58 bb bd
       0.040129017 0.058413446 0.059770502 -0.09147745
0000e0 d2 0a 87 bc 97 5b 7c bd ec 97 41 3c 36 73 1f bd
       -0.016484652 -0.061610784 0.011816006 -0.038928233
0000f0 fb 1f 98 bb f4 d3 6b 3c f7 d8 54 3d 41 98 9d 3d
       -0.0046424842 0.014393795 0.051964726 0.07695056
000100 66 a0 84 3d 1b 54 b9 bd ce 29 f1 3c 02 e0 25 bc
       0.06475906 -0.09049245 0.02943888 -0.010124208
000110 57 e9 d0 3d 3c e8 d3 3c 48 68 05 3d 96 99 03 bb
       0.10200756 0.025867574 0.032570153 -0.0020080558
000120 84 29 a6 bc 7d da b4 bd f6 68 61 bd 63 bd 23 bd
       -0.020283468 -0.08830736 -0.05503174 -0.039975535
000130 fb 94 4b 3d ef 1b 87 3a 35 ca ec bd ef d0 70 bd
       0.049702626 0.0010308007 -0.115620054 -0.058793005
000140 e2 d5 6b bd e5 4e b8 bb 1b 1d c2 bd 3d ff a9 3c
       -0.05757702 -0.0056246393 -0.09478208 0.02075159
000150 d4 59 d6 bd 5a a9 bc bb 6a d5 6f 3c 68 6c 58 3d
       -0.10466352 -0.005757493 0.014638284 0.05283776
000160 1f d8 12 3b ab 92 8b 3d a5 91 80 3c 0e e5 e7 3d
       0.002240665 0.06815084 0.015694449 0.113229856
000170 ad a4 37 3d 6b 13 a7 3c 63 4b a2 3d d5 64 e4 bc
       0.04483478 0.020395001 0.07924535 -0.027880112
000180 ad f6 b9 3c 6d 22 9e bd e1 a1 a0 bd 52 30 d2 3d
       0.022700632 -0.0772141 -0.07843376 0.102631226
000190 0c 02 58 3c 1a 75 30 3d d2 2b 3b 3d 7e 37 11 3d
       0.013184082 0.043080427 0.045696087 0.035453312
0001a0 30 0e de 3d 9c 1c 2f bd 40 cb a0 bd 9f 73 b1 bd
       0.1084255 -0.042751893 -0.07851267 -0.08664631
0001b0 67 65 7d 3d 62 ca 93 3d 3a 1a be 3d 4d 1a 86 3b
       0.061864283 0.07216336 0.09282346 0.0040924908
0001c0 14 7e 88 bd eb fd e4 bd 4d 69 44 3d 85 69 a2 bd
       -0.066646725 -0.111812435 0.047951985 -0.079302825
0001d0 56 aa 4d bc c8 7b cc bd 9f 43 50 3d 1c b1 c7 bc
       -0.012552818 -0.09984547 0.05084574 -0.024376445
0001e0 2c 27 dc bd 61 c2 d2 bb d3 78 aa 3d ca c4 d8 bc
       -0.10749659 -0.006431863 0.08323827 -0.026461024
0001f0 ad 23 86 3c 4e bd a7 3c 4b a2 c7 3d 39 3c ab bc
       0.016374433 0.02047601 0.09747752 -0.02090274
000200 8d 8b 03 3d ea ae 72 3d c7 a8 3f 3d c9 63 9a bd
       0.032115508 0.059248842 0.046791818 -0.07538564
000210 15 cf 08 bc 89 72 c5 3c 7c a3 09 3c 75 48 e6 bc
       -0.008350153 0.024102466 0.008400794 -0.028110722
000220 1d 3a 09 bd c0 40 35 bd 7e e1 1e bd b9 c2 09 3d
       -0.033502687 -0.044251204 -0.038789265 0.033632968
000230 c3 07 75 bc 02 49 16 bd 04 84 a5 bb 2a 04 cf bd
       -0.014955464 -0.03669072 -0.005051138 -0.10108216
000240 92 5d 5e 3a ba 00 ae 3d 4c d8 dc 3c 55 42 8b 3d
       0.0008482571 0.08496232 0.026958607 0.06799761
000250 db 98 87 3d 70 62 2e bd 61 32 2b bd e8 6b 7f bd
       0.06620952 -0.042574346 -0.041796092 -0.062358767
000260 37 06 d3 bb 20 2e 71 3d 40 09 b1 ba c0 c1 b0 3d
       -0.00643995 0.05888188 -0.0013506785 0.08630705
000270 20 9c 8f 3d bf 94 01 3d e8 3a 30 3c b7 c7 79 3d
       0.070122 0.031635996 0.010756232 0.06098148
000280 a1 89 61 3d 8c 99 0a bd 86 36 2a 3c 4e 46 82 bd
       0.055062894 -0.03383784 0.010388976 -0.06361066
000290 0f b8 e3 bd 58 a9 5f bd cc b8 fb 3c 30 5d d7 3d
       -0.11119091 -0.05460486 0.030727766 0.10515821
0002a0 a4 c6 ad 3d d6 4c 00 3d a5 d2 09 3d d4 f7 3c bb
       0.08485153 0.031323276 0.033648152 -0.002883424
0002b0 88 11 94 bd af b0 8a bc 78 06 cb 3d d3 e6 1a bc
       -0.07229906 -0.016929952 0.09913343 -0.009454447
0002c0 36 2c 6c 3d 54 60 d2 bc 2e 4f a7 bc 5f 4e ab 3c
       0.05765935 -0.025680698 -0.020423498 0.020911394
0002d0 ef eb 4d 3c 0f 2c 86 bd 64 94 19 3d de c3 ff b8
       0.012568458 -0.06551372 0.037495032 -0.00012195831
0002e0 dc e6 7e bd 48 aa 30 3d c2 84 2a bd 33 1e a5 bd
       -0.062231883 0.043131143 -0.041630514 -0.08062401
0002f0 e8 e1 9d 3d 70 df ac bd c7 d5 d4 bd 60 30 ab 3c
       0.07709104 -0.08441055 -0.10392337 0.02089709
000300 7d 4e 87 39 87 8a e2 3d 4a f8 5b 3d 4e 20 94 bd
       0.00025807685 0.11061578 0.053703584 -0.07232724
000310 6d f1 a1 bd 43 cf 8a 3d 19 ab d3 bc 83 c2 44 3d
       -0.079073764 0.06777813 -0.025838422 0.048037063
000320 20 63 2b 3d f6 20 fd 3c 5e 23 62 39 19 39 3b bd
       0.04184258 0.030899506 0.00021566215 -0.04570875
000330 bc df 98 3d 22 16 3b 3d 98 a6 a5 3d f4 50 5d 3c
       0.07464549 0.045675404 0.08088416 0.01350807
000340 4f 01 b8 bd 58 2a a0 bd 6d 3a b8 3d 85 cf 9d bc
       -0.089846246 -0.078205764 0.08995519 -0.019263992
000350 d2 62 d2 bc c1 66 a2 bd 01 e0 0f 3d 52 7c d7 bd
       -0.025681887 -0.07929755 0.035125736 -0.10521759
000360 00 ab a6 3d 26 a8 3f 3c eb 5f 9f 3c 11 cd e5 bd
       0.081380844 0.011697805 0.019454917 -0.11220754
000370 84 00 01 bd 66 99 29 bd 42 24 a9 3d aa 9d 75 bc
       -0.031494632 -0.041406058 0.08258869 -0.014991203
000380 9c 72 95 3d bb ec 19 bd 5c 7f 24 ba aa 29 9e bd
       0.07297251 -0.03757928 -0.00062750815 -0.077227905
000390 0d 3a 18 3c f6 5f 11 3d 27 1c af bd 5b d3 bd bc
       0.009291184 0.035491906 -0.085502915 -0.023172071
0003a0 56 c5 14 bd dd bd ad bc 4c ed 73 3d 4f 84 86 bd
       -0.036321007 -0.021208698 0.059552476 -0.065682046
0003b0 e7 a6 de bd 78 f2 9b 3d 3f fe 14 bd f6 88 1e 3b
       -0.10871678 0.076146066 -0.03637528 0.0024190522
0003c0 a6 ed 7a 3c 3c 35 b4 bc ad 34 be bd d9 4a f0 3d
       0.015315449 -0.02199804 -0.09287391 0.11733026
0003d0 fd d3 62 3d bb 30 d3 bc 9f 89 a3 3d 8f d6 03 bc
       0.05537795 -0.025780072 0.079852335 -0.00804676
0003e0 c9 b5 d1 3d cb 49 10 3d 84 79 d4 3d f8 b6 cf 3d
       0.10239751 0.035226624 0.1037474 0.101423204
0003f0 5e 30 85 bd ab 40 d2 3d c4 05 58 bd a6 46 6e 3d
       -0.06503366 0.10266241 -0.052739874 0.058172844

layers.1.Aw.conv2.bias f4 [16]
000000 4a a2 dd bd d1 60 85 bc e9 e7 9f bd 45 04 9b 3c
       -0.1082197 -0.016281517 -0.07807905 0.018922934
000010 12 36 a1 3d 95 d9 92 3d b0 07 63 3b 4b 6b 83 bd
       0.07871641 0.07170407 0.0034642033 -0.06416949
000020 4f de a3 bd 07 28 a0 3d 05 c7 8b bd 93 5b 63 bd
       -0.080013864 0.078201346 -0.06825069 -0.055507254
000030 57 a3 33 bc 88 4b 9b 3d 0e 5b 26 bd ce b6 93 bd
       -0.010964236 0.07582766 -0.04061418 -0.072126016

layers.1.Aw.conv3.weight f4 [1, 16, 3]
000000 18 ff dc 3d 62 d6 80 3d d0 4d f6 3c 8f 01 d0 bd
       0.10790843 0.0629089 0.0300664 -0.10156547
000010 32 2a 75 3d 3a bd 14 be c3 a5 e6 bd 31 a1 cd 3d
       0.059854694 -0.14525309 -0.11262085 0.100405104
000020 3b 21 f3 bd 1e 82 1b be fe db 29 3c dd 7c 3e 3b
       -0.118715726 -0.15186355 0.010367392 0.0029066124
000030 7f ff d6 bb 80 bb 59 3c cf 37 00 3e dc d9 01 3b
       -0.006561219 0.013289332 0.1252129 0.0019813692
000040 48 a5 12 be 3e bf dd 3c 1e 4a 4b 3d d5 d7 9c 3d
       -0.14320862 0.02706873 0.04963123 0.07658354
000050 a0 36 93 3d 6b e2 9c 3c 0a a8 d7 bd b4 cb f0 bd
       0.07188153 0.019150933 -0.10530098 -0.11757603
000060 fd 0b 31 bd 2f 3c a5 bd 8f 09 a0 bd bd 11 e5 3d
       -0.043224324 -0.0806812 -0.07814323 0.11185024
000070 c8 44 07 be d4 f0 13 3e 74 7e 24 bd 9f 0e 06 be
       -0.13209832 0.14447337 -0.040159658 -0.13091515
000080 ec 96 fa bd bd cd 18 be 8e 37 60 3d 74 d7 85 bd
       -0.12235817 -0.14922233 0.05474048 -0.06535235
000090 11 52 74 bd aa 07 2d bd 07 e8 42 bd 7c 2b fc 3c
       -0.059648577 -0.042243637 -0.04758456 0.030782454
0000a0 e1 e2 23 be 22 ee 64 bd ad 52 dd bd fa 15 12 3e
       -0.16004516 -0.055891164 -0.10806785 0.14266196
0000b0 28 83 e4 bd 94 81 9a 3d da fa b8 3d b5 ad 02 3e
       -0.111578286 0.07544246 0.09032221 0.12761576

layers.1.Ah.conv1.weight f4 [32, 1, 5]
000000 4b 09 1e be ee e7 97 3d f4 f6 4d be 15 a7 b2 3c
       -0.15433232 0.07417284 -0.20113736 0.021808187
000010 0e 08 1e 3e b0 fe d9 bd 7e 02 95 3d 53 92 96 3e
       0.1543276 -0.10644281 0.07275866 0.29408512
000020 22 fb d1 be a1 50 9b 3c 83 77 40 3e d5 ef c1 be
       -0.41011912 0.018959345 0.1879559 -0.3787829
000030 20 5c a3 be a8 83 f1 bd 85 e7 dd be 77 d2 15 3e
       -0.31906223 -0.117926896 -0.43340698 0.14631067
000040 97 47 b5 3e 9d f7 a9 be d9 29 42 3d 56 b1 20 3e
       0.3540618 -0.33196726 0.04740319 0.15692648
000050 cc 7b 93 3e 44 a8 03 be 55 86 1f 3e 1e 0e bb be
       0.28805387 -0.12857157 0.15578587 -0.36534208
000060 54 87 90 3e 23 a9 2c be f4 76 f6 3d 6b 8a 45 3e
       0.28228247 -0.16861396 0.12034407 0.19291084
000070 65 b9 98 3e 36 e4 e5 bd 76 49 db be 81 80 09 3e
       0.29828945 -0.112251684 -0.42829484 0.13427927
000080 5c 7d 0f 3e 72 9c 28 3e 12 24 b0 3e 55 be b6 3e
       0.14012665 0.16465929 0.3440252 0.35692087
000090 d6 f8 c6 be 08 7c 70 bd f0 a1 82 3e 81 70 d3 3c
       -0.38861722 -0.058712035 0.25514174 0.025810482
0000a0 b5 f7 d0 be fc 09 c4 be fd 10 83 3e f6 da c1 be
       -0.40813985 -0.38288867 0.255989 -0.37862366
0000b0 28 7f 87 3e 55 1f b2 bc a0 a7 07 3d 07 c5 c2 3e
       0.264642 -0.021743456 0.033118844 0.38040945
0000c0 b7 55 55 3e bb be bc 3d 3b 2f 8e be 9c 7c 58 3e
       0.20833479 0.092160664 -0.2777041 0.21141285
0000d0 e9 cc 48 be d5 d9 36 be 2f c2 26 3e 3a 21 bd 3e
       -0.19609417 -0.17856534 0.16285013 0.36939412
0000e0 15 a7 e9 3d 80 e3 54 be 42 1f d5 bc 49 f6 1e 3c
       0.114088215 -0.2078991 -0.026015881 0.009702274
0000f0 e5 bb 84 be fb 8e 09 be ec 06 4d 3e f2 f2 81 3e
       -0.25924602 -0.13433449 0.20022172 0.25380665
000100 66 01 85 3e ea 93 5d be 51 67 83 3e 31 50 a7 3e
       0.2597763 -0.21638456 0.25664762 0.3267837
000110 c7 d2 27 bd 01 4c 79 3e a3 d6 7d be 8d 9c 4c 3e
       -0.040972497 0.243454 -0.24788909 0.19981594
000120 22 67 9f be 35 2e 21 3d c2 7d b5 3e 4f a3 92 be
       -0.31133372 0.039350707 0.35447508 -0.2864022
000130 9e a6 35 be 2c 65 52 3e a1 64 49 be 18 be 7a be
       -0.1773934 0.20546407 -0.19667293 -0.24486578
000140 4d b8 ca be ac 94 88 3d 24 9e fb 3d 38 c1 bb 3e
       -0.39593735 0.06668982 0.12286022 0.36670852
000150 44 51 a2 3e c8 ce 9e bd 14 dc 4f 3e c6 aa bb be
       0.31702626 -0.07754284 0.20298797 -0.36653727
000160 c1 88 e6 be bf ea c1 3d 61 e8 24 be 5d 4a 1b be
       -0.4502621 0.094686024 -0.1610427 -0.15165086
000170 c4 c4 b6 be 01 8a 84 3e 53 3e 47 be 02 8f 97 3e
       -0.35696995 0.2588654 -0.19457369 0.29601294
000180 9d 15 27 3d c8 c6 3e bc a8 a1 59 3d 18 cf 51 be
       0.040792096 -0.011644073 0.053132683 -0.20489156
000190 af d6 dc 3d ad 4d c5 be 21 08 d1 3d d4 e0 a6 3e
       0.10783135 -0.38535824 0.102066286 0.32593405
0001a0 50 52 ad bd b7 55 f2 bd 74 7a 76 be 09 6f 4f 3e
       -0.084629655 -0.11832755 -0.2407015 0.202572
0001b0 d3 0d 52 3e 9b 9d aa 3d 9c c2 5e 3d 0d 13 9d 3e
       0.20513086 0.08330842 0.054384813 0.30678597
0001c0 cf ca c7 3e 76 9d b5 3e 8f a2 49 3e 05 75 36 3d
       0.39021918 0.35471696 0.19690917 0.044545192
0001d0 e5 5b af 3d a3 0c 29 3d 31 8c a5 3e b7 ea 82 be
       0.08562449 0.041271817 0.3233352 -0.25569698
0001e0 7a 9a 64 be e5 b4 ab 3e 91 f9 1b 3b eb 43 91 bc
       -0.22324553 0.3353645 0.0023799876 -0.017732581
0001f0 8f 3a e0 bd 65 1f ce 3e e1 77 6d 3e 17 e0 29 3e
       -0.10948669 0.40258327 0.23190261 0.1658939
000200 df 15 65 3e 04 02 79 be de 65 79 bd 80 3b a5 be
       0.22371624 -0.24317175 -0.060888164 -0.32271957
000210 06 7e 02 3e ca 81 07 be 28 a9 eb bd 2d 26 81 3e
       0.12743387 -0.13233104 -0.11506873 0.25224438
000220 0d e8 02 3e 34 ad f3 3d 26 6a 51 be 22 20 f2 bc
       0.12783833 0.1189827 -0.20450649 -0.029556338
000230 55 64 bb be 3b d7 fa 3d 58 55 59 3e 3e bc 90 be
       -0.36599985 0.12248083 0.21223962 -0.28268617
000240 f8 da 34 3c c2 4a 79 be 90 d1 bf 3e c4 a2 2c 3d
       0.011038534 -0.24344924 0.3746457 0.042147413
000250 d9 cf 9f 3e e5 f4 79 3e 84 9a 77 be 74 f6 32 be
       0.31213263 0.24409826 -0.24180037 -0.17476827
000260 cb 6a f1 3d fc 53 fb bd cb 6e a9 bd 72 b5 cb be
       0.11787947 -0.12271878 -0.08273085 -0.3978687
000270 67 50 83 3e ca df 29 3e 0d 61 80 be 1c 80 d4 3c
       0.2564728 0.16589275 -0.25074044 0.025939994

layers.1.Ah.conv1.bias f4 [32]
000000 ed 28 75 be bb 1c 96 3d 29 17 27 be 2e e8 aa be
       -0.23941393 0.07329699 -0.16317429 -0.33380264
000010 85 a1 c5 3e a2 ea d3 3d 74 3b ff 3d 46 c8 b7 3d
       0.38599792 0.10347487 0.12462512 0.08973746
000020 bb e8 ef 3d 36 ce c2 3e ab 4f 8c be 0e cb 75 3e
       0.11714312 0.3804795 -0.27404532 0.2400324
000030 26 4f b8 3d f3 72 b1 be 95 bd 92 3e 73 20 7f be
       0.08999471 -0.34658012 0.28660265 -0.24914722
000040 26 c1 87 be 77 56 27 bd 4d 92 c5 3d 6c 45 39 be
       -0.26514548 -0.040853944 0.09647045 -0.18092889
000050 b0 cf 7c bd 88 80 e3 bd 44 19 67 bd 71 82 fd bd
       -0.061721504 -0.111085 -0.05642058 -0.12378395
000060 de 05 78 3d 75 e4 23 be 03 6d 84 bd cc e5 83 be
       0.06055247 -0.16005118 -0.06466105 -0.2576126
000070 57 c4 ab be 79 fb e9 3e 62 6f 3f 3e 34 d0 60 be
       -0.33548233 0.4569967 0.18694833 -0.21954423
