models/full_dataset_15.pt (torch, 195381 bytes, 120 tensors)

layers.0.Aw.conv1.weight f4 [64, 1, 5]
00000000: f513 44bd bedc 923e be72 cebd 189a be3b
00000010: e67a dcbd 6ec3 503e 194f 98be f28d 2b3e
00000020: da46 f9bd df3e 9bbe 3303 39be c23a 17be
00000030: 8bfe b43c 2a8b c4be f119 d8bd f1f9 9f3e
00000040: a305 693e b2ba 3f3e b5fc a73e e091 a03e
00000050: 1255 0abe c8b1 72be 3738 86bc 0ecb 12be
00000060: d8cb 1cbe ad3a a73e 310a 403e 2be8 14be
00000070: 43af 8cbe 3be8 01be f1b7 fa3b 7d8d 953e
00000080: f52c 2c3e 20a3 693e 0238 3fbe 5f94 b93e
00000090: a916 503b 6452 f53d 6b8b a43a 57b6 ddbe
000000a0: 08b9 cabd 93f9 b9be 14b8 00bd c349 32be
000000b0: c72c 82be 4840 b7bd f6da 9bbd 00ae 1b3d
000000c0: b10f debe af34 ab3d a644 993e 660d 1a3e
000000d0: 6dc0 e1bd 69ef c93e 4f49 6a3e f58d a5be
000000e0: e240 4bbe 628a ad3e 73e5 9dbe 643d 9fbe
000000f0: 032f 44be 9653 c93e c284 cfbe c30a 90be
00000100: 1063 f1bd b9d7 a23e 8600 bdbc fe8a 963e
00000110: f883 c7be e140 443e f1c7 b5be 7a78 a1bc
00000120: 10e2 a3be 39e7 aabe 05d3 e9bd 5314 afbd
00000130: a300 84be c0a8 d8be ddcf a63e 39c8 02be
00000140: 5dc8 6d3e 6443 c4bd 88e0 a5be a034 273e
00000150: 0a38 0cbe f553 803e 0694 673e 15aa a3bd
00000160: 780b 76be c149 c53e 827c 8d3e 46e5 0ebe
00000170: d6cf 13be 4b00 92be 4239 5ebe 52dd b33e
00000180: 72b6 c4be 893d 0fbe ba47 8dbd 9b4b 30ba
00000190: 611d ee3d bae1 6c3e 3c9d 773d e229 023e
000001a0: c3ed 223e f5ca 93be f083 4abd 18ae 38bd
000001b0: a520 443e 47a3 f83c 41ad c93e 173e a4be
000001c0: acd7 433e ea95 d43e b121 e33e c67e bebe
000001d0: 2869 2d3e 3fff 64be b032 983e f37f cc39
000001e0: 160e 92bc ed71 aebd a1a1 c6be 8ab8 b6bd
000001f0: 82af 1bbe 1acd 9cbd 2b6f 25be 7ce2 203b
00000200: e436 253d 7ec7 92be 4ec8 843e 9e12 0ebe
00000210: eb0e d3bd 461f d83e e9b0 b9be bffc fb3c
00000220: 2116 593e 4b38 c23e b398 2cbe 29c3 bebe
00000230: 63c4 b6be ffa4 8c3d 9471 073e 50f4 9a3e
00000240: 1c86 c23e 3803 afbd be13 cdbd c528 183e
00000250: 0864 25be f12f e0be f730 643e f02c 143e
00000260: 9ab2 40be ef7c d3be 9223 e2bd a7ea a63e
00000270: a788 b2bc be54 cc3d 11b7 c5be c3c9 c3bd
00000280: 945e 163e beaa 933e fc98 dbbe c9e4 b53e
00000290: c92a 9839 9064 dd3b 9901 b53e bd27 dfba
000002a0: bd3a 62be b86d d43e 89b4 e5bd e016 4d3e
000002b0: 1151 c5be ce5d 87bd d180 883d 4ba4 18be
000002c0: c029 3d3e db5c 5e3e 75fb 9bbe 3c24 98be
000002d0: 1155 d1bd d913 0ebe 334e 913e f8db 6a3e
000002e0: fa57 a43d f8d9 9d3e 514d 8bbe 9e72 713d
000002f0: 4e4a b43e 6de3 aa3e 26e9 103e adc1 713e
00000300: 86d0 cabe 07f1 763e 1d46 dbbc f4d4 233e
00000310: 3f79 8b3e 4a96 923e b798 bd3e d2b2 ab3e
00000320: 79e7 833e 0da8 a83e 3a5b bfbe 4aad e1be
00000330: be87 75be 29e0 20be 9769 c83e 17c8 413e
00000340: 2ce3 573e 19ec 313e b11a 3abe 042e 723e
00000350: a178 c1be 296d c83e b981 933e c62c 043d
00000360: f5af be3e 3330 20be 90bc c73e 799b 62be
00000370: 2aa0 05be 18dd f8bd 7b0c a73e 79d8 d73e
00000380: f74e 30be 7199 ae3e 2431 00be 6532 8e3e
00000390: 090b d7be bf7f c7be dea4 aa3e c641 c33e
000003a0: 6a91 aebd 5451 8abe ad50 92be c7b5 8fbe
000003b0: f086 9a3d 3a92 573e 1942 cdbe 4f24 7ebe
000003c0: fae6 e6bd 1318 d03e 088c d23e 17dd 55be
000003d0: 19db 8fbe 7ae5 6a3e fdb8 cbbc dd2c 48bd
000003e0: cbc6 383b ed87 5fbe 809b cebc 03e2 943e
000003f0: e7e2 af3e 0994 d83e 9b57 a3be 8717 e03e
-0.047870595 0.28684038 -0.10080479 0.0058167093 -0.107656285 0.2038705 -0.29747847 0.16753367
-0.12171717 -0.30321404 -0.18067627 -0.14768508 0.022094032 -0.38387424 -0.10551823 0.31245378
0.22756056 0.18723562 0.32809988 0.31361294 -0.13509014 -0.2370063 -0.016384227 -0.14335272
-0.15312135 0.32661954 0.18753888 -0.1454169 -0.27477464 -0.12686245 0.007651322 0.2920951
0.16814025 0.22816133 -0.18673709 0.3624601 0.0031751788 0.119786054 0.0012553757 -0.43303177
-0.09898573 -0.36323223 -0.03142555 -0.1741095 -0.25424787 -0.089478076 -0.07610123 0.038007736
-0.43371347 0.08359658 0.29935187 0.15044174 -0.110230304 0.39440468 0.22879528 -0.32334867
-0.1984897 0.3389464 -0.30839118 -0.31101525 -0.19158559 0.39321584 -0.40530974 -0.2813321
-0.11786473 0.31805208 -0.023071539 0.29402918 -0.38967872 0.19165374 -0.35504106 -0.019710768
-0.3200841 -0.33379534 -0.11417202 -0.085487984 -0.25781736 -0.42316246 0.32580462 -0.12771691
0.23220964 -0.09583166 -0.32397866 0.16328669 -0.13693252 0.25064054 0.2261506 -0.07991425
-0.24027812 0.38532832 0.27634054 -0.13954648 -0.14434752 -0.2851585 -0.2170153 0.35129791
-0.38420445 -0.13988318 -0.068984464 -0.0006725133 0.11626697 0.23132983 0.060452685 0.1271129
0.15911011 -0.2886578 -0.04944223 -0.045087904 0.19153078 0.030351294 0.39389995 -0.3207862
0.19125241 0.41520625 0.44361642 -0.37206095 0.16934645 -0.22362994 0.29726171 0.00039005242
-0.017828982 -0.08517823 -0.38795188 -0.08921917 -0.1520367 -0.076563075 -0.16155688 0.0024549058
0.04033555 -0.28667825 0.2593407 -0.1387429 -0.1030558 0.4221136 -0.36267784 0.030760167
0.21199848 0.37933573 -0.16855125 -0.3725827 -0.35696706 0.06867408 0.1322692 0.3026452
0.37992942 -0.08545536 -0.10013531 0.14859302 -0.1615144 -0.43786576 0.22284304 0.14470267
-0.18818131 -0.41306254 -0.11041941 0.326009 -0.021793677 0.09977101 -0.3861623 -0.09559967
0.14684516 0.28841203 -0.42890155 0.35526112 0.00029023577 0.0067563727 0.3535278 -0.0017025393
-0.2209272 0.4148996 -0.11216075 0.20028257 -0.3853841 -0.06609689 0.06665195 -0.14906423
0.18472958 0.21715109 -0.30465284 -0.29715145 -0.10221303 -0.13874759 0.28379974 0.22935474
0.08024593 0.3083036 -0.27207425 0.058947198 0.3521294 0.33376637 0.14151439 0.23609038
-0.39612216 0.24115382 -0.026766831 0.15999204 0.2724094 0.28630286 0.37030575 0.33534867
0.25762537 0.32940713 -0.37374288 -0.44077522 -0.23977563 -0.1571051 0.3914306 0.18923984
0.21082753 0.1737522 -0.18174244 0.23650366 -0.37787345 0.39145783 0.28809908 0.03226926
0.3724362 -0.15643387 0.3901105 -0.2212962 -0.13049379 -0.12151545 0.3262671 0.42157343
-0.17217623 0.34101442 -0.12518746 0.27772823 -0.42000607 -0.3896465 0.3332891 0.3813612
-0.08523829 -0.27015173 -0.28577176 -0.28068373 0.075452685 0.21051875 -0.4008949 -0.24818538
-0.11274524 0.40643367 0.4112246 -0.2088512 -0.28096846 0.22939101 -0.024868483 -0.04887091
0.0028194662 -0.21829195 -0.025220633 0.29078683 0.343528 0.42300442 -0.31902775 0.4376795

layers.0.Aw.conv1.bias f4 [64]
00000000: 26e7 e93d 2345 c7bc 4b91 c73e 7ee6 b43e
00000010: 8f98 38be eeaf b1bd 06e7 87bd 1673 953e
00000020: ca9b 04be 5874 f1bd 05dc 8abe cbd1 e6bd
00000030: 3c76 943e a210 5cbe 237c cbbe e9e8 823e
00000040: a681 a33e eb70 0cbe 245b 01be a2fe 0d3e
00000050: cad9 a9be 134e 6bbe 4b11 b93e 762e 01be
00000060: f117 37be 6eb1 7d3e 2fce d6be d0ec cb3e
00000070: ee89 d83d 7990 aebe 2693 c13d c126 d8bd
00000080: 9907 d93e f160 27be fdb0 85bc 2c3e 9ebe
00000090: 2c8c b1be a6dc 8bbe 53b7 243d aeb3 a13c
000000a0: 119e aebe 5946 903d 3dfe 9e3e 1a54 8cbe
000000b0: 508c 83be 2673 7f3e 5a8a d63e a2b6 0d3d
000000c0: 8b8b b73e b7d2 4dbd 072d 5ebe 298a bc3e
000000d0: ef7c 96bd 6247 bbbe 383f 98be c14d 3b3e
000000e0: 6409 7d3e 55e4 973e bae8 b1be 10c2 90be
000000f0: 35bd 7fbe c63a 483e 43d7 b5be 5e83 8bbe
0.11421041 -0.02432496 0.38978037 0.35332102 -0.18026946 -0.08676134 -0.06635861 0.29189366
-0.12950054 -0.11789769 -0.27120987 -0.112704836 0.28996456 -0.2149072 -0.39743146 0.2556832
0.3193485 -0.1371495 -0.12632424 0.13866666 -0.33173972 -0.22979002 0.36146006 -0.1261538
-0.17880227 0.24774715 -0.4195418 0.3982911 0.10573183 -0.340946 0.094518945 -0.10554267
0.4238861 -0.16345574 -0.016319746 -0.30906808 -0.34677255 -0.2731678 0.040213894 0.019738998
-0.3410497 0.07044668 0.31053343 -0.27407914 -0.25692987 0.2494627 0.4190243 0.034598
0.3584865 -0.05024978 -0.21696864 0.36824158 -0.07348048 -0.36577898 -0.29735732 0.1829138
0.24710613 0.2966639 -0.3474787 -0.28273058 -0.2497452 0.1955367 -0.35515794 -0.27248663

layers.0.Aw.conv2.weight f4 [32, 64, 3]
00000000: 8c26 043c a5e8 b73a daf9 70bd 208d 68bd
00000010: 5978 2d3d a577 a2bc 7d99 c13b 6cc6 62bd
00000020: ea5f 65bc e526 6abd 5218 61bd 881a 523c
00000030: f4e6 e23c 747a 6fbd 69ce d5bc 7d6e ab3c
00000040: 9b07 38bd 2523 43bd 890d b13c b3c5 02bc
00000050: d6ff aabc d649 7bbd 1d79 7cbd ab89 ebbc
00000060: 98b6 80bd 4dcc 72bc 21ed 6c3d 4fd8 503d
00000070: a4e8 99bd 1a12 38bd 36a8 af3c a5aa 28bc
00000080: cff7 ed3c 0f28 f33c a8c8 38bd bf6c 76bd
00000090: 9ef8 d4bc 3bc4 903c d8c3 0dbd 58b6 8a3d
000000a0: 754d 79bc 6548 853c fb90 0a3d 3139 3a3d
000000b0: 8308 70bd 108e 943d acb0 0cbc 0197 573b
000000c0: d8d1 c4bc 21bf 6abd 4c04 22bc 198b 953d
000000d0: be4e 3fbd 911e 63bd fb40 91bd 2cda ba3c
000000e0: acab 30bb 0867 843d 55a7 ae3b 4ec8 a33c
000000f0: c00f ecbc 471a 1abd 8a17 e3bc 993f 5abd
00000100: 9baf 7d3d f55a 233d 14f5 23bd 91b2 183d
00000110: a6ee 0d3d 4535 903c 1617 11bd 9820 61bb
00000120: 9bbe 2cbd 03ee 19bd f803 123d 1785 0ebc
00000130: 09aa 313d 7075 afbc 4ee3 14bd ef06 24bd
00000140: 46a9 8dbd 8b42 b1bc bcf2 843d 756e 7bbd
00000150: 8ca0 94bc be65 17bd cb4a 6b3a fc41 adbc
00000160: 6645 e1bc e778 d53c 9731 9abc 5f44 9d3d
00000170: 8a86 5a3d ed14 babc d6d7 a1bc 2957 0ebd
00000180: 200c dcbc e64d 693d 0f44 03bd e260 4cbd
00000190: e723 c73c c748 51bd 2a40 4d3d 18a2 9dbc
000001a0: b9fb f83c 7dc1 09bd edbe e4bc c0e7 993c
000001b0: 018c 82bd 7e32 f23c 334f bbbc 40ea 323d
000001c0: f9d7 c33c 94ce f5bc 3e4d 15bd 8c33 943d
000001d0: 1a67 25bd ba1c 32bd 9bf0 9fbb b1c5 c23c
000001e0: 12d9 45bd 6de1 d53c 2a33 8b3d 7c5c 2bbd
000001f0: 8f74 e4bc 6e89 52bd b9a4 663c c807 36bc
00000200: 7a80 4bbd 5bcc 65bc 5164 43bc d7a4 ecbc
00000210: 51c5 0fbd 930e 1abd d8f2 67bd 929b b4bb
00000220: c652 73bd 7de9 0c3d 28aa 88bd 1eee 6f3d
00000230: e7c7 6abd 5841 4a3d ba42 853d d7ba 3bbb
00000240: 6e1f 973c d730 3dbd 1690 98bc d1af 683c
00000250: 49f8 cdbc 420e 0d3d 9d93 b7bc 5d3a 323d
00000260: 44ac 3d3a fa2e 3d3d 245e 14bd bc1f b23c
00000270: 321d afbb e470 8c3d 0a18 bf3c 9229 8e3c
00000280: a823 9a3c 360d e4bb 5d85 1a3d 6436 213d
00000290: 7899 e0bc 5e6c 75bc 6ef5 23bd 0a5c 5bbd
000002a0: 109f 073d 0d30 1e3d db7b 8d3c a15a 35bd
000002b0: e53b 493c eccc f03c 7b63 4b3d a2b5 b2bc
000002c0: 61bc 89bd 2928 263d e624 23bd f476 763c
000002d0: 1b96 273d c274 20bd 5f4a 1d3d 1618 ba3c
000002e0: aae5 e5bc 8ff5 82bd e738 23bd 6f61 f8bc
000002f0: a680 893d d023 4abc 7e46 6ebd d351 74bc
00000300: 568a f63c 338c 0e3d 5a7a 853d 1e7d cc3b
00000310: 06e3 793d d638 fc3b 4551 89bd 092b 12bd
00000320: 50d3 f2bc aa66 a53b fd38 b53c 38ab 74bc
00000330: 9f96 deba fd5d 3bbd ab8f 213d c8ce 503d
00000340: 54e9 753d 6021 9a3c 20c6 7cbd cb77 a5bb
00000350: 1699 883d 4b48 6e3d 6b00 49bb d5d3 fe3c
00000360: 54d3 843d 8b84 30bd 4a47 843b 9453 693d
00000370: d3d1 c4bc 07de 473b ebe6 76bd 6dc1 0a3c
00000380: 9c6d c53c 0316 4ebb b2d4 1bbd cafb 153d
00000390: d40e 22bd 7bb3 2c3d 6f54 9fbd 0c34 a7bd
000003a0: d3dc 0bbd b5a2 fdbc 4572 b0bc ffaf adba
000003b0: 3d6f f1bc 2129 35bd 55c4 8cbd 7be8 3abd
000003c0: 0ba2 1c3d 3186 7ebd 0b88 95bd bf8c dc3b
000003d0: 12a5 d63c 48a8 22bd 2129 9b3c e5cc 33bd
000003e0: 8290 b3bc de0d 5abd 8652 88bc a536 623b
000003f0: 6d72 983c 361f 9abd e3a7 c33c e4fe 32ba
0.008065831 0.0014031125 -0.058832027 -0.056775212 0.0423511 -0.019832442 0.00590819 -0.05536501
-0.0139999185 -0.057166 -0.054954834 0.012823708 0.027698018 -0.05846639 -0.0260994 0.020926708
-0.04492913 -0.04764094 0.0216129 -0.0079817055 -0.020873945 -0.061349712 -0.06163894 -0.028752169
-0.06284827 -0.014819217 0.05784333 0.050987538 -0.07515076 -0.044939138 0.021442514 -0.010294591
0.029048828 0.029682187 -0.045113236 -0.060162302 -0.025997456 0.017671695 -0.0346106 0.067730606
-0.015216221 0.016269872 0.03382967 0.0454647 -0.058601867 0.07253659 -0.008587044 0.0032896402
-0.024025843 -0.05731118 -0.00988872 0.073019214 -0.046705954 -0.055449072 -0.07092472 0.02280911
-0.0026957793 0.06464964 0.005330006 0.019992974 -0.028816104 -0.037622716 -0.027721185 -0.053283308
0.06193505 0.039881665 -0.040028647 0.03727967 0.03465142 0.017603526 -0.035422407 -0.0034351703
-0.042173963 -0.0375805 0.035648316 -0.008698723 0.04337505 -0.021418303 -0.036349587 -0.040045675
-0.06917052 -0.021638175 0.064916104 -0.061384637 -0.018142961 -0.036962263 0.00089756836 -0.021149628
-0.027498912 0.026058627 -0.018822474 0.076790564 0.053350963 -0.022715056 -0.019756239 -0.03475109
-0.02686125 0.056959055 -0.032047328 -0.049897082 0.024309112 -0.051094797 0.05011002 -0.019242331
0.030393468 -0.03363179 -0.027923072 0.018787265 -0.0637436 0.029565092 -0.022864914 0.04368043
0.023906695 -0.03000573 -0.036450617 0.07236394 -0.04038153 -0.043484427 -0.0048809773 0.023775907
-0.048302718 0.026108468 0.06796868 -0.041836247 -0.02788761 -0.051400594 0.014077359 -0.011110254
-0.04968307 -0.014025773 -0.011925773 -0.028887196 -0.035100285 -0.037611555 -0.05662808 -0.0055117095
-0.05940511 0.03440236 -0.0667308 0.058576696 -0.057319548 0.049378723 0.06506868 -0.00286453
0.018447604 -0.046189155 -0.018623393 0.014202074 -0.025142806 0.034437425 -0.022409255 0.04351269
0.00072354474 0.04618738 -0.036222592 0.021743648 -0.0053440565 0.0685747 0.023326892 0.017353807
0.01881583 -0.0069595827 0.03772484 0.03935851 -0.02741693 -0.01497945 -0.040028982 -0.053554572
0.03311068 0.038620044 0.017270973 -0.044275884 0.012282346 0.02939459 0.04965542 -0.021815125
-0.067253835 0.040565643 -0.03983011 0.015043009 0.040914636 -0.03917385 0.038401004 0.022716563
-0.028063614 -0.06394493 -0.03984919 -0.030319897 0.06713991 -0.01233764 -0.058172695 -0.014912087
0.03009526 0.034801673 0.06517477 0.006240501 0.061007522 0.007697205 -0.06704954 -0.035685573
-0.029641777 0.005047639 0.0221219 -0.0149334 -0.0016982144 -0.04574393 0.039443653 0.050978452
0.060036972 0.018814743 -0.061712384 -0.005049681 0.06669824 0.058174413 -0.0030670415 0.031106869
0.0648562 -0.043095153 0.0040368186 0.056964472 -0.024025833 0.003049733 -0.060278814 0.008468968
0.024100117 -0.0031446225 -0.03804464 0.036617078 -0.039564922 0.042163353 -0.07779776 -0.08164224
-0.03414614 -0.030961374 -0.021538863 -0.0013251303 -0.029471988 -0.044228677 -0.06873385 -0.045631867
0.038240474 -0.062139694 -0.07301339 0.0067306454 0.026201759 -0.039711267 0.01894051 -0.043896575
-0.021919493 -0.05323588 -0.016640913 0.0034517434 0.01860925 -0.07525484 0.023883766 -0.0006828143

layers.0.Aw.conv2.bias f4 [32]
00000000: 0442 f03b 5f49 9b3c 56b6 1bbd 13e2 103d
00000010: 30cc 9fbb 9d52 683c ebed 4dbd a80e 8f3c
00000020: c574 aaba f9c8 183d 07be 463d 7b5f 37bc
00000030: b374 19bc fb54 68bc 2168 99bc 7a35 12bd
00000040: 7daa 363d bc0d 9cbc f9f3 a33c 01a0 193d
00000050: 4dff 353d 22cc 533d 96ab 7dbd 2e8c 4abd
00000060: da57 5abc eae1 8ebd 8b0d 483c ce48 d9bc
00000070: 1f7c 1abd f43c 5cbd bf7f f23c f3be 9c3c
0.0073320884 0.018955885 -0.038015686 0.03537185 -0.004876636 0.014179853 -0.050275724 0.017463043
-0.0013004771 0.037301037 0.048521068 -0.011192198 -0.009366202 -0.014180417 -0.01872641 -0.03569553
0.044596184 -0.019049518 0.020013796 0.037506107 0.044432927 0.051708348 -0.061931215 -0.049450092
-0.0133266095 -0.069766834 0.01221026 -0.026523974 -0.037716027 -0.053769067 0.02960193 0.01913402

layers.0.Aw.conv3.weight f4 [1, 32, 3]
00000000: 83ef 4bbd 4237 053d ceae 9ebd 7d1b 4bbd
00000010: 2cb6 76bd 7d04 af3d 1523 b73c afce 1ebe
00000020: 28d4 ffbc 8738 a83c 7cb5 12bd 554b 373d
00000030: c3c5 2fbb 3cf3 fd3c 095c 7e3d 9c04 5cbd
00000040: f1be e6bc 49ed 3c3d 3c0f 913d d75c 2cbd
00000050: 6193 b2bd dc21 cbbd 963e a4bc 5c3e b83b
00000060: 6cf4 bc3d 8939 8f3d 8510 8abd a886 5e3d
00000070: 1feb 233d dc19 b73d c800 08bc 868c 0a3d
00000080: 640d dcbc 91c8 733c fe11 653d 4cbf 8e3c
00000090: 4af0 373d 96a8 413d 2f3d cf3b 6c99 f8bd
000000a0: 7865 25bd aa20 693d a2d5 903d 031f f2bc
000000b0: f2e5 093d dc9b 4ebd b06e f53c 2151 c1bd
000000c0: 8d0b babd 4384 fc3a 456d 983d 9741 303d
000000d0: 1e24 f63b 8f68 8ebd 87bc 5a3d 5170 9dbb
000000e0: 0bc4 b53c c1e6 cdbd 9a40 49bd 7454 75bb
000000f0: cf48 013b 2fda 19bd 8e62 3abd 8f3d cd3c
00000100: 13d6 9ebd 4bd7 7f3c 1048 e13b e859 8b3d
00000110: d513 323d f396 c5bd a889 32bd 138f 1a3c
00000120: 5995 48bd e563 29bd cf13 58bb 775a c63d
00000130: 39fe 903d 2161 35bd 020f 423d fb51 a5bd
00000140: 9692 c5ba 2c7a c4bd d508 a23d 82a5 18bd
00000150: 9b3a cb3d 5e69 ebbc ec78 5abd 8e93 a23d
00000160: b711 9a3d 277d a03d 3345 98bd fc37 09bd
00000170: 5480 c53d dcc6 923d aedb d43b 6506 14bc
-0.049788963 0.0325234 -0.07748185 -0.04958676 -0.060232326 0.08545778 0.022355596 -0.15508531
-0.031229094 0.020534767 -0.03581761 0.044749577 -0.0026820756 0.030999772 0.06209949 -0.053715333
-0.02816722 0.04612473 0.07082984 -0.042080726 -0.087195165 -0.099185675 -0.020049375 0.005622668
0.09226307 0.06993396 -0.06741432 0.054327637 0.04001915 0.08940479 -0.0083009675 0.03382542
-0.026861854 0.014879362 0.05592536 0.017425202 0.044906892 0.047279917 0.0063244323 -0.12138638
-0.04037997 0.056915917 0.07071997 -0.029555803 0.03366656 -0.050441608 0.029960006 -0.09439302
-0.090842344 0.0019265491 0.074427165 0.0430313 0.0075116297 -0.06953537 0.05340245 -0.004804649
0.022188207 -0.100537784 -0.049133874 -0.0037434371 0.0019727235 -0.03756159 -0.045504145 0.025053767
-0.07755675 0.015615295 0.0068750456 0.06804258 0.043475945 -0.09647932 -0.04358831 0.009433526
-0.048970554 -0.041355032 -0.0032970791 0.096852235 0.07079739 -0.044282082 0.047377594 -0.08072277
-0.0015073593 -0.09593615 0.07911841 -0.037267216 0.099232875 -0.028736766 -0.053337976 0.079383
0.0752291 0.07836371 -0.07435074 -0.033500656 0.09643617 0.07166836 0.0064959144 -0.009034728

layers.0.Ah.conv1.weight f4 [64, 1, 5]
00000000: 80fe afbe 83a1 b33e 1ba0 0cbc 61c0 68be
00000010: 70f5 a8be efe1 50bd 2a8b c63e 5ed3 9c3e
00000020: 75e2 babe 2b5a 08be f6eb bbbe 3296 b63e
00000030: 85c2 b0be 89c7 36b9 a4d1 043e bc2a 7ebe
00000040: 3f54 b6bd 229d 9c3d de61 0dbe 895a b0bd
00000050: 9cf8 dbbe a821 d43d 0609 5cbc 47fb b13e
00000060: 396b 53be 8de5 c4be 9c71 d9be 03ce bbbc
00000070: d471 eb3e 714e 20be 3f4f 6abe f2f6 9b3e
00000080: 45b8 e9bc 0326 22be cf1f c13e f760 9cbd
00000090: 2ba3 393e 1073 6f3b d57e d9bd 7a9a 3cbe
000000a0: 704e c53d 4c89 99be d7b7 a53e b771 aebd
000000b0: 8af7 af3e 41e3 523e b934 e13e 7839 2e3c
000000c0: 5f83 59be 3e0e dc3e df35 883e ff15 62be
000000d0: 0176 9abe b3ba 663e 7648 5e3e b5e7 fdbc
000000e0: 91c9 b53e 655d b73c 985f 803e e175 a93e
000000f0: df33 433e 3d11 493e 3c33 d7be d851 813e
00000100: e16f 5c3e 3de9 cf3e 0766 a13e ed76 78be
00000110: bf67 633e e5b5 dcbe 3d0d b7be fdaa c6be
00000120: 7cfa d6be 24df d6be aab8 68bc 51bb cd3c
00000130: 74a9 d23e 6ae3 86bd 1045 71be add8 a5bd
00000140: 6ef6 97be 96d6 bb3e ee21 a5bd 7101 9b3e
00000150: b7b4 61be 3276 bf3c eb03 b9be f852 28be
00000160: c742 a9be e91c 5cbe 8dcf c53e 0781 b0bd
00000170: 1c0e 52be 299f e2be 0a4e 523e ac22 d0be
00000180: c0c1 a2be ef98 c13e 694e 623e 05b2 3cbe
00000190: 2cf7 8abe fc2f c43e 4992 b7be 981d dabe
000001a0: aeca cbbe 4ba1 b53d 7a1f b6be d1dc f43d
000001b0: 1e5e 933c c2ad 42be 1ed1 3e3e d4f6 85be
000001c0: e71b b63e f362 763e da84 df3e 6c19 0a3e
000001d0: 494a bfbe ae3c f83d 0e27 cd3e 2215 1f3d
000001e0: 7132 453e c820 7e3e 1948 73be 01e9 263d
000001f0: 2a2c 11bb cf83 38be a712 83be 219d 373e
00000200: 6e03 983d 3511 d2be 0214 05be 0262 afbe
00000210: 5737 7ebd 6543 8e3e 3919 a1be b463 30bd
00000220: 52c6 ce3e ed7c b43e a7f7 633e 63e9 c4be
00000230: 7389 2ebe ca76 d83e ba9c a9bd 5d6a 933e
00000240: 2805 a0be 3d56 90be b63a 57be 1566 083e
00000250: 09e9 87be de70 febc e258 5cbe c544 df3e
00000260: acc5 a3be f30e e3be 8119 e03e 7e26 acbe
00000270: 05b1 96bd b0e5 1c3d a4e5 72be 0644 133e
00000280: 5474 ec3d 749a cabe 0bfa b0be 03c0 c03e
00000290: 673b 7d3d 4d83 a73e ffc6 ccbe 891d e0be
000002a0: 8769 493d 3ce0 bfbe 49b0 bc3e d4fd 03be
000002b0: ee1f 6d3e 18d8 22be 2c1c 7f3e 69d8 923e
000002c0: f7d6 043e 29a9 80be ff13 9dbe 3b6a 94be
000002d0: 1805 dc3e 1a72 7a3e 6bfa a5bd 95ed 7ebe
000002e0: 2375 9dbe 0717 903e 71e2 51be 50d7 d13e
000002f0: 259b 233e 9750 4bbd ceef 15be 348b 113e
00000300: b48c 903d 407c 47be 686b 07bd bf05 793d
00000310: 5cbd f0bd 7b03 98bd 1abb a93e c456 8c3d
00000320: b943 cb3d e438 1ebe 4b73 a93d 5243 03bd
00000330: be71 b43e c5ac 59be dfb1 b0bd a6af 41be
00000340: ce11 be3d 387c bf3e f617 a7be 923a d7bd
00000350: 2675 19be 7813 e23d 78dc eaba 0219 8bbe
00000360: ec99 18be 556f 88bd 47b2 71be 2dae 623d
00000370: 189a dabe b0f8 b03e 5b5c 76be 7dc1 39be
00000380: da21 f3ba d608 f73d da09 5a3e 1514 763c
00000390: b591 60be 5fb5 0c3e dfb4 aabe 5fd2 4a3e
000003a0: 062d c53e 003c b73e 6bd1 bbbe 0205 79be
000003b0: a487 5ebd 92ff 503c 7883 81be 776d 87bd
000003c0: 342e 67bd c181 bb3e 5e88 c43e bb79 19be
000003d0: 7cb3 abbd 1b10 e23d eb94 e4bd 40c5 c8bc
000003e0: 9c13 dabd 41ff 9a3b 344c f2bd 268c d13d
000003f0: 0cf8 e13e 6f08 41be 5412 00be c3a9 b33d
-0.34373856 0.3508416 -0.008583094 -0.22729637 -0.32999754 -0.050996717 0.3877805 0.3063001
-0.36500898 -0.13315646 -0.3670346 0.35661465 -0.34523407 -0.00017431205 0.12970597 -0.2482099
-0.089027874 0.07647158 -0.13806865 -0.08611018 -0.4296311 0.10357982 -0.013429886 0.34762022
-0.20646371 -0.38456383 -0.4246949 -0.022925382 0.4598528 -0.15654923 -0.22881792 0.30461842
-0.02853025 -0.15834813 0.3771958 -0.07635682 0.1812865 0.0036537088 -0.106198944 -0.18418303
0.096341014 -0.29987562 0.3236682 -0.08517783 0.34368545 0.20594503 0.43985537 0.010633819
-0.2124152 0.42979616 0.266036 -0.22078703 -0.30168155 0.22532158 0.21707329 -0.030994276
0.35505345 0.022383401 0.25072932 0.33097747 0.19062756 0.19635482 -0.42031276 0.25257754
0.21527053 0.40607634 0.31523153 -0.24264117 0.22207545 -0.43107525 -0.35752288 -0.3880233
-0.4198798 -0.41967118 -0.014204184 0.025113733 0.41144907 -0.065863445 -0.23561502 -0.08097968
-0.29680198 0.36687154 -0.08063112 0.30274537 -0.22041593 0.02337179 -0.36135802 -0.164379
-0.3305876 -0.21495403 0.3863491 -0.0861836 -0.20513195 -0.44262055 0.20537582 -0.40651453
-0.31788445 0.37811992 0.22100224 -0.18427284 -0.27141702 0.3831786 -0.35853794 -0.42600703
-0.3980307 0.08868655 -0.3557089 0.1195618 0.017989215 -0.19011596 0.1863446 -0.26164877
0.35568163 0.24061184 0.43656045 0.1348626 -0.37361363 0.12120949 0.4006886 0.038838513
0.19257523 0.24817193 -0.23757972 0.040749554 -0.0022151568 -0.18019031 -0.25600168 0.17931034
0.07422529 -0.41028753 -0.12995914 -0.34254462 -0.062064495 0.27785793 -0.31464556 -0.043063834
0.4038568 0.3525156 0.2226244 -0.3845931 -0.1704462 0.4227813 -0.08281846 0.28792086
-0.31253934 -0.28190795 -0.2101849 0.13320191 -0.2654498 -0.031059679 -0.21518281 0.43607154
-0.3198675 -0.44347343 0.43769458 -0.33623117 -0.073579825 0.038304985 -0.23720413 0.14381418
0.11545625 -0.39570963 -0.34565768 0.37646493 0.06182423 0.32717362 -0.39995572 -0.43772534
0.049172904 -0.37475765 0.36853245 -0.12889796 0.23156711 -0.15902746 0.2491309 0.28680733
0.12972628 -0.2512906 -0.30679318 -0.28987297 0.42972636 0.24457589 -0.08104404 -0.24895318
-0.3075343 0.28142568 -0.20496537 0.40984583 0.15977152 -0.049637403 -0.1464226 0.14213258
0.07058087 -0.19480991 -0.033061415 0.060796496 -0.117548674 -0.07422539 0.3315056 0.06852487
0.099250264 -0.1545139 0.082739435 -0.032046624 0.35243028 -0.21257313 -0.08627676 -0.18914661
0.0928074 0.3739946 -0.32635468 -0.10509218 -0.14986095 0.110388696 -0.0017918488 -0.27167517
-0.14902467 -0.0666186 -0.23603164 0.05534189 -0.4269569 0.34564734 -0.24058668 -0.18140216
-0.0018549517 0.12062232 0.2129282 0.015019436 -0.21930583 0.13741063 -0.3334112 0.19806813
0.38510913 0.35787964 -0.3668321 -0.24318317 -0.054328576 0.012756245 -0.25295615 -0.06612676
-0.056440547 0.36622432 0.3838529 -0.14987843 -0.08383843 0.11038228 -0.11161216 -0.024508119
-0.106482714 0.0047301357 -0.11830941 0.10231809 0.44134557 -0.18850873 -0.12506992 0.08772614

layers.0.Ah.conv1.bias f4 [64]
00000000: aea6 e0bd 8116 99be 5c64 8abe a836 9b3e
00000010: b8be 8a3e 3f92 bbbe 1b56 963e 8a3c 43be
00000020: 0725 ac3e bd27 85be 7713 96be cc1a d5bd
00000030: 1f62 94bd 51ad 6c3e a343 433e fb1a da3e
00000040: 19ff c83e a47a c93e 482e d93e d6e5 02be
00000050: 2486 d03e fd6c 223e 55a8 943e f394 ac3e
00000060: 2fdf b4be 67ba d4be 7970 aabe 111d a4be
00000070: 429d aebb de55 b63e 6825 9dbd eb52 23bd
00000080: f0cc 843e 4536 ba3e 41ac 83bd 5811 22be
00000090: 4c0b 9bbe aa20 bb3d 2788 c63d 6717 1d3e
000000a0: 62ec 76be f6ff 643d 1d61 223e 4949 793e
000000b0: 3ec1 ab3e 465b d63e f9b6 a93e 2ae6 6a3d
000000c0: 1380 ae3e dc68 23bd c0ee 0c3d 25ba 4d3e
000000d0: 6a07 7d3e cd68 e0be a331 92bd a21d 89bd
000000e0: 580a 1cbe a749 fb3d 8d82 6b3e c461 963e
000000f0: cbef 8dbe 3d3d 44be 2d10 d33e f86b 4bbc
-0.109692916 -0.29899982 -0.27029693 0.30315137 0.27098632 -0.36635014 0.29362568 -0.19066063
0.33622 -0.2600688 -0.29311725 -0.10405502 -0.072452776 0.2311299 0.1906877 0.4259871
0.39257124 0.3935138 0.42418122 -0.12782988 0.4072734 0.15861888 0.29034677 0.3370739
-0.35326526 -0.41548464 -0.33288935 -0.32053426 -0.005328805 0.35612386 -0.0767315 -0.039874
0.25937605 0.3636953 -0.06429339 -0.15826929 -0.30282056 0.091370896 0.09693938 0.15340959
-0.2411361 0.055908166 0.15857358 0.24344362 0.3354587 0.4186651 0.3314741 0.057348408
0.34082088 -0.039894924 0.034407377 0.2009054 0.2470986 -0.43829957 -0.07138374 -0.06695105
-0.15238321 0.122699074 0.2299902 0.29371464 -0.2772201 -0.19163986 0.4122328 -0.0124158785

layers.0.Ah.conv2.weight f4 [32, 64, 3]
00000000: 95e0 1abd 0eb6 d3bc c55f 0d3d 136d 8b3d
00000010: f211 00bd b022 873d 5344 943b ec91 8d3c
00000020: 28a3 1e3d f0c1 8bbd 5488 06bc 1b81 90bd
00000030: dcab f8bc 8622 8fbd 4674 913d ae31 90bc
00000040: ea26 ed3c 03e4 94bd e83d 67bd c22f ee3b
00000050: 7b53 25bd e5e4 29bd b05c b63b 34ff 193d
00000060: fb9e 7dbd b276 82bc 069b 30bd 19a8 0cbd
00000070: dab7 b6bc 5f71 903d dc07 29bd 7e11 8c3c
00000080: a7f6 5a3d 814d f13b 0a65 de3c 29d9 86bb
00000090: a11c 28bd febb 0d3d c034 2abd 42c8 65bd
000000a0: 2ccc cf3c fce9 e9bc 745c e2bc 805e 8e3b
000000b0: 0f97 22bd db6b 863b 4061 74bd 4956 17bd
000000c0: b1e2 d63c 5401 893d 070d d438 fca4 9bbd
000000d0: 525e 353c a30e bbbd e41c 84bc 81a6 f83c
000000e0: 14ef 983c d9fd 013c 0195 26bd 594c 57bd
000000f0: 0e76 98bc b2fb 82bd aa4b 86bc acb6 033d
00000100: d0e0 b6bb 9962 323c 68db 13bd 29cd 8f3c
00000110: 0076 4fbd ebff 6f3d 73d6 74bd 5754 243d
00000120: 7fd3 efbb 9dd3 963d 1396 523d 24c8 c43c
00000130: ee71 21bc d003 05bd 87ea 8f3c 761b 45bd
00000140: 6d73 aebc b651 813d 5f86 623d 0bf1 f03c
00000150: f99f 2b3d 5195 34bd 61b4 9d3b 40cf 6abd
00000160: 1adf c7bc 41a6 57bd 67b0 4c3d 3f33 653c
00000170: d443 3c3d 9c5d 153d 4bb6 153c 5392 82bd
00000180: 45cb 0f3d 2035 a5bd 6e01 90bd 70e3 b3bd
00000190: a2be cbbc bf6b 1dbd a531 573d 00a9 26b9
000001a0: 5d3a bd3c f881 a73c 6665 2fbc c0e2 d7bb
000001b0: 9905 d0bc 1085 d13b e728 b53d 545e cb3c
000001c0: 3341 1d3d 54f5 64bd cdf8 a53b 71b9 163d
000001d0: 7d2f bbbc bcb7 653d cecf bfbc ba6f ee3c
000001e0: 9ead 353d 2f52 01bb 6bde 833d c715 523d
000001f0: db86 a63c 4c2d 813d 6f0f 8dbc b463 62bd
00000200: bfea 8dbd f80c 31bc 00e5 8bbd b2d8 94bb
00000210: 9f9e e33b 6f07 e5bc a669 1fbd aee8 b4bc
00000220: 12a3 0d3d a6b0 08bd 2f2f 3dba eaa6 59bd
00000230: ed6d 8f3c 1106 94bd a564 3bbd d9d4 b7bd
00000240: a530 81bb ee7c 333d 572a 383d 7475 fb3c
00000250: b00b f53c 38c8 cabc 25b0 463d 1a15 42bd
00000260: f239 e338 368e 133d 80fc c53b a600 ce3c
00000270: 0ac6 1d3b 14be d13a 4faa 82bd 4094 cb3b
00000280: 6460 54bd 85fb ec3c 6cae 1c3d 30d8 24bd
00000290: 4ab0 e83c 0271 60bc 58ed 833d 8746 3a3c
000002a0: 1e07 b7bc 0de2 afbb 2529 6c3d 6f23 38bd
000002b0: ad96 e0bd 9eb7 e1bd 60df 18bd 9332 3bbc
000002c0: e8b6 5fbd d62a 433c 0d7e a8bc c255 65bc
000002d0: 1ee3 733c 5abe 80bc 0b34 863d 985e 4f3d
000002e0: 9385 2e39 932e 2dbc faed 633d c2e8 80bd
000002f0: d226 9cbd 3dc0 02bd 094d 77bd 6b2e e03c
00000300: 91b5 12bd fe75 7fba 9ef0 d03c dc1e 383c
00000310: 59c6 cdbc 78f5 a13d 3f78 883c 0450 373d
00000320: d170 713d 796e 7a3b 1973 80bd 6de4 bebd
00000330: 4c17 8c3d 3a46 35bc 66ca 18bc 1f09 f7bb
00000340: b713 1abc d04a 66bc 2571 f73c ffff 103d
00000350: 703a dfba 9eb1 653d c421 533d 9b5c 073d
00000360: 1926 783d f032 9a3d ac5a 23bd 9808 9dbb
00000370: 6553 f33c 113e 02bd c42c e1bc 038b 863d
00000380: bc70 8c3d c611 8b3d 848a 3fbd 5309 923d
00000390: 8b2c 453d 9630 88bc 7092 6a3d 19f1 043d
000003a0: 39d0 64bd 88a2 8d3d 47ab 57bd c572 a8bd
000003b0: 96ec 9d3c b16d 80bd 7962 313b 5ad8 753d
000003c0: fb77 843d 25ec 85ba d94a 443c bc76 03bc
000003d0: bb54 2fbd f5b7 81bd 5187 263d cc64 1dbb
000003e0: 2215 813d 470b 8c3d 7475 473d 9159 95bd
000003f0: f876 353d 87b0 32bd 7d09 5d3c c14b 10bd
-0.037811834 -0.025843646 0.03451516 0.06807914 -0.031267114 0.06598413 0.0045247464 0.017281495
0.038729817 -0.068241 -0.008211214 -0.07055875 -0.030355386 -0.06989007 0.071022555 -0.017601814
0.02894922 -0.07270052 -0.056455523 0.007268877 -0.040362816 -0.041478056 0.0055652484 0.037596896
-0.061919194 -0.015925739 -0.043116592 -0.034339998 -0.022304464 0.07052874 -0.04126726 0.017098185
0.053457882 0.0073639755 0.027147789 -0.004115243 -0.041042928 0.03460311 -0.041554213 -0.056099184
0.025365911 -0.028553955 -0.027631976 0.0043447614 -0.039694842 0.004102213 -0.059663057 -0.036947522
0.026231142 0.066897064 0.00010111374 -0.07599828 0.011069851 -0.09133651 -0.016127057 0.030352833
0.018668689 0.007934057 -0.040669445 -0.052563045 -0.01861098 -0.06395663 -0.016393501 0.03215663
-0.005580999 0.010887765 -0.036097914 0.017553883 -0.050649643 0.05859367 -0.059774827 0.040119495
-0.0073189135 0.07364581 0.051412653 0.024021216 -0.009853823 -0.03247434 0.017567886 -0.048121892
-0.021295274 0.06314413 0.055303928 0.029411813 0.04190061 -0.04408771 0.0048127626 -0.057326555
-0.024398375 -0.052648786 0.049972918 0.013989269 0.045963123 0.036466226 0.0091377 -0.063755654
0.035105962 -0.080667734 -0.07031523 -0.08783615 -0.024871174 -0.038432833 0.05253758 -0.00015893951
0.023099119 0.020447716 -0.010705328 -0.00658831 -0.025393294 0.006394036 0.08845692 0.024825253
0.038392257 -0.055898026 0.0050650598 0.036797944 -0.022849793 0.056083426 -0.023414519 0.02910601
0.044355027 -0.0019732823 0.06438907 0.0512903 0.020327976 0.06307468 -0.017219273 -0.055270866
-0.0692954 -0.010806315 -0.06830788 -0.0045424337 0.0069463993 -0.027957646 -0.038919114 -0.022083607
0.034579344 -0.03337159 -0.0007216809 -0.053137697 0.017508471 -0.072277196 -0.04575028 -0.08976144
-0.0039425665 0.043820314 0.044962253 0.030695654 0.0299128 -0.024753675 0.04850783 -0.047383405
0.00010834997 0.036024295 0.0060420632 0.025146794 0.002407434 0.0016002082 -0.0638014 0.006212741
-0.051849738 0.028928528 0.03825228 -0.040245235 0.028404374 -0.013698818 0.06441754 0.011369354
-0.02234226 -0.0053675235 0.057656426 -0.044955667 -0.10966239 -0.1102135 -0.037322402 -0.011425632
-0.054617792 0.011912068 -0.020567918 -0.013997497 0.014885692 -0.015715767 0.06552895 0.05062732
0.00016643693 -0.010570186 0.055646874 -0.06294395 -0.07624592 -0.031921614 -0.0603762 0.027365884
-0.035817686 -0.000974506 0.02550536 0.011237826 -0.025118994 0.079081476 0.0166589 0.044754043
0.05894548 0.003821282 -0.06271953 -0.093209125 0.06840381 -0.011064107 -0.009325599 -0.007538929
-0.009404114 -0.014055923 0.030205319 0.035400387 -0.0017030966 0.056077592 0.051545873 0.0330473
0.060583208 0.07529247 -0.039881393 -0.004792284 0.029702852 -0.031797472 -0.027487166 0.06569483
0.0685744 0.067904994 -0.04676296 0.07130685 0.048138183 -0.01662473 0.05726856 0.03245649
-0.05586264 0.06915766 -0.052653577 -0.082250156 0.019277852 -0.06270922 0.002706675 0.060020782
0.06468197 -0.0010217471 0.011980736 -0.008023914 -0.042805415 -0.06333915 0.04065639 -0.0024016378
0.06302859 0.068380885 0.048695996 -0.07292474 0.04430291 -0.04362538 0.013491032 -0.035228495

layers.0.Ah.conv2.bias f4 [32]
00000000: 7d60 533d 09a3 9abd e573 9abc 9c6a a03d
00000010: 8ab8 fcbc 367b 923d e470 20bd f17b dcbc
00000020: ce66 15bd 15a1 be3b f0bf c13c 8244 94bd
00000030: 1f35 fcbc 3323 0b3d 6478 243d 1457 8a3c
00000040: 3459 06bd 2e11 3ebd 832d d23c c973 193c
00000050: fcfb 67bb 732d 8f3b ecfc 363d a1e3 753d
00000060: 5cb1 183d 6fc2 8a3d 7c04 413d 3b22 45bd
00000070: 7637 41bd c337 2abd 55e5 923d eae4 433d
0.05160569 -0.07550628 -0.018854091 0.07832834 -0.030849714 0.07152407 -0.03917016 -0.026914569
-0.036474995 0.0058175423 0.023651093 -0.07239629 -0.030787049 0.033969115 0.040153876 0.016887225
-0.032799914 -0.046403103 0.025656467 0.009365984 -0.0035397997 0.0043694316 0.0446748 0.060031537
0.037278518 0.067753665 0.047123417 -0.048128348 -0.047172032 -0.041557085 0.07172648 0.04782573

layers.0.Ah.conv3.weight f4 [1, 32, 3]
00000000: a5fd d3bb 37b5 bfbd b958 11bd e0d3 463d
00000010: 8867 8abd 73f9 94bd 4c01 8b3d 0bed cc3d
00000020: 3468 8b3d e0dc fc3d 540e ba3c f603 153d
00000030: 129b 103b 6fab 813c c951 c13c 6aaf babc
00000040: 346e c73d ff05 4b3d 21a0 75bc b342 b3bd
00000050: 8bea 7cbd a855 61bd 1e53 5b3d 6924 14bd
00000060: 9d75 57bd 9727 b8bd e38d 90bd dce2 5a3d
00000070: 61bf 6b3d 0d93 76bd 1873 40bd 9331 83bc
00000080: 22aa bebd fde8 22bd 69a8 cfbd 1593 0a3d
00000090: 236a b73d a267 f3bb 0bda 123d b00a cd3c
000000a0: a0e3 b8bc 5a52 1d3d 2f43 583d a1f9 69bd
000000b0: 5f46 82bd cb11 a9bd 80bc 343d c29f 8cbc
000000c0: 3929 c0bd 2e23 bc3d f4f9 d1ba ac06 1dbd
000000d0: a879 b13d 0557 45bd 7d02 283d 9bed 003d
000000e0: 0cff 76bd 0e6d ac3c 2dbf 7d3d 974a 403d
000000f0: ecbc a83d 18ef bb3c 4bde ac3b e27c 043d
00000100: b730 babc 9603 beba 9d6e a2bd 8d3c a7bc
00000110: 7128 be3a b998 993d 0450 93bc f804 9b3b
00000120: 8e96 17bb 33f0 693d 8b12 853d a1dc 383d
00000130: e47c 27bd 6cfd ff3d ef53 9e3d a5d7 373c
00000140: 17a0 fbbb 1748 a5bd b465 33bd 8a9f b2bd
00000150: 3557 9ebd 0396 09bc 6c0b b0bd 34d0 b5bd
00000160: bd0e 243d 91b4 15bd 5d79 ccbc e306 ca3d
00000170: 5e45 613d a5c1 6c3d 7c35 0e3d fa3d b73b
-0.006469446 -0.09360736 -0.035485003 0.048541903 -0.06758028 -0.07274141 0.06787357 0.1000615
0.068069845 0.12346816 0.02271191 0.03638073 0.0022065085 0.015828816 0.023598569 -0.022788722
0.097378165 0.049566265 -0.014991791 -0.08752956 -0.061747115 -0.05501333 0.053546064 -0.036167536
-0.0526024 -0.08991926 -0.07058313 0.053439006 0.05755556 -0.060198832 -0.046984762 -0.01601485
-0.09309794 -0.039772976 -0.101395436 0.033831675 0.08955791 -0.0074281255 0.035852473 0.02502951
-0.022569478 0.038408615 0.052798446 -0.05712283 -0.063610785 -0.08255347 0.04412508 -0.017166022
-0.093828626 0.091863975 -0.0016019926 -0.03833644 0.08665782 -0.04817869 0.041017998 0.0314766
-0.060301825 0.021048095 0.061949898 0.046946134 0.08239159 0.022941157 0.005275523 0.03234566
-0.022728307 -0.0014496918 -0.07931254 -0.020414615 0.0014507902 0.07499833 -0.01798249 0.004730817
-0.002313051 0.057113837 0.064976774 0.045132283 -0.04089059 0.12499508 0.07730853 0.011220847
-0.0076789963 -0.08070391 -0.043798164 -0.08721836 -0.07731477 -0.008397582 -0.085959285 -0.08877602
0.040053118 -0.036549155 -0.024960214 0.09864595 0.054997794 0.05780186 0.034718975 0.005592105

layers.1.Aw.conv1.weight f4 [64, 1, 5]
00000000: f513 44bd bedc 923e be72 cebd 189a be3b
00000010: e67a dcbd 6ec3 503e 194f 98be f28d 2b3e
00000020: da46 f9bd df3e 9bbe 3303 39be c23a 17be
00000030: 8bfe b43c 2a8b c4be f119 d8bd f1f9 9f3e
00000040: a305 693e b2ba 3f3e b5fc a73e e091 a03e
00000050: 1255 0abe c8b1 72be 3738 86bc 0ecb 12be
00000060: d8cb 1cbe ad3a a73e 310a 403e 2be8 14be
00000070: 43af 8cbe 3be8 01be f1b7 fa3b 7d8d 953e
00000080: f52c 2c3e 20a3 693e 0238 3fbe 5f94 b93e
00000090: a916 503b 6452 f53d 6b8b a43a 57b6 ddbe
000000a0: 08b9 cabd 93f9 b9be 14b8 00bd c349 32be
000000b0: c72c 82be 4840 b7bd f6da 9bbd 00ae 1b3d
000000c0: b10f debe af34 ab3d a644 993e 660d 1a3e
000000d0: 6dc0 e1bd 69ef c93e 4f49 6a3e f58d a5be
000000e0: e240 4bbe 628a ad3e 73e5 9dbe 643d 9fbe
000000f0: 032f 44be 9653 c93e c284 cfbe c30a 90be
00000100: 1063 f1bd b9d7 a23e 8600 bdbc fe8a 963e
00000110: f883 c7be e140 443e f1c7 b5be 7a78 a1bc
00000120: 10e2 a3be 39e7 aabe 05d3 e9bd 5314 afbd
00000130: a300 84be c0a8 d8be ddcf a63e 39c8 02be
00000140: 5dc8 6d3e 6443 c4bd 88e0 a5be a034 273e
00000150: 0a38 0cbe f553 803e 0694 673e 15aa a3bd
00000160: 780b 76be c149 c53e 827c 8d3e 46e5 0ebe
00000170: d6cf 13be 4b00 92be 4239 5ebe 52dd b33e
00000180: 72b6 c4be 893d 0fbe ba47 8dbd 9b4b 30ba
00000190: 611d ee3d bae1 6c3e 3c9d 773d e229 023e
000001a0: c3ed 223e f5ca 93be f083 4abd 18ae 38bd
000001b0: a520 443e 47a3 f83c 41ad c93e 173e a4be
000001c0: acd7 433e ea95 d43e b121 e33e c67e bebe
000001d0: 2869 2d3e 3fff 64be b032 983e f37f cc39
000001e0: 160e 92bc ed71 aebd a1a1 c6be 8ab8 b6bd
000001f0: 82af 1bbe 1acd 9cbd 2b6f 25be 7ce2 203b
00000200: e436 253d 7ec7 92be 4ec8 843e 9e12 0ebe
00000210: eb0e d3bd 461f d83e e9b0 b9be bffc fb3c
00000220: 2116 593e 4b38 c23e b398 2cbe 29c3 bebe
00000230: 63c4 b6be ffa4 8c3d 9471 073e 50f4 9a3e
00000240: 1c86 c23e 3803 afbd be13 cdbd c528 183e
00000250: 0864 25be f12f e0be f730 643e f02c 143e
00000260: 9ab2 40be ef7c d3be 9223 e2bd a7ea a63e
00000270: a788 b2bc be54 cc3d 11b7 c5be c3c9 c3bd
00000280: 945e 163e beaa 933e fc98 dbbe c9e4 b53e
00000290: c92a 9839 9064 dd3b 9901 b53e bd27 dfba
000002a0: bd3a 62be b86d d43e 89b4 e5bd e016 4d3e
000002b0: 1151 c5be ce5d 87bd d180 883d 4ba4 18be
000002c0: c029 3d3e db5c 5e3e 75fb 9bbe 3c24 98be
000002d0: 1155 d1bd d913 0ebe 334e 913e f8db 6a3e
000002e0: fa57 a43d f8d9 9d3e 514d 8bbe 9e72 713d
000002f0: 4e4a b43e 6de3 aa3e 26e9 103e adc1 713e
00000300: 86d0 cabe 07f1 763e 1d46 dbbc f4d4 233e
00000310: 3f79 8b3e 4a96 923e b798 bd3e d2b2 ab3e
00000320: 79e7 833e 0da8 a83e 3a5b bfbe 4aad e1be
00000330: be87 75be 29e0 20be 9769 c83e 17c8 413e
00000340: 2ce3 573e 19ec 313e b11a 3abe 042e 723e
00000350: a178 c1be 296d c83e b981 933e c62c 043d
00000360: f5af be3e 3330 20be 90bc c73e 799b 62be
00000370: 2aa0 05be 18dd f8bd 7b0c a73e 79d8 d73e
00000380: f74e 30be 7199 ae3e 2431 00be 6532 8e3e
00000390: 090b d7be bf7f c7be dea4 aa3e c641 c33e
000003a0: 6a91 aebd 5451 8abe ad50 92be c7b5 8fbe
000003b0: f086 9a3d 3a92 573e 1942 cdbe 4f24 7ebe
000003c0: fae6 e6bd 1318 d03e 088c d23e 17dd 55be
000003d0: 19db 8fbe 7ae5 6a3e fdb8 cbbc dd2c 48bd
000003e0: cbc6 383b ed87 5fbe 809b cebc 03e2 943e
000003f0: e7e2 af3e 0994 d83e 9b57 a3be 8717 e03e
-0.047870595 0.28684038 -0.10080479 0.0058167093 -0.107656285 0.2038705 -0.29747847 0.16753367
-0.12171717 -0.30321404 -0.18067627 -0.14768508 0.022094032 -0.38387424 -0.10551823 0.31245378
0.22756056 0.18723562 0.32809988 0.31361294 -0.13509014 -0.2370063 -0.016384227 -0.14335272
-0.15312135 0.32661954 0.18753888 -0.1454169 -0.27477464 -0.12686245 0.007651322 0.2920951
0.16814025 0.22816133 -0.18673709 0.3624601 0.0031751788 0.119786054 0.0012553757 -0.43303177
-0.09898573 -0.36323223 -0.03142555 -0.1741095 -0.25424787 -0.089478076 -0.07610123 0.038007736
-0.43371347 0.08359658 0.29935187 0.15044174 -0.110230304 0.39440468 0.22879528 -0.32334867
-0.1984897 0.3389464 -0.30839118 -0.31101525 -0.19158559 0.39321584 -0.40530974 -0.2813321
-0.11786473 0.31805208 -0.023071539 0.29402918 -0.38967872 0.19165374 -0.35504106 -0.019710768
-0.3200841 -0.33379534 -0.11417202 -0.085487984 -0.25781736 -0.42316246 0.32580462 -0.12771691
0.23220964 -0.09583166 -0.32397866 0.16328669 -0.13693252 0.25064054 0.2261506 -0.07991425
-0.24027812 0.38532832 0.27634054 -0.13954648 -0.14434752 -0.2851585 -0.2170153 0.35129791
-0.38420445 -0.13988318 -0.068984464 -0.0006725133 0.11626697 0.23132983 0.060452685 0.1271129
0.15911011 -0.2886578 -0.04944223 -0.045087904 0.19153078 0.030351294 0.39389995 -0.3207862
0.19125241 0.41520625 0.44361642 -0.37206095 0.16934645 -0.22362994 0.29726171 0.00039005242
-0.017828982 -0.08517823 -0.38795188 -0.08921917 -0.1520367 -0.076563075 -0.16155688 0.0024549058
0.04033555 -0.28667825 0.2593407 -0.1387429 -0.1030558 0.4221136 -0.36267784 0.030760167
0.21199848 0.37933573 -0.16855125 -0.3725827 -0.35696706 0.06867408 0.1322692 0.3026452
0.37992942 -0.08545536 -0.10013531 0.14859302 -0.1615144 -0.43786576 0.22284304 0.14470267
-0.18818131 -0.41306254 -0.11041941 0.326009 -0.021793677 0.09977101 -0.3861623 -0.09559967
0.14684516 0.28841203 -0.42890155 0.35526112 0.00029023577 0.0067563727 0.3535278 -0.0017025393
-0.2209272 0.4148996 -0.11216075 0.20028257 -0.3853841 -0.06609689 0.06665195 -0.14906423
0.18472958 0.21715109 -0.30465284 -0.29715145 -0.10221303 -0.13874759 0.28379974 0.22935474
0.08024593 0.3083036 -0.27207425 0.058947198 0.3521294 0.33376637 0.14151439 0.23609038
-0.39612216 0.24115382 -0.026766831 0.15999204 0.2724094 0.28630286 0.37030575 0.33534867
0.25762537 0.32940713 -0.37374288 -0.44077522 -0.23977563 -0.1571051 0.3914306 0.18923984
0.21082753 0.1737522 -0.18174244 0.23650366 -0.37787345 0.39145783 0.28809908 0.03226926
0.3724362 -0.15643387 0.3901105 -0.2212962 -0.13049379 -0.12151545 0.3262671 0.42157343
-0.17217623 0.34101442 -0.12518746 0.27772823 -0.42000607 -0.3896465 0.3332891 0.3813612
-0.08523829 -0.27015173 -0.28577176 -0.28068373 0.075452685 0.21051875 -0.4008949 -0.24818538
-0.11274524 0.40643367 0.4112246 -0.2088512 -0.28096846 0.22939101 -0.024868483 -0.04887091
0.0028194662 -0.21829195 -0.025220633 0.29078683 0.343528 0.42300442 -0.31902775 0.4376795

layers.1.Aw.conv1.bias f4 [64]
00000000: 26e7 e93d 2345 c7bc 4b91 c73e 7ee6 b43e
00000010: 8f98 38be eeaf b1bd 06e7 87bd 1673 953e
00000020: ca9b 04be 5874 f1bd 05dc 8abe cbd1 e6bd
00000030: 3c76 943e a210 5cbe 237c cbbe e9e8 823e
00000040: a681 a33e eb70 0cbe 245b 01be a2fe 0d3e
00000050: cad9 a9be 134e 6bbe 4b11 b93e 762e 01be
00000060: f117 37be 6eb1 7d3e 2fce d6be d0ec cb3e
00000070: ee89 d83d 7990 aebe 2693 c13d c126 d8bd
00000080: 9907 d93e f160 27be fdb0 85bc 2c3e 9ebe
00000090: 2c8c b1be a6dc 8bbe 53b7 243d aeb3 a13c
000000a0: 119e aebe 5946 903d 3dfe 9e3e 1a54 8cbe
000000b0: 508c 83be 2673 7f3e 5a8a d63e a2b6 0d3d
000000c0: 8b8b b73e b7d2 4dbd 072d 5ebe 298a bc3e
000000d0: ef7c 96bd 6247 bbbe 383f 98be c14d 3b3e
000000e0: 6409 7d3e 55e4 973e bae8 b1be 10c2 90be
000000f0: 35bd 7fbe c63a 483e 43d7 b5be 5e83 8bbe
0.11421041 -0.02432496 0.38978037 0.35332102 -0.18026946 -0.08676134 -0.06635861 0.29189366
-0.12950054 -0.11789769 -0.27120987 -0.112704836 0.28996456 -0.2149072 -0.39743146 0.2556832
0.3193485 -0.1371495 -0.12632424 0.13866666 -0.33173972 -0.22979002 0.36146006 -0.1261538
-0.17880227 0.24774715 -0.4195418 0.3982911 0.10573183 -0.340946 0.094518945 -0.10554267
0.4238861 -0.16345574 -0.016319746 -0.30906808 -0.34677255 -0.2731678 0.040213894 0.019738998
-0.3410497 0.07044668 0.31053343 -0.27407914 -0.25692987 0.2494627 0.4190243 0.034598
0.3584865 -0.05024978 -0.21696864 0.36824158 -0.07348048 -0.36577898 -0.29735732 0.1829138
0.24710613 0.2966639 -0.3474787 -0.28273058 -0.2497452 0.1955367 -0.35515794 -0.27248663

layers.1.Aw.conv2.weight f4 [32, 64, 3]
00000000: 8c26 043c a5e8 b73a daf9 70bd 208d 68bd
00000010: 5978 2d3d a577 a2bc 7d99 c13b 6cc6 62bd
00000020: ea5f 65bc e526 6abd 5218 61bd 881a 523c
00000030: f4e6 e23c 747a 6fbd 69ce d5bc 7d6e ab3c
00000040: 9b07 38bd 2523 43bd 890d b13c b3c5 02bc
00000050: d6ff aabc d649 7bbd 1d79 7cbd ab89 ebbc
00000060: 98b6 80bd 4dcc 72bc 21ed 6c3d 4fd8 503d
00000070: a4e8 99bd 1a12 38bd 36a8 af3c a5aa 28bc
00000080: cff7 ed3c 0f28 f33c a8c8 38bd bf6c 76bd
00000090: 9ef8 d4bc 3bc4 903c d8c3 0dbd 58b6 8a3d
000000a0: 754d 79bc 6548 853c fb90 0a3d 3139 3a3d
000000b0: 8308 70bd 108e 943d acb0 0cbc 0197 573b
000000c0: d8d1 c4bc 21bf 6abd 4c04 22bc 198b 953d
000000d0: be4e 3fbd 911e 63bd fb40 91bd 2cda ba3c
000000e0: acab 30bb 0867 843d 55a7 ae3b 4ec8 a33c
000000f0: c00f ecbc 471a 1abd 8a17 e3bc 993f 5abd
00000100: 9baf 7d3d f55a 233d 14f5 23bd 91b2 183d
00000110: a6ee 0d3d 4535 903c 1617 11bd 9820 61bb
00000120: 9bbe 2cbd 03ee 19bd f803 123d 1785 0ebc
00000130: 09aa 313d 7075 afbc 4ee3 14bd ef06 24bd
00000140: 46a9 8dbd 8b42 b1bc bcf2 843d 756e 7bbd
00000150: 8ca0 94bc be65 17bd cb4a 6b3a fc41 adbc
00000160: 6645 e1bc e778 d53c 9731 9abc 5f44 9d3d
00000170: 8a86 5a3d ed14 babc d6d7 a1bc 2957 0ebd
00000180: 200c dcbc e64d 693d 0f44 03bd e260 4cbd
00000190: e723 c73c c748 51bd 2a40 4d3d 18a2 9dbc
000001a0: b9fb f83c 7dc1 09bd edbe e4bc c0e7 993c
000001b0: 018c 82bd 7e32 f23c 334f bbbc 40ea 323d
000001c0: f9d7 c33c 94ce f5bc 3e4d 15bd 8c33 943d
000001d0: 1a67 25bd ba1c 32bd 9bf0 9fbb b1c5 c23c
000001e0: 12d9 45bd 6de1 d53c 2a33 8b3d 7c5c 2bbd
000001f0: 8f74 e4bc 6e89 52bd b9a4 663c c807 36bc
00000200: 7a80 4bbd 5bcc 65bc 5164 43bc d7a4 ecbc
00000210: 51c5 0fbd 930e 1abd d8f2 67bd 929b b4bb
00000220: c652 73bd 7de9 0c3d 28aa 88bd 1eee 6f3d
00000230: e7c7 6abd 5841 4a3d ba42 853d d7ba 3bbb
00000240: 6e1f 973c d730 3dbd 1690 98bc d1af 683c
00000250: 49f8 cdbc 420e 0d3d 9d93 b7bc 5d3a 323d
00000260: 44ac 3d3a fa2e 3d3d 245e 14bd bc1f b23c
00000270: 321d afbb e470 8c3d 0a18 bf3c 9229 8e3c
00000280: a823 9a3c 360d e4bb 5d85 1a3d 6436 213d
00000290: 7899 e0bc 5e6c 75bc 6ef5 23bd 0a5c 5bbd
000002a0: 109f 073d 0d30 1e3d db7b 8d3c a15a 35bd
000002b0: e53b 493c eccc f03c 7b63 4b3d a2b5 b2bc
000002c0: 61bc 89bd 2928 263d e624 23bd f476 763c
000002d0: 1b96 273d c274 20bd 5f4a 1d3d 1618 ba3c
000002e0: aae5 e5bc 8ff5 82bd e738 23bd 6f61 f8bc
000002f0: a680 893d d023 4abc 7e46 6ebd d351 74bc
00000300: 568a f63c 338c 0e3d 5a7a 853d 1e7d cc3b
00000310: 06e3 793d d638 fc3b 4551 89bd 092b 12bd
00000320: 50d3 f2bc aa66 a53b fd38 b53c 38ab 74bc
00000330: 9f96 deba fd5d 3bbd ab8f 213d c8ce 503d
00000340: 54e9 753d 6021 9a3c 20c6 7cbd cb77 a5bb
00000350: 1699 883d 4b48 6e3d 6b00 49bb d5d3 fe3c
00000360: 54d3 843d 8b84 30bd 4a47 843b 9453 693d
00000370: d3d1 c4bc 07de 473b ebe6 76bd 6dc1 0a3c
00000380: 9c6d c53c 0316 4ebb b2d4 1bbd cafb 153d
00000390: d40e 22bd 7bb3 2c3d 6f54 9fbd 0c34 a7bd
000003a0: d3dc 0bbd b5a2 fdbc 4572 b0bc ffaf adba
000003b0: 3d6f f1bc 2129 35bd 55c4 8cbd 7be8 3abd
000003c0: 0ba2 1c3d 3186 7ebd 0b88 95bd bf8c dc3b
000003d0: 12a5 d63c 48a8 22bd 2129 9b3c e5cc 33bd
000003e0: 8290 b3bc de0d 5abd 8652 88bc a536 623b
000003f0: 6d72 983c 361f 9abd e3a7 c33c e4fe 32ba
0.008065831 0.0014031125 -0.058832027 -0.056775212 0.0423511 -0.019832442 0.00590819 -0.05536501
-0.0139999185 -0.057166 -0.054954834 0.012823708 0.027698018 -0.05846639 -0.0260994 0.020926708
-0.04492913 -0.04764094 0.0216129 -0.0079817055 -0.020873945 -0.061349712 -0.06163894 -0.028752169
-0.06284827 -0.014819217 0.05784333 0.050987538 -0.07515076 -0.044939138 0.021442514 -0.010294591
0.029048828 0.029682187 -0.045113236 -0.060162302 -0.025997456 0.017671695 -0.0346106 0.067730606
-0.015216221 0.016269872 0.03382967 0.0454647 -0.058601867 0.07253659 -0.008587044 0.0032896402
-0.024025843 -0.05731118 -0.00988872 0.073019214 -0.046705954 -0.055449072 -0.07092472 0.02280911
-0.0026957793 0.06464964 0.005330006 0.019992974 -0.028816104 -0.037622716 -0.027721185 -0.053283308
0.06193505 0.039881665 -0.040028647 0.03727967 0.03465142 0.017603526 -0.035422407 -0.0034351703
-0.042173963 -0.0375805 0.035648316 -0.008698723 0.04337505 -0.021418303 -0.036349587 -0.040045675
-0.06917052 -0.021638175 0.064916104 -0.061384637 -0.018142961 -0.036962263 0.00089756836 -0.021149628
-0.027498912 0.026058627 -0.018822474 0.076790564 0.053350963 -0.022715056 -0.019756239 -0.03475109
-0.02686125 0.056959055 -0.032047328 -0.049897082 0.024309112 -0.051094797 0.05011002 -0.019242331
0.030393468 -0.03363179 -0.027923072 0.018787265 -0.0637436 0.029565092 -0.022864914 0.04368043
0.023906695 -0.03000573 -0.036450617 0.07236394 -0.04038153 -0.043484427 -0.0048809773 0.023775907
-0.048302718 0.026108468 0.06796868 -0.041836247 -0.02788761 -0.051400594 0.014077359 -0.011110254
-0.04968307 -0.014025773 -0.011925773 -0.028887196 -0.035100285 -0.037611555 -0.05662808 -0.0055117095
-0.05940511 0.03440236 -0.0667308 0.058576696 -0.057319548 0.049378723 0.06506868 -0.00286453
0.018447604 -0.046189155 -0.018623393 0.014202074 -0.025142806 0.034437425 -0.022409255 0.04351269
0.00072354474 0.04618738 -0.036222592 0.021743648 -0.0053440565 0.0685747 0.023326892 0.017353807
0.01881583 -0.0069595827 0.03772484 0.03935851 -0.02741693 -0.01497945 -0.040028982 -0.053554572
0.03311068 0.038620044 0.017270973 -0.044275884 0.012282346 0.02939459 0.04965542 -0.021815125
-0.067253835 0.040565643 -0.03983011 0.015043009 0.040914636 -0.03917385 0.038401004 0.022716563
-0.028063614 -0.06394493 -0.03984919 -0.030319897 0.06713991 -0.01233764 -0.058172695 -0.014912087
0.03009526 0.034801673 0.06517477 0.006240501 0.061007522 0.007697205 -0.06704954 -0.035685573
-0.029641777 0.005047639 0.0221219 -0.0149334 -0.0016982144 -0.04574393 0.039443653 0.050978452
0.060036972 0.018814743 -0.061712384 -0.005049681 0.06669824 0.058174413 -0.0030670415 0.031106869
0.0648562 -0.043095153 0.0040368186 0.056964472 -0.024025833 0.003049733 -0.060278814 0.008468968
0.024100117 -0.0031446225 -0.03804464 0.036617078 -0.039564922 0.042163353 -0.07779776 -0.08164224
-0.03414614 -0.030961374 -0.021538863 -0.0013251303 -0.029471988 -0.044228677 -0.06873385 -0.045631867
0.038240474 -0.062139694 -0.07301339 0.0067306454 0.026201759 -0.039711267 0.01894051 -0.043896575
-0.021919493 -0.05323588 -0.016640913 0.0034517434 0.01860925 -0.07525484 0.023883766 -0.0006828143

layers.1.Aw.conv2.bias f4 [32]
00000000: 0442 f03b 5f49 9b3c 56b6 1bbd 13e2 103d
00000010: 30cc 9fbb 9d52 683c ebed 4dbd a80e 8f3c
00000020: c574 aaba f9c8 183d 07be 463d 7b5f 37bc
00000030: b374 19bc fb54 68bc 2168 99bc 7a35 12bd
00000040: 7daa 363d bc0d 9cbc f9f3 a33c 01a0 193d
00000050: 4dff 353d 22cc 533d 96ab 7dbd 2e8c 4abd
00000060: da57 5abc eae1 8ebd 8b0d 483c ce48 d9bc
00000070: 1f7c 1abd f43c 5cbd bf7f f23c f3be 9c3c
0.0073320884 0.018955885 -0.038015686 0.03537185 -0.004876636 0.014179853 -0.050275724 0.017463043
-0.0013004771 0.037301037 0.048521068 -0.011192198 -0.009366202 -0.014180417 -0.01872641 -0.03569553
0.044596184 -0.019049518 0.020013796 0.037506107 0.044432927 0.051708348 -0.061931215 -0.049450092
-0.0133266095 -0.069766834 0.01221026 -0.026523974 -0.037716027 -0.053769067 0.02960193 0.01913402
