models/long_clip_10%.pt (torch, 78517 bytes, 120 tensors)

layers.0.Aw.conv1.weight f4 [32, 1, 5]
000000 ac ca 9f be bc 9e ba bd 3a 13 a5 bd 5c 8f b1 3e
       -0.31209314 -0.091123074 -0.08060308 0.34679687
000010 fa 48 ce 3e 26 8f c3 3d d5 21 b1 be df f2 09 3e
       0.40290052 0.09548788 -0.34596124 0.13471554
000020 52 19 7f be 91 2b 99 be 7f 9d e6 3e 19 a7 86 3e
       -0.24912003 -0.2991605 0.45042035 0.2629936
000030 ad 72 37 be 75 4c f1 3e 5c 00 98 3e 1b 80 01 3e
       -0.17914839 0.47128645 0.29687774 0.12646525
000040 5a 7b 70 be 61 19 bb 3d b6 b8 4f 3e b0 74 8b 3e
       -0.23484555 0.091357 0.20285305 0.27237463
000050 e8 46 88 3e 7c 35 cd 3e ec d9 ec be ac 56 8c bd
       0.26616597 0.40079868 -0.4626001 -0.06852469
000060 c6 d9 f0 3e b4 32 53 bd cc 64 92 3e f7 fa 63 3e
       0.47041148 -0.051562026 0.28592527 0.22263704
000070 a9 7a 03 3e b9 10 b5 3e 36 e0 45 3e d4 75 c9 3d
       0.1283976 0.3536432 0.19323811 0.09836927
000080 2d 2a 19 3e e3 d1 87 3e c3 5d 7f bd 93 5a 91 be
       0.14957495 0.26527318 -0.062345278 -0.28389415
000090 b0 01 0b be f3 a6 a6 be 91 18 d0 bd 63 34 cb 3e
       -0.13574862 -0.32549247 -0.10160936 0.39688405
0000a0 e0 87 21 3e 27 24 67 3e 9d de 84 3e 8a e4 ba bd
       0.15774488 0.22572385 0.2595109 -0.091256216
0000b0 95 8b 51 3b 99 b1 1c 3e 59 f6 a0 be 14 ef 06 3e
       0.0031974067 0.15302123 -0.31437948 0.13177139
0000c0 93 15 82 3e bd 33 93 be 6d 5c d7 be a5 20 b3 be
       0.25407085 -0.2875041 -0.42062703 -0.34985843
0000d0 b9 28 5c 3e 35 c4 be be b1 8d d6 be dc 1d 77 be
       0.2149991 -0.3725907 -0.41904977 -0.24132484
0000e0 68 ec 03 3d ab 65 be be 13 2a dc 3d fe 48 74 3e
       0.032207876 -0.37186942 0.107502125 0.2385597
0000f0 0e 4c 5d be 2b 28 41 bd ef 0d 25 3e 65 51 e0 3e
       -0.21611044 -0.047157448 0.16118596 0.438121
000100 67 f9 d0 bc f0 a6 bb bd d9 ba 1a be 1f 9a c3 3d
       -0.02550955 -0.091627 -0.15110339 0.09550881
000110 49 9e 16 3b 40 6a 89 3d 32 66 d3 be ac c5 aa bb
       0.002298253 0.06709719 -0.41288906 -0.0052115526
000120 84 7d 3e 3d b3 42 60 be 3a 22 e7 be b6 f4 97 bc
       0.04650642 -0.21900444 -0.451433 -0.018549304
000130 11 d0 6a 3e 7b 9c 20 be 51 e4 68 3e 6b d1 d2 be
       0.22930934 -0.15684693 0.22743346 -0.41175398
000140 38 c2 1c 3e 14 40 5f be ca 33 86 be 5c 12 bc 3e
       0.15308464 -0.21801788 -0.26211387 0.36732757
000150 47 2d be 3d 51 df 86 be 0e 3b 48 3e f4 6f 0d be
       0.0928598 -0.26342252 0.19553778 -0.13812238
000160 8b bd 75 be 30 9b 79 be 7e 11 8b 3d 4f b1 c3 3e
       -0.23998086 -0.24375606 0.06790446 0.38221213
000170 f6 a0 47 be bc d5 7a 3e bf d5 b2 be 06 3a 1f 3d
       -0.19494995 0.24495596 -0.349287 0.038873695
000180 c6 bb 76 be a9 7b 12 be c6 98 5d 3e 17 b4 bd 3e
       -0.24095067 -0.14304985 0.2164031 0.3705146
000190 9e 27 f6 3d d3 e2 9c be 5c 14 da be b0 78 31 be
       0.12019275 -0.30641803 -0.42593658 -0.17331195
0001a0 59 ac b6 3e ba c7 aa be d3 97 d9 be 37 95 58 be
       0.35678366 -0.33355504 -0.42498645 -0.21150671
0001b0 05 c7 45 3e 74 ad fe bd 14 ce c9 3e 5b 31 0f bd
       0.19314201 -0.12435427 0.39415038 -0.03495918
0001c0 db 7f af 3e 2f 44 3e 3e bd 00 98 3e e9 94 b6 3e
       0.34277233 0.18580697 0.29688063 0.35660484
0001d0 c3 fc a1 be 9d 99 9d be 0d cd 99 3e 16 5c f1 3e
       -0.31638154 -0.3078126 0.30039254 0.47140568
0001e0 03 62 8c be cb 03 3a 3e 31 22 c0 bc 0d f6 ed 3e
       -0.27418527 0.1816551 -0.023453804 0.46476784
0001f0 45 b2 9a be cf 5c 0e bd f4 e1 00 3e f7 4b 12 be
       -0.30214134 -0.034756478 0.12586194 -0.14286791
000200 e5 e3 a4 bd 26 af e0 be 9e 37 c1 be bf 58 94 be
       -0.0805128 -0.43883628 -0.37737745 -0.28973958
000210 9c 47 c4 3e e8 6f a2 3e fe 27 47 bd 81 30 e9 bd
       0.38335884 0.31726003 -0.048622124 -0.113862045
000220 9a a9 30 be 78 53 e8 bd db 15 65 3e 61 6e 87 3e
       -0.17252198 -0.113440454 0.22371618 0.264514
000230 0e b1 6c be 84 3d 8c 3e ca 97 4c bd 31 33 83 3c
       -0.23114416 0.27390683 -0.049949445 0.01601562
000240 44 15 8c be cd a6 13 3e 22 13 cf bd 27 49 bc be
       -0.27359974 0.14419098 -0.10111071 -0.3677456
000250 69 6d 1d be 5e 69 b6 be 99 8a a5 3d cb 72 a6 be
       -0.15373768 -0.35627264 0.08083076 -0.32509455
000260 79 c7 f3 3e db 22 e4 3e 40 ca 64 3e 28 37 a0 3e
       0.47613123 0.44557843 0.22342777 0.3129208
000270 3c 96 ac 3e 5c ea 45 be dc 44 b6 be df d7 96 3e
       0.3370837 -0.19327682 -0.3559941 0.29461572

layers.0.Aw.conv1.bias f4 [32]
000000 df a0 9e 3e 4a c8 dd 3d 56 5a 37 be 9c 61 cb be
       0.3098211 0.10829218 -0.17905554 -0.39722908
000010 dd 75 a3 3d f3 a2 1b be e9 33 3b 3e 9c 3b 63 bd
       0.07981465 -0.15198879 0.18281521 -0.05547677
000020 2e 5c e3 3e 6c f6 41 be 4e eb 43 be d4 af d7 3e
       0.44406265 -0.18941659 -0.1913273 0.42126334
000030 f5 e8 be bd 2e 8d 2b be 17 d5 ea 3e 82 09 b0 3b
       -0.09321777 -0.16753075 0.458657 0.005372227
000040 f4 93 bd be f3 32 9b 3e ec ca d9 3d 96 7b 06 be
       -0.37026942 0.3031231 0.106344074 -0.13133082
000050 5a 22 50 3d 09 56 c0 3e d6 27 1c 3d 4c 2c 2e be
       0.05081401 0.3756564 0.038123928 -0.17009085
000060 48 3c c8 be 91 e2 99 bd 17 75 9e bd 7f 7a 46 3e
       -0.3910849 -0.07513917 -0.07737177 0.19382666
000070 02 b5 be be 0a 73 72 3e 11 d0 91 be d0 98 8f 3e
       -0.37247473 0.23676696 -0.28479055 0.28046274

layers.0.Aw.conv2.weight f4 [16, 32, 3]
000000 26 23 93 bc 03 ad 00 3c 0e a6 d0 3a e5 ae 40 bc
       -0.017961096 0.007853749 0.0015918629 -0.011760448
000010 89 85 e2 bd 6e cf d8 bc d2 eb e9 3d f6 ce 52 3d
       -0.11060626 -0.026466098 0.11421932 0.051466905
000020 bd b0 36 3e 00 75 2f 3c b5 c1 d2 3d 90 c1 d6 3d
       0.17840858 0.010709047 0.10290853 0.10486138
000030 38 06 af bc 4d 47 73 3d b0 81 61 3d d7 fe 08 3d
       -0.02136527 0.05939417 0.05505532 0.03344616
000040 52 5b 2c 3d e7 a7 0d 3c ec 64 8c 3d d6 c8 ff bc
       0.042079277 0.008645988 0.06855187 -0.031223696
000050 6f ba 27 bd 95 26 19 3e 79 4a 3e 3e 0b db 49 bd
       -0.04094928 0.14956124 0.18583097 -0.04928116
000060 94 58 16 bd bf 03 c8 3c a5 cf 94 bd 73 bc 83 bd
       -0.03670557 0.024415849 -0.072661676 -0.06432428
000070 ad 32 45 3d 47 25 47 bd 6c c2 b3 3c 55 9f 2a bc
       0.04814403 -0.048619535 0.021943294 -0.010413964
000080 e8 f7 f5 bd 34 13 6a 3d 82 0f 47 3d 2b b4 9b bc
       -0.12010175 0.05714722 0.048598774 -0.01900681
000090 7d d9 14 3e 13 f6 04 bd 09 a8 80 3d b6 b3 21 3d
       0.1453609 -0.032461237 0.0628205 0.039478026
0000a0 bf ba d6 3c 21 82 7d 3d 6f 17 58 bd 6d 19 61 bd
       0.026212094 0.06189168 -0.052756723 -0.05495589
0000b0 52 0c a6 bb 5d 32 81 3d 8e 6d 4a 3d 49 05 32 bc
       -0.0050673867 0.06308434 0.049420886 -0.010865518
0000c0 d8 d6 50 3c 56 3c 14 3c 95 cf 84 bd 49 2a 92 bc
       0.012746535 0.009047588 -0.06484906 -0.017842429
0000d0 6b e4 cf 3b 2e a3 ac 3b 2e 47 8d 3d ea 52 6b 3b
       0.006344368 0.005268476 0.06898342 0.0035907575
0000e0 8d 18 5d 3c df 93 03 bd 25 05 c8 3d 1c b1 37 3d
       0.013494623 -0.032123443 0.09766606 0.04484664
0000f0 f4 0b 46 3d 37 e1 cd 3c 1d 0a c8 3d 83 95 de bc
       0.048351243 0.025131805 0.09767554 -0.027170902
000100 10 e7 8d bc 86 88 c1 bd d4 04 ae 3c 96 80 0e 3d
       -0.017322093 -0.09449868 0.021242537 0.034790598
000110 b2 91 34 3d b5 a7 98 3c 8e 7b 7f 3d a4 0b df 3d
       0.04408426 0.018634656 0.06237369 0.10890892
000120 c8 09 d3 3d fc 17 1d bb 6f 67 d8 3d 82 34 7d bd
       0.103046 -0.0023970595 0.105666034 -0.061817653
000130 33 20 17 bd 19 73 66 3c ec 29 e5 3d 92 76 06 bd
       -0.036895942 0.014065527 0.111896366 -0.03282792
000140 85 50 41 3e 4c 9a ae bd 68 d9 d2 bb d5 43 8c 3c
       0.18878372 -0.085255235 -0.0064346083 0.017122189
000150 76 d0 6e bc b0 7b c7 bc b6 63 a3 3c aa e5 4e 3a
       -0.014576068 -0.024350971 0.019945007 0.0007892499
000160 e5 f6 65 3c c3 e3 4d 3d 30 2a 25 3e ec 31 ed 3d
       0.014035915 0.05026604 0.16129375 0.115817875
000170 ad e5 34 3e 8c 8b 9b bd ad bf 57 3d 42 4c d9 3d
       0.1766574 -0.07594976 0.05267303 0.10610248
000180 e8 c9 96 bd ad e2 cc bd 95 6f 68 bd 37 e8 12 bd
       -0.07362729 -0.100041725 -0.056747038 -0.03586599
000190 7b 7b c8 3d 1e 70 cc bb d6 36 26 3d c0 e2 64 bd
       0.09789177 -0.0062389513 0.04057964 -0.05588031
0001a0 09 ca b0 bd 1c 58 27 3d 38 47 d4 3b ff fa b8 3d
       -0.08632285 0.040855512 0.0064782165 0.09032249
0001b0 a9 0a 8a 3d b5 57 ab 3c be 88 13 3c 73 c2 38 bd
       0.067403145 0.020915845 0.00900477 -0.045107316
0001c0 c1 4c d9 bd ef 2d 35 bd 2a 49 64 bd 3a 80 9d 3d
       -0.10610343 -0.04423326 -0.055733837 0.07690473
0001d0 15 f9 17 3d 0a 32 4a 3d b8 94 08 be db 80 73 3d
       0.037102778 0.049364127 -0.13337982 0.059449058
0001e0 71 de a2 bd 1c 3c e3 3c d1 29 d6 bd e3 80 31 3d
       -0.079525836 0.027738623 -0.104571946 0.043335807
0001f0 cf 7b a8 bd d5 c1 01 bd 6a cf a2 39 38 16 a3 bb
       -0.082267396 -0.031678993 0.00031053583 -0.004977014
000200 9c 88 b4 3d 4f e9 42 3d 26 3f b8 3c fc 90 dc 3c
       0.08815119 0.04758578 0.022491049 0.026924603
000210 0a 8c d6 3c 16 08 c9 bd 21 74 2b bc f0 b6 71 bd
       0.026189823 -0.098159954 -0.010464699 -0.059012353
000220 e4 fb 8f bc 5e 94 3f 3d 6a 84 82 3d 1b a9 bc 3d
       -0.017576165 0.046772353 0.06372912 0.09211942
000230 ba ae 7c bd d0 d1 e2 3b d9 03 ad 3c d2 29 8a 3d
       -0.06169007 0.0069219843 0.021119999 0.06746258
000240 6b 11 60 3d a5 83 3c 3c 32 25 48 bd 23 45 1a bd
       0.05470411 0.011505996 -0.048863597 -0.03766359
000250 00 24 d5 3b 8c 53 6b 3c cc 59 79 3b fb c6 a7 bc
       0.0065045357 0.014363181 0.0038047908 -0.020480623
000260 2b 66 ec bc b8 a8 66 3c 8e 16 3b 3d a0 6b dd bd
       -0.028857311 0.014078312 0.045675807 -0.108115435
000270 29 79 c3 3c 83 c5 c9 bd 28 07 70 bc 0b 7d 5e bc
       0.023861485 -0.098521255 -0.014650144 -0.013579617
000280 3b 13 4a bc 16 d8 4c bd 0e f0 3a bc 1e 4e 38 3d
       -0.012333686 -0.050010763 -0.011409773 0.044996373
000290 6a e6 67 3c de bb 5e 3d cc bc b7 bd a8 09 bc bd
       0.014154056 0.054378383 -0.08971557 -0.09181529
0002a0 a4 36 5e bd d1 ef b6 3d a8 7c 80 bd fb 7f 1b 3a
       -0.054251328 0.0893246 -0.06273776 0.00059318513
0002b0 20 a0 1a bd bb fd 4d 3d 1e e0 7b 3d 57 37 5a 3d
       -0.037750363 0.050290804 0.06149303 0.053275432
0002c0 4d 40 7a bd cb e2 3b 3d 99 59 2d 3d 91 b3 7c 3d
       -0.06109648 0.045870584 0.042321775 0.061694685
0002d0 31 ee 61 bd b2 8f a8 bd 8f f6 ba 3d 0b 26 f8 3c
       -0.055158798 -0.08230533 0.091290586 0.030291578
0002e0 62 6c e5 3d f6 99 bc bd 28 94 55 3d 42 78 69 3d
       0.11202313 -0.09209053 0.052143246 0.056999452
0002f0 48 ca 74 bd 90 0b c9 bd 6e 07 5c 3c 62 df 54 3d
       -0.059763223 -0.098166585 0.013429506 0.051970847
000300 bd 91 04 3d 79 67 1b bd 26 2b 7d 3d f4 89 2d 3d
       0.03236555 -0.037940476 0.061808728 0.04236789
000310 ad 83 49 bd 7b 57 86 3c 11 22 95 bd 23 ca 2b be
       -0.04919784 0.016399136 -0.07281888 -0.16776328
000320 01 58 94 bd a7 f5 f3 bd 41 34 c0 3c 96 ef 2f bd
       -0.07243348 -0.11912089 0.023462417 -0.042953096
000330 86 68 86 3d de 63 8e bd b6 3f 81 bc 1c b1 0f be
       0.06562905 -0.06952642 -0.01577745 -0.14032406
000340 95 90 1e bd fa 40 16 be 5d ee a6 3b b5 27 dd bb
       -0.038712103 -0.14673224 0.005094333 -0.006749118
000350 06 75 2e 3d 4f f4 eb bc 4f e4 b0 3c 06 14 05 3b
       0.04259207 -0.028803019 0.021593241 0.0020306124
000360 43 a5 b5 bd f9 d6 9e 3d f5 e4 6e 3c a1 90 75 3d
       -0.08869412 0.077558465 0.014580955 0.059952382
000370 77 73 3a 3d 8b 5c 16 bd 50 c4 8c 3d c7 5f ba 3d
       0.045520272 -0.03670935 0.06873381 0.09100299
000380 0e 19 61 bd ef e9 ca 3d 62 3c de bb b0 75 8f 3d
       -0.054955535 0.099079005 -0.0067821005 0.07004869
000390 38 a4 d2 3c 5e 4d 86 bc 39 be 1d 3c 6a 7a 8e bd
       0.025713071 -0.016394313 0.009627872 -0.069569424
0003a0 52 9b 0e bb 0c 1c e1 bc 88 82 a7 bc ff e4 50 3d
       -0.0021760059 -0.027479194 -0.020447984 0.050999638
0003b0 74 f4 db 3d 49 70 72 bb b4 32 9d 3d fb a9 d5 bb
       0.10739985 -0.0036993197 0.076756865 -0.0065205074
0003c0 0d 05 4d 3d 15 e4 b9 bd fb dd d0 bc 0f 38 a7 3d
       0.050053645 -0.09076706 -0.025496474 0.08164989
0003d0 85 75 38 3d 35 84 b2 3d 24 54 66 3c 9d 15 bb 3d
       0.04503395 0.08716623 0.014058147 0.09134982
0003e0 a6 e7 6a bd 82 d5 37 be 42 ba 08 be b1 20 79 bc
       -0.057349823 -0.1795254 -0.13352302 -0.015205548
0003f0 a2 0d 88 bd d1 b8 77 bd e8 e4 c7 3d 14 df 4f 3c
       -0.06643225 -0.06047899 0.09760457 0.012687463

layers.0.Aw.conv2.bias f4 [16]
000000 4c 1e f6 3c c6 23 35 bd 75 44 23 bc 09 41 68 3d
       0.030043744 -0.04422357 -0.009965052 0.056702647
000010 6c c3 5f 3d 15 5a a6 3d dd 8a 8b 3d ca ff c3 3d
       0.05462973 0.081226505 0.068135954 0.09570272
000020 bb c4 ba 3c 99 b4 12 3d ff 44 df bc c6 0b 06 3d
       0.022798887 0.035816763 -0.02725458 0.03272607
000030 20 fe a8 bd c9 a4 0f 3d f4 4a cd 3d 5f fe 68 3c
       -0.082515955 0.03506926 0.10024062 0.014220803

layers.0.Aw.conv3.weight f4 [1, 16, 3]
000000 ac 49 c7 bd 17 93 45 3d 5d d6 f4 bd 1c c5 db 3d
       -0.09730849 0.04823598 -0.11954949 0.10730955
000010 e6 72 eb bd 1a c7 97 3d 27 b6 a3 3d 0c 28 07 bc
       -0.114965245 0.074110225 0.07993727 -0.008249294
000020 64 14 fb 3d fc 6f d5 bd 06 4a 53 3d bf 68 9b bc
       0.122597486 -0.1042175 0.051584266 -0.018970845
000030 2d ad 31 3d 26 59 db bc 93 d1 64 bd 60 c2 d2 3d
       0.043378044 -0.026775908 -0.055863928 0.1029098
000040 e9 cf 11 3e 8a ee a9 3d 6b c1 d9 bd f4 7b 1d be
       0.14239468 0.08297451 -0.10632595 -0.15379316
000050 40 d7 04 be 51 83 a9 3d 25 4b ed 3d c6 45 01 3c
       -0.12972736 0.08277 0.11586598 0.00789017
000060 0f 30 de bd 7e cd 0b 3e 7f 90 fc bc a5 54 1d 3d
       -0.1084901 0.13652608 -0.03083062 0.0384108
000070 3c ac f6 3c b7 db 10 3e e3 3e 86 bc fb 9f 02 3e
       0.030111425 0.14146315 -0.016387409 0.1275634
000080 54 54 53 3d 20 32 69 3d c7 b9 f6 3d 29 45 f3 3d
       0.051594093 0.05693257 0.12047153 0.11878426
000090 24 83 c7 bd 34 1b 14 3e af a3 30 3d e0 8f 15 be
       -0.0974181 0.14463502 0.04312485 -0.14605665
0000a0 69 f9 a3 bd 39 93 91 3d 17 d4 a2 3d 13 43 60 bd
       -0.080065556 0.071081586 0.07950609 -0.054751467
0000b0 e4 a7 0f 3e 6f b1 0b 3e a4 e8 4f 3d e5 68 e0 3d
       0.14028889 0.13641904 0.050758973 0.10957507

layers.0.Ah.conv1.weight f4 [32, 1, 5]
000000 e7 3f c9 be 3f fa 88 3e d8 d3 cb 3c db bc 2f 3d
       -0.39306566 0.26753423 0.024881288 0.042904716
000010 03 0f a8 3d f8 cd 86 3e 98 91 4d be cd 44 61 bd
       0.08205988 0.26329017 -0.20075071 -0.054997254
000020 0b 0c ca be ee 5c 04 be 1e da 95 be 6e 30 db 3e
       -0.39462313 -0.12926075 -0.29267973 0.42810386
000030 5d 6c 3a 3e 7b 41 81 be 7a f8 89 3e 7c ba 58 3e
       0.182054 -0.2524527 0.26947385 0.21164888
000040 80 45 8a b9 9e 59 a8 3e eb 85 85 be b0 af 4a be
       -0.00026373193 0.32880872 -0.26078734 -0.19793582
000050 b2 ea 89 be 12 de 05 be 29 1a 1b 3d 12 b3 94 3e
       -0.2693687 -0.13072994 0.037866745 0.2904287
000060 96 9b a6 be 93 b4 80 3e bd 15 d5 3e e2 7d d1 3d
       -0.32540578 0.25137767 0.41618147 0.10229088
000070 48 4e be 3e ca 4c fc bd dc d8 e8 3e 18 1a 18 bd
       0.371691 -0.12319334 0.4547795 -0.03713426
000080 82 63 a5 be 8d fc e0 bd 97 ee 1a be 84 f7 40 be
       -0.3230248 -0.1098567 -0.15130077 -0.1884442
000090 f0 2a cf be 81 06 3b be 45 7b d2 be 23 a0 2a 3e
       -0.40462446 -0.182642 -0.41109672 0.1666265
0000a0 7e ea a5 3d fa 43 d5 3d 11 97 d3 be f4 8d 4c be
       0.081013665 0.10413356 -0.41326192 -0.19976026
0000b0 32 30 e0 3e 79 d4 db 3b 31 e8 f3 3d 54 3f f1 3e
       0.4378677 0.0067086783 0.11909521 0.47118628
0000c0 35 7b 77 bd 11 d3 be 3d f6 36 a5 3e 81 ed c5 3d
       -0.060420234 0.093176015 0.32268494 0.09664441
0000d0 b3 79 9b 3e 0c 21 ab be b5 c6 87 be 9e 5d 98 3d
       0.30366287 -0.3342365 -0.2651879 0.07439731
0000e0 a5 62 40 3d 6e b5 81 3e a8 10 aa 3e 0e 2f 2e 3e
       0.046969075 0.25333732 0.33215833 0.17010137
0000f0 93 bb 68 bd 3a 1c c3 be a4 98 83 3e 97 a9 12 3d
       -0.05681951 -0.38107473 0.25702393 0.035806265
000100 15 4b 5b bd 5a 90 d8 3e 89 40 e1 3d 41 76 b2 be
       -0.0535384 0.42297632 0.10998637 -0.34855846
000110 5a 87 a6 3e c7 a2 cf bc 19 09 96 3e dd 0a 9f 3e
       0.3252514 -0.025346173 0.29303816 0.31062976
000120 f2 3b e6 3d e1 c7 cb 3e 08 6f 9a be 19 4e c6 3d
       0.112419024 0.39800933 -0.30162835 0.09682865
000130 b1 a0 e9 bd 1b c8 0c bd e5 b2 d7 3e 11 86 37 3e
       -0.114076026 -0.034370523 0.42128673 0.17922236
000140 e7 e4 e6 bd 4b 96 f3 3d 1d 6a d8 3e 76 d2 80 be
       -0.112741284 0.118939005 0.42268458 -0.2516057
000150 8c aa 64 be 7f 1c 8a be 79 37 c1 3d 8e 82 ae be
       -0.22330683 -0.26974866 0.09434409 -0.3408398
000160 6d 98 22 3c 04 70 7e be 72 5a 8d be cc 00 ca 3d
       0.009924036 -0.24847418 -0.27608067 0.09863433
000170 ba 84 27 3c ab a9 9d bd 5e 80 66 be 66 72 6b be
       0.010224516 -0.07698377 -0.22509906 -0.22992858
000180 fa d0 41 bd 2a d2 30 3e 15 25 d1 bd 49 ab 51 be
       -0.047318436 0.17267671 -0.10212151 -0.20475496
000190 9c c6 d3 be 16 73 96 3e 08 73 d2 bd 8f 68 bd 3e
       -0.41362464 0.2938468 -0.10275847 0.36993834
0001a0 af b8 1c bd ee 8c bc 3e c9 bf 2b 3e 79 a8 a3 3d
       -0.038262066 0.3682627 0.16772379 0.07991118
0001b0 b7 20 3a 3c b3 f0 dd 3c 1a 60 5d 3d e8 21 cd 3e
       0.011360339 0.027092313 0.054046728 0.4006493
0001c0 1c c8 9f 3e c9 bb 6f be dc 3c eb 3c 1e f4 a2 be
       0.3120736 -0.23411478 0.028715543 -0.31826872
0001d0 3f 1a 1c be 73 30 ef 3d cf f2 c8 3c 39 1b 98 bd
       -0.15244387 0.11679163 0.024529843 -0.07427067
0001e0 b8 46 e4 be 81 56 45 be ce 4a 81 be cb fd b2 be
       -0.44585204 -0.1927128 -0.25252384 -0.34959254
0001f0 05 3e 05 be f6 26 de 3e d5 97 bc be 03 6c 5b 3e
       -0.1301194 0.433891 -0.3683459 0.21427922
000200 2a d6 d5 be 9c e3 45 3e a7 6b b0 be e0 77 58 3e
       -0.41764957 0.19325107 -0.34457132 0.21139479
000210 23 ae 29 3c 47 86 d3 be 04 18 06 3e c2 60 78 3e
       0.010356459 -0.41313383 0.13095099 0.2425566
000220 29 98 b0 bd 60 93 e8 3d 6c c6 be be de 7c c9 bc
       -0.08622772 0.113562346 -0.3726076 -0.024595674
000230 43 84 db 3d ed 46 83 be e7 86 e4 be 70 72 93 3e
       0.10718586 -0.2564005 -0.44634172 0.28798246
000240 71 e7 aa 3d 74 ac ca 3e 14 20 9d 3e 5e 66 87 bd
       0.08344925 0.39584696 0.30688536 -0.06611322
000250 84 4d 03 be 1c ac dc be 82 d4 c9 be 02 84 a0 3e
       -0.12822539 -0.4310006 -0.39419943 0.31350714
000260 d1 fd 19 3e 88 59 13 be e8 c1 c3 3e 23 53 08 3e
       0.1503823 -0.14389622 0.38233876 0.13312964
000270 61 26 45 3e c7 de 14 3d ba f2 a4 3e e9 e2 12 3d
       0.19252922 0.03634527 0.32216436 0.03586093

layers.0.Ah.conv1.bias f4 [32]
000000 c0 69 e2 3d 37 0b ad be 62 6f 09 be ba 87 3d 3e
       0.110553265 -0.3379762 -0.13421395 0.18508807
000010 f0 6a 5d 3e 49 e3 da be 64 ba a4 3e 36 0f 1e be
       0.21622825 -0.4275153 0.32173455 -0.1543549
000020 55 07 35 be 17 4c ba be 4d 35 39 3e 24 35 81 be
       -0.17678578 -0.36386177 0.18086739 -0.25235856
000030 62 5e ac 3e a3 4b a9 3e 95 00 31 be ca a1 67 3d
       0.33665758 0.3306552 -0.17285378 0.05655078
000040 4b fc f8 bb 42 12 c2 3d 3a 81 4c 3e 00 0e 94 3e
       -0.007598435 0.09476139 0.19971171 0.2891693
000050 7d 89 b5 3c 79 cd c2 3e 32 6a 98 bd ee 1a d0 be
       0.022160286 0.38047388 -0.0744213 -0.40645546
000060 e5 66 1b be 33 b8 3d 3d 01 8d b3 3e 57 29 9f bd
       -0.1517597 0.046318244 0.35068515 -0.07771557
000070 cd b0 5e be 1f a2 1d be c1 97 e0 3e 0c c6 9a 3e
       -0.21747132 -0.15393876 0.4386578 0.30229223

layers.0.Ah.conv2.weight f4 [16, 32, 3]
000000 27 c0 23 3c 2d 21 9c bd dc 29 bb bd bf 54 34 3d
       0.009994543 -0.07623515 -0.091388434 0.044026133
000010 02 16 d6 3d 4d 3f f1 3d 17 79 1d 3d 19 f8 d3 3d
       0.104534164 0.11779652 0.03844556 0.10350055
000020 e6 f6 86 3d 7d ea 97 bd 04 c6 18 bd 19 bd 30 bc
       0.06590061 -0.07417772 -0.037298217 -0.010787272
000030 01 f7 6c bd 70 e1 95 bd 7e 7b 69 bd 68 f6 e7 3d
       -0.05785275 -0.073183894 -0.057002537 0.11326295
000040 18 e2 90 3d d8 a0 f6 3d 93 c8 fc bc fe 12 86 3b
       0.07074374 0.12042397 -0.03085736 0.0040916195
000050 29 0c 18 bd fe 7f a3 bd 79 c4 cb 3d 2d 06 2c 3c
       -0.03712097 -0.07983397 0.099495836 0.010499519
000060 be f1 9e 3d 15 5c 8d 3d f5 c1 02 bd 1d 4f 5c bb
       0.077609524 0.06902329 -0.031923253 -0.003361649
000070 23 f5 b3 3d 65 08 ef 3d f2 2a fb bd 46 00 74 bd
       0.087869905 0.11671523 -0.122640505 -0.059570573
000080 59 1f f9 3c 5c 6e bd bb ab bd 27 3d 99 80 0a 3e
       0.030410456 -0.005780978 0.040952366 0.13525619
000090 5b a2 b9 bc 8d 14 83 3c 57 b1 b7 bd 25 0a 02 bd
       -0.022660425 0.01600101 -0.08969372 -0.031747956
0000a0 a7 85 8f 3d ca ba 30 bd 59 92 68 3c 46 4f b8 3d
       0.07007914 -0.043146886 0.014195048 0.08999495
0000b0 0e ee 77 3c 19 24 a8 3d ef 6d ba bd 5b 82 3f bd
       0.01513244 0.0821001 -0.091029994 -0.046755176
0000c0 31 d7 13 bd 3a 92 b7 bd 68 ba 9a 3d 5d fd 87 bd
       -0.036093894 -0.089634374 0.075550854 -0.06640122
0000d0 44 49 a3 3c 53 61 12 3d 53 21 49 3d d4 64 7a 3b
       0.019932397 0.035737347 0.049104046 0.003820707
0000e0 76 53 07 3d c6 0c 0f 3d 6c 27 c9 ba d2 14 49 bd
       0.03303858 0.03492429 -0.0015346832 -0.04909212
0000f0 7e b8 4b bd 4b ee 11 bc e6 44 db 3b 9c 58 b6 bd
       -0.049736492 -0.008906911 0.006691563 -0.0890362
000100 8c 33 9e bc 3a ff e3 bd ed ab 0e 3d 38 0d 4a 3d
       -0.019311689 -0.11132665 0.03483193 0.049329013
000110 f7 91 9c bd f5 73 6f 3d b3 2b e3 bc 5d aa 2d bd
       -0.07645028 0.058460195 -0.027730798 -0.0423988
000120 25 08 96 ba e7 2f d2 bc 9a 6a 48 bd 1e cb e9 bd
       -0.0011446519 -0.025657607 -0.04892979 -0.11415695
000130 7b cc da bc 08 0e 31 3d 32 4e a1 bc 5d e1 e3 bd
       -0.026708832 0.043226272 -0.019690607 -0.11126969
000140 72 5b 1d 3b 43 e2 4c 3c e9 16 92 bd 7b cc b6 3c
       0.0024010804 0.012505117 -0.07133276 0.0223143
000150 52 e6 d4 3d 49 5b f7 3c 1f 1c e8 bc c0 82 8b 3d
       0.103954926 0.030194895 -0.028333722 0.06812048
000160 bf 93 db 3c d9 ce 82 3d 94 88 f7 bc d0 de e9 bd
       0.02680385 0.06387109 -0.030216493 -0.11419451
000170 39 89 b1 bc d8 a8 d2 bd d0 5b 40 3d 1f 58 83 3d
       -0.021671878 -0.10286111 0.04696256 0.06413292
000180 3f 9b ce bc 6e 2f 46 bd ae f7 f7 bc b6 de 0a 3b
       -0.025220511 -0.048385076 -0.03026947 0.0021189875
000190 2f 2c a9 bd ac 59 e5 bd e2 70 2a bd fe cc 02 be
       -0.082603805 -0.11198744 -0.04161156 -0.12773511
0001a0 e0 ce a6 bc 46 fa 1f bc aa a8 eb 3d a9 11 3e 3d
       -0.020362318 -0.00976426 0.115067795 0.04640356
0001b0 23 e9 72 3c 48 65 e2 3d f3 82 88 bc 01 d4 5f bd
       0.014826092 0.11054474 -0.016664004 -0.054645542
0001c0 74 2d 52 bc d3 08 41 3c db 5c 28 bd af cb a2 bc
       -0.01282822 0.011781889 -0.04110418 -0.019872515
0001d0 6e 1f 1d 3c fa c3 8c 3d 5f 17 c4 bd bd b2 f3 ba
       0.009590013 0.06873317 -0.0957477 -0.0018592697
0001e0 d6 43 ec 3b 65 23 49 3c 19 8d 54 3d c5 de c7 bd
       0.007210235 0.012276505 0.051892374 -0.09759287
0001f0 ec 73 50 3b 7d 01 bb bd 47 eb cd 3d e8 c2 0e 3c
       0.0031807376 -0.09131143 0.10054641 0.008713461
000200 7b f4 d5 bc a9 6d eb bd bc d4 cb bc 15 a5 26 3d
       -0.026117554 -0.114955254 -0.024881713 0.04068478
000210 88 13 1f bc c9 f5 7f 3d b3 e3 96 bc 24 3f 2f bd
       -0.009709246 0.06249026 -0.018419122 -0.042784825
000220 8c 64 f2 3d 06 26 1c bd dd 87 07 bd c8 ae 78 3d
       0.11835584 -0.0381222 -0.033088554 0.06071356
000230 d6 47 5f 3d 8c fb 55 3d 20 ad 93 bd 7a 82 86 3d
       0.054511867 0.052241847 -0.07210755 0.06567855
000240 b5 d3 b2 3d 74 81 de 3d 99 02 e4 3d 10 bc fd 3b
       0.08731786 0.10864535 0.11133308 0.007743366
000250 de 88 04 3c 22 47 b3 3d 4a 13 9c bc 46 ff 11 3d
       0.008089272 0.08753802 -0.019052166 0.03564384
000260 9e ee a5 3c 82 b1 0d 3e fb a4 71 bd 18 16 02 3e
       0.020255383 0.13837245 -0.05899523 0.1270374
000270 99 ba c7 3d 90 11 2f 3d d6 34 03 3b fd 9d 12 3d
       0.097523876 0.04274136 0.0020020506 0.0357952
000280 2c 18 9d 3d 42 b3 8c 3d b3 a0 cd 3d 42 30 76 3c
       0.07670626 0.06870128 0.100404166 0.015026154
000290 cb 44 bf bd bb 40 84 3d 90 dd 94 3d 99 5f bf bd
       -0.09339293 0.06457659 0.07268822 -0.09344406
0002a0 b2 c7 8d bd 55 4e 51 3c 6f 09 84 3c cc 17 b5 3d
       -0.069228545 0.0127750235 0.01611778 0.088424295
0002b0 ee 36 10 3d 1f 09 80 bd cb 10 ef 3d f1 fa 8c bc
       0.035208635 -0.0625174 0.11673125 -0.017209502
0002c0 29 38 c6 bc a9 d4 d7 3c a8 0a a9 bb c3 0b 62 bd
       -0.024196701 0.026346521 -0.005158741 -0.055186998
0002d0 a9 0d b9 bc 88 53 ef bd ef 48 98 bc e2 b7 45 bc
       -0.022589521 -0.11685854 -0.018589465 -0.012067767
0002e0 b8 46 cd bd bd 17 76 bd 71 4e 3d bd 44 90 34 bd
       -0.10023254 -0.060081232 -0.046217386 -0.044082895
0002f0 11 6e 02 3e 80 98 d9 3c 17 99 57 3d 85 43 09 3d
       0.127373 0.026561975 0.052636232 0.033511657
000300 90 47 f1 bc 1c 9c d2 bd ec a6 b2 bd 05 0a 3a bd
       -0.029453069 -0.10283682 -0.08723244 -0.04541971
000310 a7 b7 bf 3d 09 8d dd 3d 0c b0 0d 3e 6e 20 85 3c
       0.09361201 0.10817916 0.13836688 0.016250815
000320 6e d4 0d 3d 14 51 3d 3d 8d 3d 4e 3c d3 89 ae 3d
       0.034626417 0.0462199 0.012587917 0.08522382
000330 40 a7 74 3d 79 09 30 bd 42 e1 50 3d 5c c7 6c 3d
       0.059729815 -0.042977784 0.050996073 0.05780731
000340 d6 e7 02 3e 4c 70 fa 3d 9e fa 70 bd 5f 10 bc bd
       0.12783751 0.1222845 -0.058832757 -0.0918281
000350 f5 06 f0 3c 17 e1 93 bd 4e 1e 1b 3d d3 86 81 bc
       0.029300192 -0.07220667 0.037870698 -0.01581136
000360 5b 08 48 bb 5c b0 6a bc ed 30 5a bd 80 9e 0c 3e
       -0.0030522558 -0.014324274 -0.053269316 0.13732338
000370 94 88 9e 3d df f4 8d 3d 11 30 65 3d 38 46 82 3b
       0.07740894 0.06931471 0.055954043 0.003975656
000380 4d 3c 98 3d e8 cf fc 3d 61 c6 b9 3d ab f6 b4 3d
       0.074333765 0.123443425 0.09071041 0.08836111
000390 79 b5 bd bd b8 1a 9f 3c 94 49 76 bd 03 8c 4a bd
       -0.09263129 0.01942192 -0.060128763 -0.04944993
0003a0 25 28 8f bd 8b e3 80 bd d2 7b 1b bd 95 b9 aa 3d
       -0.06990079 -0.062934004 -0.03795988 0.08336178
0003b0 d4 72 cf 3d 9b 4d 36 3d 6e 0d 5f 3d 63 60 81 bc
       0.101293236 0.044507604 0.054456167 -0.015793031
0003c0 70 ab 98 bd cb 1c 20 bd 0e 21 b9 3d dd 0b bb 3d
       -0.07454574 -0.03908996 0.09039508 0.09133122
0003d0 e3 97 7c 3d 02 78 45 3d 34 06 6b 3d f8 c3 dd bd
       0.061668288 0.04821015 0.057378963 -0.10828394
0003e0 2b aa 93 bd 47 d2 27 3d 85 c0 e3 bc 01 a8 21 bb
       -0.07210191 0.04097202 -0.027801761 -0.0024666789
0003f0 fe fa b4 b8 74 18 cd bd 26 41 bd 3d df 69 83 3d
       -8.62982e-05 -0.1001443 0.09240942 0.06416678

layers.0.Ah.conv2.bias f4 [16]
000000 0b 5e 70 bc 4f 99 88 bd 50 c1 ea 3c b1 80 b3 3d
       -0.014670859 -0.06669866 0.028656632 0.0876478
000010 60 f3 9a 3d aa 3c 4a bd c3 df 9c bd 10 8f ba bb
       0.07565951 -0.04937426 -0.07659867 -0.005693324
000020 2a e4 04 b9 42 ab 0a bb 47 c7 fa bd 08 d5 e6 3c
       -0.00012673499 -0.0021159207 -0.122450404 0.028177753
000030 04 a0 f7 bc bb b5 2e 3d 65 ec ee bd 52 9c d6 bd
       -0.030227669 0.04265378 -0.116661824 -0.104790345

layers.0.Ah.conv3.weight f4 [1, 16, 3]
000000 20 2c 16 be 6e 27 25 bc 2d 6e cc bd 4d 72 ce 3d
       -0.1466527 -0.010080202 -0.09981952 0.10080395
000010 cc 73 ac 3b 8a 32 88 3c 37 60 9f bc 08 69 c2 bd
       0.0052628275 0.016625661 -0.019455059 -0.09492689
000020 6c f9 08 3c b5 8d f7 3d 66 c1 48 bc af c6 6e 3b
       0.008360248 0.12087575 -0.012253141 0.0036434343
000030 c4 82 df bd 15 f7 a9 3d 85 dd dd 3d 0f cd 1f 3e
       -0.109136134 0.0829908 0.10833267 0.15605567
000040 d7 0c 64 3d 8e 0f bb 3c e3 5f d7 bc 85 27 97 bd
       0.055676308 0.022834565 -0.02629084 -0.073805846
000050 fe f1 02 3e 68 7c d1 bc cc d1 7e bc 76 d3 17 3e
       0.12787625 -0.025572017 -0.015552949 0.1482676
000060 dd 6e 22 be 1a 40 b2 3d 8c 67 b9 bd b7 1b 93 bb
       -0.15862603 0.08703633 -0.09052953 -0.004489388
000070 63 c6 fa bd e8 eb fb 3c 9a ee 26 be f7 c4 a1 bd
       -0.122448705 0.030752137 -0.16301957 -0.07898896
000080 19 7c df 3d 7c 32 b7 3d 8b 95 43 bc ac 57 63 3d
       0.109123416 0.08945176 -0.011937509 0.055503532
000090 ce 64 0d 3e e1 91 bf 3d cd ec b9 bd b6 02 a6 3d
       0.13807985 0.09353996 -0.09078369 0.08105986
0000a0 c6 74 6c 3d c1 7c 8a 3c b4 3d 93 bd d7 2f a5 bc
       0.05772855 0.01690519 -0.07189503 -0.020164413
0000b0 d8 fa c4 bd f2 15 cc 3c ac 94 18 be 15 7f 9f bd
       -0.09618157 0.024912808 -0.14900464 -0.07787911

layers.1.Aw.conv1.weight f4 [32, 1, 5]
000000 ac ca 9f be bc 9e ba bd 3a 13 a5 bd 5c 8f b1 3e
       -0.31209314 -0.091123074 -0.08060308 0.34679687
000010 fa 48 ce 3e 26 8f c3 3d d5 21 b1 be df f2 09 3e
       0.40290052 0.09548788 -0.34596124 0.13471554
000020 52 19 7f be 91 2b 99 be 7f 9d e6 3e 19 a7 86 3e
       -0.24912003 -0.2991605 0.45042035 0.2629936
000030 ad 72 37 be 75 4c f1 3e 5c 00 98 3e 1b 80 01 3e
       -0.17914839 0.47128645 0.29687774 0.12646525
000040 5a 7b 70 be 61 19 bb 3d b6 b8 4f 3e b0 74 8b 3e
       -0.23484555 0.091357 0.20285305 0.27237463
000050 e8 46 88 3e 7c 35 cd 3e ec d9 ec be ac 56 8c bd
       0.26616597 0.40079868 -0.4626001 -0.06852469
000060 c6 d9 f0 3e b4 32 53 bd cc 64 92 3e f7 fa 63 3e
       0.47041148 -0.051562026 0.28592527 0.22263704
000070 a9 7a 03 3e b9 10 b5 3e 36 e0 45 3e d4 75 c9 3d
       0.1283976 0.3536432 0.19323811 0.09836927
000080 2d 2a 19 3e e3 d1 87 3e c3 5d 7f bd 93 5a 91 be
       0.14957495 0.26527318 -0.062345278 -0.28389415
000090 b0 01 0b be f3 a6 a6 be 91 18 d0 bd 63 34 cb 3e
       -0.13574862 -0.32549247 -0.10160936 0.39688405
0000a0 e0 87 21 3e 27 24 67 3e 9d de 84 3e 8a e4 ba bd
       0.15774488 0.22572385 0.2595109 -0.091256216
0000b0 95 8b 51 3b 99 b1 1c 3e 59 f6 a0 be 14 ef 06 3e
       0.0031974067 0.15302123 -0.31437948 0.13177139
0000c0 93 15 82 3e bd 33 93 be 6d 5c d7 be a5 20 b3 be
       0.25407085 -0.2875041 -0.42062703 -0.34985843
0000d0 b9 28 5c 3e 35 c4 be be b1 8d d6 be dc 1d 77 be
       0.2149991 -0.3725907 -0.41904977 -0.24132484
0000e0 68 ec 03 3d ab 65 be be 13 2a dc 3d fe 48 74 3e
       0.032207876 -0.37186942 0.107502125 0.2385597
0000f0 0e 4c 5d be 2b 28 41 bd ef 0d 25 3e 65 51 e0 3e
       -0.21611044 -0.047157448 0.16118596 0.438121
000100 67 f9 d0 bc f0 a6 bb bd d9 ba 1a be 1f 9a c3 3d
       -0.02550955 -0.091627 -0.15110339 0.09550881
000110 49 9e 16 3b 40 6a 89 3d 32 66 d3 be ac c5 aa bb
       0.002298253 0.06709719 -0.41288906 -0.0052115526
000120 84 7d 3e 3d b3 42 60 be 3a 22 e7 be b6 f4 97 bc
       0.04650642 -0.21900444 -0.451433 -0.018549304
000130 11 d0 6a 3e 7b 9c 20 be 51 e4 68 3e 6b d1 d2 be
       0.22930934 -0.15684693 0.22743346 -0.41175398
000140 38 c2 1c 3e 14 40 5f be ca 33 86 be 5c 12 bc 3e
       0.15308464 -0.21801788 -0.26211387 0.36732757
000150 47 2d be 3d 51 df 86 be 0e 3b 48 3e f4 6f 0d be
       0.0928598 -0.26342252 0.19553778 -0.13812238
000160 8b bd 75 be 30 9b 79 be 7e 11 8b 3d 4f b1 c3 3e
       -0.23998086 -0.24375606 0.06790446 0.38221213
000170 f6 a0 47 be bc d5 7a 3e bf d5 b2 be 06 3a 1f 3d
       -0.19494995 0.24495596 -0.349287 0.038873695
000180 c6 bb 76 be a9 7b 12 be c6 98 5d 3e 17 b4 bd 3e
       -0.24095067 -0.14304985 0.2164031 0.3705146
000190 9e 27 f6 3d d3 e2 9c be 5c 14 da be b0 78 31 be
       0.12019275 -0.30641803 -0.42593658 -0.17331195
0001a0 59 ac b6 3e ba c7 aa be d3 97 d9 be 37 95 58 be
       0.35678366 -0.33355504 -0.42498645 -0.21150671
0001b0 05 c7 45 3e 74 ad fe bd 14 ce c9 3e 5b 31 0f bd
       0.19314201 -0.12435427 0.39415038 -0.03495918
0001c0 db 7f af 3e 2f 44 3e 3e bd 00 98 3e e9 94 b6 3e
       0.34277233 0.18580697 0.29688063 0.35660484
0001d0 c3 fc a1 be 9d 99 9d be 0d cd 99 3e 16 5c f1 3e
       -0.31638154 -0.3078126 0.30039254 0.47140568
0001e0 03 62 8c be cb 03 3a 3e 31 22 c0 bc 0d f6 ed 3e
       -0.27418527 0.1816551 -0.023453804 0.46476784
0001f0 45 b2 9a be cf 5c 0e bd f4 e1 00 3e f7 4b 12 be
       -0.30214134 -0.034756478 0.12586194 -0.14286791
000200 e5 e3 a4 bd 26 af e0 be 9e 37 c1 be bf 58 94 be
       -0.0805128 -0.43883628 -0.37737745 -0.28973958
000210 9c 47 c4 3e e8 6f a2 3e fe 27 47 bd 81 30 e9 bd
       0.38335884 0.31726003 -0.048622124 -0.113862045
000220 9a a9 30 be 78 53 e8 bd db 15 65 3e 61 6e 87 3e
       -0.17252198 -0.113440454 0.22371618 0.264514
000230 0e b1 6c be 84 3d 8c 3e ca 97 4c bd 31 33 83 3c
       -0.23114416 0.27390683 -0.049949445 0.01601562
000240 44 15 8c be cd a6 13 3e 22 13 cf bd 27 49 bc be
       -0.27359974 0.14419098 -0.10111071 -0.3677456
000250 69 6d 1d be 5e 69 b6 be 99 8a a5 3d cb 72 a6 be
       -0.15373768 -0.35627264 0.08083076 -0.32509455
000260 79 c7 f3 3e db 22 e4 3e 40 ca 64 3e 28 37 a0 3e
       0.47613123 0.44557843 0.22342777 0.3129208
000270 3c 96 ac 3e 5c ea 45 be dc 44 b6 be df d7 96 3e
       0.3370837 -0.19327682 -0.3559941 0.29461572

layers.1.Aw.conv1.bias f4 [32]
000000 df a0 9e 3e 4a c8 dd 3d 56 5a 37 be 9c 61 cb be
       0.3098211 0.10829218 -0.17905554 -0.39722908
000010 dd 75 a3 3d f3 a2 1b be e9 33 3b 3e 9c 3b 63 bd
       0.07981465 -0.15198879 0.18281521 -0.05547677
000020 2e 5c e3 3e 6c f6 41 be 4e eb 43 be d4 af d7 3e
       0.44406265 -0.18941659 -0.1913273 0.42126334
000030 f5 e8 be bd 2e 8d 2b be 17 d5 ea 3e 82 09 b0 3b
       -0.09321777 -0.16753075 0.458657 0.005372227
000040 f4 93 bd be f3 32 9b 3e ec ca d9 3d 96 7b 06 be
       -0.37026942 0.3031231 0.106344074 -0.13133082
000050 5a 22 50 3d 09 56 c0 3e d6 27 1c 3d 4c 2c 2e be
       0.05081401 0.3756564 0.038123928 -0.17009085
000060 48 3c c8 be 91 e2 99 bd 17 75 9e bd 7f 7a 46 3e
       -0.3910849 -0.07513917 -0.07737177 0.19382666
000070 02 b5 be be 0a 73 72 3e 11 d0 91 be d0 98 8f 3e
       -0.37247473 0.23676696 -0.28479055 0.28046274

layers.1.Aw.conv2.weight f4 [16, 32, 3]
000000 26 23 93 bc 03 ad 00 3c 0e a6 d0 3a e5 ae 40 bc
       -0.017961096 0.007853749 0.0015918629 -0.011760448
000010 89 85 e2 bd 6e cf d8 bc d2 eb e9 3d f6 ce 52 3d
       -0.11060626 -0.026466098 0.11421932 0.051466905
000020 bd b0 36 3e 00 75 2f 3c b5 c1 d2 3d 90 c1 d6 3d
       0.17840858 0.010709047 0.10290853 0.10486138
000030 38 06 af bc 4d 47 73 3d b0 81 61 3d d7 fe 08 3d
       -0.02136527 0.05939417 0.05505532 0.03344616
000040 52 5b 2c 3d e7 a7 0d 3c ec 64 8c 3d d6 c8 ff bc
       0.042079277 0.008645988 0.06855187 -0.031223696
000050 6f ba 27 bd 95 26 19 3e 79 4a 3e 3e 0b db 49 bd
       -0.04094928 0.14956124 0.18583097 -0.04928116
000060 94 58 16 bd bf 03 c8 3c a5 cf 94 bd 73 bc 83 bd
       -0.03670557 0.024415849 -0.072661676 -0.06432428
000070 ad 32 45 3d 47 25 47 bd 6c c2 b3 3c 55 9f 2a bc
       0.04814403 -0.048619535 0.021943294 -0.010413964
000080 e8 f7 f5 bd 34 13 6a 3d 82 0f 47 3d 2b b4 9b bc
       -0.12010175 0.05714722 0.048598774 -0.01900681
000090 7d d9 14 3e 13 f6 04 bd 09 a8 80 3d b6 b3 21 3d
       0.1453609 -0.032461237 0.0628205 0.039478026
0000a0 bf ba d6 3c 21 82 7d 3d 6f 17 58 bd 6d 19 61 bd
       0.026212094 0.06189168 -0.052756723 -0.05495589
0000b0 52 0c a6 bb 5d 32 81 3d 8e 6d 4a 3d 49 05 32 bc
       -0.0050673867 0.06308434 0.049420886 -0.010865518
0000c0 d8 d6 50 3c 56 3c 14 3c 95 cf 84 bd 49 2a 92 bc
       0.012746535 0.009047588 -0.06484906 -0.017842429
0000d0 6b e4 cf 3b 2e a3 ac 3b 2e 47 8d 3d ea 52 6b 3b
       0.006344368 0.005268476 0.06898342 0.0035907575
0000e0 8d 18 5d 3c df 93 03 bd 25 05 c8 3d 1c b1 37 3d
       0.013494623 -0.032123443 0.09766606 0.04484664
0000f0 f4 0b 46 3d 37 e1 cd 3c 1d 0a c8 3d 83 95 de bc
       0.048351243 0.025131805 0.09767554 -0.027170902
000100 10 e7 8d bc 86 88 c1 bd d4 04 ae 3c 96 80 0e 3d
       -0.017322093 -0.09449868 0.021242537 0.034790598
000110 b2 91 34 3d b5 a7 98 3c 8e 7b 7f 3d a4 0b df 3d
       0.04408426 0.018634656 0.06237369 0.10890892
000120 c8 09 d3 3d fc 17 1d bb 6f 67 d8 3d 82 34 7d bd
       0.103046 -0.0023970595 0.105666034 -0.061817653
000130 33 20 17 bd 19 73 66 3c ec 29 e5 3d 92 76 06 bd
       -0.036895942 0.014065527 0.111896366 -0.03282792
000140 85 50 41 3e 4c 9a ae bd 68 d9 d2 bb d5 43 8c 3c
       0.18878372 -0.085255235 -0.0064346083 0.017122189
000150 76 d0 6e bc b0 7b c7 bc b6 63 a3 3c aa e5 4e 3a
       -0.014576068 -0.024350971 0.019945007 0.0007892499
000160 e5 f6 65 3c c3 e3 4d 3d 30 2a 25 3e ec 31 ed 3d
       0.014035915 0.05026604 0.16129375 0.115817875
000170 ad e5 34 3e 8c 8b 9b bd ad bf 57 3d 42 4c d9 3d
       0.1766574 -0.07594976 0.05267303 0.10610248
000180 e8 c9 96 bd ad e2 cc bd 95 6f 68 bd 37 e8 12 bd
       -0.07362729 -0.100041725 -0.056747038 -0.03586599
000190 7b 7b c8 3d 1e 70 cc bb d6 36 26 3d c0 e2 64 bd
       0.09789177 -0.0062389513 0.04057964 -0.05588031
0001a0 09 ca b0 bd 1c 58 27 3d 38 47 d4 3b ff fa b8 3d
       -0.08632285 0.040855512 0.0064782165 0.09032249
0001b0 a9 0a 8a 3d b5 57 ab 3c be 88 13 3c 73 c2 38 bd
       0.067403145 0.020915845 0.00900477 -0.045107316
0001c0 c1 4c d9 bd ef 2d 35 bd 2a 49 64 bd 3a 80 9d 3d
       -0.10610343 -0.04423326 -0.055733837 0.07690473
0001d0 15 f9 17 3d 0a 32 4a 3d b8 94 08 be db 80 73 3d
       0.037102778 0.049364127 -0.13337982 0.059449058
0001e0 71 de a2 bd 1c 3c e3 3c d1 29 d6 bd e3 80 31 3d
       -0.079525836 0.027738623 -0.104571946 0.043335807
0001f0 cf 7b a8 bd d5 c1 01 bd 6a cf a2 39 38 16 a3 bb
       -0.082267396 -0.031678993 0.00031053583 -0.004977014
000200 9c 88 b4 3d 4f e9 42 3d 26 3f b8 3c fc 90 dc 3c
       0.08815119 0.04758578 0.022491049 0.026924603
000210 0a 8c d6 3c 16 08 c9 bd 21 74 2b bc f0 b6 71 bd
       0.026189823 -0.098159954 -0.010464699 -0.059012353
000220 e4 fb 8f bc 5e 94 3f 3d 6a 84 82 3d 1b a9 bc 3d
       -0.017576165 0.046772353 0.06372912 0.09211942
000230 ba ae 7c bd d0 d1 e2 3b d9 03 ad 3c d2 29 8a 3d
       -0.06169007 0.0069219843 0.021119999 0.06746258
000240 6b 11 60 3d a5 83 3c 3c 32 25 48 bd 23 45 1a bd
       0.05470411 0.011505996 -0.048863597 -0.03766359
000250 00 24 d5 3b 8c 53 6b 3c cc 59 79 3b fb c6 a7 bc
       0.0065045357 0.014363181 0.0038047908 -0.020480623
000260 2b 66 ec bc b8 a8 66 3c 8e 16 3b 3d a0 6b dd bd
       -0.028857311 0.014078312 0.045675807 -0.108115435
000270 29 79 c3 3c 83 c5 c9 bd 28 07 70 bc 0b 7d 5e bc
       0.023861485 -0.098521255 -0.014650144 -0.013579617
000280 3b 13 4a bc 16 d8 4c bd 0e f0 3a bc 1e 4e 38 3d
       -0.012333686 -0.050010763 -0.011409773 0.044996373
000290 6a e6 67 3c de bb 5e 3d cc bc b7 bd a8 09 bc bd
       0.014154056 0.054378383 -0.08971557 -0.09181529
0002a0 a4 36 5e bd d1 ef b6 3d a8 7c 80 bd fb 7f 1b 3a
       -0.054251328 0.0893246 -0.06273776 0.00059318513
0002b0 20 a0 1a bd bb fd 4d 3d 1e e0 7b 3d 57 37 5a 3d
       -0.037750363 0.050290804 0.06149303 0.053275432
0002c0 4d 40 7a bd cb e2 3b 3d 99 59 2d 3d 91 b3 7c 3d
       -0.06109648 0.045870584 0.042321775 0.061694685
0002d0 31 ee 61 bd b2 8f a8 bd 8f f6 ba 3d 0b 26 f8 3c
       -0.055158798 -0.08230533 0.091290586 0.030291578
0002e0 62 6c e5 3d f6 99 bc bd 28 94 55 3d 42 78 69 3d
       0.11202313 -0.09209053 0.052143246 0.056999452
0002f0 48 ca 74 bd 90 0b c9 bd 6e 07 5c 3c 62 df 54 3d
       -0.059763223 -0.098166585 0.013429506 0.051970847
000300 bd 91 04 3d 79 67 1b bd 26 2b 7d 3d f4 89 2d 3d
       0.03236555 -0.037940476 0.061808728 0.04236789
000310 ad 83 49 bd 7b 57 86 3c 11 22 95 bd 23 ca 2b be
       -0.04919784 0.016399136 -0.07281888 -0.16776328
000320 01 58 94 bd a7 f5 f3 bd 41 34 c0 3c 96 ef 2f bd
       -0.07243348 -0.11912089 0.023462417 -0.042953096
000330 86 68 86 3d de 63 8e bd b6 3f 81 bc 1c b1 0f be
       0.06562905 -0.06952642 -0.01577745 -0.14032406
000340 95 90 1e bd fa 40 16 be 5d ee a6 3b b5 27 dd bb
       -0.038712103 -0.14673224 0.005094333 -0.006749118
000350 06 75 2e 3d 4f f4 eb bc 4f e4 b0 3c 06 14 05 3b
       0.04259207 -0.028803019 0.021593241 0.0020306124
000360 43 a5 b5 bd f9 d6 9e 3d f5 e4 6e 3c a1 90 75 3d
       -0.08869412 0.077558465 0.014580955 0.059952382
000370 77 73 3a 3d 8b 5c 16 bd 50 c4 8c 3d c7 5f ba 3d
       0.045520272 -0.03670935 0.06873381 0.09100299
000380 0e 19 61 bd ef e9 ca 3d 62 3c de bb b0 75 8f 3d
       -0.054955535 0.099079005 -0.0067821005 0.07004869
000390 38 a4 d2 3c 5e 4d 86 bc 39 be 1d 3c 6a 7a 8e bd
       0.025713071 -0.016394313 0.009627872 -0.069569424
0003a0 52 9b 0e bb 0c 1c e1 bc 88 82 a7 bc ff e4 50 3d
       -0.0021760059 -0.027479194 -0.020447984 0.050999638
0003b0 74 f4 db 3d 49 70 72 bb b4 32 9d 3d fb a9 d5 bb
       0.10739985 -0.0036993197 0.076756865 -0.0065205074
0003c0 0d 05 4d 3d 15 e4 b9 bd fb dd d0 bc 0f 38 a7 3d
       0.050053645 -0.09076706 -0.025496474 0.08164989
0003d0 85 75 38 3d 35 84 b2 3d 24 54 66 3c 9d 15 bb 3d
       0.04503395 0.08716623 0.014058147 0.09134982
0003e0 a6 e7 6a bd 82 d5 37 be 42 ba 08 be b1 20 79 bc
       -0.057349823 -0.1795254 -0.13352302 -0.015205548
0003f0 a2 0d 88 bd d1 b8 77 bd e8 e4 c7 3d 14 df 4f 3c
       -0.06643225 -0.06047899 0.09760457 0.012687463

layers.1.Aw.conv2.bias f4 [16]
000000 4c 1e f6 3c c6 23 35 bd 75 44 23 bc 09 41 68 3d
       0.030043744 -0.04422357 -0.009965052 0.056702647
000010 6c c3 5f 3d 15 5a a6 3d dd 8a 8b 3d ca ff c3 3d
       0.05462973 0.081226505 0.068135954 0.09570272
000020 bb c4 ba 3c 99 b4 12 3d ff 44 df bc c6 0b 06 3d
       0.022798887 0.035816763 -0.02725458 0.03272607
000030 20 fe a8 bd c9 a4 0f 3d f4 4a cd 3d 5f fe 68 3c
       -0.082515955 0.03506926 0.10024062 0.014220803

layers.1.Aw.conv3.weight f4 [1, 16, 3]
000000 ac 49 c7 bd 17 93 45 3d 5d d6 f4 bd 1c c5 db 3d
       -0.09730849 0.04823598 -0.11954949 0.10730955
000010 e6 72 eb bd 1a c7 97 3d 27 b6 a3 3d 0c 28 07 bc
       -0.114965245 0.074110225 0.07993727 -0.008249294
000020 64 14 fb 3d fc 6f d5 bd 06 4a 53 3d bf 68 9b bc
       0.122597486 -0.1042175 0.051584266 -0.018970845
000030 2d ad 31 3d 26 59 db bc 93 d1 64 bd 60 c2 d2 3d
       0.043378044 -0.026775908 -0.055863928 0.1029098
000040 e9 cf 11 3e 8a ee a9 3d 6b c1 d9 bd f4 7b 1d be
       0.14239468 0.08297451 -0.10632595 -0.15379316
000050 40 d7 04 be 51 83 a9 3d 25 4b ed 3d c6 45 01 3c
       -0.12972736 0.08277 0.11586598 0.00789017
000060 0f 30 de bd 7e cd 0b 3e 7f 90 fc bc a5 54 1d 3d
       -0.1084901 0.13652608 -0.03083062 0.0384108
000070 3c ac f6 3c b7 db 10 3e e3 3e 86 bc fb 9f 02 3e
       0.030111425 0.14146315 -0.016387409 0.1275634
000080 54 54 53 3d 20 32 69 3d c7 b9 f6 3d 29 45 f3 3d
       0.051594093 0.05693257 0.12047153 0.11878426
000090 24 83 c7 bd 34 1b 14 3e af a3 30 3d e0 8f 15 be
       -0.0974181 0.14463502 0.04312485 -0.14605665
0000a0 69 f9 a3 bd 39 93 91 3d 17 d4 a2 3d 13 43 60 bd
       -0.080065556 0.071081586 0.07950609 -0.054751467
0000b0 e4 a7 0f 3e 6f b1 0b 3e a4 e8 4f 3d e5 68 e0 3d
       0.14028889 0.13641904 0.050758973 0.10957507

layers.1.Ah.conv1.weight f4 [32, 1, 5]
000000 e7 3f c9 be 3f fa 88 3e d8 d3 cb 3c db bc 2f 3d
       -0.39306566 0.26753423 0.024881288 0.042904716
000010 03 0f a8 3d f8 cd 86 3e 98 91 4d be cd 44 61 bd
       0.08205988 0.26329017 -0.20075071 -0.054997254
000020 0b 0c ca be ee 5c 04 be 1e da 95 be 6e 30 db 3e
       -0.39462313 -0.12926075 -0.29267973 0.42810386
000030 5d 6c 3a 3e 7b 41 81 be 7a f8 89 3e 7c ba 58 3e
       0.182054 -0.2524527 0.26947385 0.21164888
000040 80 45 8a b9 9e 59 a8 3e eb 85 85 be b0 af 4a be
       -0.00026373193 0.32880872 -0.26078734 -0.19793582
000050 b2 ea 89 be 12 de 05 be 29 1a 1b 3d 12 b3 94 3e
       -0.2693687 -0.13072994 0.037866745 0.2904287
000060 96 9b a6 be 93 b4 80 3e bd 15 d5 3e e2 7d d1 3d
       -0.32540578 0.25137767 0.41618147 0.10229088
000070 48 4e be 3e ca 4c fc bd dc d8 e8 3e 18 1a 18 bd
       0.371691 -0.12319334 0.4547795 -0.03713426
000080 82 63 a5 be 8d fc e0 bd 97 ee 1a be 84 f7 40 be
       -0.3230248 -0.1098567 -0.15130077 -0.1884442
000090 f0 2a cf be 81 06 3b be 45 7b d2 be 23 a0 2a 3e
       -0.40462446 -0.182642 -0.41109672 0.1666265
0000a0 7e ea a5 3d fa 43 d5 3d 11 97 d3 be f4 8d 4c be
       0.081013665 0.10413356 -0.41326192 -0.19976026
0000b0 32 30 e0 3e 79 d4 db 3b 31 e8 f3 3d 54 3f f1 3e
       0.4378677 0.0067086783 0.11909521 0.47118628
0000c0 35 7b 77 bd 11 d3 be 3d f6 36 a5 3e 81 ed c5 3d
       -0.060420234 0.093176015 0.32268494 0.09664441
0000d0 b3 79 9b 3e 0c 21 ab be b5 c6 87 be 9e 5d 98 3d
       0.30366287 -0.3342365 -0.2651879 0.07439731
0000e0 a5 62 40 3d 6e b5 81 3e a8 10 aa 3e 0e 2f 2e 3e
       0.046969075 0.25333732 0.33215833 0.17010137
0000f0 93 bb 68 bd 3a 1c c3 be a4 98 83 3e 97 a9 12 3d
       -0.05681951 -0.38107473 0.25702393 0.035806265
000100 15 4b 5b bd 5a 90 d8 3e 89 40 e1 3d 41 76 b2 be
       -0.0535384 0.42297632 0.10998637 -0.34855846
000110 5a 87 a6 3e c7 a2 cf bc 19 09 96 3e dd 0a 9f 3e
       0.3252514 -0.025346173 0.29303816 0.31062976
000120 f2 3b e6 3d e1 c7 cb 3e 08 6f 9a be 19 4e c6 3d
       0.112419024 0.39800933 -0.30162835 0.09682865
000130 b1 a0 e9 bd 1b c8 0c bd e5 b2 d7 3e 11 86 37 3e
       -0.114076026 -0.034370523 0.42128673 0.17922236
000140 e7 e4 e6 bd 4b 96 f3 3d 1d 6a d8 3e 76 d2 80 be
       -0.112741284 0.118939005 0.42268458 -0.2516057
000150 8c aa 64 be 7f 1c 8a be 79 37 c1 3d 8e 82 ae be
       -0.22330683 -0.26974866 0.09434409 -0.3408398
000160 6d 98 22 3c 04 70 7e be 72 5a 8d be cc 00 ca 3d
       0.009924036 -0.24847418 -0.27608067 0.09863433
000170 ba 84 27 3c ab a9 9d bd 5e 80 66 be 66 72 6b be
       0.010224516 -0.07698377 -0.22509906 -0.22992858
000180 fa d0 41 bd 2a d2 30 3e 15 25 d1 bd 49 ab 51 be
       -0.047318436 0.17267671 -0.10212151 -0.20475496
000190 9c c6 d3 be 16 73 96 3e 08 73 d2 bd 8f 68 bd 3e
       -0.41362464 0.2938468 -0.10275847 0.36993834
0001a0 af b8 1c bd ee 8c bc 3e c9 bf 2b 3e 79 a8 a3 3d
       -0.038262066 0.3682627 0.16772379 0.07991118
0001b0 b7 20 3a 3c b3 f0 dd 3c 1a 60 5d 3d e8 21 cd 3e
       0.011360339 0.027092313 0.054046728 0.4006493
0001c0 1c c8 9f 3e c9 bb 6f be dc 3c eb 3c 1e f4 a2 be
       0.3120736 -0.23411478 0.028715543 -0.31826872
0001d0 3f 1a 1c be 73 30 ef 3d cf f2 c8 3c 39 1b 98 bd
       -0.15244387 0.11679163 0.024529843 -0.07427067
0001e0 b8 46 e4 be 81 56 45 be ce 4a 81 be cb fd b2 be
       -0.44585204 -0.1927128 -0.25252384 -0.34959254
0001f0 05 3e 05 be f6 26 de 3e d5 97 bc be 03 6c 5b 3e
       -0.1301194 0.433891 -0.3683459 0.21427922
000200 2a d6 d5 be 9c e3 45 3e a7 6b b0 be e0 77 58 3e
       -0.41764957 0.19325107 -0.34457132 0.21139479
000210 23 ae 29 3c 47 86 d3 be 04 18 06 3e c2 60 78 3e
       0.010356459 -0.41313383 0.13095099 0.2425566
000220 29 98 b0 bd 60 93 e8 3d 6c c6 be be de 7c c9 bc
       -0.08622772 0.113562346 -0.3726076 -0.024595674
000230 43 84 db 3d ed 46 83 be e7 86 e4 be 70 72 93 3e
       0.10718586 -0.2564005 -0.44634172 0.28798246
000240 71 e7 aa 3d 74 ac ca 3e 14 20 9d 3e 5e 66 87 bd
       0.08344925 0.39584696 0.30688536 -0.06611322
000250 84 4d 03 be 1c ac dc be 82 d4 c9 be 02 84 a0 3e
       -0.12822539 -0.4310006 -0.39419943 0.31350714
000260 d1 fd 19 3e 88 59 13 be e8 c1 c3 3e 23 53 08 3e
       0.1503823 -0.14389622 0.38233876 0.13312964
000270 61 26 45 3e c7 de 14 3d ba f2 a4 3e e9 e2 12 3d
       0.19252922 0.03634527 0.32216436 0.03586093

layers.1.Ah.conv1.bias f4 [32]
000000 c0 69 e2 3d 37 0b ad be 62 6f 09 be ba 87 3d 3e
       0.110553265 -0.3379762 -0.13421395 0.18508807
000010 f0 6a 5d 3e 49 e3 da be 64 ba a4 3e 36 0f 1e be
       0.21622825 -0.4275153 0.32173455 -0.1543549
000020 55 07 35 be 17 4c ba be 4d 35 39 3e 24 35 81 be
       -0.17678578 -0.36386177 0.18086739 -0.25235856
000030 62 5e ac 3e a3 4b a9 3e 95 00 31 be ca a1 67 3d
       0.33665758 0.3306552 -0.17285378 0.05655078
000040 4b fc f8 bb 42 12 c2 3d 3a 81 4c 3e 00 0e 94 3e
       -0.007598435 0.09476139 0.19971171 0.2891693
000050 7d 89 b5 3c 79 cd c2 3e 32 6a 98 bd ee 1a d0 be
       0.022160286 0.38047388 -0.0744213 -0.40645546
000060 e5 66 1b be 33 b8 3d 3d 01 8d b3 3e 57 29 9f bd
       -0.1517597 0.046318244 0.35068515 -0.07771557
000070 cd b0 5e be 1f a2 1d be c1 97 e0 3e 0c c6 9a 3e
       -0.21747132 -0.15393876 0.4386578 0.30229223
