models/model_epoch_15.pt (torch, 195317 bytes, 120 tensors)

layers.0.Aw.conv1.weight f4 [64, 1, 5]
000000 01 67 27 3e 7e 26 b0 3e c1 fc bd be 15 65 84 be
       0.16347887 0.34404367 -0.37106898 -0.2585837
000010 6a a8 ac be a0 ca 96 3e cd 84 2b 3e f4 01 2c 3e
       -0.3372224 0.29451466 0.16749878 0.1679762
000020 59 a4 a9 3e 5f 78 86 be 4d c2 74 be a7 b0 8b 3e
       0.331332 -0.2626371 -0.23902245 0.27283213
000030 f9 f9 c0 3e 8c 0d e0 3e cb b6 d9 be 58 9d 26 3e
       0.37690714 0.43760335 -0.42522272 0.1627096
000040 88 ad b5 be d9 fb 84 bc 43 56 db 3d 26 6e a1 be
       -0.35483956 -0.016233372 0.107098125 -0.3152935
000050 5e 48 d5 bc 58 fc 2f 3d 73 6e 92 3c 6e b2 b4 3e
       -0.026035484 0.042965263 0.017874932 0.3529238
000060 4c 60 e8 3d 2e 89 be 3e e2 4f 8b 3b 5a 11 74 3e
       0.11346492 0.37214035 0.004251466 0.23834744
000070 ce d1 e2 3d 0b a5 9d be 3a 43 6c be 3a f3 df be
       0.11075173 -0.3078998 -0.2307252 -0.43740255
000080 cb 3f 3b 3e a0 46 34 3e b2 a2 d9 3e e4 64 3c be
       0.18286054 0.17605066 0.4250694 -0.18397862
000090 eb b1 89 be 17 1b 9e 3e 28 e7 d7 3e cd bb 49 be
       -0.26893553 0.30880043 0.42168546 -0.19700547
0000a0 4b 47 56 bc a6 f5 b1 be 7d 0a 70 3e 68 10 1f 3e
       -0.013078521 -0.34757727 0.23441501 0.15533602
0000b0 dc 63 e9 3d 31 0d bf 3e 63 b4 82 be 37 b6 d0 3e
       0.11396 0.37314752 -0.2552825 0.4076402
0000c0 2a 22 bc 3d 4d b7 dc be 51 1c b5 be 52 aa 90 be
       0.09186204 -0.43108597 -0.35373166 -0.28254944
0000d0 3d 64 40 bd 20 5e b0 3d f7 6b e3 bc 21 7b de 3e
       -0.046970595 0.08611703 -0.027761443 0.43453315
0000e0 5d 5e 4b 3e f3 ec 9b 3d 70 fc 79 3e 7e 08 2e be
       0.19860215 0.07613554 0.24412704 -0.16995427
0000f0 a0 2f 6d be 1a af 59 3e a3 e7 14 bb 66 4e 95 3e
       -0.23162699 0.21258202 -0.0022721074 0.29161376
000100 ff e8 75 be f1 3d d1 be 41 6f 83 3e a1 b0 bc 3e
       -0.24014662 -0.4086757 0.25670817 0.36853507
000110 02 21 cd 3e c2 53 6c be 32 d3 b8 bd d8 a2 e9 bd
       0.40064245 -0.23078826 -0.09024657 -0.11408013
000120 65 b4 54 be 1e 60 aa bd b1 08 0d be 8c d4 c5 be
       -0.2077194 -0.08319114 -0.13772847 -0.38638723
000130 b1 66 ae be 73 00 c8 3e 3c 57 04 3d 35 93 32 3c
       -0.34062722 0.39062843 0.032309756 0.010899355
000140 99 f1 0c 3e 99 bc 95 3e 5d ef c2 3d 2a 29 56 3e
       0.13764037 0.2924545 0.09518311 0.2091414
000150 66 75 cd be 16 a0 c3 3e 75 d8 9b be 3a 10 e0 3e
       -0.4012863 0.38208073 -0.3043858 0.4376238
000160 96 e0 db 3e dc d4 a8 bd 5f 74 af 3e 75 8c bd be
       0.42944783 -0.08243725 0.34268472 -0.37021223
000170 59 8f d4 be 6f b0 7f 3e d6 4e 7c be 60 fa 85 3e
       -0.41515616 0.24969648 -0.24639449 0.26167583
000180 7a 74 12 be 7c 90 8d be 41 d7 a9 be b0 2d 6a 3e
       -0.14302245 -0.27649295 -0.33172038 0.22868991
000190 4e 10 51 be 84 de a2 3e 20 5d 76 be 11 34 77 3d
       -0.20416376 0.3181039 -0.24058962 0.06035239
0001a0 fb 7c ae be f0 0d 23 3e 1b 7f c5 3e d6 21 9c be
       -0.34079728 0.15923285 0.38573536 -0.30494565
0001b0 0d c7 53 bb cc 0e e3 3d 12 95 a2 3e 7a 75 c0 3e
       -0.0032314688 0.11086807 0.31754357 0.37589628
0001c0 51 84 80 be 39 36 db be 89 2c a2 be ae 69 97 be
       -0.2510095 -0.42814806 -0.31674603 -0.29572815
0001d0 44 4e ac 3e 1b a8 63 3e f6 4c bd be bd 36 aa bc
       0.33653462 0.22232096 -0.3697278 -0.020778054
0001e0 a5 b1 52 3e 66 42 52 3e d1 ba 9d 3e ec 34 c2 3e
       0.20575579 0.20533141 0.30806592 0.37931
0001f0 ad b5 78 be 49 84 b2 3e 45 f6 ad bd 32 ab 47 3e
       -0.24288054 0.3486655 -0.08494238 0.194989
000200 43 0f 8e be f4 72 ce 3d 00 ff 54 be 86 9d 82 bd
       -0.2774602 0.10080519 -0.208004 -0.063777015
000210 15 39 90 be 34 ce 99 be 8c bf a5 be 9b 6f 6b be
       -0.2816855 -0.30040133 -0.323727 -0.22991793
000220 f0 71 3d be c0 33 ac 3e 65 aa e9 3e 3c df aa 3e
       -0.18500495 0.33633232 0.45637813 0.3337344
000230 41 bf 87 bd 10 ec 50 be a5 de 05 3e 58 72 a5 bd
       -0.06628276 -0.2040255 0.13073213 -0.0807845
000240 da 17 be 3e 0c 96 96 bc 94 22 9a be 76 3a 6c 3d
       0.37127572 -0.018382095 -0.30104506 0.05767294
000250 7a 93 ad 3e f8 15 c7 be 8d ab 7d 3d b9 de 07 be
       0.33901578 -0.38883948 0.06193118 -0.13268556
000260 3c 72 07 be 99 f9 c5 3e a9 d7 1e bc 0b ba 1c be
       -0.1322717 0.3866699 -0.009694972 -0.15305345
000270 f8 61 b2 be a3 38 a2 be 73 04 b8 3e 50 a0 ab 3e
       -0.3484037 -0.31683835 0.35940894 0.33520746
000280 a8 5c 78 be d8 3a 33 3e 01 62 57 3e 20 b0 03 be
       -0.24254096 0.17502916 0.2103348 -0.12860155
000290 04 bf 89 be a1 c8 d8 be 8c 8b 51 be 7f 43 e3 3e
       -0.26903546 -0.42340568 -0.20463389 0.44387433
0002a0 49 37 92 ba 3d 96 a6 3e 5f 27 d8 bd fa da 89 3c
       -0.0011155392 0.32536498 -0.105543844 0.016828049
0002b0 fc 3f cc 3e 4f 45 92 be c2 a8 19 be 91 08 84 be
       0.39892566 -0.28568503 -0.15005782 -0.25787786
0002c0 76 83 ca be 22 db 38 be 90 82 4d 3c 1b 18 c3 be
       -0.39553422 -0.18052343 0.012543336 -0.3810433
0002d0 02 ab 90 3e 04 5a d3 bd c9 02 b7 bd 94 38 c2 be
       0.2825547 -0.103199035 -0.08936078 -0.3793379
0002e0 a3 01 c9 be 6a b8 80 be 75 11 a8 3e 03 62 ab be
       -0.3925906 -0.25140697 0.3282582 -0.33473215
0002f0 c8 89 72 be fe 74 82 3e 55 0c fd 3d 9b d9 b6 bd
       -0.23685372 0.25479883 0.12355868 -0.08928224
000300 93 13 60 3e 53 66 a9 3e 6e 29 2a 3e 7e c6 00 be
       0.21882467 0.3308588 0.16617367 -0.12575719
000310 8c d0 5c bd d6 87 ae 3e a9 f9 c0 be 87 4f 70 be
       -0.053909823 0.3408801 -0.37690476 -0.23467837
000320 56 09 18 be c2 fd 19 3d 6e be 50 3e 3d 7a a3 3c
       -0.14847311 0.037595518 0.20385143 0.019955749
000330 4e f0 c8 3e d3 de df 3e bd 4f cd 3c 0a 75 7f 3e
       0.39245838 0.4372469 0.025062436 0.2494699
000340 40 51 22 3b d1 48 a6 bd db b4 af be 95 36 90 3d
       0.0024767667 -0.081193574 -0.3431767 0.07041661
000350 dd 6c ac be 01 fa c5 3e 02 43 b9 bd 50 c4 6a be
       -0.33676806 0.386673 -0.09045984 -0.2292645
000360 89 1b d1 be 47 47 0c be cf 66 70 bc 99 ba c8 3e
       -0.4084132 -0.13699065 -0.014672949 0.39204863
000370 87 a7 a9 3e 53 43 39 be 6e a5 0d be 97 82 60 be
       0.33135626 -0.18092088 -0.13832638 -0.21924816
000380 52 5a a0 be 46 0f 8a bd f9 e4 a6 3d dd 22 7c be
       -0.3131891 -0.067411944 0.08149142 -0.24622674
000390 3d 3f b7 be 84 fd be 3e 65 42 ce 3d 3b 6c ca 3d
       -0.35790434 0.37302792 0.100712575 0.098839246
0003a0 38 fa 98 bd f5 80 df 3d 4b 7e d3 3e 9e 2f 20 3c
       -0.074696004 0.109132685 0.4130729 0.009776978
0003b0 b4 bd 29 be 12 18 d2 3d ec bd 31 bd 5e 0a af bd
       -0.16576272 0.10258497 -0.043394014 -0.08546899
0003c0 b3 79 ad be f3 c9 28 be ab 3f 9c bd 4f a9 d7 3e
       -0.33881912 -0.16483288 -0.07629331 0.4212136
0003d0 67 0a 19 3e ac 52 b4 3e 0a f0 ab bd 4a e6 c6 bd
       0.14945374 0.35219324 -0.08395393 -0.09711893
0003e0 af 06 c3 bd be 7e aa be ea a1 d0 3e 20 20 b6 3e
       -0.09522759 -0.33299822 0.4074853 0.35571384
0003f0 35 1e b2 be c8 68 df 3e f3 43 df 3e 2f 2c a2 3e
       -0.3478867 0.4363463 0.4360653 0.31674334

layers.0.Aw.conv1.bias f4 [64]
000000 88 94 70 be 35 53 1f bd 63 f6 c3 3c 0a b2 6b 3e
       -0.2349416 -0.03889771 0.023921197 0.23017135
000010 7a e9 9f 3e 2f c4 24 3c 83 8c d5 be 76 03 03 be
       0.31232816 0.010056539 -0.41708764 -0.12794289
000020 c5 06 3f be 26 82 8c bd 8b d8 39 3e 53 cd b1 3e
       -0.18654926 -0.06860761 0.18149011 0.34726962
000030 0e 2f 4d be c6 0d bb 3e 13 34 2a 3e cd 36 36 bd
       -0.20037481 0.36533946 0.16621427 -0.044485856
000040 69 c0 fe 3e 06 5b 9c 3e bc e8 cf 3e 42 ba 0d 3f
       0.49756172 0.30538195 0.4060725 0.5536233
000050 e2 3a c1 3e 1e d8 d6 3d bf b3 ba be b8 24 bc 3e
       0.37740237 0.1049044 -0.3646526 0.36746764
000060 7f 92 bc bd f8 78 ee 3d 97 df 44 be 71 36 49 3e
       -0.092076294 0.11644167 -0.19225918 0.19649674
000070 c0 44 a4 bc 90 ba be be 7f 52 56 3d e9 c1 94 3e
       -0.020052314 -0.3725171 0.05232477 0.29054192
000080 5d d3 ed 3e e9 49 82 be ed db 05 3e bd c7 d2 3e
       0.4645032 -0.25447014 0.13072176 0.41168013
000090 88 f6 81 bd 85 e4 f9 be 59 0d c2 bd 7f b5 d9 3e
       -0.0634585 -0.4880716 -0.09475202 0.42521283
0000a0 ad 17 2b 3e 69 c5 71 be 2e 41 20 3e 6b 79 13 bd
       0.1670825 -0.23610462 0.15649864 -0.036004465
0000b0 3f c9 e5 3d a9 b6 e0 be 08 26 03 3e 31 fa 07 3e
       0.11220025 -0.4388936 0.12807477 0.13279034
0000c0 1f ab af be a8 4d 18 be df b2 f1 3c 0a 77 90 3e
       -0.34310243 -0.14873374 0.029504238 0.2821582
0000d0 0e a5 70 3d fa f7 b3 be a4 75 d9 be 7e 7c 45 be
       0.05875116 -0.3515013 -0.42472565 -0.19285771
0000e0 f9 de 77 bd 98 6f df 3e eb 07 ca 3e 15 09 aa be
       -0.060515378 0.43639827 0.39459166 -0.33210054
0000f0 af 36 e5 3e fa bb 88 3d e0 be 08 be 42 28 33 bd
       0.44768283 0.06676479 -0.13354063 -0.043739565

layers.0.Aw.conv2.weight f4 [32, 64, 3]
000000 58 59 84 b9 b4 09 03 3d 54 1a a3 3c 32 4d 43 bc
       -0.00025243568 0.031991675 0.019910015 -0.01192026
000010 4c ad 87 3d 72 ac 11 bd 93 a0 a3 3c d1 66 5d 3d
       0.06624851 -0.035564847 0.019974029 0.05405313
000020 6d 67 ac 3c 28 88 32 bd 0f 95 9d 3d 90 86 7e 3d
       0.021045411 -0.04358688 0.07694446 0.062140048
000030 bd b0 aa 3b 37 d9 c3 3b ff b3 4b bd a4 20 a8 bc
       0.005209057 0.0059768218 -0.049732205 -0.020523377
000040 3b d2 a2 3d ea dd 82 3d 30 67 6f 3d f2 8c 52 bc
       0.079502545 0.06389983 0.058448017 -0.012850987
000050 ad 63 0e 3d d8 f2 1e 3b c0 b5 52 bd 68 f6 92 3c
       0.034763027 0.0024253633 -0.05144286 0.017939761
000060 b5 f2 38 bd 72 23 86 3d 40 0a 07 bd 31 53 a4 3c
       -0.04515334 0.065497294 -0.03296876 0.0200592
000070 29 43 35 bd 63 32 4a 3d f6 38 d6 3d ac 5b 01 3d
       -0.044253502 0.04936446 0.10460083 0.031581566
000080 cc 8d b7 3d 99 18 1a 3d 9e 00 22 3b 23 49 91 3d
       0.089625925 0.037621114 0.0024719606 0.07094028
000090 f1 bf ef bc 89 d2 82 3d 92 c2 cf 3c e1 99 02 3d
       -0.02926633 0.06387813 0.025361333 0.03188503
0000a0 79 11 3f 3d 71 a8 9e 3d 65 a8 bd 3d e3 ca 9d 3d
       0.046647523 0.077469714 0.09260634 0.07704713
0000b0 da d5 84 3d e1 8b e3 3b 07 78 5e 3c aa 8d 23 bd
       0.064861014 0.006944165 0.013578421 -0.039930023
0000c0 93 00 10 bd d6 f0 3c bd 3a d2 1b 3d 80 32 30 bd
       -0.035156798 -0.046128117 0.038042285 -0.04301691
0000d0 d4 f2 92 3c ca 00 fe bc 1e 8e 15 bc 74 58 18 bd
       0.017938055 -0.031006236 -0.009128122 -0.03719373
0000e0 e5 40 67 3d 9b 14 1b bd 89 7f 06 3c 31 8a 43 bd
       0.056458373 -0.037861448 0.008209118 -0.04773921
0000f0 df 7d ae 3d f8 3a 37 bc 92 01 b9 3c dd b2 ec bc
       0.08520102 -0.011183493 0.022583757 -0.028893882
000100 fd 9d 1b 3a a2 e2 cb bc 01 e2 94 bd 16 ab fd bc
       0.0005936323 -0.02488834 -0.07269669 -0.03096537
000110 ae f9 b6 bb a9 ba 2e 3d 58 0d 16 3d 12 9f 04 bd
       -0.0055839634 0.04265848 0.03663382 -0.032378264
000120 20 02 5f bd 5a 4c 6b 3d c5 5c 53 3d 99 7e 3c 3b
       -0.054445386 0.05744586 0.051602144 0.0028761982
000130 80 e1 78 3d 9f a3 17 bc f2 c2 ab 3c e3 20 82 3c
       0.06076193 -0.009255319 0.02096698 0.015884822
000140 27 29 99 bc f3 3c 4f 3d 36 13 14 bd 1a a8 92 3d
       -0.01869638 0.050595235 -0.036151133 0.07160969
000150 4b db bc bc 58 b1 38 3d f1 3c f2 3c 7a 26 7d bd
       -0.023053786 0.045091003 0.029570075 -0.061804272
000160 57 50 c7 bb d9 6b a7 3c ba d6 b3 bc e8 af 8b 3d
       -0.0060825753 0.020437168 -0.021952976 0.06820661
000170 f5 fd 90 3c 05 3b a4 bc 06 b3 52 bd df d5 3f bd
       0.017699221 -0.020047674 -0.05144026 -0.046834823
000180 1b 9c 9f 3d 1c 04 95 3d 4b 86 ca 3c 46 6b 33 bd
       0.07793447 0.072761744 0.024722239 -0.043803476
000190 b5 9a 3f 3d 6c 72 e0 3c 42 55 77 3d 4f 76 35 3d
       0.0467784 0.02739831 0.060384043 0.04430228
0001a0 6b 02 87 bc 7d e1 91 3d c0 43 fc 3c 4c 34 00 3d
       -0.016480645 0.071230866 0.030794024 0.031299874
0001b0 1c 19 1a bc 41 30 d2 3c 3b fb 42 3b af 55 12 3d
       -0.009405401 0.025657775 0.0029751796 0.035726245
0001c0 54 61 36 3c 90 be 50 bd 07 e3 6a bd e5 a8 7b 3d
       0.011131603 -0.050962985 -0.057345416 0.061440367
0001d0 20 6c 9c bc 30 f7 35 3d 15 df b2 3d 6d 63 1c 3d
       -0.019094527 0.04442519 0.08733956 0.038180757
0001e0 6b 13 05 3d f0 f0 ab 3d 78 ad 8a 3d c3 4d ff 3c
       0.03248922 0.083955646 0.06771368 0.03116501
0001f0 89 ae 6b 3c ea 05 58 bc 79 62 82 3c eb 9e 72 3d
       0.014384874 -0.013185004 0.015916096 0.059233587
000200 b8 88 2e 3d 64 3b 5a bd c5 1e 16 3d 0a bd 1a 3d
       0.042610854 -0.053279296 0.036650438 0.037777938
000210 ac e1 c2 3d 16 e0 86 bc 9c bc aa 3c eb ff 52 bd
       0.095157 -0.016464274 0.02084189 -0.051513594
000220 60 e0 11 bd 37 90 47 3d e5 9d fa bb 6a 1d 63 bd
       -0.03561437 0.04872152 -0.007648217 -0.055447973
000230 64 c4 49 3b a9 04 85 3d c1 d4 bb bc 13 f9 e7 3c
       0.0030787224 0.064950295 -0.022928597 0.02831701
000240 d6 bb 57 3c 80 77 6d bd bd 5c ab 3c 0b 7a 00 bd
       0.013167342 -0.057975292 0.020918244 -0.03136639
000250 6e 0c e1 bc 4d 0f c7 bb 1c ce b2 3c 8c e9 a8 3d
       -0.027471747 -0.006074822 0.021826796 0.082476705
000260 e8 08 36 bd f1 fe 9d 3d 3e a4 ad 3d 6a 9c 77 3d
       -0.044442087 0.07714642 0.08478592 0.060451902
000270 8f a0 88 39 2b ee 47 bd 6d 98 48 3d f8 96 08 bd
       0.00026059567 -0.04881112 0.04897349 -0.0333471
000280 0a f8 59 3d 16 eb 3b 3d ee 2f 32 bd 07 bb 7e bd
       0.053215064 0.045878492 -0.04350274 -0.062190082
000290 05 60 48 bd 37 63 65 3c b2 04 0c bd ed 7d 44 3d
       -0.048919696 0.014000705 -0.034184165 0.047971655
0002a0 72 e3 99 bd 1c 97 e4 bc 62 a8 a3 bd 29 03 ba 3c
       -0.07514085 -0.027904086 -0.07991101 0.022706585
0002b0 e1 95 7f 3c 89 ef c5 3c ea eb b8 3c 8b c5 54 3d
       0.015599699 0.02416207 0.02257343 0.051946204
0002c0 d1 33 54 bc 4d ec 7a bd 4f 7d fd bc fd b3 1b 3d
       -0.012951807 -0.06126051 -0.03094354 0.038013447
0002d0 07 e7 ab bc 8e ec 1e 3d 1c f9 b8 3b 56 2c 35 3c
       -0.020984186 0.038799815 0.0056449305 0.011057934
0002e0 23 85 4f bd 0d c6 fe bc c6 28 69 3c 80 43 2f bc
       -0.05066408 -0.031100297 0.014230913 -0.010697246
0002f0 25 c9 9e bd d2 3b 8e 3d 5b d1 9b bc 19 1e 3d 3d
       -0.07753209 0.069450036 -0.019020727 0.04617128
000300 d4 5a 33 3d a6 53 8b 3d 5d 4b 04 bd be b0 8c bd
       0.043787792 0.06803064 -0.032298435 -0.068696484
000310 8f 01 7c 3d 86 9f 1f 3b e8 48 86 bc bf 9e 44 3d
       0.061524924 0.0024356558 -0.016392186 0.048002955
000320 f2 e5 45 bd 5a 35 12 3d 09 ff fd 3c 49 3a 43 3d
       -0.048314996 0.03569541 0.0310054 0.047663007
000330 3d de 2e 3c ae 34 2a ba 87 23 03 3c 9b 4f 9f bd
       0.010673103 -0.0006492835 0.008004076 -0.077788554
000340 71 e7 89 bd 18 09 4c 3d 66 72 b0 3c ec b5 14 bd
       -0.06733597 0.04981336 0.021538924 -0.036306307
000350 47 51 49 3d 2f de 29 3c 3d 08 93 38 a1 cb 6e bd
       0.049149778 0.010367914 7.011041e-05 -0.058299664
000360 3c d6 ee 3c 29 a9 64 3d b5 97 41 bd 7b aa 39 3d
       0.02915489 0.055825386 -0.04726382 0.0453286
000370 73 80 9e bd a7 bf 77 bd d6 df be bc f4 54 ed ba
       -0.077393435 -0.06048551 -0.023300093 -0.0018106983
000380 79 13 99 3d 72 59 fc 3c 52 e9 dd b9 b6 71 8b bd
       0.07474417 0.03080437 -0.00042326242 -0.06808798
000390 e4 2f 0a 3b 08 e5 8a bd 6c 88 19 3c 2d 38 54 3c
       0.0021085674 -0.067819655 0.009370904 0.0129528465
0003a0 00 99 8d bd 9c 2f 18 bd 42 41 cf bb 7d 47 be bb
       -0.06913948 -0.03715478 -0.006324918 -0.005806862
0003b0 5e dd 7c bd de d4 ae 3a 07 02 dd bc 6a 87 f9 3c
       -0.06173455 0.0013338586 -0.026978506 0.030460078
0003c0 a4 6a b7 bc 1d 92 9e bd fe 09 99 3a 1d ff a1 bd
       -0.022389717 -0.07742713 0.0011675952 -0.07909987
0003d0 44 e7 97 bd b1 e0 29 bd 59 89 28 bd 2a 07 68 bd
       -0.07417157 -0.041474048 -0.04114661 -0.056647457
0003e0 c5 e8 e8 38 8f 3e 19 bd ac 9a 85 3d 95 5a c5 3c
       0.00011105979 -0.037413176 0.06523642 0.024091044
0003f0 64 e9 f0 3b 1e 81 e4 bc 34 fb 08 bd 8c a7 66 3a
       0.007352041 -0.0278936 -0.03344269 0.000879877

layers.0.Aw.conv2.bias f4 [32]
000000 bf 34 50 bb ca 30 fe 3c e1 cd 9c 3c 2c ce be bc
       -0.003176972 0.031029124 0.01914114 -0.02329167
000010 bd 34 9a 3b fe cb 0e 3c 79 15 75 3d f7 83 92 bd
       0.004705994 0.008715628 0.05983493 -0.071540765
000020 02 6f ea 3c 0c c6 00 bd 8d 11 58 3d c9 d0 51 3d
       0.028617386 -0.031438872 0.052751113 0.051224504
000030 42 10 ab 3d f4 39 25 bd b6 64 d5 bb 6b a8 56 3d
       0.0835271 -0.04033847 -0.00651225 0.05240671
000040 03 20 02 3d 41 c2 4d bd 59 2e f5 37 20 9b 37 bc
       0.03176881 -0.050234083 2.9227858e-05 -0.011206418
000050 40 be 0a 3d 7a 75 a9 3d db 6b 20 3d 15 a0 08 3e
       0.033872843 0.0827436 0.03916536 0.13342316
000060 0f 35 e8 3c 40 92 54 bd 71 77 88 bd ad d2 05 bd
       0.028345613 -0.051897287 -0.06663407 -0.03267162
000070 76 65 7c bd b7 24 3d 3c 0b d3 8c bd d9 ff 6c bd
       -0.0616202 0.011544398 -0.06876191 -0.057861183

layers.0.Aw.conv3.weight f4 [1, 32, 3]
000000 77 a0 e1 bd 0a 40 e7 bc 93 9b 68 bd ea 6a d8 3c
       -0.11016934 -0.028228778 -0.056788992 0.026418168
000010 48 dd 80 bb e7 0c 6d bc 47 3b 18 3b c7 c0 2b 3d
       -0.003932629 -0.014468408 0.0023228691 0.041931894
000020 11 eb 1e 3c af e4 32 3d e4 91 05 be af be 12 bd
       0.009699599 0.04367512 -0.13043934 -0.03582638
000030 b1 57 3e 3c dc 7b 8b bd ee 6e 19 3d 8d 92 b3 3d
       0.011617587 -0.06810734 0.037459306 0.08768187
000040 19 45 25 3d d4 0b 5b 3d 94 41 ca bd 35 11 e7 bb
       0.0403491 0.053478077 -0.09875789 -0.007051612
000050 dd d6 37 bd 7e 1a 1f 3d 08 29 5b 3d 5a 2a b7 3d
       -0.044882644 0.038843624 0.053505927 0.08943625
000060 09 33 f9 bd 86 1c c1 3c 67 42 63 bc 17 75 05 bd
       -0.12167937 0.023573171 -0.013870812 -0.03258237
000070 79 71 b0 bd d0 e9 8a 3d b3 25 1e 3d 2e e1 eb 3d
       -0.08615393 0.067828774 0.03861017 0.11517559
000080 3d da 2e bd 1b a7 16 3d 10 6e c6 bd d2 81 bd bd
       -0.042688597 0.036780458 -0.096889615 -0.09253277
000090 3c 40 3c be 7a 74 77 be 37 af 4b be 07 e7 88 3c
       -0.18383878 -0.24165526 -0.19891058 0.016711725
0000a0 36 0a b6 bd 2a e0 58 bd 1f 05 64 3c da e6 32 bd
       -0.08888666 -0.052948155 0.013917237 -0.04367719
0000b0 89 f3 11 3d 56 b0 50 3d 2c a7 8e bd b7 84 26 3c
       0.035632644 0.050949417 -0.06965479 0.010163478
0000c0 6e aa bf bc 9c cb b4 3c 0f d4 e1 bd 0d 00 8d bd
       -0.023396697 0.022069745 -0.11026775 -0.06884775
0000d0 90 07 bb bc d1 18 c6 bc 83 f5 56 be 66 d0 db bd
       -0.022830755 -0.024181755 -0.20992093 -0.10733108
0000e0 c5 a1 a4 bd 9c 58 e9 3c 6e 73 10 bd 0a fd 25 bc
       -0.080386676 0.028484635 -0.035266332 -0.01013113
0000f0 30 52 ec bd e9 c1 80 bc 46 1a ea bd 7e 62 2d bd
       -0.115391135 -0.015717464 -0.114307925 -0.042330258
000100 15 fe 46 bd 35 bd b7 bc 55 40 a3 bd 36 86 c4 bd
       -0.048582155 -0.022429088 -0.07971255 -0.09595911
000110 67 ee ed bd 03 e6 80 be 06 6a 1e be e8 25 6a be
       -0.11617737 -0.25175485 -0.15470132 -0.22866023
000120 8a b5 77 3d 9d be 76 bc 80 5b e3 bd b6 a1 c4 bd
       0.060475864 -0.015060094 -0.111014366 -0.096011564
000130 63 b1 8b bd 43 91 40 bd f6 09 98 3d 88 c5 38 3d
       -0.06820943 -0.047013532 0.07423775 0.045110255
000140 d8 51 15 bd 2a 6b 26 be 93 5f ac bb 7b ee 58 bd
       -0.036455005 -0.16251817 -0.005260417 -0.052961808
000150 ce a5 f3 bc 10 d2 3b 3d f7 ba 8a bc a1 66 c0 bd
       -0.029742148 0.045854628 -0.016934855 -0.09394575
000160 f7 46 f0 bb df b8 86 3d 2b 13 09 3d 1d 0e 2e 3c
       -0.0073326784 0.0657823 0.033465546 0.010623482
000170 12 f7 c7 bc 39 4f b4 3d a1 8e 40 3d 74 be ac 3c
       -0.024409804 0.08804173 0.04701102 0.021086909

layers.0.Ah.conv1.weight f4 [64, 1, 5]
000000 bd d3 65 3e fb b9 4d 3d 9b d1 81 be ca 6e ec 3e
       0.22444053 0.050226193 -0.2535523 0.46178275
000010 5e 1a c6 3e 46 03 d7 be 27 bd 2a 3e cc 8e 6a be
       0.38691992 -0.41994685 0.16673718 -0.22906035
000020 51 e4 00 be 3d f8 d7 3d b5 1d ba be 11 ad 17 3e
       -0.12587096 0.105453946 -0.3635079 0.14812113
000030 af a7 b0 be 61 8c 2e bd f7 33 ab 3e f7 df 21 3e
       -0.34502932 -0.042614345 0.33438084 0.15808092
000040 75 81 be 3e 82 fd e5 3d a9 28 d7 3e 3a 68 82 3e
       0.37208143 0.112299934 0.4202321 0.25470144
000050 c7 ad 83 3e a0 e6 ac 3e b7 74 91 bd c8 27 fd bd
       0.2571852 0.33769703 -0.0710234 -0.12361103
000060 9f ff 0d 3d 27 8b 51 3e 94 c1 82 3e 46 5d ab 3e
       0.034667607 0.20463239 0.25538313 0.334696
000070 16 0c 56 be eb 3e a3 3e d6 4a ef be b6 0a d4 bd
       -0.20903048 0.3188394 -0.46736783 -0.103536054
000080 e1 f4 ec bd c6 b1 b7 bc 76 6a 2d be 24 87 ce 3e
       -0.115701444 -0.022423636 -0.16935143 0.4033748
000090 90 c2 58 be 42 17 8e 3c 80 43 ce 3d 1e 23 07 bc
       -0.2116797 0.017345075 0.10071468 -0.008248119
0000a0 da b0 96 bd 46 1d 16 3c cb dd a8 be 17 f8 d3 be
       -0.073579505 0.009162253 -0.32981715 -0.41400215
0000b0 be f8 5d be 4e ce ff bd 30 10 4a 3e be 00 74 bc
       -0.21676919 -0.12490521 0.19732738 -0.014892755
0000c0 75 1c aa bd a5 67 ac 3e ac 12 48 3e 45 3e 97 be
       -0.08306209 0.33672825 0.19538373 -0.29539695
0000d0 fe 62 c2 be f9 9d d9 be 98 e6 8d be 7b 47 09 3e
       -0.3796615 -0.42503336 -0.27714992 0.13406174
0000e0 c6 d7 82 3e cf 01 44 be 81 a1 5f 3e 1a 9d 87 3e
       0.25555247 -0.19141315 0.21838953 0.26487046
0000f0 0e ae 25 3d ca 53 bd be 93 e0 6d 3d e0 4d 77 bd
       0.040449195 -0.36977988 0.0580755 -0.060377
000100 e8 cf 4a be a7 d1 92 3d ac dd 4c 3e e5 26 08 3e
       -0.19805872 0.07168894 0.20006436 0.13296087
000110 2e b5 7b 3e 44 04 89 3e cb ed f5 bd 32 b4 b4 bc
       0.24580833 0.26761067 -0.12008246 -0.02205858
000120 de 3f e0 be c0 81 d5 be ad f4 9d be d3 f8 85 3e
       -0.43798727 -0.41700554 -0.30850735 0.261664
000130 78 a7 c1 3d 1b 7f f9 bd cc 65 44 3c 2f c3 eb 3c
       0.0945577 -0.121824466 0.011987161 0.028779594
000140 09 58 90 be 85 86 63 3e 62 d6 5d 3e b1 57 d0 3e
       -0.28192165 0.22219284 0.21663812 0.40691903
000150 83 2b ce 3e 04 d3 11 3e d3 0c 75 3c 19 6b 92 3d
       0.40267572 0.14240652 0.014956671 0.071493335
000160 aa c4 ff bd b2 f9 ce 3e cb 41 b4 be 8c 29 8f bd
       -0.124886826 0.40424877 -0.35206446 -0.06990346
000170 6f 86 7a 3d b1 f8 90 3e 73 5f 49 bd 51 bb 4e 3e
       0.061163362 0.28314736 -0.049163293 0.20188643
000180 05 e8 00 be db 01 f8 3d b6 c7 80 3e ba 56 62 3e
       -0.12588508 0.12109729 0.25152367 0.22103396
000190 dd a3 9c 3e f5 18 ee 3d 02 a2 58 3e 40 fc b9 3d
       0.30593768 0.11625854 0.21155551 0.09081316
0001a0 5e f8 8b be b7 cb 5c be de 22 a2 bd 1a 14 42 be
       -0.27337927 -0.21562086 -0.07916807 -0.1895298
0001b0 de c0 af be 0b ed d9 bd a7 a6 84 be b7 f1 4a 3e
       -0.34326833 -0.106409155 -0.25908396 0.1981877
0001c0 e1 bf 1b 3e c9 5b 95 3e 98 33 82 3e 90 db cd 3e
       0.15209915 0.2917159 0.25429988 0.40206575
0001d0 bf 8f 6c 3e 70 af e9 3d b7 22 81 3d b4 e3 7d be
       0.2310171 0.11410415 0.063054495 -0.24793893
0001e0 40 f7 81 be 31 5f cb be 04 c2 18 3e 0e 88 9e 3e
       -0.2538395 -0.39721063 0.14917761 0.30963176
0001f0 3f b9 3c 3e 41 18 b4 be fb 98 b4 3d 6b 88 85 3e
       0.18430041 -0.35174754 0.08818241 0.2608064
000200 69 76 fc 3d fa db c2 3e 79 d4 c3 be 5e cc ac be
       0.123272724 0.38058454 -0.3824804 -0.3374967
000210 20 a5 b8 be 87 25 ae 3b 99 71 85 be 97 eb c5 be
       -0.3606348 0.005314532 -0.2606323 -0.38656303
000220 2a 94 29 bd 79 e6 89 be 58 95 d9 3d fe 2f d3 bd
       -0.041401066 -0.2693365 0.10624188 -0.10311888
000230 e9 a5 01 3e 82 4a 5c 3e 7c be 0a 3d 8f 4e b9 3e
       0.12660946 0.21512797 0.033873066 0.36192748
000240 3e 6b aa bc 45 e0 61 be df e4 e0 3e 1a d1 43 be
       -0.02080309 -0.22058208 0.43924615 -0.19122735
000250 fa 57 e3 3e b7 8f 7f 3e d1 df 9f 3e 12 6a ac be
       0.44403058 0.24957167 0.31225446 -0.33674675
000260 7e be 0d 3e af 99 9c 3e a8 e6 47 be d1 10 ce be
       0.13842198 0.30586 -0.19521582 -0.40247205
000270 fb 9e e0 be c5 ad bf 3e 81 50 ea 3d 59 91 a3 be
       -0.43871292 0.37437263 0.11441136 -0.3194683
000280 ae 0a f9 3d 83 fc a4 3e 75 00 3b 3e 6a 9a 87 be
       0.1216024 0.322239 0.18261893 -0.26484996
000290 84 b3 73 be 6e 53 68 be 75 fe 42 be fc 79 32 3e
       -0.23798949 -0.22688076 -0.1904238 0.17429346
0002a0 a3 b6 93 be 08 9d d1 3e 6b 2a 51 3d 13 58 a2 be
       -0.28850278 0.40940118 0.051065844 -0.3170782
0002b0 18 12 86 3e d2 c8 aa bd d2 dc c6 be 8a 8a f1 3d
       0.2618568 -0.08339085 -0.38840348 0.11794002
0002c0 29 9c 25 bd 23 57 3b bd 07 74 a0 be c6 a0 9c 3d
       -0.04043213 -0.045737397 -0.31338522 0.076478526
0002d0 aa 27 87 3e 09 c3 66 3e 38 0c 37 be d3 a8 42 be
       0.2639745 0.22535338 -0.17875755 -0.19009714
0002e0 44 c1 c7 3e e7 a9 e1 be 24 fc 2d be 20 fc a8 bd
       0.39014637 -0.44074938 -0.16990715 -0.08251214
0002f0 5a be 11 3e d7 82 a2 be f8 de d9 3e 32 8d 88 be
       0.1423277 -0.31740448 0.42552924 -0.26670223
000300 49 17 bf 3e b8 7d 8c bd c7 1e f7 3d 60 41 c7 bd
       0.37322453 -0.068599164 0.12066417 -0.09729266
000310 9a 79 fb 3d e2 72 5f be 67 6a a7 be d0 b1 e9 bd
       0.12279053 -0.21821168 -0.32698366 -0.11410868
000320 ed be a2 bd 22 4c 88 3d a7 00 ab 3e 29 13 6d 3d
       -0.079465725 0.06655146 0.33398935 0.0578796
000330 19 da db 3e 7f 3d a4 be 74 6b d0 be 3c 42 f7 bd
       0.42939833 -0.32078168 -0.4070698 -0.1207318
000340 0a 57 f8 3d eb 57 c8 3d a7 35 be 3e 83 a2 2c 3e
       0.121259764 0.09782394 0.37150308 0.16858868
000350 56 45 66 3d 50 7e a4 3d 6c 82 81 3e 8a d4 cf be
       0.056218468 0.08031905 0.25294816 -0.40591842
000360 fc 01 5d be b1 5e d5 3e d2 54 71 3e 83 8e ce be
       -0.21582788 0.41673806 0.23567513 -0.40343103
000370 d3 6a bb be 63 cb f9 3d af 57 d4 3d 73 3a 70 3b
       -0.36604938 0.12196996 0.10368287 0.0036655932
000380 ba 1f 07 be d8 0b 12 be ea ad 41 be 6e 02 b4 be
       -0.13195696 -0.1426233 -0.18913999 -0.35158104
000390 d9 84 d0 3e 1e 2e ab be bc 17 69 3e 22 51 80 3e
       0.40726355 -0.33433622 0.2276296 0.250619
0003a0 17 5c 56 3e 4d 4a b3 3e 3b 3a 6a be 57 e5 b6 3e
       0.20933567 0.35017624 -0.22873776 0.35721847
0003b0 52 07 4a bc 0c f2 4d be 18 28 a6 bd 37 2c 12 3e
       -0.012330847 -0.20111865 -0.08113116 0.14274679
0003c0 0f 66 58 3d 42 25 99 be 79 a4 36 3d e8 cc cd bd
       0.052831706 -0.29911238 0.044590447 -0.100488484
0003d0 7e db 17 be 48 48 9d be 31 54 84 3e 8b 30 45 be
       -0.14829823 -0.3071921 0.25845483 -0.19256799
0003e0 3f ec a2 be 4d ea ca be 70 97 b8 be 49 a8 8a be
       -0.31820866 -0.39631882 -0.36053038 -0.27081516
0003f0 6e bd af be 66 72 f6 bc 48 66 e0 be 9d 01 29 3e
       -0.3432421 -0.030083846 -0.43828034 0.16504522

layers.0.Ah.conv1.bias f4 [64]
000000 19 12 1b 3d a9 19 98 be bd 69 f0 3d f9 3c d2 3e
       0.037859056 -0.29707077 0.11738918 0.41062143
000010 58 b8 7d 3e b8 e9 91 bd 42 9a 17 be 76 14 d5 be
       0.24777353 -0.071246564 -0.14804938 -0.41617173
000020 8f 92 01 3e 6c be 0f 3e 35 f3 89 be ba 27 c8 3e
       0.12653564 0.14037484 -0.26943365 0.3909281
000030 e0 89 14 be 41 cc c3 3e 1a 65 18 be 90 91 af 3e
       -0.1450572 0.3824177 -0.14882317 0.34290743
000040 22 0f af 3d 1c a8 c6 be ff 83 e3 be 5d a0 d2 be
       0.08547808 -0.38800132 -0.44436643 -0.41137972
000050 64 9f c4 3e c6 fa 66 3e 00 48 1e 3e d4 b4 16 be
       0.38402855 0.225566 0.15457153 -0.14717418
000060 71 66 df 3d dd ab 9f be 82 8c d7 3e 92 d5 83 3e
       0.10908211 -0.3118581 0.42099386 0.2574888
000070 8e 57 83 3e 1c ac 14 3e ae 59 e7 be 44 f0 46 be
       0.25652736 0.1451878 -0.45185608 -0.19427592
000080 a3 cc 43 3e af c8 98 be b9 cd 8a 3d 8a c5 9c 3d
       0.19121031 -0.2984061 0.0677752 0.07654865
000090 bb 77 7d be 0e a9 a1 be 31 6e 27 3e ca b9 1d be
       -0.24752705 -0.3157429 0.16350628 -0.15402904
0000a0 c8 21 95 be af a2 e3 3e c7 3f bb 3e 66 9c 09 be
       -0.29127336 0.44460055 0.36572096 -0.13438568
0000b0 38 29 e5 be 24 2c 19 bb 45 43 ac be df 0a 89 be
       -0.4475801 -0.0023372257 -0.33645073 -0.26766106
0000c0 03 fb 9f bb b9 f6 38 be 0b 74 9e be 78 d8 17 3e
       -0.004882218 -0.18062867 -0.3094791 0.1482867
0000d0 56 6a 52 be b5 c7 8b be 66 aa 5c 3a 34 7a b2 be
       -0.20548376 -0.27300802 0.00084177253 -0.3485886
0000e0 62 76 db be b0 1d 08 3e 74 eb 82 3e d3 b9 c9 be
       -0.42863756 0.13292575 0.2557026 -0.39399585
0000f0 12 3c cb 3e 10 e2 4c bd 4b 00 3a bd 43 be b8 be
       0.39694268 -0.050020278 -0.045410436 -0.36082658

layers.0.Ah.conv2.weight f4 [32, 64, 3]
000000 10 b0 4b bb 4b 54 09 bd 29 cd a7 bd be bb 96 3d
       -0.0031080283 -0.033527654 -0.08193428 0.07360028
000010 b3 4c 66 3d b2 6e 65 bd a0 09 79 3c b3 c8 6a bc
       0.05622549 -0.05601377 0.015200049 -0.014330077
000020 17 5f 87 bd 5a 30 21 bd 04 48 e4 3c 24 b3 7d bb
       -0.06609934 -0.039352752 0.027866371 -0.0038711512
000030 02 b5 52 3d 0d b9 8e bc 5e ec b6 3c 3e 91 34 bd
       0.051442154 -0.017422223 0.022329506 -0.044083826
000040 a7 30 06 3d 0a d5 67 3c ca e6 9c 3d 48 82 4c 3d
       0.032761242 0.014149914 0.07661207 0.049928933
000050 ad 7b 6f bd 73 af 53 bd c3 7d 81 bd 81 c0 35 bd
       -0.058467556 -0.051680993 -0.06322815 -0.04437304
000060 3b fa 05 bd ed f8 35 3d 1a 1d 29 bc 9f d3 16 bd
       -0.03270934 0.044426847 -0.01032188 -0.03682291
000070 37 a1 fc 3b c3 bc 53 bc 78 ff 17 3c ac d0 78 3d
       0.007709648 -0.012923422 0.009277217 0.06074588
000080 a0 71 1b 3d 34 38 8b bd e6 78 61 3c 02 7c 64 bd
       0.037950158 -0.06797829 0.013761735 -0.055782326
000090 06 bf 51 3d 07 04 ba bc 93 fb f4 bb 46 f8 f5 3c
       0.051207565 -0.022706999 -0.007476279 0.030025613
0000a0 b0 32 6a 3d fa 12 80 bd e6 80 fa bc fc 23 e1 3b
       0.057177246 -0.062536195 -0.030579042 0.0068707447
0000b0 00 55 ac bc 94 80 dc bb ca eb 08 3d 91 92 29 3d
       -0.021036625 -0.006729195 0.03342799 0.041399542
0000c0 14 db 00 3d 2e 4c 6d bd b8 b8 8d bd 75 55 21 bd
       0.03145893 -0.05793398 -0.06919998 -0.03938814
0000d0 77 60 40 3d 49 30 41 3d ae d5 58 3b ac ed 75 bd
       0.046966996 0.04716519 0.0033086347 -0.060041115
0000e0 91 dc 1a 3d 12 d6 a6 bc d2 47 10 bd e2 1d de bb
       0.037808005 -0.020365749 -0.035224743 -0.0067784647
0000f0 84 29 9a bd 1b 6f 2f 3d 6e 23 58 3d 53 60 69 bd
       -0.0752745 0.042830568 0.052768163 -0.056976628
000100 28 99 83 bc c0 dd 3d 3d 44 04 19 3d 56 31 5b bd
       -0.016064242 0.046354055 0.037357584 -0.053513847
000110 d2 5e 04 3d e5 b2 c0 bc 91 48 94 3c ab 31 3a 3d
       0.03231699 -0.023522804 0.018101009 0.045457523
000120 bb 91 9e bd c3 66 7f bc 74 36 7d 3d 0d b2 b4 3c
       -0.0774264 -0.015588465 0.06181951 0.022057557
000130 f9 32 5e bc 0f f9 a3 3b 5f 43 ba 3c 16 bb 2f bd
       -0.0135619575 0.0050040553 0.022737203 -0.04290303
000140 4c 82 d8 3b d3 58 63 3d ed ed 5e 3d 33 52 95 bd
       0.0066073295 0.05550463 0.054426122 -0.07291069
000150 c2 45 c8 3a d7 6a 6b 3d cb af 18 3c 68 ae 43 3c
       0.0015279579 0.057474937 0.009319256 0.011943437
000160 6b e7 c8 bc ab 65 83 bc 53 91 77 bd f4 43 61 3d
       -0.024524411 -0.01603969 -0.060441326 0.054996446
000170 c9 2f 63 3d bb 3b d1 bc d9 23 5e 3d 2d 83 5a 3d
       0.055465493 -0.025541177 0.054233406 0.053347755
000180 e3 11 30 3d d8 c2 6a 3d 99 82 85 3a 94 53 9e 3d
       0.042985808 0.057314724 0.0010186016 0.07730785
000190 a2 4e 1d bd f6 fe 5a 3d 90 8b 9b 3c 71 e7 f9 bc
       -0.03840507 0.053465806 0.018987447 -0.030505868
0001a0 1b 1f 61 3d 2e 81 22 bd dc 98 a2 3c d8 c6 4d 3d
       0.054961305 -0.039673977 0.01984828 0.05023846
0001b0 18 76 19 3d 30 3b 92 3d c6 2d 96 3d f9 e5 a0 3d
       0.03746614 0.07140195 0.07332949 0.07856364
0001c0 a1 ca 83 3d e8 cb 15 3d 46 c6 61 bc 76 68 08 bc
       0.06435133 0.036571413 -0.013780182 -0.008325687
0001d0 bc 4b 5b bd 3c e4 20 3d d2 00 8a 3d cd 96 2a bd
       -0.053539023 0.03928016 0.06738438 -0.04164772
0001e0 f2 d8 c1 3c f5 ea 24 bd c4 00 93 3d c5 04 7a bd
       0.023663018 -0.040263135 0.071778804 -0.061039705
0001f0 65 c2 02 bc 2f 3e 99 bc fd e5 84 bd a1 5a 0c bd
       -0.007980918 -0.01870641 -0.06489179 -0.034266118
000200 fe 8d 84 bd 63 6c 08 bd 2f ee f8 3c 8e cf ca bc
       -0.06472395 -0.03330649 0.030387012 -0.024757173
000210 87 c8 cd bc 82 ba 85 bc d9 91 59 bd 19 fb 32 bd
       -0.025120033 -0.016324285 -0.053117607 -0.043696497
000220 8d 45 d7 bc a2 35 09 bd 41 06 b7 bb 25 37 02 bd
       -0.026278282 -0.033498414 -0.0055854623 -0.03179087
000230 73 f9 d0 bc 7a 1c e3 bc f3 21 72 3d 6a b5 38 3d
       -0.025509572 -0.02772354 0.059114408 0.045094885
000240 e5 2d 1e 3b ff 4f 70 3c 56 2b 31 bd d9 7f 29 bd
       0.0024136242 0.01466751 -0.04325422 -0.04138169
000250 5b 92 76 3d 00 1c 81 3d 67 27 10 3c a0 81 a0 bc
       0.06019817 0.06304169 0.008798457 -0.01959306
000260 47 f8 1e 3d ec 3c c9 3c e4 d3 90 3c 5b 83 8b bd
       0.038810994 0.024565183 0.017679162 -0.068121634
000270 c5 cd 05 3c 34 1d e0 3b 39 58 83 bd 5c 64 4b bd
       0.008166735 0.006839419 -0.064133115 -0.049656257
000280 35 f0 c0 bc 74 c7 5c bd a7 ff 30 3d 25 ba ac bd
       -0.02355204 -0.05390115 0.04321256 -0.08433942
000290 29 50 6e 3a 33 1e 4f bd 36 8c c1 bb 1c 47 90 3d
       0.0009090924 -0.05056591 -0.005906607 0.07044813
0002a0 79 0d 28 bd 9d e4 74 3d 5f 57 16 3c e7 fc 86 3c
       -0.041028474 0.059788335 0.009176104 0.016478015
0002b0 48 bb 2f 3d c2 2c d5 3c 73 d8 42 3d 10 e5 72 bc
       0.042903215 0.026022319 0.047569703 -0.014825121
0002c0 83 52 30 bc c2 b3 22 3c 58 ce 88 3d de 3d 96 bc
       -0.01076186 0.009930553 0.06679982 -0.018340047
0002d0 27 45 93 3c 06 1a 17 bc ea 94 21 bd 96 6b 02 3d
       0.01797731 -0.009222513 -0.039448656 0.031840883
0002e0 a5 12 78 bd 16 c4 a6 bc af 61 86 bd 11 46 34 bd
       -0.060564656 -0.020357173 -0.065616004 -0.044012133
0002f0 b1 c6 12 bd af c1 34 bc 60 32 c9 3b 97 a0 53 3b
       -0.03583402 -0.011032506 0.0061400384 0.0032291764
000300 6a ab de 3c 9c 08 78 bb 04 c8 2b 3d b1 54 55 3d
       0.027181346 -0.0037846928 0.041938797 0.05208272
000310 71 8e 80 3d db 00 79 bd 4f b2 c1 3b ed 41 83 bc
       0.062771685 -0.06079183 0.0059111486 -0.016022647
000320 d1 ec 5e bd e4 91 71 3d f2 58 21 3c 37 1c 1a bd
       -0.054425064 0.058977023 0.009847866 -0.037624564
000330 48 0c 28 bd ee 53 4d 3d 27 18 63 3b a7 d4 65 bd
       -0.041027337 0.05012887 0.0034651847 -0.056111004
000340 f5 25 90 bc a7 60 9a bd 2b 6e 1f bd 9f 23 a5 3d
       -0.017596224 -0.07537966 -0.038923424 0.08063435
000350 be b9 4c bd c4 c5 4e bd 73 c6 10 bd 67 25 ef bc
       -0.049981825 -0.050481573 -0.035345506 -0.02919264
000360 1d 05 7d 3c db 8c aa bc 2f ab 68 3c 5b 08 6c bd
       0.015443114 -0.020819118 0.01420097 -0.057625156
000370 e4 1c 02 bd bf 37 2f 3d ff aa ab bc a7 ba f3 bc
       -0.031765833 0.042777773 -0.02095556 -0.029752089
000380 1e 92 1a bd 64 c4 98 bd 40 be 08 bd 11 10 c3 bc
       -0.037737004 -0.074593335 -0.03338456 -0.023811372
000390 e8 18 43 bd 89 c0 5b 3d 44 4b 5b bd b9 a0 78 3d
       -0.047631174 0.053650413 -0.053538576 0.060700152
0003a0 bf c3 2e 3d e8 9c 30 bb 1c d7 f8 bc d2 bd 05 3d
       0.042667147 -0.0026948992 -0.03037601 0.03265173
0003b0 9f da af 3c cb b2 40 bd e4 59 81 3c ed 4a 9a bd
       0.021466551 -0.04704551 0.015789934 -0.07533822
0003c0 7d ea 69 3d 23 8d 13 3d df 63 93 bd 69 0f 08 bd
       0.05710839 0.03602327 -0.07196783 -0.03321782
0003d0 17 c7 77 3d f4 35 05 3d 79 ba 58 bd 4f 7f 6a bb
       0.0604926 0.032522157 -0.05291221 -0.0035781448
0003e0 f6 d8 84 bb a9 75 1f 3d 07 bd 14 bd d1 71 5f bd
       -0.004054184 0.03893057 -0.036313083 -0.054551903
0003f0 62 17 31 3d 45 10 a3 bd 71 45 35 bd d4 69 db bc
       0.04323519 -0.079620875 -0.044255678 -0.026783861

layers.0.Ah.conv2.bias f4 [32]
000000 44 e2 db bc 67 7a 51 3d 82 dd 8a 3d d4 08 85 bd
       -0.02684129 0.051142123 0.067805305 -0.064958245
000010 4e 1c 0f bc 97 68 30 3d 48 11 fa 3c ed af 9f bc
       -0.008734776 0.043068495 0.030525818 -0.019493068
000020 66 d4 86 bd f9 fc 3b 3d ba ff 28 3d 20 a9 b2 bc
       -0.065834805 0.04589555 0.041259505 -0.02180916
000030 85 ea 37 3d f0 3b 13 3c b4 39 3b 3d 78 d9 b4 3c
       0.04490139 0.008986458 0.045709327 0.022076353
000040 ba 3f fa 3b 77 7e 45 3d e5 cb d8 3c 40 b5 25 3c
       0.0076369913 0.04821631 0.026464412 0.010114014
000050 2f 15 c8 3c 61 af ac 3c e4 5d 99 bd e4 d4 09 3d
       0.024424164 0.02107972 -0.07488611 0.033650294
000060 82 dc f8 3c cd cb 9d 3a dc 88 6c bd 4b f0 ca bb
       0.030378584 0.0012038887 -0.057747707 -0.006193196
000070 7b 25 59 bd 00 ec 52 3d e5 d0 9b bd 6e 8c 18 bc
       -0.05301426 0.0514946 -0.07608203 -0.009310825

layers.0.Ah.conv3.weight f4 [1, 32, 3]
000000 d4 06 b2 bd 39 c9 99 bd f8 b5 cd 3d 4d 74 19 bc
       -0.086927086 -0.07509083 0.100444734 -0.009366107
000010 00 e6 ab bd 47 98 0b 3c e3 e0 ae 3d ac 6c 55 3b
       -0.083934784 0.0085201925 0.085389875 0.0032565994
000020 cb 86 ca bc a3 86 bc bb c2 34 99 bd 26 b7 7c bd
       -0.024722477 -0.0057533546 -0.07480766 -0.0616981
000030 71 d7 c0 ba ab 32 d4 3d b6 f2 e0 3d 99 fd af 3d
       -0.0014712644 0.10361227 0.109837934 0.08593292
000040 8d f3 85 3d 40 8c 31 bc e5 97 62 bd 87 cc a4 3c
       0.06540594 -0.010836661 -0.05532064 0.020117057
000050 e9 35 1a ba 30 85 eb 3d 55 21 b3 3d 62 43 f1 3c
       -0.0005882667 0.11500013 0.08746592 0.029451076
000060 ff 1e 4e bd 88 c2 e7 bd af cf c6 bd f2 4f 23 3c
       -0.05032253 -0.11316401 -0.09707581 0.009967791
000070 b0 1b a3 3d 28 f8 18 3e 67 44 fb 3d 34 8f c9 3d
       0.07964265 0.14938414 0.12268906 0.09841767
000080 28 6d 11 3d 45 20 25 3b 26 4d bc bc 3c 3b 6b 3c
       0.03550449 0.0025196236 -0.022986006 0.014357384
000090 00 83 63 bd 23 77 e3 3d 82 fd c5 3d 83 91 0c 3d
       -0.055544853 0.11106708 0.096674934 0.03431846
0000a0 f6 71 9c bd d8 26 af bd bf 4e 7f 3d bf f8 bc bc
       -0.07638924 -0.08552331 0.062330958 -0.02306783
0000b0 4a db 26 3d 0a 8a b7 bd 1f b1 06 bd c4 24 47 bd
       0.040736474 -0.08961876 -0.03288376 -0.048619047
0000c0 f2 ae 21 3b 5e 3d cf 3c 6f c3 f7 bd cb df 9c bd
       0.0024670926 0.025297817 -0.12097823 -0.076598726
0000d0 2c d3 e0 3d 05 e1 84 3d a3 83 8c bd 82 e1 37 bd
       0.10977778 0.064882316 -0.06861045 -0.044892795
0000e0 39 31 c0 bc 5e 26 77 bd d2 aa 92 bd db fc 8a 3d
       -0.023460971 -0.060339324 -0.07161488 0.067865096
0000f0 e4 81 b5 bd 4f 0a fd bc d1 cf 15 bb e1 db 1a 3e
       -0.08862665 -0.030888705 -0.0022859464 0.1512294
000100 a7 4a 40 3d 6e cf 7e 3d d5 3f b6 ba e5 34 e3 bd
       0.046946194 0.06220954 -0.0013904521 -0.11094073
000110 b4 ad a4 3c 26 af a6 bc e2 a6 58 3c 3b ba 7b bd
       0.02010236 -0.02034719 0.013223382 -0.0614569
000120 ce 85 80 3c 5e 5b 06 3e fc e0 ba 3d b5 fa c7 bd
       0.015688803 0.13120791 0.091249436 -0.097646154
000130 e9 5f c1 bb f2 a3 ed bc 01 e9 a2 bd 68 18 0b 3d
       -0.005901326 -0.02900884 -0.07954598 0.033958822
000140 45 23 94 bd a6 db c8 3d 72 1b ca bb 47 36 20 3d
       -0.0723329 0.098075196 -0.0061678225 0.039114263
000150 55 e2 6d 3c 8b 02 52 bd 58 d6 8d bc 32 d1 45 3d
       0.014519294 -0.051271956 -0.017314121 0.048295207
000160 e8 e4 c3 3d 25 cb 00 3d c4 89 e6 bd 1e 9e 50 bd
       0.09565145 0.031443734 -0.112567455 -0.050932042
000170 05 52 e4 bc 9d 15 b4 bd 6d fe 85 bc f0 82 a1 bd
       -0.027871141 -0.08793185 -0.016356671 -0.078863025

layers.1.Aw.conv1.weight f4 [64, 1, 5]
000000 01 67 27 3e 7e 26 b0 3e c1 fc bd be 15 65 84 be
       0.16347887 0.34404367 -0.37106898 -0.2585837
000010 6a a8 ac be a0 ca 96 3e cd 84 2b 3e f4 01 2c 3e
       -0.3372224 0.29451466 0.16749878 0.1679762
000020 59 a4 a9 3e 5f 78 86 be 4d c2 74 be a7 b0 8b 3e
       0.331332 -0.2626371 -0.23902245 0.27283213
000030 f9 f9 c0 3e 8c 0d e0 3e cb b6 d9 be 58 9d 26 3e
       0.37690714 0.43760335 -0.42522272 0.1627096
000040 88 ad b5 be d9 fb 84 bc 43 56 db 3d 26 6e a1 be
       -0.35483956 -0.016233372 0.107098125 -0.3152935
000050 5e 48 d5 bc 58 fc 2f 3d 73 6e 92 3c 6e b2 b4 3e
       -0.026035484 0.042965263 0.017874932 0.3529238
000060 4c 60 e8 3d 2e 89 be 3e e2 4f 8b 3b 5a 11 74 3e
       0.11346492 0.37214035 0.004251466 0.23834744
000070 ce d1 e2 3d 0b a5 9d be 3a 43 6c be 3a f3 df be
       0.11075173 -0.3078998 -0.2307252 -0.43740255
000080 cb 3f 3b 3e a0 46 34 3e b2 a2 d9 3e e4 64 3c be
       0.18286054 0.17605066 0.4250694 -0.18397862
000090 eb b1 89 be 17 1b 9e 3e 28 e7 d7 3e cd bb 49 be
       -0.26893553 0.30880043 0.42168546 -0.19700547
0000a0 4b 47 56 bc a6 f5 b1 be 7d 0a 70 3e 68 10 1f 3e
       -0.013078521 -0.34757727 0.23441501 0.15533602
0000b0 dc 63 e9 3d 31 0d bf 3e 63 b4 82 be 37 b6 d0 3e
       0.11396 0.37314752 -0.2552825 0.4076402
0000c0 2a 22 bc 3d 4d b7 dc be 51 1c b5 be 52 aa 90 be
       0.09186204 -0.43108597 -0.35373166 -0.28254944
0000d0 3d 64 40 bd 20 5e b0 3d f7 6b e3 bc 21 7b de 3e
       -0.046970595 0.08611703 -0.027761443 0.43453315
0000e0 5d 5e 4b 3e f3 ec 9b 3d 70 fc 79 3e 7e 08 2e be
       0.19860215 0.07613554 0.24412704 -0.16995427
0000f0 a0 2f 6d be 1a af 59 3e a3 e7 14 bb 66 4e 95 3e
       -0.23162699 0.21258202 -0.0022721074 0.29161376
000100 ff e8 75 be f1 3d d1 be 41 6f 83 3e a1 b0 bc 3e
       -0.24014662 -0.4086757 0.25670817 0.36853507
000110 02 21 cd 3e c2 53 6c be 32 d3 b8 bd d8 a2 e9 bd
       0.40064245 -0.23078826 -0.09024657 -0.11408013
000120 65 b4 54 be 1e 60 aa bd b1 08 0d be 8c d4 c5 be
       -0.2077194 -0.08319114 -0.13772847 -0.38638723
000130 b1 66 ae be 73 00 c8 3e 3c 57 04 3d 35 93 32 3c
       -0.34062722 0.39062843 0.032309756 0.010899355
000140 99 f1 0c 3e 99 bc 95 3e 5d ef c2 3d 2a 29 56 3e
       0.13764037 0.2924545 0.09518311 0.2091414
000150 66 75 cd be 16 a0 c3 3e 75 d8 9b be 3a 10 e0 3e
       -0.4012863 0.38208073 -0.3043858 0.4376238
000160 96 e0 db 3e dc d4 a8 bd 5f 74 af 3e 75 8c bd be
       0.42944783 -0.08243725 0.34268472 -0.37021223
000170 59 8f d4 be 6f b0 7f 3e d6 4e 7c be 60 fa 85 3e
       -0.41515616 0.24969648 -0.24639449 0.26167583
000180 7a 74 12 be 7c 90 8d be 41 d7 a9 be b0 2d 6a 3e
       -0.14302245 -0.27649295 -0.33172038 0.22868991
000190 4e 10 51 be 84 de a2 3e 20 5d 76 be 11 34 77 3d
       -0.20416376 0.3181039 -0.24058962 0.06035239
0001a0 fb 7c ae be f0 0d 23 3e 1b 7f c5 3e d6 21 9c be
       -0.34079728 0.15923285 0.38573536 -0.30494565
0001b0 0d c7 53 bb cc 0e e3 3d 12 95 a2 3e 7a 75 c0 3e
       -0.0032314688 0.11086807 0.31754357 0.37589628
0001c0 51 84 80 be 39 36 db be 89 2c a2 be ae 69 97 be
       -0.2510095 -0.42814806 -0.31674603 -0.29572815
0001d0 44 4e ac 3e 1b a8 63 3e f6 4c bd be bd 36 aa bc
       0.33653462 0.22232096 -0.3697278 -0.020778054
0001e0 a5 b1 52 3e 66 42 52 3e d1 ba 9d 3e ec 34 c2 3e
       0.20575579 0.20533141 0.30806592 0.37931
0001f0 ad b5 78 be 49 84 b2 3e 45 f6 ad bd 32 ab 47 3e
       -0.24288054 0.3486655 -0.08494238 0.194989
000200 43 0f 8e be f4 72 ce 3d 00 ff 54 be 86 9d 82 bd
       -0.2774602 0.10080519 -0.208004 -0.063777015
000210 15 39 90 be 34 ce 99 be 8c bf a5 be 9b 6f 6b be
       -0.2816855 -0.30040133 -0.323727 -0.22991793
000220 f0 71 3d be c0 33 ac 3e 65 aa e9 3e 3c df aa 3e
       -0.18500495 0.33633232 0.45637813 0.3337344
000230 41 bf 87 bd 10 ec 50 be a5 de 05 3e 58 72 a5 bd
       -0.06628276 -0.2040255 0.13073213 -0.0807845
000240 da 17 be 3e 0c 96 96 bc 94 22 9a be 76 3a 6c 3d
       0.37127572 -0.018382095 -0.30104506 0.05767294
000250 7a 93 ad 3e f8 15 c7 be 8d ab 7d 3d b9 de 07 be
       0.33901578 -0.38883948 0.06193118 -0.13268556
000260 3c 72 07 be 99 f9 c5 3e a9 d7 1e bc 0b ba 1c be
       -0.1322717 0.3866699 -0.009694972 -0.15305345
000270 f8 61 b2 be a3 38 a2 be 73 04 b8 3e 50 a0 ab 3e
       -0.3484037 -0.31683835 0.35940894 0.33520746
000280 a8 5c 78 be d8 3a 33 3e 01 62 57 3e 20 b0 03 be
       -0.24254096 0.17502916 0.2103348 -0.12860155
000290 04 bf 89 be a1 c8 d8 be 8c 8b 51 be 7f 43 e3 3e
       -0.26903546 -0.42340568 -0.20463389 0.44387433
0002a0 49 37 92 ba 3d 96 a6 3e 5f 27 d8 bd fa da 89 3c
       -0.0011155392 0.32536498 -0.105543844 0.016828049
0002b0 fc 3f cc 3e 4f 45 92 be c2 a8 19 be 91 08 84 be
       0.39892566 -0.28568503 -0.15005782 -0.25787786
0002c0 76 83 ca be 22 db 38 be 90 82 4d 3c 1b 18 c3 be
       -0.39553422 -0.18052343 0.012543336 -0.3810433
0002d0 02 ab 90 3e 04 5a d3 bd c9 02 b7 bd 94 38 c2 be
       0.2825547 -0.103199035 -0.08936078 -0.3793379
0002e0 a3 01 c9 be 6a b8 80 be 75 11 a8 3e 03 62 ab be
       -0.3925906 -0.25140697 0.3282582 -0.33473215
0002f0 c8 89 72 be fe 74 82 3e 55 0c fd 3d 9b d9 b6 bd
       -0.23685372 0.25479883 0.12355868 -0.08928224
000300 93 13 60 3e 53 66 a9 3e 6e 29 2a 3e 7e c6 00 be
       0.21882467 0.3308588 0.16617367 -0.12575719
000310 8c d0 5c bd d6 87 ae 3e a9 f9 c0 be 87 4f 70 be
       -0.053909823 0.3408801 -0.37690476 -0.23467837
000320 56 09 18 be c2 fd 19 3d 6e be 50 3e 3d 7a a3 3c
       -0.14847311 0.037595518 0.20385143 0.019955749
000330 4e f0 c8 3e d3 de df 3e bd 4f cd 3c 0a 75 7f 3e
       0.39245838 0.4372469 0.025062436 0.2494699
000340 40 51 22 3b d1 48 a6 bd db b4 af be 95 36 90 3d
       0.0024767667 -0.081193574 -0.3431767 0.07041661
000350 dd 6c ac be 01 fa c5 3e 02 43 b9 bd 50 c4 6a be
       -0.33676806 0.386673 -0.09045984 -0.2292645
000360 89 1b d1 be 47 47 0c be cf 66 70 bc 99 ba c8 3e
       -0.4084132 -0.13699065 -0.014672949 0.39204863
000370 87 a7 a9 3e 53 43 39 be 6e a5 0d be 97 82 60 be
       0.33135626 -0.18092088 -0.13832638 -0.21924816
000380 52 5a a0 be 46 0f 8a bd f9 e4 a6 3d dd 22 7c be
       -0.3131891 -0.067411944 0.08149142 -0.24622674
000390 3d 3f b7 be 84 fd be 3e 65 42 ce 3d 3b 6c ca 3d
       -0.35790434 0.37302792 0.100712575 0.098839246
0003a0 38 fa 98 bd f5 80 df 3d 4b 7e d3 3e 9e 2f 20 3c
       -0.074696004 0.109132685 0.4130729 0.009776978
0003b0 b4 bd 29 be 12 18 d2 3d ec bd 31 bd 5e 0a af bd
       -0.16576272 0.10258497 -0.043394014 -0.08546899
0003c0 b3 79 ad be f3 c9 28 be ab 3f 9c bd 4f a9 d7 3e
       -0.33881912 -0.16483288 -0.07629331 0.4212136
0003d0 67 0a 19 3e ac 52 b4 3e 0a f0 ab bd 4a e6 c6 bd
       0.14945374 0.35219324 -0.08395393 -0.09711893
0003e0 af 06 c3 bd be 7e aa be ea a1 d0 3e 20 20 b6 3e
       -0.09522759 -0.33299822 0.4074853 0.35571384
0003f0 35 1e b2 be c8 68 df 3e f3 43 df 3e 2f 2c a2 3e
       -0.3478867 0.4363463 0.4360653 0.31674334

layers.1.Aw.conv1.bias f4 [64]
000000 88 94 70 be 35 53 1f bd 63 f6 c3 3c 0a b2 6b 3e
       -0.2349416 -0.03889771 0.023921197 0.23017135
000010 7a e9 9f 3e 2f c4 24 3c 83 8c d5 be 76 03 03 be
       0.31232816 0.010056539 -0.41708764 -0.12794289
000020 c5 06 3f be 26 82 8c bd 8b d8 39 3e 53 cd b1 3e
       -0.18654926 -0.06860761 0.18149011 0.34726962
000030 0e 2f 4d be c6 0d bb 3e 13 34 2a 3e cd 36 36 bd
       -0.20037481 0.36533946 0.16621427 -0.044485856
000040 69 c0 fe 3e 06 5b 9c 3e bc e8 cf 3e 42 ba 0d 3f
       0.49756172 0.30538195 0.4060725 0.5536233
000050 e2 3a c1 3e 1e d8 d6 3d bf b3 ba be b8 24 bc 3e
       0.37740237 0.1049044 -0.3646526 0.36746764
000060 7f 92 bc bd f8 78 ee 3d 97 df 44 be 71 36 49 3e
       -0.092076294 0.11644167 -0.19225918 0.19649674
000070 c0 44 a4 bc 90 ba be be 7f 52 56 3d e9 c1 94 3e
       -0.020052314 -0.3725171 0.05232477 0.29054192
000080 5d d3 ed 3e e9 49 82 be ed db 05 3e bd c7 d2 3e
       0.4645032 -0.25447014 0.13072176 0.41168013
000090 88 f6 81 bd 85 e4 f9 be 59 0d c2 bd 7f b5 d9 3e
       -0.0634585 -0.4880716 -0.09475202 0.42521283
0000a0 ad 17 2b 3e 69 c5 71 be 2e 41 20 3e 6b 79 13 bd
       0.1670825 -0.23610462 0.15649864 -0.036004465
0000b0 3f c9 e5 3d a9 b6 e0 be 08 26 03 3e 31 fa 07 3e
       0.11220025 -0.4388936 0.12807477 0.13279034
0000c0 1f ab af be a8 4d 18 be df b2 f1 3c 0a 77 90 3e
       -0.34310243 -0.14873374 0.029504238 0.2821582
0000d0 0e a5 70 3d fa f7 b3 be a4 75 d9 be 7e 7c 45 be
       0.05875116 -0.3515013 -0.42472565 -0.19285771
0000e0 f9 de 77 bd 98 6f df 3e eb 07 ca 3e 15 09 aa be
       -0.060515378 0.43639827 0.39459166 -0.33210054
0000f0 af 36 e5 3e fa bb 88 3d e0 be 08 be 42 28 33 bd
       0.44768283 0.06676479 -0.13354063 -0.043739565
