models/model_epoch_0.pt (torch, 195253 bytes, 120 tensors)

layers.0.Aw.conv1.weight f4 [64, 1, 5]
000000 f0 49 a5 3d 3c a8 b2 be 06 24 7e be 8a ed 98 be
       0.08070743 -0.34893978 -0.2481843 -0.29868728
000010 4f e9 3f be 3a f1 dd bd 58 18 c0 3c 2f 77 1c 3e
       -0.18741344 -0.10837026 0.023449108 0.1527984
000020 b8 88 5f be be e8 8e be 90 58 b0 be a1 06 eb 3d
       -0.21829498 -0.27911943 -0.34442568 0.11475874
000030 1a ae db 3e 34 65 61 3e d1 85 82 bd f0 60 d6 be
       0.42906266 0.22011262 -0.0637318 -0.41870832
000040 03 35 b7 3e 59 bb 99 be e3 17 b7 3e a4 95 94 be
       0.35782632 -0.30025747 0.35760412 -0.29020417
000050 18 b7 cf bd b9 b8 3b bd 71 79 06 3e c5 24 62 be
       -0.10142344 -0.045830462 0.13132264 -0.22084339
000060 87 a6 1a be ef 3a 23 bd 5d 38 c9 be 38 41 89 3e
       -0.15102588 -0.039851125 -0.39300814 0.2680757
000070 f3 86 8e 3e 86 f2 8b be 10 17 9f bd e3 20 65 be
       0.27837333 -0.27333468 -0.07768071 -0.22375827
000080 06 5f ae be d6 e8 12 3e 6a 8e d7 3d ea 29 55 3e
       -0.34056872 0.14346632 0.1052521 0.2081677
000090 53 d0 fa bd ba 7b 07 be 8c b7 0e 3d 48 c3 d6 be
       -0.12246766 -0.13230792 0.034843013 -0.41945863
0000a0 fb 03 aa 3e 1a f8 4a be 20 9c 95 3e ff f5 23 3e
       0.33206162 -0.19821206 0.29220676 0.16011809
0000b0 2d e0 ae be 13 21 c4 be c1 b3 cb 3e 66 ba cc be
       -0.34155408 -0.38306484 0.3978558 -0.3998596
0000c0 9f 81 24 3e 21 6b 8a bc d6 34 35 3e f1 ec ac 3e
       0.16065072 -0.016896786 0.17695937 0.33774522
0000d0 5f e9 95 3e 98 b5 6f be 37 c6 56 be e3 65 ac 3d
       0.2927961 -0.23409116 -0.2097405 0.08417871
0000e0 cc 7d 61 3e 23 b9 c0 be f6 d2 cc bd 67 fb c0 3e
       0.22020644 -0.37641248 -0.10001175 0.37691805
0000f0 b4 e4 be be f4 43 97 3d 4b e2 e2 bd 0f d4 ad bc
       -0.37283862 0.07386008 -0.11078318 -0.021219281
000100 e7 fe 21 bb b7 f6 24 be 4f 94 56 be 42 3d 54 be
       -0.0024718584 -0.16109739 -0.20955013 -0.20726493
000110 0e 4f 11 3e 28 8d 8b bd be 94 3a be c8 e8 d0 3d
       0.14190313 -0.06814033 -0.18220803 0.102006495
000120 22 03 52 bd 4f 05 8f 3d 29 08 35 be 2e 27 88 3e
       -0.05127252 0.069834344 -0.17678894 0.26592392
000130 68 c5 be be fd ed d2 bc a6 57 9d be f7 27 9d be
       -0.37259984 -0.025748247 -0.30730933 -0.30694553
000140 5f 5f a0 3d 29 f1 03 be 30 18 dd 3e 6e 52 47 be
       0.078306906 -0.12884964 0.43182516 -0.19465038
000150 e8 18 e2 3e 70 66 cc 3d a9 58 4d 3e 05 1e 89 be
       0.44159627 0.09980476 0.20053352 -0.26780716
000160 1c 5b b7 bd 2c ab 12 3e af 53 8a 3e 7a a5 62 be
       -0.089529246 0.1432311 0.2701697 -0.22133437
000170 7a 39 4a be c3 9f 96 bd 3e 82 27 3e 04 aa c6 3d
       -0.19748488 -0.07354691 0.16358277 0.09700397
000180 48 2f 13 3c 6a 82 8b be ba d7 24 be 47 75 d1 be
       0.008983441 -0.27247936 -0.16097918 -0.40909788
000190 70 77 cb be 19 3d 53 3e cc 6d c3 3e 9d b3 73 be
       -0.3973956 0.20628776 0.38169706 -0.23798986
0001a0 92 79 84 be 94 f1 22 bd fa 16 71 be 62 d5 4a be
       -0.25874 -0.039781168 -0.23543921 -0.19807962
0001b0 7a fb a9 3e 6b 9f 18 3e ea da 11 be 98 9e 2f 3e
       0.33199674 0.14904563 -0.14243665 0.17150342
0001c0 f2 59 59 be 8c 58 26 be 3b 73 2b bd 02 06 d0 be
       -0.21225718 -0.16244715 -0.04185794 -0.40629584
0001d0 ea 4a b3 bd 59 bc ba be 9e 6b d7 be 94 31 aa 3e
       -0.08754523 -0.36471823 -0.42074293 0.3324095
0001e0 2c 86 36 be 28 ba a7 be 24 81 eb 3d 6c 0f d0 3e
       -0.1782462 -0.32759213 0.11499241 0.40636766
0001f0 17 ba d7 3e 01 2b 87 bd 5c 9a 21 be f4 2a 4a be
       0.42134163 -0.06599999 -0.1578154 -0.19742948
000200 4e cb 0e be 59 68 77 be 94 7a 8f 3e a3 47 cd bc
       -0.13944742 -0.24160899 0.28023207 -0.025058573
000210 71 a6 b4 be 14 6d 86 3e 0e 5d a1 be c1 fc 94 bd
       -0.35283235 0.26255095 -0.31516308 -0.072747715
000220 14 68 ed 3d 54 9a 80 3e 73 c2 ee bc 9d 40 96 be
       0.11592117 0.25117743 -0.029145455 -0.2934617
000230 c5 bd 88 3e fd 73 c4 3e b2 97 91 bd 51 cd 8e bc
       0.26707283 0.38369742 -0.07109012 -0.017431887
000240 ba 52 7c 3e 16 3b 01 3e ed ab 67 3d 28 26 cc be
       0.24640933 0.12620196 0.056560446 -0.3987286
000250 16 eb 9b be 1e 13 b9 3e 69 38 9f be fe cb c5 be
       -0.30452794 0.36147398 -0.31097725 -0.38632196
000260 6c 43 3e bd 58 11 ae bc 69 9d 67 bd e6 9f c9 3d
       -0.046451017 -0.021248505 -0.056546602 0.09844951
000270 7a ca 80 3e 85 69 23 bd e7 42 43 3e 2c c8 3d be
       0.25154477 -0.039895553 0.1906849 -0.18533391
000280 9b 39 5e 3e 36 8d 93 bd 23 d2 d1 bd 2d 5b 6f be
       0.21701662 -0.07204668 -0.102451585 -0.23374625
000290 2d 83 8d 3e 32 12 74 3e c9 5a b9 3e 68 5a bc 3d
       0.27639142 0.23835066 0.36202076 0.09196931
0002a0 ca 0f d1 be 10 ce 86 be 12 a6 b2 3e 7d 33 74 be
       -0.4083236 -0.26329088 0.34892327 -0.23847766
0002b0 bc 25 3b be 6d b7 ce bd 08 f3 14 3a 65 58 86 be
       -0.18276113 -0.100935794 0.00056819664 -0.26239315
0002c0 5d 53 04 3e 5c fa 7a be e9 76 c7 3e 3f dd 0c be
       0.12922426 -0.24509567 0.3895791 -0.13756274
0002d0 54 9e 86 be de ed 9e 3e 61 d0 b4 be 0a 1a 20 3d
       -0.2629267 0.31040853 -0.3531523 0.039087333
0002e0 2d 81 48 be c6 0d 0b be 3c 8f aa be 8a b4 96 be
       -0.19580527 -0.13579473 -0.33312404 -0.29434615
0002f0 5b a7 23 be 6a 62 8c be cd d9 72 3e 13 19 94 be
       -0.1598181 -0.27418834 0.23715897 -0.2892538
000300 4c 65 97 be d0 d1 b2 3e bf 7a 71 be 9d 29 c7 3e
       -0.2956947 0.349257 -0.2358198 0.38898936
000310 09 cc f0 3b 5e ef 1c 3e 36 11 80 3e b0 12 a8 be
       0.0073485416 0.15325686 0.2501313 -0.32826757
000320 aa e5 d6 3e fd 9f ce be c0 d5 3a 3e ac 1a 38 3e
       0.41972095 -0.40356436 0.18245602 0.17978925
000330 31 1b cc be 5f 3b 79 3d 2a 61 0b 3e 88 42 3e 3c
       -0.39864495 0.060847636 0.13611284 0.011612542
000340 1a 01 ca be 4f 64 39 3e 87 81 3e be f2 99 a9 be
       -0.39453965 0.18104671 -0.18604098 -0.33125263
000350 cd b3 35 be f4 93 92 3e b7 a8 05 3e 4b 1d 9b bd
       -0.1774437 0.28628504 0.13052641 -0.075739466
000360 20 55 8e 3d ae b1 89 3e 16 69 bb be 85 6a 1f be
       0.0694983 0.2689337 -0.36603612 -0.15567978
000370 d9 64 9a 3e bd 39 70 3e f5 62 cc 3e 35 3f 98 be
       0.30155066 0.23459525 0.39919248 -0.29735723
000380 fb 97 4e be 3f 90 a8 3b 6a 02 b5 be 9f 8f a4 be
       -0.20175163 0.0051441486 -0.35353404 -0.32140824
000390 ce f7 db bd f2 e4 0e 3e 0a 3f 90 bd 18 53 b3 3e
       -0.10740624 0.13954523 -0.07043274 0.35024333
0003a0 e8 41 3d be df 98 6e 3e 83 13 6e 3e e9 e8 9d be
       -0.18482172 0.23300503 0.2324963 -0.3084176
0003b0 9a 9a 6c 3e 88 d4 04 bd 77 e5 70 be cd 86 fa 3d
       0.23105851 -0.032429248 -0.23525034 0.122327425
0003c0 ac 8e a4 be 6b 4a 2a be 5e cc 51 3d b2 99 ad be
       -0.321401 -0.1662995 0.05122029 -0.33906323
0003d0 95 bd 56 3e 3a a7 9e 3e 3c eb ba 3e 6f 7d 4c ba
       0.20970757 0.3098696 0.36507595 -0.00078006735
0003e0 d2 93 85 be 45 40 91 3e 57 97 2c be 73 34 5c be
       -0.2608934 0.28369346 -0.16854607 -0.21504383
0003f0 53 fd 83 3a 91 07 de 3e bd 54 ab bd 72 80 a6 be
       0.0010070003 0.43365148 -0.08365772 -0.3251987

layers.0.Aw.conv1.bias f4 [64]
000000 e2 db 2a 3e 90 dd ab 3e 12 dd d2 3e 7b 75 93 3e
       0.16685441 0.33567476 0.41184288 0.28800568
000010 9c 9e bd 3e 7c c6 cb 3e 58 b8 7d be d8 54 6e be
       0.37035072 0.3979987 -0.24777353 -0.23274553
000020 61 de 55 be 6d d3 98 3d 73 af fb bc 45 b0 91 be
       -0.20885612 0.07462201 -0.03072331 -0.28454795
000030 87 1c 05 3e e3 9c b2 be fe e6 28 3e 6a 5e 5e be
       0.12999164 -0.3488532 0.16494367 -0.21715704
000040 46 66 91 be a3 09 79 3e da e1 2f 3e 7d 26 9c bc
       -0.2839834 0.24320082 0.17176 -0.019061321
000050 9e bd a8 be 9f 10 a7 3d 23 72 7e be 76 c6 e1 be
       -0.32957166 0.08157467 -0.24848227 -0.44096726
000060 19 cc c6 bc 8f 4b b9 3e 5e b1 c0 3e 38 7c 93 be
       -0.024267243 0.3619046 0.3763532 -0.2880571
000070 5e c0 da be 0c 1a a4 3e 80 4f 48 3c f1 a9 3a bd
       -0.4272489 0.32051122 0.0122259855 -0.045572225
000080 f6 bb c9 bd c6 4e 4e be f6 2e 55 be 78 71 13 be
       -0.09850304 -0.20147237 -0.20818695 -0.14398754
000090 9a 78 92 be 66 47 94 3e 00 9e d2 be 70 de a0 3d
       -0.28607637 0.28960723 -0.4113617 0.078549266
0000a0 51 70 89 be 70 b6 3c 3e 74 92 4f 3e e3 82 2e be
       -0.26843503 0.1842897 0.20270711 -0.17042117
0000b0 f3 e2 bc 3e af e9 e0 3e 31 2c 34 3e 2c d9 fa bd
       0.368919 0.43928286 0.17594983 -0.122484535
0000c0 b0 db 9e 3e bd e6 bf be 46 42 90 bd ed 96 c9 3d
       0.31026983 -0.37480727 -0.07043891 0.0984324
0000d0 b7 98 2b be 3f 9d da be 7c 06 a1 be c0 a8 81 be
       -0.16757475 -0.42698094 -0.3145026 -0.2532406
0000e0 9e ee 84 3d 55 ae af be 7a 65 9f be b5 db 6f 3e
       0.06490825 -0.34312692 -0.31132108 0.23423655
0000f0 cf 75 c9 bb 98 28 27 3e 4b 8c 48 be eb ce 0f bd
       -0.006148077 0.16324079 -0.19584768 -0.03510944

layers.0.Aw.conv2.weight f4 [32, 64, 3]
000000 97 70 65 3d 4d 6f 34 3d c2 7c 3b bd 24 60 c1 bc
       0.056015577 0.044051457 -0.045773275 -0.023605414
000010 5d 57 3c bd 9c 73 d9 3c f3 40 0d bd b1 6f 41 bd
       -0.045981754 0.026544385 -0.03448577 -0.047225658
000020 86 ab ae 3c 81 83 25 bd 30 0d 0c bb 2e fb 4c bd
       0.021322023 -0.040408615 -0.0021370165 -0.05004423
000030 aa c6 62 bd 88 a7 0a 3d a6 86 04 3c b5 a9 c5 3a
       -0.055365242 0.033851177 0.008088743 0.0015080484
000040 18 29 65 3d d9 e5 0a 3d 3f bb 6d 3d 06 c2 d5 3c
       0.055947393 0.033910606 0.0580399 0.026093494
000050 da f1 5a bd ff f5 75 3c eb 54 46 bd 71 59 57 b9
       -0.053453304 0.015012263 -0.048420828 -0.00020537317
000060 bc 34 74 bb 67 a9 86 bc e8 c1 09 bd 1f b5 43 3c
       -0.0037262877 -0.0164382 -0.03363219 0.011945038
000070 e2 1d 71 3c 87 3b 38 3d bc 2c f7 bc 1b 14 87 bd
       0.014716597 0.044978645 -0.030172698 -0.06595632
000080 ed 02 84 3d 9e 55 16 bc ca f4 cf bc 8c 75 5b bd
       0.064458705 -0.009175686 -0.02538528 -0.0535789
000090 d9 3c 88 3d c0 27 14 bd 7c b3 57 bd da d3 8c bc
       0.06652231 -0.03617072 -0.052661404 -0.017190862
0000a0 e5 f5 3c bd 5b 5a e1 bc 1e 6a cd bc 8a e1 a5 bc
       -0.04613294 -0.027508905 -0.025075015 -0.020249147
0000b0 69 52 43 bd 64 59 81 3d 18 dc 92 bc 82 9d ad bc
       -0.047686014 0.06315878 -0.017927215 -0.02119327
0000c0 17 ab 9a 3d 64 35 90 3c 59 65 8c 3c 9c 4c ae bc
       0.07552164 0.017603584 0.01713817 -0.021276765
0000d0 cf 74 92 3d a5 49 7a bd e7 d2 ca bc bf b4 14 3d
       0.07151186 -0.06110539 -0.02475877 0.036305185
0000e0 c2 58 85 bd f4 11 96 3b a0 86 25 bd 47 35 07 bc
       -0.0651107 0.004579777 -0.04041159 -0.008252448
0000f0 2f 78 5b 3d 22 92 d0 bc 8e 8e 1f bd 85 25 5f 3d
       0.053581413 -0.025460307 -0.03895431 0.05447914
000100 da 88 06 3d e7 07 3d 3d b9 32 07 bd e1 a3 4f bc
       0.032845356 0.046150114 -0.033007357 -0.012673349
000110 e4 74 4c bd 28 55 61 bd 7c 8f bf 3c 88 af 25 3d
       -0.049916163 -0.055012852 0.023383848 0.040450603
000120 c2 81 9c 3d 90 8d 41 bd 3d a3 03 3d 95 6e d1 3b
       0.07641937 -0.047254145 0.032138098 0.0063913562
000130 d7 a8 f5 3c 5a 4e b8 3c 21 a6 fe 3b 61 ec 66 bd
       0.029987736 0.022498298 0.007771269 -0.056377772
000140 b2 f9 26 3c 7f 8c 19 bd 07 ca ed ba 45 9d 41 bc
       0.010191368 -0.037487503 -0.0018141874 -0.011817281
000150 11 7b 02 3d 82 69 51 3d 47 34 81 bc 45 cd 81 bd
       0.031855647 0.05112601 -0.015771998 -0.0633798
000160 ef 0b e7 bb 87 b8 5a bd 88 32 e8 3b 78 dc 89 3c
       -0.007050983 -0.053398635 0.007086102 0.01682876
000170 fb a8 db bc 6b 1c f4 3c 79 66 04 3c bc 0d 70 3d
       -0.026813975 0.029798707 0.008081072 0.058606848
000180 f6 9d 65 3d 37 2b ae 3c 8e c6 9e bd d0 3c 44 3c
       0.056058846 0.02126084 -0.07752715 0.011977389
000190 7d 69 00 bd 99 84 9c bc 2e 62 b9 3c d6 d9 65 bc
       -0.0313506 -0.019106196 0.022629824 -0.014028987
0001a0 5d 38 25 bd b6 2e 5e 3d bc 77 3e bd ca cf 16 3d
       -0.040336955 0.054243766 -0.046500906 0.036819257
0001b0 81 b0 dd bc 84 fd 89 bd b4 3f 01 3d 01 17 76 bb
       -0.027061703 -0.067378074 0.031554893 -0.0037550332
0001c0 45 1c 19 bc 0f a3 93 3b ce 49 d7 3c b3 86 cd bc
       -0.009345119 0.004505522 0.02628031 -0.025088644
0001d0 f4 19 17 bc 7c f0 44 bd 4e 86 64 3c 0e 3c 36 3c
       -0.009222496 -0.048080906 0.013948036 0.011122717
0001e0 5c 4a 0c bd d4 dc 6b bd 36 e3 19 3d ea 5b eb 3c
       -0.034250602 -0.057583645 0.0375702 0.028730351
0001f0 12 b4 60 bd 4a b6 74 3d 70 56 5e bd d3 69 26 3d
       -0.05485923 0.059744157 -0.054281652 0.040628266
000200 7e aa bb 3c 9f e0 63 bb 38 53 83 3c 69 eb 5a 3d
       0.022908445 -0.0034771336 0.016030893 0.05344716
000210 86 fb 5a bd bd f1 07 bd 15 98 0b bc 4b f0 6d bd
       -0.053462528 -0.033189524 -0.008520146 -0.05809049
000220 03 01 78 3d 60 8b a9 3c 80 47 34 bd 51 23 9e ba
       0.06054784 0.020696342 -0.0440135 -0.0012064968
000230 24 90 ac 3c d1 92 5c bd c3 03 90 bb 27 57 5d bd
       0.021064825 -0.053850953 -0.0043949797 -0.054038193
000240 ca 80 59 bc 16 03 4c 3d 5f 6a 87 3d 9a 57 68 bd
       -0.013275335 0.04980763 0.066120856 -0.05672417
000250 cf bd 56 bd 7d 83 f0 bb 4c f5 43 bd f8 94 ab bc
       -0.05242711 -0.0073398934 -0.047841355 -0.020945057
000260 8f 28 9e 3d a6 79 54 3d 0d 17 be bc e0 ea b6 bc
       0.0772258 0.051873825 -0.02320435 -0.022328794
000270 f6 ab 08 bb ef 66 dd bb 45 e7 50 bb 0d 55 d0 3c
       -0.002085445 -0.0067566554 -0.0031876129 0.02543118
000280 31 ab ae 3c 00 b9 91 bd b3 06 97 bc 63 87 e3 bc
       0.021321865 -0.07115364 -0.018435812 -0.027774518
000290 d8 6f 91 3d 06 65 63 3d 25 10 1d 3d 45 68 73 bc
       0.071014106 0.055516265 0.038345475 -0.014856403
0002a0 cc 86 a3 3c d0 bc 2b ba ed 89 88 3c 7b a3 05 bc
       0.019961737 -0.00065512676 0.01666733 -0.008156653
0002b0 b4 77 b0 bc 18 e5 35 bd 24 2e 0e bd f9 39 fd 3c
       -0.021541454 -0.044407934 -0.034711972 0.030911433
0002c0 ce 08 8d bd eb 49 77 3c 57 96 15 3d b9 a9 80 bd
       -0.06886445 0.015093307 0.03652033 -0.06282372
0002d0 4d 99 7e 3d 95 d3 05 3d 01 a6 e1 bc ac e7 19 3d
       0.062157918 0.032672483 -0.027544977 0.037574455
0002e0 80 08 4a 3d 0c 61 94 3d b2 9b 9e 3d b0 13 f8 3c
       0.049324512 0.07245073 0.0774454 0.030282825
0002f0 46 b4 86 bd 3b 24 84 3d 9f f5 ea 3c a0 43 c9 3c
       -0.06577353 0.06452223 0.028681574 0.024568379
000300 6f 83 03 bc 84 8f 70 bd 78 65 9a 3b bf 34 e5 3a
       -0.008026942 -0.058730617 0.004711803 0.0017487033
000310 f6 6d 8b bd 5d 5b d7 3c 3b db 59 bd 96 1f 8d 3d
       -0.06808083 0.026288683 -0.05318759 0.0689079
000320 fb a3 b2 ba a3 38 70 bd e9 47 68 3d 6d d2 a9 bc
       -0.0013629192 -0.058647763 0.056709204 -0.020730222
000330 c9 7c 82 3d a1 25 07 bd 8d 2f ac bb 13 2d ec 3c
       0.06371457 -0.03299487 -0.005254692 0.028830087
000340 5a a0 15 3d d3 3d a4 3c 22 85 0b bd 8c 79 52 3d
       0.036529876 0.020049011 -0.034062512 0.051385447
000350 8b 49 36 3d 75 bf 72 bd f1 b4 69 bd 64 c2 8f ba
       0.04450373 -0.05926462 -0.057057325 -0.0010967967
000360 3f 5c 69 3c bb f6 3c bc 00 e9 dc bb 14 38 82 bd
       0.014243185 -0.0115334345 -0.006741643 -0.06358352
000370 e3 96 e3 3c dd 1b 07 bd df eb 10 bc a4 33 6f bc
       0.02778191 -0.032985557 -0.008845299 -0.014599714
000380 4a ec 78 bd 76 cc ac bc eb f1 d4 3c 04 e2 d2 3c
       -0.060772218 -0.021093588 0.025994262 0.025742538
000390 f8 cc 6a 3d c8 6c 87 bd 7e 89 87 bd ee ee 1d bd
       0.05732438 -0.06612545 -0.066180214 -0.03855794
0003a0 32 fc 49 3d 78 18 7a 3d 9c 71 8f bd 2c e0 85 bd
       0.049312778 0.06105849 -0.07004091 -0.06536898
0003b0 87 2c 87 3d 32 10 cb 3b fc b2 27 3d af 2c 4d 3d
       0.0660029 0.006196999 0.040942177 0.05009144
0003c0 16 b6 9d bc 23 a1 3c bd cb 0e 9b bc dd cf a8 bc
       -0.019251864 -0.04605211 -0.018927952 -0.02060693
0003d0 11 99 ad bc ce ec 86 3d 40 21 49 bc b5 8a 80 bd
       -0.021191152 0.06588136 -0.012275994 -0.06276456
0003e0 a1 13 37 bd 18 22 0d 3d 3a 0c 69 bd 7b 90 f2 bc
       -0.044696454 0.034456342 -0.056896426 -0.02960991
0003f0 06 94 88 bd dc 0a 83 3d b4 e7 57 bc 87 18 84 bd
       -0.06668858 0.06398556 -0.013177801 -0.06449991

layers.0.Aw.conv2.bias f4 [32]
000000 44 ff 26 ba 44 2f 8b 3b c1 ba ae bc b2 f7 0b 3b
       -0.0006370435 0.004247578 -0.021329286 0.0021357355
000010 49 18 85 3d 4e 21 4d 3d bb c6 2e bd f6 ae 06 bd
       0.06498773 0.05008059 -0.042669993 -0.0328817
000020 90 0d 61 3c 9e 22 1a 3d 2f 4a 0c 3d 3f 60 c6 3a
       0.013736144 0.03763067 0.034250434 0.0015134885
000030 a7 f5 a9 3c 68 1c 66 bc 9d 0f 38 3d 06 8a 8a 3b
       0.020747019 -0.0140448585 0.044936765 0.0042278795
000040 7c 82 2c 3d 66 4a 9e 39 7d 66 8e 3d e2 9e fb 3c
       0.042116627 0.0003019154 0.06953142 0.03071541
000050 9a ba 17 3d 21 5c 9b bd 7d 09 e9 3c f7 97 5b 3d
       0.03704319 -0.075859316 0.028446907 0.05361172
000060 3d 32 3c 3c e4 dd 05 bd a8 c1 07 bc 9c 99 9b bd
       0.011486587 -0.032682315 -0.008285917 -0.07597658
000070 74 7a 21 3c 52 60 d9 bc df 64 65 bd 64 2a 1a 3d
       0.009855855 -0.026535187 -0.0560044 0.037638083

layers.0.Aw.conv3.weight f4 [1, 32, 3]
000000 6f b8 2c bd e9 4f c0 bc 7d cf 87 3d de 56 89 bd
       -0.042168077 -0.023475604 0.06631372 -0.06706022
000010 9e 55 2e 3d f5 9a 72 ba 3a c0 db bd a8 4b c2 3d
       0.04256212 -0.0009254658 -0.10730024 0.094870865
000020 0e fd 03 bc 73 24 a3 3d 11 c2 c7 bb ee 91 1c bd
       -0.008055938 0.079659365 -0.0060961326 -0.038225107
000030 1a f9 40 bc 55 a5 27 3c f1 68 8e 3d a4 2c 88 bd
       -0.01177814 0.010232289 0.0695361 -0.066491395
000040 f8 20 19 bd 9a 67 b7 3d 4a 98 8d 3d a4 a2 2e 3d
       -0.037384957 0.08955307 0.069138125 0.042635575
000050 14 0e 19 3c 13 25 8a bc 3a e2 45 3d bf 2e b2 3d
       0.009341735 -0.016863381 0.04831145 0.08700322
000060 24 bd 34 bd 20 41 cd bd ed d9 f9 3c c9 84 93 3d
       -0.04412569 -0.10022187 0.030499423 0.07203061
000070 e2 83 ca 3b dc fa 7c 38 49 87 3d 3c f8 14 02 3c
       0.0061802724 6.0315113e-05 0.011567899 0.00793957
000080 ed f9 8b bd b9 56 aa 3d 96 78 3c 3d 1c d2 52 bd
       -0.06834779 0.08317322 0.046013437 -0.051469907
000090 1d 7c bc bd e7 22 be 3d 3a 86 a8 3d e3 1d 42 bd
       -0.0920336 0.09284001 0.08228727 -0.047391783
0000a0 bb ed 17 bd 4d 44 17 bd 57 ff 00 3d 4b 23 8f 3d
       -0.03709195 -0.03693037 0.03149351 0.069891535
0000b0 0e bf 84 3d 02 b7 9b 3c 9e 63 94 3d 06 b4 8f 3c
       0.06481753 0.019008163 0.07245563 0.017541897
0000c0 67 c1 c9 bc ec 61 74 bd 47 9a 3f bd 22 3d 96 3c
       -0.024628354 -0.059663698 -0.04677799 0.018339697
0000d0 44 3c 8b bd f6 e0 1b bd ff 83 e5 3c f6 b2 8e bd
       -0.06798604 -0.038056336 0.028017042 -0.06967728
0000e0 7f d8 a6 bb 92 84 8c 3d 00 75 e6 3c 6b af 8c 3c
       -0.0050917263 0.06861223 0.028131962 0.01717349
0000f0 a4 ae 96 3d 5b d5 02 bc 0d 41 a0 3d 4e df 82 3d
       0.07357529 -0.007985438 0.078249075 0.06390248
000100 43 18 2f bd 71 e1 4a ba 8d 51 a1 3d 8f 1e c6 bd
       -0.042747747 -0.0007739282 0.07876883 -0.09673797
000110 1f 50 ff bb a1 cc c8 bd 3c e2 85 bd d8 4a 9f 3d
       -0.0077915336 -0.09804655 -0.065372914 0.07777947
000120 2b da a1 bd f4 9f 72 bd d7 bd 7b 3d 93 bf 10 3d
       -0.0790294 -0.059234574 0.061460342 0.03533895
000130 90 57 94 bd a9 07 6c 3d 34 fb 1b 3d d6 3e 16 bd
       -0.07243264 0.057624493 0.038081363 -0.03668102
000140 e1 f4 c3 3d 56 ab db bd 11 ee b4 3d 6c ce 11 3c
       0.09568191 -0.10726039 0.0883447 0.0088993125
000150 f2 9a b6 bc 74 3b 97 3d c2 b8 6b bd 39 dc 78 3d
       -0.02229068 0.07384387 -0.057549246 0.060756896
000160 f6 1e 36 bc fc a4 0c bd 4d bf 80 bd eb 72 2c bc
       -0.01111578 -0.03433703 -0.06286488 -0.010525445
000170 bf 05 4f bd 26 10 e8 bc 40 dc f7 3c 00 a9 1c ba
       -0.05054259 -0.028328013 0.03025639 -0.00059761107

layers.0.Ah.conv1.weight f4 [64, 1, 5]
000000 32 36 0b 3d f3 a5 89 bd 24 98 90 be f1 62 7f 3e
       0.03398723 -0.067211054 -0.28241074 0.24940087
000010 25 ad 8a 3e 93 de 5e be ad b2 63 be 20 53 29 3d
       0.27085224 -0.21764593 -0.22236128 0.04133904
000020 4d 04 2b 3e dc 58 9c bd ee 3f b2 be fc 18 82 be
       0.1670086 -0.07634136 -0.348144 -0.25409687
000030 50 00 d7 3e 77 ef 76 3e ba 3a 8f bd 0e 31 d2 3e
       0.41992426 0.24114786 -0.06993623 0.4105305
000040 cb b4 08 be ef 70 96 be 54 39 92 3d 55 74 bd 3e
       -0.13350217 -0.29383036 0.07139841 0.37002817
000050 06 f3 82 be db 00 b2 bd 24 69 bf 3d 92 43 47 bd
       -0.25576037 -0.086915694 0.09346226 -0.048648424
000060 17 4d 88 3d fc fa 87 be 2f 38 88 be 89 48 c8 3e
       0.06655329 -0.26558673 -0.26605365 0.3911784
000070 db c6 97 3d 49 98 e5 3d 96 8e db 3e 9a 71 fe bd
       0.074109755 0.11210687 0.42882222 -0.124240115
000080 cf 01 91 3e 06 0d 13 bd a1 b0 b0 bc f1 24 38 be
       0.28321692 -0.035901092 -0.021568598 -0.17982842
000090 5a 15 26 3e e2 50 d7 3e ae a9 32 be 7c 9d 21 3e
       0.16219082 0.42053896 -0.1744754 0.15782732
0000a0 03 b5 87 be d5 98 cd be 01 32 e0 bd 02 57 bf 3e
       -0.26505288 -0.40155664 -0.109470375 0.3737107
0000b0 e5 09 e1 3e 18 f9 48 be 42 ba df be 9c 86 87 3d
       0.4395286 -0.19626272 -0.4369679 0.066174716
0000c0 7c 0c 3e 3e b7 90 7d bc 5d 4f 03 be a3 20 8c bc
       0.1855945 -0.015476397 -0.12823243 -0.017105406
0000d0 de 04 72 be ee a4 58 bc 22 5e b9 3b 86 74 dd be
       -0.23634669 -0.013222916 0.0056569735 -0.43252963
0000e0 45 d2 38 3e 8f e5 6f bd 00 f8 0e 3e c1 80 7f 3e
       0.18048961 -0.058568534 0.13961792 0.2495146
0000f0 6a df d7 bb b6 02 62 be 2d 82 16 3c 3b 89 45 3d
       -0.0065879123 -0.22071347 0.00918631 0.048226576
000100 01 47 a9 be 31 36 32 be 49 db 11 3e f1 9a ba 3e
       -0.33061984 -0.17403485 0.14243807 0.36446336
000110 a8 fc ab 3d 9d 10 ef 3d 81 d7 ba bd 57 29 cc 3e
       0.083978 0.116730906 -0.09123135 0.3987529
000120 7a dc 84 be 87 6b 4c be 4f 08 cb bd 48 12 c5 3e
       -0.2594946 -0.19962893 -0.09913694 0.3849051
000130 d7 f4 b6 3e d4 02 91 3e 5b b3 e0 3d 59 f7 49 bd
       0.35733673 0.2832247 0.10971709 -0.049308155
000140 5b 9a 17 be 5d 79 96 3e 15 46 96 3e 6c a8 53 be
       -0.14804976 0.29389468 0.29350343 -0.20669717
000150 75 22 96 bd ca 2b c8 3d 68 9b 19 3d f5 91 e9 3c
       -0.07330791 0.09773977 0.037501723 0.02851198
000160 c5 2b 4c be f3 72 18 3d 0b 9a 26 be dc d7 e4 bd
       -0.19938572 0.037219 -0.162697 -0.111739844
000170 2d 03 ed bc 27 0d ad 3e 18 83 a8 3e d2 5a 49 be
       -0.028932178 0.33799097 0.32912517 -0.19663551
000180 13 92 7f 3e 15 e5 ff bd 9e 9b ae be da ce e5 bc
       0.24958067 -0.12494866 -0.34103101 -0.028052736
000190 17 1c 92 bd 26 ed eb bd c8 20 1a 3e f1 03 20 be
       -0.07134264 -0.11519842 0.15051568 -0.15626504
0001a0 ff 84 a7 be 07 7f d3 be 70 1f 70 be 3c 03 1b 3e
       -0.32718655 -0.41307852 -0.23449492 0.15137953
0001b0 7c 19 9b be ec 17 0e be 07 25 85 be 9d ac 61 3e
       -0.3029288 -0.13876313 -0.26004812 0.22038503
0001c0 9a ac d6 3e 14 64 43 3e b1 2f 5c be 33 02 69 3e
       0.4192856 0.19081146 -0.21502568 0.22754745
0001d0 41 a0 a0 be 4c 43 9b be c8 da f6 bd 48 8a 87 bd
       -0.31372264 -0.3032478 -0.12053448 -0.06618172
0001e0 95 9b b1 3e 95 3d cb be 04 cb 10 3e 5a 6b 34 be
       0.34689012 -0.3969542 0.14139944 -0.17619076
0001f0 ab a6 53 be b5 ff 84 be 3d 7d be 3e 00 42 73 be
       -0.20669048 -0.2597634 0.37204924 -0.23755646
000200 db 28 31 3d eb 2f d7 3e 55 be 93 3c 75 6a b5 be
       0.043251853 0.42028746 0.018035093 -0.35432783
000210 8d 9b b6 3e c6 04 9d be f8 f3 3c bc f2 48 8e be
       0.3566555 -0.30667704 -0.011532776 -0.27790028
000220 5d 31 f3 bd 0a 70 2b be f5 df 30 bd 23 1c b0 3e
       -0.1187465 -0.16741958 -0.043182332 0.34396467
000230 60 a3 b1 be 72 9d 72 3e 02 fe 99 3e 8b e3 cd 3e
       -0.34694958 0.23692873 0.30076605 0.40212664
000240 34 bc b0 3e a3 0e 8a 3e c2 59 c2 3e 5a 80 18 be
       0.34518588 0.26964292 0.37959105 -0.14892712
000250 50 c2 a9 3e 4a 98 ba 3e 7d 15 75 bd 75 76 1c be
       0.3315606 0.36444312 -0.059834946 -0.15279563
000260 1d 53 65 3e fc 33 ce 3d a9 a0 cf be c1 79 89 be
       0.22394986 0.10068509 -0.4055226 -0.26850703
000270 93 6a c7 3e 35 08 70 be cc 4c e5 be f8 6a ac be
       0.38948497 -0.2344063 -0.44785154 -0.3367536
000280 2c bd 40 3e 2f ad 81 3e c5 18 4e 3c c0 ab b4 be
       0.18822163 0.2532744 0.012579148 -0.35287285
000290 e0 e5 8b 3e 31 49 5e 3c a0 d0 40 3e 35 8c 99 be
       0.27323818 0.013567255 0.18829584 -0.29989782
0002a0 8c e8 24 be fa 38 b5 be e6 4e 91 be 0f f4 9f 3d
       -0.16104335 -0.35395032 -0.28380507 0.07810222
0002b0 d8 f6 84 bc 46 fc 8b 3e c2 77 40 be 72 5d d0 bd
       -0.016230986 0.27340907 -0.18795684 -0.10174073
0002c0 68 72 56 be f3 d6 b7 3e ab 3e cf be 46 e1 c4 bc
       -0.2094208 0.3590618 -0.404775 -0.0240332
0002d0 53 2c 96 be a5 9e f9 3c 03 d2 af 3e 4d a9 d6 be
       -0.29330692 0.030471155 0.34339914 -0.4192604
0002e0 38 75 9a be 38 25 2e be e8 4d 98 3e 7c f9 99 be
       -0.30167556 -0.17006385 0.29746938 -0.30073154
0002f0 23 fe af be a4 c7 7c 3e aa 2c 49 bd 6b 3f 8c be
       -0.34373578 0.24685532 -0.04911486 -0.27392134
000300 48 8e c6 3e 09 63 fa 3d 49 e6 2f bc a2 d9 06 be
       0.38780427 0.12225921 -0.010736057 -0.13168958
000310 82 96 dd be d0 c8 1e bd de f5 f3 3c 01 b1 9a be
       -0.4327889 -0.03876573 0.029780325 -0.30213168
000320 b5 0a a6 be bd 04 85 3e 17 75 b3 be d5 2d e7 bc
       -0.32430044 0.25980178 -0.3505027 -0.028220097
000330 83 b4 ef bd cc e0 a4 be 16 1d 00 bd 72 2e 6d be
       -0.11704352 -0.32202756 -0.03127774 -0.23162249
000340 1f 7b ff bd 17 4b 03 3e 38 8f 59 bc fb 00 76 3e
       -0.12474655 0.12821613 -0.013278775 0.24023812
000350 2b 63 a3 3d 58 12 48 3e 84 b3 08 3d 31 8a 89 3b
       0.07977899 0.19538248 0.033374324 0.004197382
000360 de 1f 8f 3e 7c bb c7 3e 4a ca c8 3e 85 47 a8 bd
       0.27954 0.39010227 0.39216834 -0.08216766
000370 1e e8 35 bc e8 69 67 3e 1e 7c 6b bc 18 7c dd bc
       -0.011102704 0.22598994 -0.014372854 -0.027036712
000380 de bc f9 3d 5a b7 cc be ed e4 86 3e 14 9e ab be
       0.12194227 -0.39983636 0.26346532 -0.33519042
000390 f4 ce c9 be ba 78 d6 be 9a c1 da bd d6 be 8d 3e
       -0.39415705 -0.41888982 -0.10681458 0.2768466
0003a0 57 1f cc 3e 5f 47 04 be f1 37 bd 3e ea 90 d6 3e
       0.3986766 -0.12917851 0.36956742 0.41907436
0003b0 b1 c4 c2 3e 16 2b f8 bd 47 67 4a 3e 9f c0 55 be
       0.3804069 -0.12117593 0.1976596 -0.2087426
0003c0 73 19 fc bd 33 62 99 bd 90 d0 ca 3e 4e f2 fd bd
       -0.123095416 -0.07489433 0.39612246 -0.123997316
0003d0 ee 59 19 be 31 1b 6d be 2a a8 41 3e d9 68 52 be
       -0.14975712 -0.23154904 0.18911806 -0.20547809
0003e0 31 61 51 3e 08 35 7e be 17 61 a3 be 93 c4 8b be
       0.20447232 -0.24824917 -0.3191001 -0.27298412
0003f0 44 08 9e bd c4 09 98 3e 37 5c 11 be 2b 6d 8a 3e
       -0.0771642 0.2969495 -0.14195333 0.27036414

layers.0.Ah.conv1.bias f4 [64]
000000 a2 58 d4 be f5 42 ba be 67 d5 c0 bd e7 d6 83 3e
       -0.4147387 -0.3637921 -0.09415703 0.25749895
000010 33 d0 08 bd 07 fe d9 bd c8 6b db 3e 2e 00 aa 3e
       -0.03340168 -0.10644155 0.42855668 0.33203262
000020 d8 4d ff ba 20 2e f5 3c 57 0a a7 3e c1 ea bb be
       -0.0019478155 0.02992922 0.32625076 -0.3670254
000030 37 3f c3 3e 77 60 b5 3e ca 69 b7 3e 1d e9 d5 be
       0.38134167 0.3542516 0.35822898 -0.41779414
000040 b8 1e 87 be ce cd a7 be d9 48 b0 3d 54 91 30 be
       -0.26390624 -0.32774204 0.086076446 -0.17242938
000050 c1 57 a1 3e bd 0c 06 be 06 dc a7 3e d0 f7 a1 be
       0.31512263 -0.13090797 0.32785052 -0.31634378
000060 eb f5 bd be 41 ff 73 be 96 3f 58 3e e4 65 07 3e
       -0.37101683 -0.2382784 0.21118006 0.13222462
000070 f7 d1 82 bc 61 6a e1 bd 29 2b c9 bd a5 10 6b bc
       -0.01596926 -0.11006618 -0.09822685 -0.01434723
000080 67 88 40 3d 76 0d a3 3e fe 1d 86 bc 60 d5 ab be
       0.047005083 0.31846207 -0.016371723 -0.3356123
000090 06 ef 80 3e 61 bf 4f 3e 10 ac e4 3e 81 09 c5 3e
       0.2518236 0.20287849 0.44662523 0.38483813
0000a0 85 87 a4 3e 50 73 b7 bc 94 49 a8 be bc 78 4f bd
       0.32134643 -0.022393852 -0.32868636 -0.05065225
0000b0 ae 61 c5 bc 10 3b ce be 39 dc 2f 3e 8f 90 a0 3e
       -0.024094429 -0.40279436 0.17173852 0.3136029
0000c0 f1 89 ba be a6 87 f8 3d 6a cf ba 3d 00 3b ad 3d
       -0.36433366 0.12135248 0.09121592 0.08458519
0000d0 21 54 b9 3e f7 14 81 be bb eb c8 3d 42 b6 52 bb
       0.36196998 -0.25211307 0.09810587 -0.003215209
0000e0 d6 ab 0d bd 86 b5 ca be 3a c7 78 3e 8a fb 8c be
       -0.034587704 -0.39591616 0.24294749 -0.2753566
0000f0 74 25 77 3d 56 d4 da be 77 a7 0f 3e 5f f6 b5 bd
       0.060338452 -0.42740124 0.14028727 -0.08884882

layers.0.Ah.conv2.weight f4 [32, 64, 3]
000000 ff 30 95 3d 05 16 0e 3d e6 c3 2b 3a f2 8a 03 3d
       0.07284736 0.03468897 0.00065523235 0.03211493
000010 a8 ec 5b 3d 45 54 52 bd f1 ee 97 3d fb 8f 03 bc
       0.05369249 -0.051349897 0.07418621 -0.008029933
000020 8a 41 28 bd 34 02 0a bd 53 80 7c bd 8f 71 58 bd
       -0.041078128 -0.033693507 -0.061645817 -0.052842673
000030 9c ad 41 bc 75 9a 38 bc df 84 05 3d ef e2 a6 3c
       -0.011821177 -0.011267294 0.03259742 0.020371882
000040 e7 a5 e3 3c 00 8f b3 bb 1f d3 1c bd ee d8 79 3d
       0.02778907 -0.0054796934 -0.03828728 0.060997896
000050 f0 0f 4d bd f8 13 41 3d eb 54 18 3d f7 6c 66 3d
       -0.050064027 0.047138184 0.03719036 0.05625626
000060 2d bc e4 bc e7 18 67 bc 26 a9 74 3b 01 f3 9d 3c
       -0.02792176 -0.014105058 0.0037332266 0.019280912
000070 4c 92 5b 3d 6f 77 d1 bc 9a 3a 86 bd 01 81 12 3d
       0.053606316 -0.025569646 -0.06554146 0.03576756
000080 8f 08 29 3d 79 8a 97 3d 43 67 83 3c 3a e3 73 3d
       0.041267928 0.073994584 0.01604045 0.059542872
000090 f1 27 d4 3c 16 97 4d bc 4b 10 2e 3c 52 b5 5a 3d
       0.025897952 -0.012548229 0.010624002 0.053395577
0000a0 0f c8 6d bd 8f 5a fc bc 49 60 8a bd 85 2e 41 bd
       -0.05805212 -0.0308049 -0.06756646 -0.047163505
0000b0 d6 2a 37 3d 41 72 30 bd 0e 95 82 bd ca 34 9f 3d
       0.044718586 -0.04307771 -0.06376086 0.077737406
0000c0 68 60 14 bd ea 97 39 bd e7 f1 01 3d b6 64 5a 3d
       -0.036224753 -0.045310892 0.031724837 0.0533187
0000d0 04 11 81 bd 26 5f 5c bd bb 4c 3c 3d bb 69 39 bd
       -0.063020736 -0.053801678 0.045971613 -0.045266848
0000e0 34 d9 ef 3b 0f 91 84 bd 54 71 d5 3a e2 2d 20 bd
       0.007319594 -0.0647298 0.0016284385 -0.039106257
0000f0 d5 7a 84 3d ac 85 5b bd 2f 63 6b 3c 0b d3 57 3b
       0.06468741 -0.053594276 0.014366909 0.0032932188
000100 3d ce b7 3b 43 ca 0a 3c 9b f3 52 3d 84 33 77 bc
       0.0056093023 0.0084710745 0.05150185 -0.015087966
000110 5e a9 17 3d 7c 8f a3 bc 1c 2b 2d 3b 45 15 9e 3d
       0.037026756 -0.01996588 0.00264234 0.077189006
000120 68 b4 85 3d dd 36 76 3d b9 68 44 bd 20 9c 8b 3d
       0.065285504 0.060110915 -0.047951434 0.06816888
000130 ee 41 64 3d de 94 23 3d 30 26 e2 bb 0e 97 06 3d
       0.055726938 0.039936893 -0.006901525 0.0328589
000140 71 58 77 3d 05 d1 61 3c f3 d5 68 bd 5e 72 d7 3b
       0.06038708 0.013782744 -0.056844663 0.006574913
000150 d7 fc 85 3d 92 77 05 bd d2 4d 91 bd d1 4e 54 3d
       0.06542366 -0.032584734 -0.07094921 0.051832978
000160 71 27 fd 3c b2 26 0b 3c 93 b5 df 3c 84 61 72 bc
       0.030902596 0.008493112 0.027308261 -0.014793757
000170 b0 90 98 bc e6 5d 20 3c 0a 5e 43 bd d9 21 44 3d
       -0.01862368 0.009788012 -0.047697105 0.047883842
000180 d4 c4 5c 3b 4c 1f 89 bd 3b 6f 63 3d 1c fa cd 3c
       0.0033686655 -0.066954225 0.055526 0.025143676
000190 bc 27 49 3d 3d 00 4b bc 99 ab 65 3d 50 a8 f9 bb
       0.04911016 -0.0123901935 0.05607185 -0.0076189414
0001a0 a0 f4 33 bd 18 28 85 3d 88 e5 87 3c 84 28 ae bc
       -0.043934464 0.06501788 0.016588941 -0.021259554
0001b0 39 98 7a bc e1 b0 8d bd 2b 08 4a 3d 22 d7 c5 3c
       -0.015295082 -0.069185026 0.049324196 0.024150435
0001c0 58 5f 03 bd 1e 2c 03 bd 10 ce 14 3d 23 97 fd 3c
       -0.03207335 -0.032024495 0.03632933 0.030955857
0001d0 a1 e0 ce 3a 29 30 55 bd 7d 3c 77 3d dc 2b d0 3b
       0.0015783497 -0.052047882 0.06036042 0.0063528847
0001e0 0b b7 38 3d c0 1e 8b bd 60 0b 3f bd dc b6 0f bd
       0.04509644 -0.067929745 -0.046641707 -0.035086498
0001f0 7e 61 6e 3d 41 4b 85 bd f0 ef ef 3c c7 7d 26 3d
       0.058198445 -0.06508494 0.029289216 0.040647294
000200 9a 4a d0 bc 0c 5e 83 3c e8 42 3e bc 88 66 0d 3d
       -0.025426198 0.016036056 -0.011612631 0.03452161
000210 2b 2f 47 3d 08 10 ca bc 43 4e 9b bd 27 4e 85 3d
       0.048628967 -0.024665847 -0.075832866 0.06509047
000220 4f 31 16 bd 3f bb 19 bd 95 0d 4f 3d a8 77 66 3c
       -0.036668118 -0.037532087 0.050550062 0.014066614
000230 e1 1f 82 3d f2 50 05 bd 2b 2b 86 3c 1c b1 8a bc
       0.06353737 -0.0325479 0.016378006 -0.016930155
000240 82 95 a6 bb 7e 62 89 3d a8 64 a4 bc 9b c4 50 bb
       -0.0050837407 0.06708239 -0.020067528 -0.0031855467
000250 90 85 a6 bb fc 1c 3d 3d ca 18 80 3c 8a 47 7a bc
       -0.00508184 0.04617022 0.01563682 -0.015275845
000260 0b 63 81 bd 6a 5c 91 bd f2 d8 7f 3d dd 84 79 3d
       -0.06317719 -0.07097705 0.062462755 0.060917724
000270 53 88 71 3d 36 9c aa 3c e6 02 05 3d 84 6f 06 bd
       0.0589679 0.02082644 0.032473467 -0.032821193
000280 5a ae 5d 3c bd f5 60 bd 91 f1 c0 bc 93 f0 74 3d
       0.013530338 -0.054921854 -0.023552688 0.059799742
000290 6c c1 41 3d 0f 7f d6 bc 89 36 24 3c 18 a3 e0 bc
       0.047303602 -0.026183633 0.010022768 -0.02742152
0002a0 16 b3 76 bd 3e 2a b8 3c 72 4f 80 3c c3 43 f3 ba
       -0.060229383 0.02248108 0.015662882 -0.0018559623
0002b0 27 06 8e 3d 70 81 bf 3c bb 29 8f bc d0 b5 81 3d
       0.06934767 0.02337715 -0.017475953 0.06333506
0002c0 ee 2b 09 bb 31 e9 bc bc c2 77 07 3d b3 76 88 bc
       -0.0020930725 -0.023060413 0.033073194 -0.016658163
0002d0 2e e0 75 bd 09 15 54 3d 7d 4a 71 3d 62 d8 93 3d
       -0.060028248 0.051777873 0.05890893 0.07219006
0002e0 48 5e 5a bc 84 6c ad 3c 7d 26 2c bb 64 e9 3c 3c
       -0.013328142 0.021169908 -0.0026268058 0.011530254
0002f0 3c 4f 84 3d b9 5f 83 3d 09 d9 83 3d 4c aa 28 3b
       0.06460425 0.06414742 0.064378805 0.002573627
000300 08 d5 0a bd 22 2d 65 bd e9 77 c3 3c f1 70 5f bd
       -0.03389457 -0.055951245 0.023860889 -0.05455107
000310 dd eb ff 3c 25 c7 fa bc f7 aa 34 bc f7 49 25 3d
       0.031240398 -0.030612538 -0.011027089 0.04035374
000320 ae 25 07 3c fa 81 22 3c 02 ab 90 bc 71 5d 05 3c
       0.00824873 0.009918684 -0.017659668 0.008139954
000330 06 b8 03 3d 30 2e 1e 3c e5 bd 25 3d 53 8b 92 3c
       0.03215792 0.009654567 0.0404643 0.0178887
000340 68 cf 0b 3b e0 c9 f3 3c d2 40 5e 3c d2 9f 15 3d
       0.002133334 0.029759347 0.013565259 0.03652937
000350 16 5a d5 bc 23 02 65 bd df 9d 82 3c 95 c4 4b bd
       -0.026043933 -0.05591024 0.01594442 -0.049748022
000360 bc a4 50 3d 28 af 93 bd d7 c7 da bc d9 e3 07 3d
       0.050938353 -0.07211143 -0.02670662 0.033176277
000370 be 58 6c 3d 63 33 86 3d 3b 2b 56 bd a5 94 95 bd
       0.05770182 0.0655277 -0.05228732 -0.07303742
000380 f6 74 86 bd f0 6d 05 bd 26 56 7c 3d b9 89 89 3d
       -0.06565277 -0.032575548 0.061605595 0.06715722
000390 50 6c f9 bc 3d 3e 37 3b a0 eb 0a bd e5 48 81 3d
       -0.030447155 0.002796068 -0.033916116 0.06312732
0003a0 cd c5 55 3d b7 63 79 3d cf 92 93 bd 7a f6 90 bd
       0.05219059 0.06088611 -0.07205736 -0.07078262
0003b0 f3 79 ff bc a6 6b fe 3c 5f 43 50 bd d2 5a a1 bc
       -0.03118608 0.03105719 -0.0508455 -0.019696627
0003c0 41 19 b6 bb 6e b5 22 bd e1 99 02 3d 41 fb 68 bd
       -0.0055572097 -0.039723806 0.03188503 -0.05688024
0003d0 0c d2 56 bd 61 71 47 3c 7a 9f 10 bd 13 35 f0 3c
       -0.05244641 0.012173028 -0.03530834 0.029322183
0003e0 7b 3f 71 bd 0f 3a e0 3c ce 26 72 3d 10 59 40 bd
       -0.05889843 0.027371434 0.05911904 -0.046959937
0003f0 04 1c 9b bd 3b 74 8d bd a5 86 c5 bc 41 7a 01 bd
       -0.07573703 -0.06906935 -0.024112055 -0.03161073

layers.0.Ah.conv2.bias f4 [32]
000000 82 a6 7e bc 24 2c 67 bd 39 47 03 39 2f a2 8f 3d
       -0.015542628 -0.05643858 0.00012519666 0.07013356
000010 01 be c4 3c 8d 0f 82 3d e1 55 cb 3c 1b 97 c7 bc
       0.024016382 0.06350622 0.024821224 -0.024364045
000020 dc c2 fa bc 1a 25 81 bd 04 ba 08 bd 9b 85 95 3d
       -0.030610494 -0.06305905 -0.033380523 0.07300874
000030 31 e3 06 bd bf 36 02 3d 70 a8 d7 3c ff eb 3d bd
       -0.03293151 0.03179049 0.026325434 -0.04636764
000040 a9 4b 12 3d 01 d5 7c 3d a1 26 35 bd c8 b5 4d 3c
       0.035716686 0.061726574 -0.044226293 0.012555547
000050 6c 2e 2d 3d 30 c0 b9 38 c4 65 84 bd f1 cf 16 bd
       0.0422806 8.857285e-05 -0.06464723 -0.036819402
000060 fc 84 4d 3b 8e a7 5d 3d d4 e5 4d 3d 2a 5c 5a bd
       0.0031359782 0.05411487 0.05026801 -0.05331055
000070 32 a4 77 3d 38 68 c4 3c 9b 95 94 bc 81 a7 38 bd
       0.060459323 0.023975477 -0.018137744 -0.04508162

layers.0.Ah.conv3.weight f4 [1, 32, 3]
000000 44 93 43 bc 9f 22 00 3d b3 6c 96 bd 2c 58 9a bb
       -0.011936966 0.031283017 -0.073449515 -0.004710218
000010 21 b3 a9 bd a1 fa 9f bd 75 0b 01 3d cf a2 7f 3d
       -0.08286119 -0.078114755 0.031505067 0.062411126
000020 fd a8 96 bd 9d 32 82 bd 09 4f 37 3d e4 0a 94 3d
       -0.07356451 -0.0635731 0.04475311 0.0722864
000030 ef f1 bb 3d 53 86 a4 ba df bd 99 3d a2 de de 3c
       0.091770045 -0.0012552239 0.07506918 0.027205769
000040 01 60 95 3d fc 6f 8c bb a7 3d 2a 3d a2 11 4a bd
       0.07293702 -0.0042858105 0.041562703 -0.049333222
000050 68 1b 9b bd d3 9b 8b 3d f1 3a ba 3d 1c e0 e3 bb
       -0.07573587 0.068168305 0.090932734 -0.006954206
000060 d7 e9 bb 3d e7 76 cb bc ad 72 a1 bd 69 40 9a bd
       0.09175461 -0.02483697 -0.07883201 -0.075318165
000070 07 7c a9 bd 19 f1 ab 3c 49 8b bb 3c b9 ce 06 3c
       -0.082756095 0.020988988 0.022893565 0.008227997
000080 22 a5 a2 3c 97 14 73 3d 1e 6a b4 bc f6 1a 2e 3d
       0.019854132 0.059345808 -0.022023257 0.04250618
000090 a6 f1 14 bd 3f 42 0c 3c 10 ed 03 bd 7f ec 9b 3d
       -0.036363266 0.008560716 -0.032208502 0.076134674
0000a0 50 c9 a0 bd 86 a4 24 bd f2 76 96 3c dc d1 11 3d
       -0.07850897 -0.040195964 0.018367264 0.035600528
0000b0 07 14 5a 3d 9c e4 97 3d 77 9d 93 3d ce d8 c1 bd
       0.053241756 0.07416651 0.072077684 -0.0946518
0000c0 66 f4 66 bd 53 9a ab ba 13 35 86 3d 70 7a a8 bd
       -0.05638542 -0.0013092257 0.06553092 -0.08226478
0000d0 9c da d7 bd d6 1e ab bd 27 83 30 bd 03 f1 d3 bd
       -0.10539743 -0.08355491 -0.043093827 -0.10348704
0000e0 c9 fe a4 3d f8 59 57 bd 48 ef 96 3d 26 8a d5 3a
       0.08056409 -0.052576035 0.07369858 0.0016291782
0000f0 77 08 8c bb 12 91 be 3d b1 cc d5 3d 3b 11 f3 bc
       -0.00427347 0.09305014 0.104394324 -0.029671302
000100 a1 18 80 bc a0 78 8a 3d 52 27 ab bc 9b e1 86 3d
       -0.015636744 0.06761289 -0.020892773 0.065859996
000110 1b 25 86 3d fd 66 89 bd a4 68 16 bd 77 23 b9 3d
       0.06550046 -0.067090966 -0.036720887 0.090399675
000120 6b 5c 93 bd 10 d1 b7 3d ef 73 dd bc 14 78 ae 3d
       -0.07195362 0.089754224 -0.02703282 0.08518997
000130 bd c3 23 3c 7d df 1a bd 45 92 cb bd ff 88 34 3d
       0.009995398 -0.03781079 -0.09940008 0.044075962
000140 3f e6 92 bd 6a 1f 1d 3d 18 2c a9 bd 20 6b f4 bc
       -0.07172822 0.038360037 -0.08260363 -0.029836237
000150 2f 9d 93 bd 9b fa 9a bb 14 38 c0 3d 09 8c 80 bd
       -0.07207715 -0.0047295815 0.09385696 -0.062767096
000160 c0 43 34 bc e3 b2 22 bc 48 bb 95 bb c4 c0 67 3d
       -0.011002481 -0.009930345 -0.004569445 0.05658032
000170 67 ff 81 3d 88 c5 a2 bd 72 06 53 bd 03 39 97 3b
       0.06347542 -0.07947832 -0.05151982 0.0046149506

layers.1.Aw.conv1.weight f4 [64, 1, 5]
000000 f0 49 a5 3d 3c a8 b2 be 06 24 7e be 8a ed 98 be
       0.08070743 -0.34893978 -0.2481843 -0.29868728
000010 4f e9 3f be 3a f1 dd bd 58 18 c0 3c 2f 77 1c 3e
       -0.18741344 -0.10837026 0.023449108 0.1527984
000020 b8 88 5f be be e8 8e be 90 58 b0 be a1 06 eb 3d
       -0.21829498 -0.27911943 -0.34442568 0.11475874
000030 1a ae db 3e 34 65 61 3e d1 85 82 bd f0 60 d6 be
       0.42906266 0.22011262 -0.0637318 -0.41870832
000040 03 35 b7 3e 59 bb 99 be e3 17 b7 3e a4 95 94 be
       0.35782632 -0.30025747 0.35760412 -0.29020417
000050 18 b7 cf bd b9 b8 3b bd 71 79 06 3e c5 24 62 be
       -0.10142344 -0.045830462 0.13132264 -0.22084339
000060 87 a6 1a be ef 3a 23 bd 5d 38 c9 be 38 41 89 3e
       -0.15102588 -0.039851125 -0.39300814 0.2680757
000070 f3 86 8e 3e 86 f2 8b be 10 17 9f bd e3 20 65 be
       0.27837333 -0.27333468 -0.07768071 -0.22375827
000080 06 5f ae be d6 e8 12 3e 6a 8e d7 3d ea 29 55 3e
       -0.34056872 0.14346632 0.1052521 0.2081677
000090 53 d0 fa bd ba 7b 07 be 8c b7 0e 3d 48 c3 d6 be
       -0.12246766 -0.13230792 0.034843013 -0.41945863
0000a0 fb 03 aa 3e 1a f8 4a be 20 9c 95 3e ff f5 23 3e
       0.33206162 -0.19821206 0.29220676 0.16011809
0000b0 2d e0 ae be 13 21 c4 be c1 b3 cb 3e 66 ba cc be
       -0.34155408 -0.38306484 0.3978558 -0.3998596
0000c0 9f 81 24 3e 21 6b 8a bc d6 34 35 3e f1 ec ac 3e
       0.16065072 -0.016896786 0.17695937 0.33774522
0000d0 5f e9 95 3e 98 b5 6f be 37 c6 56 be e3 65 ac 3d
       0.2927961 -0.23409116 -0.2097405 0.08417871
0000e0 cc 7d 61 3e 23 b9 c0 be f6 d2 cc bd 67 fb c0 3e
       0.22020644 -0.37641248 -0.10001175 0.37691805
0000f0 b4 e4 be be f4 43 97 3d 4b e2 e2 bd 0f d4 ad bc
       -0.37283862 0.07386008 -0.11078318 -0.021219281
000100 e7 fe 21 bb b7 f6 24 be 4f 94 56 be 42 3d 54 be
       -0.0024718584 -0.16109739 -0.20955013 -0.20726493
000110 0e 4f 11 3e 28 8d 8b bd be 94 3a be c8 e8 d0 3d
       0.14190313 -0.06814033 -0.18220803 0.102006495
000120 22 03 52 bd 4f 05 8f 3d 29 08 35 be 2e 27 88 3e
       -0.05127252 0.069834344 -0.17678894 0.26592392
000130 68 c5 be be fd ed d2 bc a6 57 9d be f7 27 9d be
       -0.37259984 -0.025748247 -0.30730933 -0.30694553
000140 5f 5f a0 3d 29 f1 03 be 30 18 dd 3e 6e 52 47 be
       0.078306906 -0.12884964 0.43182516 -0.19465038
000150 e8 18 e2 3e 70 66 cc 3d a9 58 4d 3e 05 1e 89 be
       0.44159627 0.09980476 0.20053352 -0.26780716
000160 1c 5b b7 bd 2c ab 12 3e af 53 8a 3e 7a a5 62 be
       -0.089529246 0.1432311 0.2701697 -0.22133437
000170 7a 39 4a be c3 9f 96 bd 3e 82 27 3e 04 aa c6 3d
       -0.19748488 -0.07354691 0.16358277 0.09700397
000180 48 2f 13 3c 6a 82 8b be ba d7 24 be 47 75 d1 be
       0.008983441 -0.27247936 -0.16097918 -0.40909788
000190 70 77 cb be 19 3d 53 3e cc 6d c3 3e 9d b3 73 be
       -0.3973956 0.20628776 0.38169706 -0.23798986
0001a0 92 79 84 be 94 f1 22 bd fa 16 71 be 62 d5 4a be
       -0.25874 -0.039781168 -0.23543921 -0.19807962
0001b0 7a fb a9 3e 6b 9f 18 3e ea da 11 be 98 9e 2f 3e
       0.33199674 0.14904563 -0.14243665 0.17150342
0001c0 f2 59 59 be 8c 58 26 be 3b 73 2b bd 02 06 d0 be
       -0.21225718 -0.16244715 -0.04185794 -0.40629584
0001d0 ea 4a b3 bd 59 bc ba be 9e 6b d7 be 94 31 aa 3e
       -0.08754523 -0.36471823 -0.42074293 0.3324095
0001e0 2c 86 36 be 28 ba a7 be 24 81 eb 3d 6c 0f d0 3e
       -0.1782462 -0.32759213 0.11499241 0.40636766
0001f0 17 ba d7 3e 01 2b 87 bd 5c 9a 21 be f4 2a 4a be
       0.42134163 -0.06599999 -0.1578154 -0.19742948
000200 4e cb 0e be 59 68 77 be 94 7a 8f 3e a3 47 cd bc
       -0.13944742 -0.24160899 0.28023207 -0.025058573
000210 71 a6 b4 be 14 6d 86 3e 0e 5d a1 be c1 fc 94 bd
       -0.35283235 0.26255095 -0.31516308 -0.072747715
000220 14 68 ed 3d 54 9a 80 3e 73 c2 ee bc 9d 40 96 be
       0.11592117 0.25117743 -0.029145455 -0.2934617
000230 c5 bd 88 3e fd 73 c4 3e b2 97 91 bd 51 cd 8e bc
       0.26707283 0.38369742 -0.07109012 -0.017431887
000240 ba 52 7c 3e 16 3b 01 3e ed ab 67 3d 28 26 cc be
       0.24640933 0.12620196 0.056560446 -0.3987286
000250 16 eb 9b be 1e 13 b9 3e 69 38 9f be fe cb c5 be
       -0.30452794 0.36147398 -0.31097725 -0.38632196
000260 6c 43 3e bd 58 11 ae bc 69 9d 67 bd e6 9f c9 3d
       -0.046451017 -0.021248505 -0.056546602 0.09844951
000270 7a ca 80 3e 85 69 23 bd e7 42 43 3e 2c c8 3d be
       0.25154477 -0.039895553 0.1906849 -0.18533391
000280 9b 39 5e 3e 36 8d 93 bd 23 d2 d1 bd 2d 5b 6f be
       0.21701662 -0.07204668 -0.102451585 -0.23374625
000290 2d 83 8d 3e 32 12 74 3e c9 5a b9 3e 68 5a bc 3d
       0.27639142 0.23835066 0.36202076 0.09196931
0002a0 ca 0f d1 be 10 ce 86 be 12 a6 b2 3e 7d 33 74 be
       -0.4083236 -0.26329088 0.34892327 -0.23847766
0002b0 bc 25 3b be 6d b7 ce bd 08 f3 14 3a 65 58 86 be
       -0.18276113 -0.100935794 0.00056819664 -0.26239315
0002c0 5d 53 04 3e 5c fa 7a be e9 76 c7 3e 3f dd 0c be
       0.12922426 -0.24509567 0.3895791 -0.13756274
0002d0 54 9e 86 be de ed 9e 3e 61 d0 b4 be 0a 1a 20 3d
       -0.2629267 0.31040853 -0.3531523 0.039087333
0002e0 2d 81 48 be c6 0d 0b be 3c 8f aa be 8a b4 96 be
       -0.19580527 -0.13579473 -0.33312404 -0.29434615
0002f0 5b a7 23 be 6a 62 8c be cd d9 72 3e 13 19 94 be
       -0.1598181 -0.27418834 0.23715897 -0.2892538
000300 4c 65 97 be d0 d1 b2 3e bf 7a 71 be 9d 29 c7 3e
       -0.2956947 0.349257 -0.2358198 0.38898936
000310 09 cc f0 3b 5e ef 1c 3e 36 11 80 3e b0 12 a8 be
       0.0073485416 0.15325686 0.2501313 -0.32826757
000320 aa e5 d6 3e fd 9f ce be c0 d5 3a 3e ac 1a 38 3e
       0.41972095 -0.40356436 0.18245602 0.17978925
000330 31 1b cc be 5f 3b 79 3d 2a 61 0b 3e 88 42 3e 3c
       -0.39864495 0.060847636 0.13611284 0.011612542
000340 1a 01 ca be 4f 64 39 3e 87 81 3e be f2 99 a9 be
       -0.39453965 0.18104671 -0.18604098 -0.33125263
000350 cd b3 35 be f4 93 92 3e b7 a8 05 3e 4b 1d 9b bd
       -0.1774437 0.28628504 0.13052641 -0.075739466
000360 20 55 8e 3d ae b1 89 3e 16 69 bb be 85 6a 1f be
       0.0694983 0.2689337 -0.36603612 -0.15567978
000370 d9 64 9a 3e bd 39 70 3e f5 62 cc 3e 35 3f 98 be
       0.30155066 0.23459525 0.39919248 -0.29735723
000380 fb 97 4e be 3f 90 a8 3b 6a 02 b5 be 9f 8f a4 be
       -0.20175163 0.0051441486 -0.35353404 -0.32140824
000390 ce f7 db bd f2 e4 0e 3e 0a 3f 90 bd 18 53 b3 3e
       -0.10740624 0.13954523 -0.07043274 0.35024333
0003a0 e8 41 3d be df 98 6e 3e 83 13 6e 3e e9 e8 9d be
       -0.18482172 0.23300503 0.2324963 -0.3084176
0003b0 9a 9a 6c 3e 88 d4 04 bd 77 e5 70 be cd 86 fa 3d
       0.23105851 -0.032429248 -0.23525034 0.122327425
0003c0 ac 8e a4 be 6b 4a 2a be 5e cc 51 3d b2 99 ad be
       -0.321401 -0.1662995 0.05122029 -0.33906323
0003d0 95 bd 56 3e 3a a7 9e 3e 3c eb ba 3e 6f 7d 4c ba
       0.20970757 0.3098696 0.36507595 -0.00078006735
0003e0 d2 93 85 be 45 40 91 3e 57 97 2c be 73 34 5c be
       -0.2608934 0.28369346 -0.16854607 -0.21504383
0003f0 53 fd 83 3a 91 07 de 3e bd 54 ab bd 72 80 a6 be
       0.0010070003 0.43365148 -0.08365772 -0.3251987

layers.1.Aw.conv1.bias f4 [64]
000000 e2 db 2a 3e 90 dd ab 3e 12 dd d2 3e 7b 75 93 3e
       0.16685441 0.33567476 0.41184288 0.28800568
000010 9c 9e bd 3e 7c c6 cb 3e 58 b8 7d be d8 54 6e be
       0.37035072 0.3979987 -0.24777353 -0.23274553
000020 61 de 55 be 6d d3 98 3d 73 af fb bc 45 b0 91 be
       -0.20885612 0.07462201 -0.03072331 -0.28454795
000030 87 1c 05 3e e3 9c b2 be fe e6 28 3e 6a 5e 5e be
       0.12999164 -0.3488532 0.16494367 -0.21715704
000040 46 66 91 be a3 09 79 3e da e1 2f 3e 7d 26 9c bc
       -0.2839834 0.24320082 0.17176 -0.019061321
000050 9e bd a8 be 9f 10 a7 3d 23 72 7e be 76 c6 e1 be
       -0.32957166 0.08157467 -0.24848227 -0.44096726
000060 19 cc c6 bc 8f 4b b9 3e 5e b1 c0 3e 38 7c 93 be
       -0.024267243 0.3619046 0.3763532 -0.2880571
000070 5e c0 da be 0c 1a a4 3e 80 4f 48 3c f1 a9 3a bd
       -0.4272489 0.32051122 0.0122259855 -0.045572225
000080 f6 bb c9 bd c6 4e 4e be f6 2e 55 be 78 71 13 be
       -0.09850304 -0.20147237 -0.20818695 -0.14398754
000090 9a 78 92 be 66 47 94 3e 00 9e d2 be 70 de a0 3d
       -0.28607637 0.28960723 -0.4113617 0.078549266
0000a0 51 70 89 be 70 b6 3c 3e 74 92 4f 3e e3 82 2e be
       -0.26843503 0.1842897 0.20270711 -0.17042117
0000b0 f3 e2 bc 3e af e9 e0 3e 31 2c 34 3e 2c d9 fa bd
       0.368919 0.43928286 0.17594983 -0.122484535
0000c0 b0 db 9e 3e bd e6 bf be 46 42 90 bd ed 96 c9 3d
       0.31026983 -0.37480727 -0.07043891 0.0984324
0000d0 b7 98 2b be 3f 9d da be 7c 06 a1 be c0 a8 81 be
       -0.16757475 -0.42698094 -0.3145026 -0.2532406
0000e0 9e ee 84 3d 55 ae af be 7a 65 9f be b5 db 6f 3e
       0.06490825 -0.34312692 -0.31132108 0.23423655
0000f0 cf 75 c9 bb 98 28 27 3e 4b 8c 48 be eb ce 0f bd
       -0.006148077 0.16324079 -0.19584768 -0.03510944
