models/no_clip_10%.pt (torch, 78325 bytes, 120 tensors)

layers.0.Aw.conv1.weight f4 [32, 1, 5]
0	0xbe8740db	-0.26416668
1	0xbd42a2fd	-0.04751872
2	0xbd3c7361	-0.04600847
3	0x3ec077dc	0.37591445
4	0x3edd9430	0.4327712
5	0x3dcd7080	0.10031223
6	0xbea9a098	-0.33130336
7	0x3e147149	0.1449634
8	0xbe7801ec	-0.24219483
9	0xbe9f7f0a	-0.3115161
10	0x3ebfa313	0.37429103
11	0x3e3a108d	0.18170376
12	0xbe97e0a9	-0.2966359
13	0x3eba8b18	0.36434245
14	0x3e41508e	0.18878385
15	0x3dc5d06e	0.096588954
16	0xbe8eef0d	-0.27916756
17	0x3d49c8ef	0.04926389
18	0x3e268499	0.1626152
19	0x3e6d5f5e	0.23180911
20	0x3e9ad427	0.30239984
21	0x3ee06629	0.43827942
22	0xbeda6c6f	-0.42660853
23	0xbdaf6d76	-0.085658
24	0x3ee27afb	0.44234452
25	0xbd94a2e3	-0.07257631
26	0x3e863b9e	0.2621736
27	0x3e49e5e4	0.19716603
28	0x3de26cdd	0.1105592
29	0x3eb3ed85	0.3514215
30	0x3e6f0bbf	0.23344325
31	0x3e0428ca	0.12906185
32	0x3e1e9853	0.15487795
33	0x3e6f8c77	0.23393427
34	0xbdc24596	-0.09485929
35	0xbe89e82d	-0.2693495
36	0xbe26cb8e	-0.16288587
37	0xbeccf03b	-0.4002703
38	0xbe434975	-0.1907099
39	0x3ea07dae	0.31345886
40	0x3e47f2bb	0.19526188
41	0x3e87fe12	0.26561028
42	0x3e9ab717	0.3021781
43	0xbd39ef52	-0.04539425
44	0x3d3eb8d3	0.04656298
45	0x3df6f644	0.1205869
46	0xbeb68749	-0.3565009
47	0x3dc7b2fe	0.09750937
48	0x3e645b6c	0.223005
49	0xbea12df5	-0.31480375
50	0xbec8e838	-0.3923967
51	0xbea2bf49	-0.31786564
52	0x3e7b36e7	0.24532662
53	0xbeb144af	-0.34622714
54	0xbecb3874	-0.39691508
55	0xbe52a5cd	-0.2057106
56	0x3d92e652	0.07172836
57	0xbea9355f	-0.3304853
58	0x3e17c9d1	0.1482308
59	0x3e8ba0ad	0.27271023
60	0xbe8c06bf	-0.27348897
61	0xbe0211d8	-0.1270212
62	0x3dc68257	0.09692829
63	0x3ec0b9e8	0.37641835
64	0xbda7d3dc	-0.08194706
65	0xbdfed14a	-0.124422625
66	0xbe4c0fd9	-0.1992792
67	0x3d0d694d	0.03452425
68	0xbd68097e	-0.056649677
69	0x3ccec64a	0.025241036
70	0xbec1f7a0	-0.37884235
71	0x3d05d602	0.032674797
72	0x3dac2aec	0.08406624
73	0xbe3aa397	-0.18226467
74	0xbed643b7	-0.41848537
75	0xbd055e86	-0.032560848
76	0x3e3b2ad3	0.18278055
77	0xbe59fbbc	-0.21287435
78	0x3e188952	0.14896134
79	0xbed77e7c	-0.42088687
80	0x3df7027d	0.120610215
81	0xbe8399e1	-0.25703338
82	0xbe9d349f	-0.3070421
83	0x3ea57797	0.32317802
84	0x3d4af669	0.0495514
85	0xbe695712	-0.22787121
86	0x3e6f9111	0.23395182
87	0xbdc8d7d2	-0.098067895
88	0xbe502719	-0.20327415
89	0xbe59d8e0	-0.21274137
90	0x3db7add3	0.08968701
91	0x3ed1499f	0.4087648
92	0xbe2728c4	-0.16324145
93	0x3e8c86c9	0.27446583
94	0xbea4693c	-0.32111537
95	0xbc5d04d7	-0.013489923
96	0xbea20015	-0.31640688
97	0xbe740111	-0.23828532
98	0x3df2ae48	0.11849648
99	0x3e8fb6c2	0.2806912
100	0x3df3a6a9	0.11897022
101	0xbe9efaa8	-0.3105061
102	0xbec3a4d4	-0.3821169
103	0xbe029a38	-0.12754142
104	0x3eba54d6	0.3639285
105	0xbea06fdd	-0.31335345
106	0xbecefbb2	-0.40426403
107	0xbe3581e1	-0.17725326
108	0x3e6f7e16	0.23387942
109	0xbd942814	-0.07234207
110	0x3eb8932c	0.36049783
111	0xbd8d0ca0	-0.06887174
112	0x3e9cc48d	0.30618706
113	0x3e1ce3cc	0.15321273
114	0x3e86960b	0.2628635
115	0x3ea05ad7	0.31319305
116	0xbecaf7b8	-0.3964212
117	0xbec081fb	-0.37599167
118	0x3e699be5	0.22813375
119	0x3ecc945f	0.39956948
120	0xbe9ee0ae	-0.31030792
121	0x3e1123d0	0.14173818
122	0xbd7af265	-0.06126632
123	0x3ed8e2cb	0.4236053
124	0xbeb27e77	-0.3486211
125	0xbcb84390	-0.022493154
126	0x3e0e0a80	0.13871193
127	0xbe170505	-0.14748009
128	0xbd9e6466	-0.07733993
129	0xbecc9393	-0.3995634
130	0xbee11f5a	-0.43969232
131	0xbebe1e2d	-0.37132397
132	0x3ea447fd	0.32086173
133	0x3e84686b	0.25860915
134	0xbdc40e31	-0.09573019
135	0xbd9fdc4b	-0.078056894
136	0xbe06cf8d	-0.13165112
137	0xbda6d97b	-0.0814695
138	0x3e7c1105	0.24615867
139	0x3e6d62bd	0.23182197
140	0xbe629110	-0.2212565
141	0x3e8b0440	0.2715168
142	0xbd9b478c	-0.07582006
143	0xbcb13f54	-0.021636643
144	0xbe9ba26d	-0.3039736
145	0x3e1ed16a	0.15509573
146	0xbdad9aac	-0.08476767
147	0xbeb99830	-0.36248922
148	0xbe24decb	-0.16100614
149	0xbeb6ffa0	-0.357419
150	0x3c76dc9b	0.015067245
151	0xbedb05c9	-0.4277785
152	0x3ec15cbd	0.37766066
153	0x3eaf25c5	0.34208503
154	0x3defcefa	0.117093995
155	0x3eb50368	0.3535416
156	0x3ec6b113	0.38806972
157	0xbdcb4ba5	-0.099265374
158	0xbead1e3c	-0.3381213
159	0x3e8e3a6e	0.27778953

layers.0.Aw.conv1.bias f4 [32]
0	0x3ea47d7b	0.32126984
1	0x3dc173f6	0.09445946
2	0xbe8afefa	-0.27147657
3	0xbed95237	-0.42445537
4	0x3dd612c3	0.10452797
5	0xbe300c8a	-0.17192283
6	0x3e4f958b	0.2027189
7	0xbe006beb	-0.12541167
8	0x3ee5f558	0.44913745
9	0xbe504daf	-0.20342134
10	0xbe48f40f	-0.19624351
11	0x3ed9fc8f	0.425755
12	0xbe1032a6	-0.14081821
13	0xbe3f8060	-0.18701315
14	0x3eeb5b31	0.4596801
15	0xbc79b8b3	-0.01524179
16	0xbec50881	-0.3848305
17	0x3e9c61d2	0.3054338
18	0x3de89b7c	0.11357781
19	0xbe5aa99d	-0.21353765
20	0x3d890761	0.066908605
21	0x3ebfbbe8	0.3744805
22	0x3d3b9363	0.045794856
23	0xbe711524	-0.23543221
24	0xbed3b27a	-0.41347104
25	0xbd9fc6ea	-0.07801612
26	0xbdede7d6	-0.11616485
27	0x3e59d9ec	0.21274537
28	0xbed9bec8	-0.42528367
29	0x3e667a52	0.22507599
30	0xbec58ea5	-0.38585392
31	0x3ebce0b9	0.368902

layers.0.Aw.conv2.weight f4 [16, 32, 3]
0	0xbcdf5810	-0.027263671
1	0x3bc38961	0.0059673046
2	0x3a989d56	0.001164357
3	0x3c2f8f74	0.010715354
4	0xbdca12c3	-0.0986686
5	0xbcc4d8b0	-0.024029106
6	0x3d064c1c	0.032787427
7	0xbd15f0a7	-0.036606457
8	0x3dd51da8	0.10406047
9	0x3bb99d40	0.0056644976
10	0x3dbe6b01	0.09297753
11	0x3db8ad0b	0.0901738
12	0xbd053012	-0.032516547
13	0x3d1254e5	0.035725493
14	0x3cf4cece	0.029883768
15	0xbd1d308a	-0.03837637
16	0xbcf0e6ea	-0.029406983
17	0xbdb62c5c	-0.0889518
18	0x3d5761c8	0.052583486
19	0xbd4041cb	-0.046937745
20	0xbd653a82	-0.055964
21	0x3dc56786	0.09638886
22	0x3dc61286	0.09671502
23	0xbcf254e9	-0.029581504
24	0xbd4808b4	-0.048836425
25	0x3c31e22b	0.010857145
26	0xbdab7465	-0.0837181
27	0xbd98ea35	-0.074665464
28	0x3d6e34a5	0.058155674
29	0xbd5e3294	-0.054247454
30	0x3d1b89fd	0.037973393
31	0x3c00783c	0.007841166
32	0xbdc93bae	-0.09825836
33	0x3d649012	0.05580146
34	0x3d47023e	0.048586123
35	0xbca5881f	-0.02020651
36	0x3d11552d	0.03548162
37	0xbdb60828	-0.088882744
38	0xbd3eddff	-0.04659843
39	0x3d47ce97	0.048781004
40	0x3d1f34fd	0.038868893
41	0x3d98fe41	0.0747037
42	0xbd5fe7d1	-0.054664437
43	0xbd578ea0	-0.052626252
44	0xbba3aa93	-0.0049946993
45	0x3a7e550b	0.00097020034
46	0x3c740018	0.0148926005
47	0xbd8fffe8	-0.07031232
48	0x3c78193a	0.015142733
49	0x3c28a7b9	0.010293894
50	0xbd8ee349	-0.06976945
51	0xbc96f5e3	-0.018427795
52	0x3b919b28	0.004443545
53	0xb9d5a70b	-0.00040750983
54	0x3d4d4efd	0.050124157
55	0xbc788a78	-0.015169732
56	0xbbdf7625	-0.006819504
57	0xbda3248c	-0.07965955
58	0x3b4c8f8e	0.0031213495
59	0xbc662376	-0.0140465405
60	0x3d2dcf72	0.042434163
61	0x3c9be03d	0.019027824
62	0x3dca49d9	0.098773666
63	0xbcc84d54	-0.024450935
64	0xbb975ce5	-0.004619228
65	0xbdaf7715	-0.08567635
66	0xbbed8dad	-0.007249555
67	0x3ac318fc	0.0014884765
68	0x3c72d5b1	0.014821456
69	0xbce3955e	-0.027781185
70	0xbcfd03db	-0.030885627
71	0x3d7cf5b1	0.061757747
72	0x3d9fdffa	0.07806392
73	0x3c03e788	0.008050807
74	0x3dcee5e2	0.101024404
75	0xbd2c04a7	-0.041996624
76	0xbd0b5c3e	-0.034023516
77	0x3b393d9b	0.002826548
78	0x3ce5b317	0.028039498
79	0xbdaff797	-0.08592146
80	0x3dd87d35	0.10570756
81	0xbdb88c91	-0.09011186
82	0xbba06ba6	-0.004895645
83	0x3c8785c7	0.016543282
84	0xbc7f9920	-0.015600473
85	0xbcde7087	-0.027153267
86	0x3cbf1bee	0.023328748
87	0x3c551510	0.01300551
88	0x3c9bda31	0.01902494
89	0x3d305e25	0.043058533
90	0x3da8fe49	0.08251626
91	0x3d72b94a	0.059258737
92	0x3dbc5eb0	0.09197748
93	0xbda57d3f	-0.080805294
94	0x3d1dcfd8	0.038528293
95	0x3dbd698e	0.092486486
96	0xbd818c60	-0.063256025
97	0xbdb9d16d	-0.09073148
98	0xbd517e99	-0.051146124
99	0xbd5f9874	-0.05458875
100	0x3db681c4	0.089114696
101	0xbc931ca5	-0.017957995
102	0x3d3ecd0c	0.046582267
103	0xbd4b03cb	-0.049564164
104	0xbd921fa7	-0.071349435
105	0x3d2111f9	0.03932378
106	0x3c08ef0d	0.008357775
107	0x3dba7029	0.09103424
108	0x3da34973	0.07972994
109	0x3d134a7e	0.035959713
110	0x3cd33db1	0.025786253
111	0xbd48cab5	-0.04902144
112	0xbdc35dcb	-0.09539374
113	0xbd1903fc	-0.037357315
114	0xbd34deb3	-0.044157695
115	0x3db3714d	0.08761845
116	0x3d474849	0.04865292
117	0x3d564fc2	0.052322157
118	0xbdd4e8ea	-0.10395987
119	0x3d335a12	0.04378707
120	0xbd906de8	-0.07052213
121	0x3d18e2eb	0.03732578
122	0xbdc26c46	-0.09493308
123	0x3d1cb78b	0.038260978
124	0xbdb4bd16	-0.08825128
125	0xbceaeac9	-0.028676407
126	0xbc399a4a	-0.011328289
127	0xbc504818	-0.012712501
128	0x3d91f76b	0.07127269
129	0x3d5cff7e	0.053954594
130	0x3cd71019	0.026252793
131	0x3d11c4fa	0.035588242
132	0x3d301bf0	0.042995393
133	0xbdd29edf	-0.102842085
134	0x3bc43e3d	0.0059888647
135	0xbd958c21	-0.07302118
136	0xbcdaef47	-0.026725424
137	0x3d17587a	0.036949612
138	0x3d868d43	0.06569912
139	0x3dc52471	0.09626091
140	0xbd7ea4d3	-0.062168907
141	0x3d437cc5	0.04772641
142	0x3b74d308	0.003735723
143	0x3db5bbdd	0.08873723
144	0x3d6fa253	0.058504414
145	0x3c41d6a2	0.011830958
146	0xbd5d3cef	-0.05401319
147	0xbd15a660	-0.03653562
148	0x3c00e633	0.007867384
149	0x3cb013c3	0.021493798
150	0x3cac7812	0.021053348
151	0xbc37d319	-0.011219763
152	0xbc811deb	-0.015761336
153	0x3c3b1d9e	0.0114206355
154	0x3d850ed8	0.06496972
155	0xbdc66135	-0.096865095
156	0x3d141e6c	0.036161825
157	0xbdc2897b	-0.094988786
158	0xbca3a0c4	-0.01997412
159	0xbc36d6f3	-0.011159646
160	0xbc85f4d3	-0.016352093
161	0xbd4e63b6	-0.05038806
162	0x3abc2e6b	0.0014357095
163	0x3d7d62e5	0.06186189
164	0x3ce7096f	0.02820274
165	0x3d50ab7d	0.050944794
166	0xbda2243f	-0.0791707
167	0xbd64bf85	-0.05584671
168	0xbd614c48	-0.055004388
169	0x3da996b0	0.082806945
170	0xbd64cc7b	-0.05585907
171	0xbc2c588b	-0.010519157
172	0xbd41549a	-0.047199823
173	0x3d52bfa4	0.051452294
174	0x3d9643f9	0.073371835
175	0x3d5e960b	0.05434231
176	0xbd569775	-0.052390534
177	0x3d6044cc	0.05475311
178	0x3d4cfe1f	0.050047036
179	0x3d85fb4a	0.0654207
180	0xbd76d4ca	-0.060261525
181	0xbdb7be69	-0.08971865
182	0x3db3a6a7	0.08772021
183	0x3cac2fb8	0.021018848
184	0x3ddbaf8d	0.10726843
185	0xbdb38745	-0.08766035
186	0x3d6ab889	0.057304893
187	0x3d6fd535	0.05855294
188	0xbd542aed	-0.05179875
189	0xbdbc1d5e	-0.09185289
190	0x3cbef336	0.023309331
191	0x3d86f8da	0.065904334
192	0x3d2853e5	0.041095633
193	0xbd0c659b	-0.034276586
194	0x3d759cd2	0.05996401
195	0x3caacc58	0.020849392
196	0xbd8639c9	-0.065539904
197	0x3be84896	0.007088731
198	0xbabb48a0	-0.0014288612
199	0xbdce2721	-0.10066057
200	0xbc13e9f7	-0.00902795
201	0xbdda964c	-0.10673198
202	0x3cccb3ea	0.024988133
203	0xbd439c40	-0.047756433
204	0x3d96fe1e	0.07372688
205	0xbd687f39	-0.056761954
206	0xb8997a53	-7.318393e-05
207	0xbdc8829e	-0.09790538
208	0x3b830223	0.0039980575
209	0xbdced628	-0.10099441
210	0x3c68f173	0.014217722
211	0x3b7b0777	0.003830401
212	0x3d58bdc1	0.05291534
213	0x3d2ec840	0.042671442
214	0x3d8a71fd	0.06760023
215	0xbc99e1e9	-0.01878448
216	0xbda949b9	-0.082660146
217	0x3dae36c1	0.08506537
218	0x3cb4c59c	0.022066884
219	0x3d705e25	0.058683533
220	0x3d2332e1	0.039843444
221	0xbd2f368e	-0.042776637
222	0x3d6354f3	0.055500936
223	0x3d9f3397	0.07773512
224	0xbd8bd1be	-0.068271145
225	0x3dce038c	0.1005927
226	0xbc06b61e	-0.008222131
227	0x3d89cb3d	0.06728218
228	0x3db408ac	0.087907165
229	0x3d33afbb	0.04386876
230	0x3da4c9d2	0.08046307
231	0xbd96603a	-0.073425725
232	0xbc1082e6	-0.008820271
233	0xbd1251ae	-0.035722427
234	0xbcc65db7	-0.024214609
235	0x3d3f7301	0.046740536
236	0x3dd41f54	0.10357538
237	0x3c1b97bf	0.009496628
238	0x3dab3d26	0.083612725
239	0x3cc77cae	0.024351444
240	0x3d41183d	0.047142256
241	0xbdbf94f3	-0.09354582
242	0xbd09ca81	-0.03364039
243	0x3d9ce223	0.0766032
244	0x3d2a3850	0.04155761
245	0x3daf5278	0.085606515
246	0x3cb6d81c	0.022319846
247	0x3dd202c5	0.102544345
248	0xbd2a006c	-0.04150431
249	0xbdce0450	-0.10059416
250	0xbd77ef63	-0.06053103
251	0xbab3f48a	-0.0013729495
252	0xbd781d0c	-0.060574576
253	0xbd87dcbe	-0.066339
254	0x3db57ee7	0.08862095
255	0x3c34654f	0.011010482

layers.0.Aw.conv2.bias f4 [16]
0	0x3ccb6363	0.024827665
1	0xbd1e7b7d	-0.038691986
2	0xbc0c28d6	-0.008554658
3	0x3d813c52	0.06310333
4	0x3d846647	0.0646482
5	0x3da600a3	0.0810559
6	0x3d87e09a	0.06634636
7	0x3dc5ec7b	0.09664246
8	0x3cb3b132	0.02193508
9	0x3d17395f	0.036919948
10	0xbca4091f	-0.02002388
11	0x3d32a723	0.043616425
12	0xbda1f0f9	-0.0790729
13	0x3c69bd9b	0.014266397
14	0x3dd05840	0.10173082
15	0x3c748639	0.014924579

layers.0.Aw.conv3.weight f4 [1, 16, 3]
0	0xbddae0d4	-0.10687414
1	0x3da7afbd	0.08187816
2	0xbda8b420	-0.08237481
3	0x3decb9bc	0.115588635
4	0xbdd0c782	-0.10194303
5	0x3db89560	0.09012866
6	0x3d9f4e21	0.07778574
7	0xbc0bd03b	-0.008533533
8	0x3df96736	0.12177889
9	0xbda5a14e	-0.08087407
10	0x3d6fa04e	0.058502488
11	0xbcd1afea	-0.025596578
12	0x3d39b8c0	0.045342207
13	0xbcbf320d	-0.023339296
14	0xbd5a176d	-0.053244997
15	0x3dcac13c	0.09900138
16	0x3e0ce420	0.13758898
17	0x3da7ba91	0.081898816
18	0xbd72e6e1	-0.059302215
19	0xbde73985	-0.11290268
20	0xbe000cc6	-0.12504873
21	0x3daff5c2	0.085917965
22	0x3df7bb73	0.120963
23	0x3c67618e	0.01412238
24	0xbde7371f	-0.112898104
25	0x3e02ac4f	0.12761043
26	0xbd272907	-0.04081061
27	0x3d251458	0.040302604
28	0x3d03e55e	0.032201163
29	0x3e12cc35	0.14335711
30	0xbc98e843	-0.018665439
31	0x3e0230f4	0.12713987
32	0x3d6b101a	0.057388403
33	0x3d832bd8	0.06404847
34	0x3e02f59e	0.12789008
35	0x3e014392	0.12623432
36	0xbdc035f9	-0.093852945
37	0x3e149405	0.1450959
38	0x3d377109	0.044785533
39	0xbdeafe80	-0.11474323
40	0xbd837415	-0.06418625
41	0x3d8ad6b7	0.06779235
42	0x3d9f6434	0.07782784
43	0xbd600f01	-0.05470181
44	0x3e110e13	0.14165525
45	0x3e0c86d6	0.13723311
46	0x3d4da4bb	0.050205927
47	0x3dde5ecd	0.108579256

layers.0.Ah.conv1.weight f4 [32, 1, 5]
0	0xbec2ffeb	-0.38085875
1	0x3e8e163d	0.2775134
2	0x3d11e034	0.035614207
3	0x3d579ba0	0.05263865
4	0x3dbb532f	0.091467254
5	0x3e80662c	0.2507795
6	0xbe58f465	-0.21186979
7	0xbd871420	-0.065956354
8	0xbecf0835	-0.4043595
9	0xbe0eaf8e	-0.13934156
10	0xbea18f5c	-0.31554687
11	0x3eceb77e	0.40374368
12	0x3e229649	0.15877642
13	0xbe8c7221	-0.27430823
14	0x3e7c6b2d	0.2465026
15	0x3e64fe5f	0.2236266
16	0x3c43fec3	0.011962595
17	0x3eadf278	0.3397405
18	0xbe7e8b94	-0.24857932
19	0xbe3ed23d	-0.18634887
20	0xbe91b8c0	-0.28461266
21	0xbe16b886	-0.14718828
22	0x3ca89df4	0.02058313
23	0x3e8ae4d3	0.27127704
24	0xbeb056e3	-0.3444129
25	0x3e6b99b7	0.23007856
26	0x3eca11d5	0.3946673
27	0x3da7d1ad	0.08194289
28	0x3eb39480	0.35074234
29	0xbe122837	-0.14273153
30	0x3eecb67b	0.46232972
31	0xbcebe85a	-0.028797317
32	0xbea0d8e5	-0.31415477
33	0xbdd0f029	-0.10202057
34	0xbe136bc6	-0.14396581
35	0xbe4f116b	-0.20221488
36	0xbed5ac9e	-0.4173326
37	0xbe48a00a	-0.195923
38	0xbed8dfc3	-0.42358217
39	0x3e1d1b7a	0.15342513
40	0x3d890b9a	0.06691666
41	0x3db91ac9	0.09038312
42	0xbed9b8e5	-0.42523876
43	0xbe587d2a	-0.21141496
44	0x3ed88f40	0.4229679
45	0xbcf053be	-0.029336806
46	0x3da9ecdc	0.082971305
47	0x3ede5b1e	0.43428892
48	0xbdc456bd	-0.095868565
49	0x3d6b607a	0.057465054
50	0x3eaa2368	0.33230138
51	0x3dda24c8	0.10651547
52	0x3ea00ac3	0.3125821
53	0xbea5e1fb	-0.32398972
54	0xbe82d7aa	-0.25555164
55	0x3d849499	0.06473655
56	0x3d1ad593	0.037801336
57	0x3e79ef8c	0.24407786
58	0x3ea56675	0.3230473
59	0x3e259a20	0.16172075
60	0xbd412b9b	-0.047160726
61	0xbebdf3f4	-0.37100184
62	0x3e87a406	0.26492327
63	0x3d344ad7	0.044016685
64	0xbd3af8fc	-0.045647606
65	0x3edd95a6	0.43278235
66	0x3df6195f	0.12016558
67	0xbeacec22	-0.33773905
68	0x3eab17b0	0.3341651
69	0xbc81b6d1	-0.015834244
70	0x3e9adf98	0.30248713
71	0x3ea3f3f3	0.32022056
72	0x3dfc0975	0.12306491
73	0x3ed0d5c2	0.40788084
74	0xbe948026	-0.2900402
75	0x3dd9c87d	0.10633943
76	0xbdd5bb1d	-0.1043608
77	0xbccfaca7	-0.025350882
78	0x3edb8512	0.42874962
79	0x3e3f6c3d	0.18693633
80	0xbddc74c8	-0.10764462
81	0x3dfd54f4	0.12369719
82	0x3eda69f4	0.4265896
83	0xbe7b53d6	-0.245437
84	0xbe5ee778	-0.21767986
85	0xbe843d0b	-0.25827822
86	0x3dd883c3	0.105720066
87	0xbea8385c	-0.328555
88	0x3cb13d47	0.021635665
89	0xbe7307a8	-0.2373339
90	0xbe958652	-0.2920404
91	0x3da6fe5d	0.08153985
92	0xbbedfeb9	-0.0072630313
93	0xbdc4449c	-0.09583399
94	0xbe7ab86c	-0.24484414
95	0xbe6bfcff	-0.23045729
96	0xbd475af7	-0.048670735
97	0x3e2e4c21	0.17021228
98	0xbdd6dbb6	-0.10491125
99	0xbe54b1cf	-0.20770954
100	0xbecdae0c	-0.4017185
101	0x3e9b7e27	0.30369684
102	0xbdbd267d	-0.09235857
103	0x3ec1d343	0.37856492
104	0xbceb1885	-0.028698215
105	0x3ec19152	0.37806183
106	0x3e35f554	0.17769367
107	0x3db8133f	0.08988046
108	0x3caa7c94	0.020811357
109	0x3d15161f	0.03639805
110	0x3dae77a1	0.08518911
111	0x3edc64bc	0.43045604
112	0x3eaf480c	0.34234655
113	0xbe4e612d	-0.20154257
114	0x3d7b020e	0.061281256
115	0xbeaa0b93	-0.33211955
116	0xbe2a336d	-0.1662118
117	0x3dd1fa8f	0.102528684
118	0x3c314790	0.0108202845
119	0xbdb31886	-0.08744912
120	0xbee92506	-0.4553606
121	0xbe4f45f7	-0.20241533
122	0xbe8621f3	-0.26197776
123	0xbeb765b2	-0.35819775
124	0xbe0e310d	-0.13885899
125	0x3ee22a3d	0.4417285
126	0xbeb7af2b	-0.3587583
127	0x3e6341b4	0.22193033
128	0xbed14f1b	-0.40880665
129	0x3e4d0423	0.2002111
130	0xbeab6991	-0.33478978
131	0x3e609afe	0.21934125
132	0x3c962c9f	0.018331824
133	0xbecf2bbe	-0.4046306
134	0x3e0d1e4c	0.13781089
135	0x3e6cbd3a	0.23119059
136	0xbdc496c8	-0.09599072
137	0x3dd48bb5	0.103782095
138	0xbec2f07f	-0.3807411
139	0xbd0a33a3	-0.03374065
140	0x3dc85d75	0.097834505
141	0xbe876309	-0.26442745
142	0xbee833da	-0.4535206
143	0x3e8f044e	0.27932972
144	0x3d9b3e42	0.07580234
145	0x3ec2fab1	0.38081887
146	0x3e9584fa	0.29203016
147	0xbda0e9ed	-0.07857118
148	0xbe0ff74e	-0.14059183
149	0xbee20deb	-0.44151244
150	0xbec3b832	-0.38226467
151	0x3ea56a4e	0.32307667
152	0x3e242eee	0.16033527
153	0xbe091ff9	-0.13391103
154	0x3ec7fa33	0.39058074
155	0x3e17694f	0.14786266
156	0x3e542457	0.20716988
157	0x3d5267cd	0.051368523
158	0x3eabe2f8	0.335716
159	0x3d4b751c	0.04967223

layers.0.Ah.conv1.bias f4 [32]
0	0x3dec6c46	0.11544089
1	0xbeaf683a	-0.34259206
2	0xbe1c680e	-0.15274069
3	0x3e4541bd	0.19263358
4	0x3e55603e	0.20837495
5	0xbee2ca66	-0.44295043
6	0x3ea53e3e	0.3227405
7	0xbe286c4a	-0.16447559
8	0xbe3eddbe	-0.18639275
9	0xbecb764e	-0.39738697
10	0x3e3da58e	0.18520185
11	0xbe80959c	-0.25114143
12	0x3ead440d	0.3384098
13	0x3eab1f1d	0.33422175
14	0xbe134dea	-0.1438519
15	0x3d760638	0.060064524
16	0xbb23e4bf	-0.002500817
17	0x3de7d418	0.113197505
18	0x3e460d85	0.19341095
19	0x3e92423b	0.28566155
20	0x3ce10585	0.027468452
21	0x3ec4bc40	0.38424873
22	0xbd0bc0e7	-0.034119513
23	0xbed43173	-0.41443977
24	0xbe1f94d5	-0.15584119
25	0x3d46cefc	0.04853724
26	0x3eb46ce1	0.35239318
27	0xbda903f9	-0.08252711
28	0xbe607285	-0.21918686
29	0xbe278f5e	-0.16363284
30	0x3ee277e1	0.44232085
31	0x3ea0e0cf	0.31421515

layers.0.Ah.conv2.weight f4 [16, 32, 3]
0	0x3c0bbff4	0.008529652
1	0xbd9ef245	-0.07761053
2	0xbdbd12de	-0.09232114
3	0x3d3ba537	0.045811858
4	0x3dd94255	0.10608355
5	0x3df3c4f1	0.11902798
6	0x3c56cfcb	0.013111065
7	0x3da2b28f	0.079442136
8	0x3d30c36e	0.043155126
9	0xbd9d0546	-0.076670215
10	0xbd22144c	-0.039570138
11	0xbc5ac626	-0.013352906
12	0xbd5f15b0	-0.054464042
13	0xbd9290cc	-0.07156524
14	0xbd64f325	-0.055895943
15	0x3db645db	0.089000426
16	0x3d40b9b6	0.047052108
17	0x3dc74a3f	0.09730958
18	0xbcf6edc8	-0.03014268
19	0x3b94cb02	0.004540802
20	0xbd1628b9	-0.03665993
21	0xbd9998d7	-0.07499855
22	0x3dd43f33	0.10363617
23	0x3c6d60e5	0.0144884335
24	0x3da0bb69	0.07848246
25	0x3d8fb615	0.07017151
26	0xbcf607aa	-0.030032951
27	0xbd3caa2c	-0.046060726
28	0x3d41ea01	0.047342304
29	0x3d9db262	0.077000394
30	0xbe00ae65	-0.12566526
31	0xbd7fb5fc	-0.062429413
32	0x3cde3e81	0.027129414
33	0xbcb2dc58	-0.021833584
34	0x3cd043ed	0.025423015
35	0x3df5faa7	0.12010699
36	0xbca79fc8	-0.020461932
37	0x3c944561	0.018099489
38	0xbdb395b0	-0.08768785
39	0xbd0b9b34	-0.03408356
40	0x3d8a48c2	0.06752159
41	0xbd38c24d	-0.045107175
42	0x3b3ecee5	0.0029115018
43	0x3da199ef	0.07890689
44	0x3ba243f9	0.0049519506
45	0x3d9d470b	0.07679566
46	0xbdc3d1fb	-0.09561535
47	0xbd510bc1	-0.0510366
48	0xbd46eea7	-0.04856744
49	0xbdc8e687	-0.098095946
50	0x3d7a2af4	0.06107612
51	0xbddef5e9	-0.108867474
52	0xbccd1acf	-0.025037197
53	0xbc14c1aa	-0.009079376
54	0x3d381341	0.044940237
55	0xbada949b	-0.0016676368
56	0x3cda6236	0.026658159
57	0x3d2a19f6	0.041528665
58	0x3b9618c1	0.0045805876
59	0xbd327f0e	-0.0435782
60	0xbd5fba94	-0.054621294
61	0xbc6ef6a9	-0.014585176
62	0x3b10f393	0.0022117838
63	0xbdbb47db	-0.09144565
64	0xbcb1b501	-0.021692755
65	0xbde8056c	-0.11329159
66	0x3cdaec31	0.026723953
67	0x3d2b3509	0.041798625
68	0xbdaa8315	-0.08325783
69	0x3d7651ef	0.06013673
70	0xbcd4ab0d	-0.02596047
71	0xbd26d471	-0.040729944
72	0x3b77010a	0.0037689828
73	0xbcac35d0	-0.021021754
74	0xbd36856c	-0.044560835
75	0xbdf8387d	-0.12120149
76	0xbd0543d8	-0.032535404
77	0x3d13c937	0.036080565
78	0xbc64d197	-0.013965986
79	0xbdd7eeaa	-0.105435684
80	0x3bf508a9	0.007477839
81	0x3c775e28	0.015098132
82	0xbd8af779	-0.06785483
83	0x3cc9d00d	0.02463534
84	0x3dd95747	0.1061235
85	0x3d043203	0.032274257
86	0xbcd59315	-0.02607111
87	0x3d9f1c10	0.07769024
88	0x3d11695f	0.03550088
89	0x3d93afae	0.072112426
90	0xbcfdbbbd	-0.03097331
91	0xbdea9d79	-0.11455817
92	0xbcb58aca	-0.022160906
93	0xbdd835d3	-0.10557141
94	0x3d344620	0.04401219
95	0x3d7b95d3	0.06142218
96	0xbcb5e3a8	-0.022203282
97	0xbd39cf8d	-0.04536395
98	0xbce0877f	-0.02740836
99	0xbac4ab95	-0.0015004749
100	0xbdafef8c	-0.08590612
101	0xbdeb6175	-0.11493198
102	0xbc3934c8	-0.011304088
103	0xbdcc556b	-0.0997723
104	0x3bfa1aea	0.007632603
105	0xbbbae88e	-0.005703992
106	0x3df2e89c	0.11860773
107	0x3d4e7afe	0.050410263
108	0x3c4a236d	0.012337548
109	0x3de17a3b	0.11009642
110	0xbc860238	-0.01635848
111	0xbce9620f	-0.02848914
112	0x3c52f550	0.01287587
113	0x3d165e21	0.036710862
114	0xbd24a340	-0.04019475
115	0xbc9a9afc	-0.01887273
116	0x3c2b7d11	0.01046683
117	0x3d7e7de0	0.062131763
118	0xbdd05288	-0.101719916
119	0xbbfb9ff5	-0.0076789805
120	0x3babd4c2	0.0052438686
121	0x3c16724a	0.009182522
122	0x3d44f139	0.04808161
123	0xbd2f267c	-0.04276131
124	0x3d63bc69	0.055599604
125	0xbd1ed173	-0.038773965
126	0x3dd705e1	0.10499168
127	0x3c5809bb	0.013185914
128	0xbcae79ea	-0.021298368
129	0xbdc62612	-0.0967523
130	0xbbf555cb	-0.007487034
131	0x3d6a75ae	0.057241134
132	0xbc2b835f	-0.010468333
133	0x3d7cc9c3	0.061715852
134	0xbc98f4f2	-0.018671487
135	0xbd1dfcab	-0.03857104
136	0x3dfa0218	0.122074306
137	0xbd0cc48c	-0.03436713
138	0xbca510df	-0.020149646
139	0x3d95bf27	0.0731185
140	0x3d878ff9	0.066192575
141	0x3d714a1f	0.058908578
142	0xbd85c543	-0.06531765
143	0x3d928980	0.07155132
144	0x3dc5613c	0.096376866
145	0x3dedf0f6	0.11618225
146	0x3e0434f7	0.1291083
147	0x3d4fe515	0.05075558
148	0x3d5a3a35	0.053278167
149	0x3e07b52f	0.1325271
150	0xbc6b4629	-0.014359989
151	0x3d2aca67	0.041696932
152	0x3ce17c3d	0.027525062
153	0x3e078a09	0.1323625
154	0xbd827b41	-0.06371165
155	0x3dfb5e32	0.12273826
156	0x3dd4b31f	0.10385727
157	0x3d4b8629	0.049688492
158	0x3c033ae7	0.008009649
159	0x3d23d80d	0.040000964
160	0x3da51032	0.0805973
161	0x3d945812	0.072433606
162	0x3de07d79	0.10961432
163	0x3cc33674	0.023829676
164	0xbdad114c	-0.08450565
165	0x3d798151	0.06091434
166	0x3d8da8f8	0.06916994
167	0xbdc552b3	-0.09634914
168	0xbd9b3083	-0.07577612
169	0x3bcf44b4	0.0063253287
170	0x3c244ea7	0.010028518
171	0x3dc5faa0	0.096669436
172	0x3d2d72a9	0.042345677
173	0xbd5dcc75	-0.054150064
174	0x3de57d3e	0.11205529
175	0xbcb104e6	-0.021608781
176	0xbce3ac9e	-0.027792271
177	0x3cb23338	0.021752939
178	0xbc2abc21	-0.01042083
179	0xbd7183eb	-0.058963697
180	0xbcd9ac6c	-0.026571475
181	0xbdf6624d	-0.12030468
182	0xbcb86ca0	-0.022512734
183	0xbcc29607	-0.02375318
184	0xbdde8cae	-0.10866676
185	0xbd8c6a3a	-0.068561986
186	0xbd329040	-0.0435946
187	0xbd2adcbb	-0.04171441
188	0x3e045e59	0.12926616
189	0x3cff2c4d	0.031149054
190	0x3d697a28	0.057001263
191	0x3d1a1c46	0.03762462
192	0xbcbf25e0	-0.02333349
193	0xbdc572c4	-0.096410304
194	0xbda6da3e	-0.08147095
195	0xbd4c84f0	-0.049931467
196	0x3db51291	0.08841432
197	0x3dd2a373	0.10285082
198	0x3de65a09	0.112476416
199	0xbc20e9e5	-0.00982139
200	0x3bf8cd97	0.0075928676
201	0x3d51104e	0.05104094
202	0x3c8b8b83	0.017034298
203	0x3db82876	0.08992092
204	0x3d87c8e0	0.06630111
205	0xbd175e63	-0.03695525
206	0x3d6678a0	0.05626738
207	0x3d05b9fc	0.03264807
208	0x3dd387ec	0.103286594
209	0x3dc939b9	0.09825463
210	0xbd48cde0	-0.049024463
211	0xbda77399	-0.081763454
212	0x3d1f040e	0.038822226
213	0xbd9437de	-0.07237218
214	0x3d175885	0.036949653
215	0xbc8a4bcd	-0.016881848
216	0xbc1cb3ee	-0.009564383
217	0xbc9e0c22	-0.019292895
218	0xbd4aa6e5	-0.04947557
219	0x3da9d1da	0.08291979
220	0x3cbc9675	0.023020962
221	0x3c8bfc57	0.017088098
222	0x3d754ce2	0.059887774
223	0x3bfa803f	0.0076446827
224	0x3da022a0	0.07819104
225	0x3ddcb2bd	0.10776279
226	0x3d9b5d25	0.07586125
227	0x3d984b58	0.07436246
228	0xbda560d3	-0.080751084
229	0x3cf9a389	0.030473487
230	0xbd4624aa	-0.04837481
231	0xbd396d2c	-0.04527013
232	0xbd856ad2	-0.06514515
233	0xbd6e13a0	-0.058124185
234	0xbd4302dd	-0.047610153
235	0x3d97ffdf	0.074218504
236	0x3dbddcf3	0.09270658
237	0x3d3456e2	0.04402817
238	0x3d5facfd	0.054608334
239	0xbc75747e	-0.014981387
240	0xbd9a6cda	-0.07540293
241	0xbd6d52ed	-0.057940412
242	0x3d99a12b	0.075014435
243	0x3d6eeaeb	0.058329504
244	0x3cec96be	0.028880473
245	0x3c521aac	0.012823742
246	0x3d6ed1f5	0.0583057
247	0xbdde0018	-0.10839862
248	0xbd9785eb	-0.0739859
249	0x3d4da7ef	0.050208982
250	0xbca16aee	-0.019704308
251	0x3bab5949	0.0052291495
252	0xba5c8a91	-0.0008412982
253	0xbdcb8ab9	-0.099385686
254	0x3dbc0569	0.091807194
255	0x3d8b191a	0.06791897

layers.0.Ah.conv2.bias f4 [16]
0	0xbc5af738	-0.013364606
1	0xbd877f4a	-0.06616075
2	0x3d1cca64	0.038278952
3	0x3db51420	0.08841729
4	0x3d9e2a34	0.07722893
5	0xbd4d1db5	-0.05007716
6	0xbd921ec2	-0.07134773
7	0xbb973fd9	-0.0046157655
8	0x3b48343b	0.003054871
9	0xbb54df17	-0.0032481605
10	0xbdf76041	-0.12078906
11	0x3ce8d472	0.028421614
12	0xbd05c303	-0.03265668
13	0x3d2e37ac	0.04253356
14	0xbdea63fc	-0.11444852
15	0xbdd4ebbc	-0.10396525

layers.0.Ah.conv3.weight f4 [1, 16, 3]
0	0xbe17cedf	-0.14825009
1	0xbc47a22a	-0.012184659
2	0xbdd070a1	-0.10177732
3	0x3ddcab1e	0.107748255
4	0x3c49493b	0.012285526
5	0x3cc106bf	0.023562787
6	0xbc9401b4	-0.018067218
7	0xbdc035b5	-0.09385244
8	0x3c04e030	0.008110091
9	0x3df9ce9a	0.12197609
10	0xbc3096ce	-0.010778142
11	0x3bac1bbe	0.0052523306
12	0xbdd65d71	-0.10467041
13	0x3db19c4b	0.08672389
14	0x3de5ac46	0.11214499
15	0x3e2419eb	0.16025512
16	0x3d77dce9	0.06051341
17	0x3ce5538c	0.02799394
18	0xbc92b37b	-0.017907849
19	0xbd8532ad	-0.06503806
20	0x3e0b5803	0.13607793
21	0xbcc8b007	-0.024497999
22	0xbc6b54c6	-0.014363473
23	0x3e18a476	0.14906487
24	0xbe2db4e6	-0.16963539
25	0x3d9a57f6	0.075363085
26	0xbdd0ae58	-0.101895034
27	0xbc0f1223	-0.0087323515
28	0xbe014972	-0.12625673
29	0x3cd9ab40	0.026570916
30	0xbe3190fe	-0.17340466
31	0xbdb7ea36	-0.08980219
32	0x3dc7f8e4	0.09764269
33	0x3dbb434b	0.091436945
34	0xbc1ee5c9	-0.00969834
35	0x3d6ba6b4	0.057532027
36	0x3e115cc4	0.14195544
37	0x3dc863d0	0.09784663
38	0xbdafa88e	-0.08577071
39	0x3da89168	0.08230859
40	0x3d72853e	0.0592091
41	0x3c975bd5	0.018476406
42	0xbd9bb12f	-0.076021545
43	0xbcc81630	-0.024424642
44	0xbdcdcb1e	-0.10048507
45	0x3cb9003e	0.022583123
46	0xbe1a82a6	-0.15088901
47	0xbda3bf30	-0.079954505

layers.1.Aw.conv1.weight f4 [32, 1, 5]
0	0xbe8740db	-0.26416668
1	0xbd42a2fd	-0.04751872
2	0xbd3c7361	-0.04600847
3	0x3ec077dc	0.37591445
4	0x3edd9430	0.4327712
5	0x3dcd7080	0.10031223
6	0xbea9a098	-0.33130336
7	0x3e147149	0.1449634
8	0xbe7801ec	-0.24219483
9	0xbe9f7f0a	-0.3115161
10	0x3ebfa313	0.37429103
11	0x3e3a108d	0.18170376
12	0xbe97e0a9	-0.2966359
13	0x3eba8b18	0.36434245
14	0x3e41508e	0.18878385
15	0x3dc5d06e	0.096588954
16	0xbe8eef0d	-0.27916756
17	0x3d49c8ef	0.04926389
18	0x3e268499	0.1626152
19	0x3e6d5f5e	0.23180911
20	0x3e9ad427	0.30239984
21	0x3ee06629	0.43827942
22	0xbeda6c6f	-0.42660853
23	0xbdaf6d76	-0.085658
24	0x3ee27afb	0.44234452
25	0xbd94a2e3	-0.07257631
26	0x3e863b9e	0.2621736
27	0x3e49e5e4	0.19716603
28	0x3de26cdd	0.1105592
29	0x3eb3ed85	0.3514215
30	0x3e6f0bbf	0.23344325
31	0x3e0428ca	0.12906185
32	0x3e1e9853	0.15487795
33	0x3e6f8c77	0.23393427
34	0xbdc24596	-0.09485929
35	0xbe89e82d	-0.2693495
36	0xbe26cb8e	-0.16288587
37	0xbeccf03b	-0.4002703
38	0xbe434975	-0.1907099
39	0x3ea07dae	0.31345886
40	0x3e47f2bb	0.19526188
41	0x3e87fe12	0.26561028
42	0x3e9ab717	0.3021781
43	0xbd39ef52	-0.04539425
44	0x3d3eb8d3	0.04656298
45	0x3df6f644	0.1205869
46	0xbeb68749	-0.3565009
47	0x3dc7b2fe	0.09750937
48	0x3e645b6c	0.223005
49	0xbea12df5	-0.31480375
50	0xbec8e838	-0.3923967
51	0xbea2bf49	-0.31786564
52	0x3e7b36e7	0.24532662
53	0xbeb144af	-0.34622714
54	0xbecb3874	-0.39691508
55	0xbe52a5cd	-0.2057106
56	0x3d92e652	0.07172836
57	0xbea9355f	-0.3304853
58	0x3e17c9d1	0.1482308
59	0x3e8ba0ad	0.27271023
60	0xbe8c06bf	-0.27348897
61	0xbe0211d8	-0.1270212
62	0x3dc68257	0.09692829
63	0x3ec0b9e8	0.37641835
64	0xbda7d3dc	-0.08194706
65	0xbdfed14a	-0.124422625
66	0xbe4c0fd9	-0.1992792
67	0x3d0d694d	0.03452425
68	0xbd68097e	-0.056649677
69	0x3ccec64a	0.025241036
70	0xbec1f7a0	-0.37884235
71	0x3d05d602	0.032674797
72	0x3dac2aec	0.08406624
73	0xbe3aa397	-0.18226467
74	0xbed643b7	-0.41848537
75	0xbd055e86	-0.032560848
76	0x3e3b2ad3	0.18278055
77	0xbe59fbbc	-0.21287435
78	0x3e188952	0.14896134
79	0xbed77e7c	-0.42088687
80	0x3df7027d	0.120610215
81	0xbe8399e1	-0.25703338
82	0xbe9d349f	-0.3070421
83	0x3ea57797	0.32317802
84	0x3d4af669	0.0495514
85	0xbe695712	-0.22787121
86	0x3e6f9111	0.23395182
87	0xbdc8d7d2	-0.098067895
88	0xbe502719	-0.20327415
89	0xbe59d8e0	-0.21274137
90	0x3db7add3	0.08968701
91	0x3ed1499f	0.4087648
92	0xbe2728c4	-0.16324145
93	0x3e8c86c9	0.27446583
94	0xbea4693c	-0.32111537
95	0xbc5d04d7	-0.013489923
96	0xbea20015	-0.31640688
97	0xbe740111	-0.23828532
98	0x3df2ae48	0.11849648
99	0x3e8fb6c2	0.2806912
100	0x3df3a6a9	0.11897022
101	0xbe9efaa8	-0.3105061
102	0xbec3a4d4	-0.3821169
103	0xbe029a38	-0.12754142
104	0x3eba54d6	0.3639285
105	0xbea06fdd	-0.31335345
106	0xbecefbb2	-0.40426403
107	0xbe3581e1	-0.17725326
108	0x3e6f7e16	0.23387942
109	0xbd942814	-0.07234207
110	0x3eb8932c	0.36049783
111	0xbd8d0ca0	-0.06887174
112	0x3e9cc48d	0.30618706
113	0x3e1ce3cc	0.15321273
114	0x3e86960b	0.2628635
115	0x3ea05ad7	0.31319305
116	0xbecaf7b8	-0.3964212
117	0xbec081fb	-0.37599167
118	0x3e699be5	0.22813375
119	0x3ecc945f	0.39956948
120	0xbe9ee0ae	-0.31030792
121	0x3e1123d0	0.14173818
122	0xbd7af265	-0.06126632
123	0x3ed8e2cb	0.4236053
124	0xbeb27e77	-0.3486211
125	0xbcb84390	-0.022493154
126	0x3e0e0a80	0.13871193
127	0xbe170505	-0.14748009
128	0xbd9e6466	-0.07733993
129	0xbecc9393	-0.3995634
130	0xbee11f5a	-0.43969232
131	0xbebe1e2d	-0.37132397
132	0x3ea447fd	0.32086173
133	0x3e84686b	0.25860915
134	0xbdc40e31	-0.09573019
135	0xbd9fdc4b	-0.078056894
136	0xbe06cf8d	-0.13165112
137	0xbda6d97b	-0.0814695
138	0x3e7c1105	0.24615867
139	0x3e6d62bd	0.23182197
140	0xbe629110	-0.2212565
141	0x3e8b0440	0.2715168
142	0xbd9b478c	-0.07582006
143	0xbcb13f54	-0.021636643
144	0xbe9ba26d	-0.3039736
145	0x3e1ed16a	0.15509573
146	0xbdad9aac	-0.08476767
147	0xbeb99830	-0.36248922
148	0xbe24decb	-0.16100614
149	0xbeb6ffa0	-0.357419
150	0x3c76dc9b	0.015067245
151	0xbedb05c9	-0.4277785
152	0x3ec15cbd	0.37766066
153	0x3eaf25c5	0.34208503
154	0x3defcefa	0.117093995
155	0x3eb50368	0.3535416
156	0x3ec6b113	0.38806972
157	0xbdcb4ba5	-0.099265374
158	0xbead1e3c	-0.3381213
159	0x3e8e3a6e	0.27778953

layers.1.Aw.conv1.bias f4 [32]
0	0x3ea47d7b	0.32126984
1	0x3dc173f6	0.09445946
2	0xbe8afefa	-0.27147657
3	0xbed95237	-0.42445537
4	0x3dd612c3	0.10452797
5	0xbe300c8a	-0.17192283
6	0x3e4f958b	0.2027189
7	0xbe006beb	-0.12541167
8	0x3ee5f558	0.44913745
9	0xbe504daf	-0.20342134
10	0xbe48f40f	-0.19624351
11	0x3ed9fc8f	0.425755
12	0xbe1032a6	-0.14081821
13	0xbe3f8060	-0.18701315
14	0x3eeb5b31	0.4596801
15	0xbc79b8b3	-0.01524179
16	0xbec50881	-0.3848305
17	0x3e9c61d2	0.3054338
18	0x3de89b7c	0.11357781
19	0xbe5aa99d	-0.21353765
20	0x3d890761	0.066908605
21	0x3ebfbbe8	0.3744805
22	0x3d3b9363	0.045794856
23	0xbe711524	-0.23543221
24	0xbed3b27a	-0.41347104
25	0xbd9fc6ea	-0.07801612
26	0xbdede7d6	-0.11616485
27	0x3e59d9ec	0.21274537
28	0xbed9bec8	-0.42528367
29	0x3e667a52	0.22507599
30	0xbec58ea5	-0.38585392
31	0x3ebce0b9	0.368902

layers.1.Aw.conv2.weight f4 [16, 32, 3]
0	0xbcdf5810	-0.027263671
1	0x3bc38961	0.0059673046
2	0x3a989d56	0.001164357
3	0x3c2f8f74	0.010715354
4	0xbdca12c3	-0.0986686
5	0xbcc4d8b0	-0.024029106
6	0x3d064c1c	0.032787427
7	0xbd15f0a7	-0.036606457
8	0x3dd51da8	0.10406047
9	0x3bb99d40	0.0056644976
10	0x3dbe6b01	0.09297753
11	0x3db8ad0b	0.0901738
12	0xbd053012	-0.032516547
13	0x3d1254e5	0.035725493
14	0x3cf4cece	0.029883768
15	0xbd1d308a	-0.03837637
16	0xbcf0e6ea	-0.029406983
17	0xbdb62c5c	-0.0889518
18	0x3d5761c8	0.052583486
19	0xbd4041cb	-0.046937745
20	0xbd653a82	-0.055964
21	0x3dc56786	0.09638886
22	0x3dc61286	0.09671502
23	0xbcf254e9	-0.029581504
24	0xbd4808b4	-0.048836425
25	0x3c31e22b	0.010857145
26	0xbdab7465	-0.0837181
27	0xbd98ea35	-0.074665464
28	0x3d6e34a5	0.058155674
29	0xbd5e3294	-0.054247454
30	0x3d1b89fd	0.037973393
31	0x3c00783c	0.007841166
32	0xbdc93bae	-0.09825836
33	0x3d649012	0.05580146
34	0x3d47023e	0.048586123
35	0xbca5881f	-0.02020651
36	0x3d11552d	0.03548162
37	0xbdb60828	-0.088882744
38	0xbd3eddff	-0.04659843
39	0x3d47ce97	0.048781004
40	0x3d1f34fd	0.038868893
41	0x3d98fe41	0.0747037
42	0xbd5fe7d1	-0.054664437
43	0xbd578ea0	-0.052626252
44	0xbba3aa93	-0.0049946993
45	0x3a7e550b	0.00097020034
46	0x3c740018	0.0148926005
47	0xbd8fffe8	-0.07031232
48	0x3c78193a	0.015142733
49	0x3c28a7b9	0.010293894
50	0xbd8ee349	-0.06976945
51	0xbc96f5e3	-0.018427795
52	0x3b919b28	0.004443545
53	0xb9d5a70b	-0.00040750983
54	0x3d4d4efd	0.050124157
55	0xbc788a78	-0.015169732
56	0xbbdf7625	-0.006819504
57	0xbda3248c	-0.07965955
58	0x3b4c8f8e	0.0031213495
59	0xbc662376	-0.0140465405
60	0x3d2dcf72	0.042434163
61	0x3c9be03d	0.019027824
62	0x3dca49d9	0.098773666
63	0xbcc84d54	-0.024450935
64	0xbb975ce5	-0.004619228
65	0xbdaf7715	-0.08567635
66	0xbbed8dad	-0.007249555
67	0x3ac318fc	0.0014884765
68	0x3c72d5b1	0.014821456
69	0xbce3955e	-0.027781185
70	0xbcfd03db	-0.030885627
71	0x3d7cf5b1	0.061757747
72	0x3d9fdffa	0.07806392
73	0x3c03e788	0.008050807
74	0x3dcee5e2	0.101024404
75	0xbd2c04a7	-0.041996624
76	0xbd0b5c3e	-0.034023516
77	0x3b393d9b	0.002826548
78	0x3ce5b317	0.028039498
79	0xbdaff797	-0.08592146
80	0x3dd87d35	0.10570756
81	0xbdb88c91	-0.09011186
82	0xbba06ba6	-0.004895645
83	0x3c8785c7	0.016543282
84	0xbc7f9920	-0.015600473
85	0xbcde7087	-0.027153267
86	0x3cbf1bee	0.023328748
87	0x3c551510	0.01300551
88	0x3c9bda31	0.01902494
89	0x3d305e25	0.043058533
90	0x3da8fe49	0.08251626
91	0x3d72b94a	0.059258737
92	0x3dbc5eb0	0.09197748
93	0xbda57d3f	-0.080805294
94	0x3d1dcfd8	0.038528293
95	0x3dbd698e	0.092486486
96	0xbd818c60	-0.063256025
97	0xbdb9d16d	-0.09073148
98	0xbd517e99	-0.051146124
99	0xbd5f9874	-0.05458875
100	0x3db681c4	0.089114696
101	0xbc931ca5	-0.017957995
102	0x3d3ecd0c	0.046582267
103	0xbd4b03cb	-0.049564164
104	0xbd921fa7	-0.071349435
105	0x3d2111f9	0.03932378
106	0x3c08ef0d	0.008357775
107	0x3dba7029	0.09103424
108	0x3da34973	0.07972994
109	0x3d134a7e	0.035959713
110	0x3cd33db1	0.025786253
111	0xbd48cab5	-0.04902144
112	0xbdc35dcb	-0.09539374
113	0xbd1903fc	-0.037357315
114	0xbd34deb3	-0.044157695
115	0x3db3714d	0.08761845
116	0x3d474849	0.04865292
117	0x3d564fc2	0.052322157
118	0xbdd4e8ea	-0.10395987
119	0x3d335a12	0.04378707
120	0xbd906de8	-0.07052213
121	0x3d18e2eb	0.03732578
122	0xbdc26c46	-0.09493308
123	0x3d1cb78b	0.038260978
124	0xbdb4bd16	-0.08825128
125	0xbceaeac9	-0.028676407
126	0xbc399a4a	-0.011328289
127	0xbc504818	-0.012712501
128	0x3d91f76b	0.07127269
129	0x3d5cff7e	0.053954594
130	0x3cd71019	0.026252793
131	0x3d11c4fa	0.035588242
132	0x3d301bf0	0.042995393
133	0xbdd29edf	-0.102842085
134	0x3bc43e3d	0.0059888647
135	0xbd958c21	-0.07302118
136	0xbcdaef47	-0.026725424
137	0x3d17587a	0.036949612
138	0x3d868d43	0.06569912
139	0x3dc52471	0.09626091
140	0xbd7ea4d3	-0.062168907
141	0x3d437cc5	0.04772641
142	0x3b74d308	0.003735723
143	0x3db5bbdd	0.08873723
144	0x3d6fa253	0.058504414
145	0x3c41d6a2	0.011830958
146	0xbd5d3cef	-0.05401319
147	0xbd15a660	-0.03653562
148	0x3c00e633	0.007867384
149	0x3cb013c3	0.021493798
150	0x3cac7812	0.021053348
151	0xbc37d319	-0.011219763
152	0xbc811deb	-0.015761336
153	0x3c3b1d9e	0.0114206355
154	0x3d850ed8	0.06496972
155	0xbdc66135	-0.096865095
156	0x3d141e6c	0.036161825
157	0xbdc2897b	-0.094988786
158	0xbca3a0c4	-0.01997412
159	0xbc36d6f3	-0.011159646
160	0xbc85f4d3	-0.016352093
161	0xbd4e63b6	-0.05038806
162	0x3abc2e6b	0.0014357095
163	0x3d7d62e5	0.06186189
164	0x3ce7096f	0.02820274
165	0x3d50ab7d	0.050944794
166	0xbda2243f	-0.0791707
167	0xbd64bf85	-0.05584671
168	0xbd614c48	-0.055004388
169	0x3da996b0	0.082806945
170	0xbd64cc7b	-0.05585907
171	0xbc2c588b	-0.010519157
172	0xbd41549a	-0.047199823
173	0x3d52bfa4	0.051452294
174	0x3d9643f9	0.073371835
175	0x3d5e960b	0.05434231
176	0xbd569775	-0.052390534
177	0x3d6044cc	0.05475311
178	0x3d4cfe1f	0.050047036
179	0x3d85fb4a	0.0654207
180	0xbd76d4ca	-0.060261525
181	0xbdb7be69	-0.08971865
182	0x3db3a6a7	0.08772021
183	0x3cac2fb8	0.021018848
184	0x3ddbaf8d	0.10726843
185	0xbdb38745	-0.08766035
186	0x3d6ab889	0.057304893
187	0x3d6fd535	0.05855294
188	0xbd542aed	-0.05179875
189	0xbdbc1d5e	-0.09185289
190	0x3cbef336	0.023309331
191	0x3d86f8da	0.065904334
192	0x3d2853e5	0.041095633
193	0xbd0c659b	-0.034276586
194	0x3d759cd2	0.05996401
195	0x3caacc58	0.020849392
196	0xbd8639c9	-0.065539904
197	0x3be84896	0.007088731
198	0xbabb48a0	-0.0014288612
199	0xbdce2721	-0.10066057
200	0xbc13e9f7	-0.00902795
201	0xbdda964c	-0.10673198
202	0x3cccb3ea	0.024988133
203	0xbd439c40	-0.047756433
204	0x3d96fe1e	0.07372688
205	0xbd687f39	-0.056761954
206	0xb8997a53	-7.318393e-05
207	0xbdc8829e	-0.09790538
208	0x3b830223	0.0039980575
209	0xbdced628	-0.10099441
210	0x3c68f173	0.014217722
211	0x3b7b0777	0.003830401
212	0x3d58bdc1	0.05291534
213	0x3d2ec840	0.042671442
214	0x3d8a71fd	0.06760023
215	0xbc99e1e9	-0.01878448
216	0xbda949b9	-0.082660146
217	0x3dae36c1	0.08506537
218	0x3cb4c59c	0.022066884
219	0x3d705e25	0.058683533
220	0x3d2332e1	0.039843444
221	0xbd2f368e	-0.042776637
222	0x3d6354f3	0.055500936
223	0x3d9f3397	0.07773512
224	0xbd8bd1be	-0.068271145
225	0x3dce038c	0.1005927
226	0xbc06b61e	-0.008222131
227	0x3d89cb3d	0.06728218
228	0x3db408ac	0.087907165
229	0x3d33afbb	0.04386876
230	0x3da4c9d2	0.08046307
231	0xbd96603a	-0.073425725
232	0xbc1082e6	-0.008820271
233	0xbd1251ae	-0.035722427
234	0xbcc65db7	-0.024214609
235	0x3d3f7301	0.046740536
236	0x3dd41f54	0.10357538
237	0x3c1b97bf	0.009496628
238	0x3dab3d26	0.083612725
239	0x3cc77cae	0.024351444
240	0x3d41183d	0.047142256
241	0xbdbf94f3	-0.09354582
242	0xbd09ca81	-0.03364039
243	0x3d9ce223	0.0766032
244	0x3d2a3850	0.04155761
245	0x3daf5278	0.085606515
246	0x3cb6d81c	0.022319846
247	0x3dd202c5	0.102544345
248	0xbd2a006c	-0.04150431
249	0xbdce0450	-0.10059416
250	0xbd77ef63	-0.06053103
251	0xbab3f48a	-0.0013729495
252	0xbd781d0c	-0.060574576
253	0xbd87dcbe	-0.066339
254	0x3db57ee7	0.08862095
255	0x3c34654f	0.011010482

layers.1.Aw.conv2.bias f4 [16]
0	0x3ccb6363	0.024827665
1	0xbd1e7b7d	-0.038691986
2	0xbc0c28d6	-0.008554658
3	0x3d813c52	0.06310333
4	0x3d846647	0.0646482
5	0x3da600a3	0.0810559
6	0x3d87e09a	0.06634636
7	0x3dc5ec7b	0.09664246
8	0x3cb3b132	0.02193508
9	0x3d17395f	0.036919948
10	0xbca4091f	-0.02002388
11	0x3d32a723	0.043616425
12	0xbda1f0f9	-0.0790729
13	0x3c69bd9b	0.014266397
14	0x3dd05840	0.10173082
15	0x3c748639	0.014924579

layers.1.Aw.conv3.weight f4 [1, 16, 3]
0	0xbddae0d4	-0.10687414
1	0x3da7afbd	0.08187816
2	0xbda8b420	-0.08237481
3	0x3decb9bc	0.115588635
4	0xbdd0c782	-0.10194303
5	0x3db89560	0.09012866
6	0x3d9f4e21	0.07778574
7	0xbc0bd03b	-0.008533533
8	0x3df96736	0.12177889
9	0xbda5a14e	-0.08087407
10	0x3d6fa04e	0.058502488
11	0xbcd1afea	-0.025596578
12	0x3d39b8c0	0.045342207
13	0xbcbf320d	-0.023339296
14	0xbd5a176d	-0.053244997
15	0x3dcac13c	0.09900138
16	0x3e0ce420	0.13758898
17	0x3da7ba91	0.081898816
18	0xbd72e6e1	-0.059302215
19	0xbde73985	-0.11290268
20	0xbe000cc6	-0.12504873
21	0x3daff5c2	0.085917965
22	0x3df7bb73	0.120963
23	0x3c67618e	0.01412238
24	0xbde7371f	-0.112898104
25	0x3e02ac4f	0.12761043
26	0xbd272907	-0.04081061
27	0x3d251458	0.040302604
28	0x3d03e55e	0.032201163
29	0x3e12cc35	0.14335711
30	0xbc98e843	-0.018665439
31	0x3e0230f4	0.12713987
32	0x3d6b101a	0.057388403
33	0x3d832bd8	0.06404847
34	0x3e02f59e	0.12789008
35	0x3e014392	0.12623432
36	0xbdc035f9	-0.093852945
37	0x3e149405	0.1450959
38	0x3d377109	0.044785533
39	0xbdeafe80	-0.11474323
40	0xbd837415	-0.06418625
41	0x3d8ad6b7	0.06779235
42	0x3d9f6434	0.07782784
43	0xbd600f01	-0.05470181
44	0x3e110e13	0.14165525
45	0x3e0c86d6	0.13723311
46	0x3d4da4bb	0.050205927
47	0x3dde5ecd	0.108579256

layers.1.Ah.conv1.weight f4 [32, 1, 5]
0	0xbec2ffeb	-0.38085875
1	0x3e8e163d	0.2775134
2	0x3d11e034	0.035614207
3	0x3d579ba0	0.05263865
4	0x3dbb532f	0.091467254
5	0x3e80662c	0.2507795
6	0xbe58f465	-0.21186979
7	0xbd871420	-0.065956354
8	0xbecf0835	-0.4043595
9	0xbe0eaf8e	-0.13934156
10	0xbea18f5c	-0.31554687
11	0x3eceb77e	0.40374368
12	0x3e229649	0.15877642
13	0xbe8c7221	-0.27430823
14	0x3e7c6b2d	0.2465026
15	0x3e64fe5f	0.2236266
16	0x3c43fec3	0.011962595
17	0x3eadf278	0.3397405
18	0xbe7e8b94	-0.24857932
19	0xbe3ed23d	-0.18634887
20	0xbe91b8c0	-0.28461266
21	0xbe16b886	-0.14718828
22	0x3ca89df4	0.02058313
23	0x3e8ae4d3	0.27127704
24	0xbeb056e3	-0.3444129
25	0x3e6b99b7	0.23007856
26	0x3eca11d5	0.3946673
27	0x3da7d1ad	0.08194289
28	0x3eb39480	0.35074234
29	0xbe122837	-0.14273153
30	0x3eecb67b	0.46232972
31	0xbcebe85a	-0.028797317
32	0xbea0d8e5	-0.31415477
33	0xbdd0f029	-0.10202057
34	0xbe136bc6	-0.14396581
35	0xbe4f116b	-0.20221488
36	0xbed5ac9e	-0.4173326
37	0xbe48a00a	-0.195923
38	0xbed8dfc3	-0.42358217
39	0x3e1d1b7a	0.15342513
40	0x3d890b9a	0.06691666
41	0x3db91ac9	0.09038312
42	0xbed9b8e5	-0.42523876
43	0xbe587d2a	-0.21141496
44	0x3ed88f40	0.4229679
45	0xbcf053be	-0.029336806
46	0x3da9ecdc	0.082971305
47	0x3ede5b1e	0.43428892
48	0xbdc456bd	-0.095868565
49	0x3d6b607a	0.057465054
50	0x3eaa2368	0.33230138
51	0x3dda24c8	0.10651547
52	0x3ea00ac3	0.3125821
53	0xbea5e1fb	-0.32398972
54	0xbe82d7aa	-0.25555164
55	0x3d849499	0.06473655
56	0x3d1ad593	0.037801336
57	0x3e79ef8c	0.24407786
58	0x3ea56675	0.3230473
59	0x3e259a20	0.16172075
60	0xbd412b9b	-0.047160726
61	0xbebdf3f4	-0.37100184
62	0x3e87a406	0.26492327
63	0x3d344ad7	0.044016685
64	0xbd3af8fc	-0.045647606
65	0x3edd95a6	0.43278235
66	0x3df6195f	0.12016558
67	0xbeacec22	-0.33773905
68	0x3eab17b0	0.3341651
69	0xbc81b6d1	-0.015834244
70	0x3e9adf98	0.30248713
71	0x3ea3f3f3	0.32022056
72	0x3dfc0975	0.12306491
73	0x3ed0d5c2	0.40788084
74	0xbe948026	-0.2900402
75	0x3dd9c87d	0.10633943
76	0xbdd5bb1d	-0.1043608
77	0xbccfaca7	-0.025350882
78	0x3edb8512	0.42874962
79	0x3e3f6c3d	0.18693633
80	0xbddc74c8	-0.10764462
81	0x3dfd54f4	0.12369719
82	0x3eda69f4	0.4265896
83	0xbe7b53d6	-0.245437
84	0xbe5ee778	-0.21767986
85	0xbe843d0b	-0.25827822
86	0x3dd883c3	0.105720066
87	0xbea8385c	-0.328555
88	0x3cb13d47	0.021635665
89	0xbe7307a8	-0.2373339
90	0xbe958652	-0.2920404
91	0x3da6fe5d	0.08153985
92	0xbbedfeb9	-0.0072630313
93	0xbdc4449c	-0.09583399
94	0xbe7ab86c	-0.24484414
95	0xbe6bfcff	-0.23045729
96	0xbd475af7	-0.048670735
97	0x3e2e4c21	0.17021228
98	0xbdd6dbb6	-0.10491125
99	0xbe54b1cf	-0.20770954
100	0xbecdae0c	-0.4017185
101	0x3e9b7e27	0.30369684
102	0xbdbd267d	-0.09235857
103	0x3ec1d343	0.37856492
104	0xbceb1885	-0.028698215
105	0x3ec19152	0.37806183
106	0x3e35f554	0.17769367
107	0x3db8133f	0.08988046
108	0x3caa7c94	0.020811357
109	0x3d15161f	0.03639805
110	0x3dae77a1	0.08518911
111	0x3edc64bc	0.43045604
112	0x3eaf480c	0.34234655
113	0xbe4e612d	-0.20154257
114	0x3d7b020e	0.061281256
115	0xbeaa0b93	-0.33211955
116	0xbe2a336d	-0.1662118
117	0x3dd1fa8f	0.102528684
118	0x3c314790	0.0108202845
119	0xbdb31886	-0.08744912
120	0xbee92506	-0.4553606
121	0xbe4f45f7	-0.20241533
122	0xbe8621f3	-0.26197776
123	0xbeb765b2	-0.35819775
124	0xbe0e310d	-0.13885899
125	0x3ee22a3d	0.4417285
126	0xbeb7af2b	-0.3587583
127	0x3e6341b4	0.22193033
128	0xbed14f1b	-0.40880665
129	0x3e4d0423	0.2002111
130	0xbeab6991	-0.33478978
131	0x3e609afe	0.21934125
132	0x3c962c9f	0.018331824
133	0xbecf2bbe	-0.4046306
134	0x3e0d1e4c	0.13781089
135	0x3e6cbd3a	0.23119059
136	0xbdc496c8	-0.09599072
137	0x3dd48bb5	0.103782095
138	0xbec2f07f	-0.3807411
139	0xbd0a33a3	-0.03374065
140	0x3dc85d75	0.097834505
141	0xbe876309	-0.26442745
142	0xbee833da	-0.4535206
143	0x3e8f044e	0.27932972
144	0x3d9b3e42	0.07580234
145	0x3ec2fab1	0.38081887
146	0x3e9584fa	0.29203016
147	0xbda0e9ed	-0.07857118
148	0xbe0ff74e	-0.14059183
149	0xbee20deb	-0.44151244
150	0xbec3b832	-0.38226467
151	0x3ea56a4e	0.32307667
152	0x3e242eee	0.16033527
153	0xbe091ff9	-0.13391103
154	0x3ec7fa33	0.39058074
155	0x3e17694f	0.14786266
156	0x3e542457	0.20716988
157	0x3d5267cd	0.051368523
158	0x3eabe2f8	0.335716
159	0x3d4b751c	0.04967223

layers.1.Ah.conv1.bias f4 [32]
0	0x3dec6c46	0.11544089
1	0xbeaf683a	-0.34259206
2	0xbe1c680e	-0.15274069
3	0x3e4541bd	0.19263358
4	0x3e55603e	0.20837495
5	0xbee2ca66	-0.44295043
6	0x3ea53e3e	0.3227405
7	0xbe286c4a	-0.16447559
8	0xbe3eddbe	-0.18639275
9	0xbecb764e	-0.39738697
10	0x3e3da58e	0.18520185
11	0xbe80959c	-0.25114143
12	0x3ead440d	0.3384098
13	0x3eab1f1d	0.33422175
14	0xbe134dea	-0.1438519
15	0x3d760638	0.060064524
16	0xbb23e4bf	-0.002500817
17	0x3de7d418	0.113197505
18	0x3e460d85	0.19341095
19	0x3e92423b	0.28566155
20	0x3ce10585	0.027468452
21	0x3ec4bc40	0.38424873
22	0xbd0bc0e7	-0.034119513
23	0xbed43173	-0.41443977
24	0xbe1f94d5	-0.15584119
25	0x3d46cefc	0.04853724
26	0x3eb46ce1	0.35239318
27	0xbda903f9	-0.08252711
28	0xbe607285	-0.21918686
29	0xbe278f5e	-0.16363284
30	0x3ee277e1	0.44232085
31	0x3ea0e0cf	0.31421515
