models/no_clip_10%_5.pt (torch, 78517 bytes, 120 tensors)

layers.0.Aw.conv1.weight f4 [32, 1, 5]
-0.32272893 -0.10980325 -0.09764172 0.32508576 0.38957116 0.06859259 -0.40328124 0.09868158
-0.2734761 -0.27553818 0.45670158 0.24562983 -0.18614207 0.5004018 0.3566189 0.14094251
-0.22529852 0.09453998 0.20056656 0.27009872 0.2602916 0.4005824 -0.4742786 -0.053478483
0.45743826 -0.019320395 0.32240042 0.26870367 0.16403756 0.35868657 0.16772507 0.07636439
0.08500674 0.27358034 -0.06742629 -0.39935407 -0.19648753 -0.28819117 -0.06441073 0.42993683
0.15840463 0.21175905 0.25280043 -0.104463845 0.0028214152 0.16055506 -0.30547652 0.13037726
0.25128525 -0.28522283 -0.39270207 -0.34391737 0.20676748 -0.37776974 -0.41917652 -0.24346629
0.021523017 -0.37946916 0.100431934 0.24960113 -0.3119196 -0.0104855355 0.21693237 0.512913
-0.0030649833 -0.10505204 -0.1641446 0.09722406 0.021270612 0.08031789 -0.40949714 -0.01345994
0.036235515 -0.22806177 -0.45522532 -0.02798831 0.30743 -0.13091698 0.40369806 -0.42195523
0.1619311 -0.2062473 -0.24662831 0.37002188 0.09147926 -0.26631173 0.18419445 -0.15219074
-0.24905641 -0.2537802 0.05347373 0.38229692 -0.21421108 0.23647194 -0.3682925 -0.06549731
-0.26221916 -0.09800135 0.2886764 0.43402427 0.10471936 -0.3214432 -0.49832442 -0.16736655
0.31561017 -0.34309608 -0.43600214 -0.23094214 0.18793583 -0.13275984 0.3888048 -0.03530612
0.35114965 0.18243708 0.29235926 0.24552788 -0.33290118 -0.22278203 0.38430014 0.5363012
-0.2760552 0.1807676 -0.03167337 0.4563939 -0.3203566 -0.039703965 0.1230248 -0.13105126
-0.029541003 -0.43062678 -0.48134696 -0.2659747 0.42252025 0.36927202 -0.03823308 -0.113565415
-0.20108221 -0.13295855 0.18207622 0.30784252 -0.2316314 0.26224074 -0.013185245 0.07138414
-0.2362038 0.15489708 -0.111494355 -0.38460094 -0.17093672 -0.36889735 0.072954066 -0.16967133
0.56813467 0.52845085 0.28706202 0.30028996 0.3073499 -0.26107687 -0.3498235 0.2971864
00000000: ba3c a5be 87e0 e0bd 62f8 c7bd a471 a63e
00000010: df75 c73e 467a 8c3d e17a cebe 9119 ca3d
00000020: 0f05 8cbe 5713 8dbe cad4 e93e 6386 7b3e
00000030: 079c 3ebe 551a 003f c196 b63e 3c53 103e
00000040: a8b4 66be 2d9e c13d 5261 4d3e 614a 8a3e
00000050: f144 853e 2319 cd3e a5d4 f2be 410c 5bbd
00000060: 5935 ea3e ce45 9ebc ab11 a53e 8793 893e
00000070: 76f9 273e c4a5 b73e 1fc0 2b3e ef64 9c3d
00000080: 0418 ae3d b912 8c3e cb16 8abd 2378 ccbe
00000090: 0734 49be cb8d 93be c6e9 83bd ae20 dc3e
000000a0: d334 223e 5dd7 583e 0f6f 813e 24f1 d5bd
000000b0: 7ee7 383b 8c68 243e 6b67 9cbe 9e81 053e
000000c0: 76a8 803e ba08 92be 3f10 c9be f015 b0be
000000d0: dbba 533e 096b c1be 4e9e d6be 3a4f 79be
000000e0: 0a51 b03c c849 c2be 42af cd3d 7097 7f3e
000000f0: edb3 9fbe 86cb 2bbc 8523 5e3e 444e 033f
00000100: e3dd 48bb 8625 d7bd 8615 28be 681d c73d
00000110: b53f ae3c b57d a43d 9ca9 d1be 1587 5cbc
00000120: b16b 143d 0689 69be 4b13 e9be be47 e5bc
00000130: 7767 9d3e 1a0f 06be 83b1 ce3e 840a d8be
00000140: 44d1 253e 7e32 53be 228c 7cbe 8273 bd3e
00000150: 7a59 bb3d 035a 88be 789d 3c3e e4d7 1bbe
00000160: a508 7fbe 7aef 81be 4507 5b3d 6cbc c33e
00000170: 265a 5bbe b325 723e d690 bcbe 7423 86bd
00000180: 9741 86be efb4 c8bd 65cd 933e 6e38 de3e
00000190: 1b77 d63d 3494 a4be 6124 ffbe 2362 2bbe
000001a0: a897 a13e 4aaa afbe ac3b dfbe 197c 6cbe
000001b0: 4072 403e 32f2 07be 6c11 c73e 269d 10bd
000001c0: e3c9 b33e c9d0 3a3e 1db0 953e a96b 7b3e
000001d0: 0672 aabe f920 64be fdc2 c43e 094b 093f
000001e0: 1b57 8dbe 241b 393e f0bb 01bd 76ac e93e
000001f0: c805 a4be a0a0 22bd 6df4 fb3d 4d32 06be
00000200: f9ff f1bc 1d7b dcbe 1c73 f6be d62d 88be
00000210: 9354 d83e 3911 bd3e 4a9a 1cbd fc94 e8bd
00000220: 7fe8 4dbe 4926 08be 3072 3a3e 899d 9d3e
00000230: c830 6dbe 6b44 863e ed06 58bc d931 923d
00000240: 69df 71be 579d 1e3e 2757 e4bd 6aea c4be
00000250: 090a 2fbe 1de0 bcbe f168 953d 52be 2dbe
00000260: 4671 113f 8e48 073f cbf9 923e 9bbf 993e
00000270: f75c 9d3e deab 85be 111c b3be d128 983e

layers.0.Aw.conv1.bias f4 [32]
0.30698782 0.10272663 -0.16503766 -0.3999732 0.07173646 -0.11695962 0.10938334 -0.025882684
0.43951905 -0.1873597 -0.1809286 0.41777098 -0.056341026 -0.14758702 0.45592558 0.0019815862
-0.368257 0.29943606 0.10543918 -0.08222554 0.042601332 0.37130147 0.026254524 -0.11022056
-0.3969058 -0.05146227 -0.04627307 0.19551125 -0.3183708 0.23076938 -0.20224606 0.2429143
00000000: 822d 9d3e 5762 d23d a2ff 28be 4ac9 ccbe
00000010: 91ea 923d 8688 efbd 5f04 e03d ec07 d4bc
00000020: a408 e13e 39db 3fbe 5945 39be 14e6 d53e
00000030: d9c5 66bd 0d21 17be 146f e93e 80dd 013b
00000040: 2e8c bcbe af4f 993e 7ff0 d73d dd65 a8bd
00000050: bc7e 2e3d 3a1b be3e ba13 d73c 51bb e1bd
00000060: 3d37 cbbe 1aca 52bd d588 3dbd 1a34 483e
00000070: 7f01 a3be cf4e 6c3e 9719 4fbe 87be 783e

layers.0.Aw.conv2.weight f4 [16, 32, 3]
-0.011725093 0.009775102 0.004667014 -0.049482863 -0.11863022 -0.05085581 0.15130521 0.07782749
0.21912372 0.024727983 0.118743084 0.106011346 -0.015379441 0.06961212 0.06596316 0.026197
0.06079073 0.007564787 0.073434375 -0.026888166 -0.033207275 0.18170485 0.23653255 -0.17130777
-0.034842126 0.029120367 -0.06982357 -0.06620559 0.044352636 -0.03734937 0.02124544 -0.017059727
-0.12711866 0.060035557 0.045759685 -0.017656963 0.13749143 -0.055123277 0.10984482 0.033753987
0.024021383 0.05472089 -0.052673914 -0.06422768 -0.0064730044 0.25420165 -0.059370816 0.14574039
0.011978695 0.020256473 -0.055169284 -0.015667036 -0.0031605088 0.005728744 0.09062948 -0.008132687
0.03533967 0.02856029 0.21704225 0.037729263 0.055550188 0.02226212 0.08031441 -0.028838947
-0.026971295 -0.09742442 0.016029982 0.05752614 0.04095262 0.1072468 0.15696688 0.10654138
0.110209495 -0.0058711716 0.125577 -0.058274556 -0.049400922 0.026008124 0.08442447 -0.0071565537
0.22394405 -0.081595 -0.0033981549 0.018129012 -0.0011082547 -0.019204346 0.023428233 -0.013504352
0.0005044691 0.04766691 0.09936938 0.29562795 0.24548374 -0.07571818 0.058610745 0.1065512
-0.07049744 -0.09592345 -0.05508844 -0.0330012 0.08803148 -0.0067775203 0.030160593 -0.054824293
-0.08391111 0.035670564 0.0026367977 0.08630377 0.066255055 0.025385782 0.0115312915 -0.043914553
-0.10594548 -0.048866462 -0.052874852 0.07959436 0.039722122 0.04247228 -0.13541219 0.07433602
-0.07573373 0.030460583 -0.100535706 0.04583476 -0.0905326 -0.032338675 -0.002766551 -0.0065038763
0.08139997 0.049262192 0.025528949 0.027346384 0.025646174 -0.09841651 -0.03739894 -0.06078751
-0.020366756 0.043586984 0.06388864 0.09397914 -0.061178066 -0.09365172 0.04653992 0.05280658
0.051019046 0.007348548 -0.05118053 -0.038647998 0.00922184 0.014408074 0.0033329304 -0.014597916
-0.027921405 0.009268841 0.016588202 -0.098495774 0.022605691 -0.09529762 -0.018478375 -0.011676491
-0.009676319 -0.051827133 -0.006332154 0.045307726 0.019604642 0.04737208 -0.103383146 -0.079765305
-0.048668712 0.08193693 -0.06524677 -0.004741307 -0.04074656 0.0526649 0.06736957 0.04640568
-0.07322719 0.04858986 0.04444447 0.06273934 -0.05948239 -0.08244604 0.09119351 0.026206918
0.10844957 -0.0901812 0.05807563 0.04285594 -0.065164484 -0.09553208 0.015889607 0.05478674
0.03372567 -0.034660216 0.06371862 0.04736431 -0.04901225 0.02197658 -0.11014547 -0.1994408
-0.11650591 -0.1100895 0.025402386 -0.04241297 0.069351465 -0.06522082 -0.015721655 -0.16314332
-0.068067886 -0.17121637 0.008360845 -0.0030265723 0.04553846 -0.04374775 0.023436151 0.037479248
-0.085108966 0.07926379 0.017048853 0.05973777 0.043842882 -0.036821175 0.06507317 0.08669911
-0.05722046 0.09994154 -0.0038955272 0.070918866 -0.03545819 -0.055108983 -0.05651234 -0.07137759
-0.0050679287 -0.028722571 -0.019506233 0.052509878 0.107657224 -0.07170511 0.10544933 -0.073793046
0.0489313 -0.091677584 -0.026993798 0.08185111 0.047296595 0.087120384 0.013647132 0.09644871
-0.058701716 -0.23541495 -0.19450352 -0.0088876905 -0.06396784 -0.058821253 0.10143303 0.01335008
00000000: 9b1a 40bc c027 203c c0ed 983b 8bae 4abd
00000010: 67f4 f2bd 2f4e 50bd c1ef 1a3e 0564 9f3d
00000020: f861 603e 5792 ca3c 932f f33d 7a1c d93d
00000030: 0dfa 7bbc cd90 8e3d b117 873d 179b d63c
00000040: b3ff 783d 08e2 f73b c364 963d 9244 dcbc
00000050: 5a04 08bd d610 3a3e 9735 723e 4e6b 2fbe
00000060: 9eb6 0ebd d68d ee3c a9ff 8ebd cc96 87bd
00000070: 1cab 353d a7fb 18bd eb0a ae3c d7c0 8bbc
00000080: 652b 02be d8e7 753d 826e 3b3d 56a5 90bc
00000090: 8eca 0c3e f2c8 61bd 52f6 e03d 9f41 0a3d
000000a0: 7ec8 c43c 0323 603d 9ac0 57bd cd89 83bd
000000b0: 7f1b d4bb b826 823e d02e 73bd f83c 153e
000000c0: 4a42 443c e7f0 a53c 30f9 61bd 2858 80bc
000000d0: 8a20 4fbb 30b8 bb3b f39b b93d f63e 05bc
000000e0: 54c0 103d 45f7 e93c 5340 5e3e 008a 1a3d
000000f0: 9888 633d 0d5f b63c e27b a43d a83f ecbc
00000100: e8f2 dcbc 7486 c7bd 4f51 833c 88a0 6b3d
00000110: efbd 273d 36a4 db3d edbb 203e 5e32 da3d
00000120: 84b5 e13d f562 c0bb 4297 003e 4db1 6ebd
00000130: 9f58 4abd fd0e d53c bde6 ac3d 8681 eabb
00000140: 9751 653e 481b a7bd 94b3 5ebb 4b83 943c
00000150: db42 91ba 6f52 9dbc 91ec bf3c 5c41 5dbc
00000160: 593e 043a 613e 433d 2c82 cb3d 8c5c 973e
00000170: 1760 7b3e 2212 9bbd d211 703d 8437 da3d
00000180: f660 90bd 8473 c4bd 6ba4 61bd 442c 07bd
00000190: d949 b43d f615 debb 5913 f73c 708f 60bd
000001a0: 97d9 abbd 4c1b 123d 20ce 2c3b 08c0 b03d
000001b0: bbb0 873d d8f5 cf3c beed 3c3c bfdf 33bd
000001c0: f2f9 d8bd 3328 48bd 4d93 58bd 5e02 a33d
000001d0: aab3 223d 6af7 2d3d 7ea9 0abe 7c3d 983d
000001e0: 491a 9bbd 7988 f93c aae5 cdbd 3bbd 3b3d
000001f0: 2869 b9bd 8f75 04bd 064f 35bb 781e d5bb
00000200: 07b5 a63d 27c7 493d 1622 d13c 8605 e03c
00000210: ed17 d23c 988e c9bd a22f 19bd 53fc 78bd
00000220: 2fd8 a6bc 4488 323d 0cd8 823d 2378 c03d
00000230: da95 7abd 79cc bfbd a5a0 3e3d b64b 583d
00000240: 59f9 503d 17cc f03b ada2 51bd 5d4d 1ebd
00000250: 3317 173c d80f 6c3c 4b6d 5a3b 192c 6fbc
00000260: 6ebb e4bc 56dc 173c fbe3 873c 27b8 c9bd
00000270: 922f b93c 662b c3bd f65f 97bc c14e 3fbc
00000280: 6c89 1ebc b048 54bd f57d cfbb 9894 393d
00000290: ea99 a03c 3a09 423d 8bba d3bd fe5b a3bd
000002a0: d858 47bd 8dce a73d 19a0 85bd f75c 9bbb
000002b0: dde5 26bd 26b7 573d 0ff9 893d e213 3e3d
000002c0: 23f8 95bd 2906 473d 680b 363d 7c7d 803d
000002d0: cea3 73bd 78d9 a8bd aac3 ba3d e4af d63c
000002e0: cf1a de3d ecb0 b8bd b6e0 6d3d b689 2f3d
000002f0: f574 85bd 53a6 c3bd ec2a 823c 1068 603d
00000300: ee23 0a3d dff7 0dbd e87e 823d 1401 423d
00000310: 12c1 48bd 3b08 b43c f393 e1bd 363a 4cbe
00000320: a79a eebd 9b76 e1bd aa18 d03c 39b9 2dbd
00000330: 2408 8e3d 7e92 85bd b3ca 80bc 0b0f 27be
00000340: 2d67 8bbd 5853 2fbe edfb 083c 7559 46bb
00000350: 8986 3a3d d730 33bd 2cfd bf3c d783 193d
00000360: 9c4d aebd 0e55 a23d 09aa 8b3c 98af 743d
00000370: 9894 333d cdd1 16bd 1545 853d 4e8f b13d
00000380: 0060 6abd 26ae cc3d 1a4c 7fbb e93d 913d
00000390: 9b3c 11bd f5b9 61bd 7c79 67bd 6a2e 92bd
000003a0: de10 a6bb 994b ebbc 89cb 9fbc 9914 573d
000003b0: 647b dc3d 21da 92bd d1f5 d73d cf20 97bd
000003c0: 306c 483d 75c1 bbbd 1922 ddbc 8ea1 a73d
000003d0: 13ba 413d 2c6c b23d 3898 5f3c e786 c53d
000003e0: 3671 70bd 9e10 71be ee2b 47be ad9d 11bc
000003f0: 9201 83bd 8eee 70bd 1fbc cf3d 4bba 5a3c

layers.0.Aw.conv2.bias f4 [16]
0.029595627 -0.04131957 -0.007539408 0.059600692 0.06895 0.08341924 0.06406511 0.09708816
0.052633997 0.037299395 -0.026133979 0.034447946 -0.07886359 0.0062453123 0.1018817 0.016715659
00000000: 8772 f23c b63e 29bd 230d f7bb db1f 743d
00000010: a835 8d3d b5d7 aa3d 9234 833d 28d6 c63d
00000020: bf96 573d 40c7 183d ed16 d6bc 4a19 0d3d
00000030: 3c83 a1bd 7aa5 cc3b 5aa7 d03d 47ef 883c

layers.0.Aw.conv3.weight f4 [1, 16, 3]
-0.090215504 0.07530336 -0.11190003 0.1049256 -0.119540185 0.069771096 0.08242183 -0.005781133
0.12275177 -0.11480519 0.062054418 -0.013891738 0.08078748 -0.06357251 -0.070760794 0.10655353
0.14608979 0.083666086 -0.07086362 -0.121769674 -0.079295345 0.08648209 0.11851669 0.009260278
-0.15983686 0.17541562 -0.012096495 0.042189095 0.03396521 0.14296353 -0.015815442 0.12743862
0.04954098 0.05701468 0.11976976 0.11743308 -0.099739075 0.14815305 0.043363728 -0.10607205
-0.060601916 0.07113336 0.08248187 -0.052196465 0.14114289 0.1404525 0.054163545 0.11023611
00000000: e8c2 b8bd a638 9a3d d82b e5bd 3ce3 d63d
00000010: 7cd1 f4bd 26e4 8e3d c7cc a83d a96f bdbb
00000020: 4865 fb3d fc1e ebbd c62c 7e3d 2c9a 63bc
00000030: e873 a53d 4e32 82bd 09eb 90bd bd38 da3d
00000040: 9098 153e 2059 ab3d f220 91bd 6162 f9bd
00000050: 9965 a2bd 861d b13d e1b8 f23d 6cb8 173c
00000060: 46ac 23be 27a0 333e 6130 46bc 79ce 2c3d
00000070: 1b1f 0b3d 0865 123e 638f 81bc 457f 023e
00000080: 7ceb 4a3d 3a88 693d d949 f53d c180 f03d
00000090: 0044 ccbd 6fb5 173e 2a9e 313d 4e3c d9bd
000000a0: b739 78bd 5eae 913d 41ec a83d f6cb 55bd
000000b0: c387 103e c8d2 0f3e 98da 5d3d 78c3 e13d

layers.0.Ah.conv1.weight f4 [32, 1, 5]
-0.39023647 0.26692092 0.02563059 0.044074047 0.08317048 0.2578286 -0.20357408 -0.05876322
-0.39650533 -0.13279663 -0.2976191 0.41886848 0.17412353 -0.25802824 0.26073635 0.21449013
0.003823662 0.33119446 -0.254927 -0.1921399 -0.26448947 -0.12292057 0.04741519 0.30275944
-0.30648333 0.2500783 0.41359413 0.1012051 0.3687555 -0.123457275 0.4511355 -0.03747178
-0.32155368 -0.10919073 -0.14990307 -0.19407628 -0.4090611 -0.18828239 -0.41535625 0.15862294
0.07763429 0.10055152 -0.41425133 -0.20285009 0.43275413 -0.021148348 0.090775706 0.44099954
-0.087537795 0.065281935 0.3240921 0.099474795 0.30554152 -0.32844245 -0.2595723 0.074800804
0.047059245 0.25180736 0.3297153 0.16830717 -0.057033174 -0.3789819 0.25577474 0.036150135
-0.05219081 0.42070517 0.1097541 -0.34571475 0.32406294 -0.024373235 0.31379876 0.3286781
0.12862633 0.40950817 -0.28834215 0.09880701 -0.11064909 -0.031138737 0.42210883 0.18171068
-0.10663365 0.12416134 0.4267264 -0.24485657 -0.2163884 -0.2585586 0.10269258 -0.3317937
0.014576908 -0.24344048 -0.26091018 0.11511127 0.02982118 -0.052834734 -0.1969153 -0.23409548
-0.05047515 0.1707329 -0.098839216 -0.19880332 -0.40754116 0.29582918 -0.0980727 0.37208453
-0.033613186 0.36947328 0.1701968 0.08302628 0.01510224 0.030798484 0.07866578 0.42325515
0.33462858 -0.20841554 0.052636616 -0.32146987 -0.15676664 0.11090916 0.019161914 -0.07919093
-0.44564834 -0.19423082 -0.25366467 -0.35057765 -0.13253917 0.4337669 -0.36371556 0.21567868
-0.4123362 0.19512028 -0.3488631 0.20528312 0.0071085477 -0.411919 0.12996519 0.23896602
-0.08854648 0.10958362 -0.37387386 -0.028312879 0.105578445 -0.2561329 -0.44516793 0.28451148
0.080829196 0.39294043 0.30502313 -0.06723195 -0.12918435 -0.43171522 -0.3891724 0.31468922
0.15253544 -0.13949375 0.38391802 0.13982014 0.19883081 0.0436164 0.32803357 0.043781884
00000000: 13cd c7be dca9 883e 3ef7 d13c fd86 343d
00000010: 4955 aa3d 1c02 843e b975 50be b4b1 70bd
00000020: bf02 cbbe d7fb 07be 8861 98be ee75 d63e
00000030: 704d 323e 471c 84be 3c7f 853e 4da3 5b3e
00000040: 6796 7a3b 5292 a93e cb85 82be 52c0 44be
00000050: 2a6b 87be c8bd fbbd 6e36 423d 4903 9b3e
00000060: 62eb 9cbe 430a 803e 9cc2 d33e 9f44 cf3d
00000070: 85cd bc3e 2bd7 fcbd 3bfb e63e 027c 19bd
00000080: afa2 a4be 649f dfbd 3180 19be efbb 46be
00000090: 7570 d1be 19cd 40be 93a9 d4be 0d6e 223e
000000a0: bafe 9e3d f5ed cd3d c018 d4be efb7 4fbe
000000b0: f391 dd3e 4d3f adbc 9de8 b93d b1ca e13e
000000c0: 0447 b3bd 89b2 853d 66ef a53e 71b9 cb3d
000000d0: f06f 9c3e 9c29 a8be a9e6 84be 2a31 993d
000000e0: 32c1 403d e5ec 803e 72d0 a83e b758 2c3e
000000f0: 9e9b 69bd ea09 c2be e8f4 823e 2a12 143d
00000100: 08c6 55bd ab66 d73e c2c6 e03d 8601 b1be
00000110: 94eb a53e 61aa c7bc 3baa a03e 7f48 a83e
00000120: 9fb6 033e 0eab d13e 95a1 93be 545b ca3d
00000130: fd9b e2bd aa16 ffbc a61e d83e 5d12 3a3e
00000140: be62 dabd 4d48 fe3d e27b da3e aebb 7abe
00000150: ec94 5dbe cb61 84be 7d50 d23d dde0 a9be
00000160: fcd3 6e3c 7648 79be 0596 85be 75bf eb3d
00000170: 8c4b f43c 3c69 58bd 2aa4 49be bab6 6fbe
00000180: 08bf 4ebd 9bd4 2e3e 376c cabd 1993 4bbe
00000190: 3ca9 d0be ec76 973e 57da c8bd dd81 be3e
000001a0: fbad 09bd 9a2b bd3e 1248 2e3e af09 aa3d
000001b0: 636f 773c 1a4d fc3c 861b a13d e6b4 d83e
000001c0: 7054 ab3e e26a 55be 7e99 573d b397 a4be
000001d0: 6f87 20be 5724 e33d 72f9 9c3c db2e a2bd
000001e0: 052c e4be 72e4 46be 56e0 81be ea7e b3be
000001f0: 59b8 07be b216 de3e ed38 babe dfda 5c3e
00000200: bb1d d3be 9ccd 473e 2f9e b2be bd35 523e
00000210: d2ee e83b 0ce7 d2be 9815 053e 82b3 743e
00000220: db57 b5bd 616d e03d 656c bfbe 69f0 e7bc
00000230: 8339 d83d da23 83be 0ded e3be 7dab 913e
00000240: c789 a53d 7d2f c93e fe2b 9c3e e8b0 89bd
00000250: e748 04be c709 ddbe 9b41 c7be f21e a13e
00000260: 4032 1c3e 73d7 0ebe e790 c43e 032d 0f3e
00000270: 4e9a 4b3e 1ca7 323d 04f4 a73e a254 333d

layers.0.Ah.conv1.bias f4 [32]
0.10618858 -0.33473703 -0.13042854 0.1779288 0.22013201 -0.4144431 0.31492826 -0.15081021
-0.16832335 -0.38628113 0.17712258 -0.25265372 0.32958224 0.3247189 -0.20046814 0.054133184
0.0016411735 0.11382797 0.2092517 0.28713346 0.020396985 0.37643 -0.061288282 -0.40241763
-0.14876832 0.04376218 0.34451446 -0.07489162 -0.21479017 -0.1417437 0.43354285 0.3006591
00000000: 6679 d93d a762 abbe 0f8f 05be f832 363e
00000010: 496a 613e e331 d4be 473e a13e fe6d 1abe
00000020: f55c 2cbe a4c6 c5be 9f5f 353e d45b 81be
00000030: 01bf a83e 8e41 a63e 8547 4dbe c2ba 5d3d
00000040: a51c d73a a41e e93d 1446 563e 2803 933e
00000050: 9417 a73c 6fbb c03e 6c09 7bbd af09 cebe
00000060: b956 18be f93f 333d 3364 b03e c760 99bd
00000070: f4f1 5bbe 4325 11be 54f9 dd3e fdef 993e

layers.0.Ah.conv2.weight f4 [16, 32, 3]
0.009516224 -0.076245196 -0.09188827 0.043024633 0.10333104 0.11690714 0.0243812 0.08894418
0.052009083 -0.07139528 -0.035062414 -0.0083543975 -0.06340048 -0.07389094 -0.056751247 0.09944445
0.05738158 0.10684294 -0.028652854 0.006732404 -0.033900738 -0.07977332 0.09867927 0.010568956
0.07601384 0.06662071 -0.0343483 -0.040082827 0.05287224 0.08243626 -0.11907058 -0.056656267
0.033102144 -0.0114942845 0.034866553 0.12847982 -0.023789965 0.014650546 -0.089483015 -0.03016582
0.0710603 -0.041875064 0.011105471 0.0864384 0.011780807 0.080993384 -0.09134203 -0.047705233
-0.027140198 -0.08627973 0.09057873 -0.03010584 0.061565645 0.076516524 0.047064796 0.0061267754
0.03736319 0.030452944 -0.004023447 -0.049032528 -0.05218106 -0.011352547 0.0030568105 -0.08709022
-0.017986579 -0.1096739 0.032951295 0.0470601 -0.078185834 0.05657328 -0.028960757 -0.04334636
-0.0013836501 -0.025500726 -0.048345692 -0.112359084 -0.02672873 0.044147637 -0.02519421 -0.11581015
-0.0012566488 0.012898677 -0.07099205 0.0238788 0.1015886 0.028651774 -0.02960118 0.068343155
0.0339331 0.07141473 -0.029047538 -0.11286222 -0.021067519 -0.1013312 0.0474495 0.06418464
-0.023572346 -0.046469238 -0.028287865 0.0015573428 -0.08278923 -0.11233273 -0.022182718 -0.10836683
-0.0016732056 -0.010564558 0.11375605 0.0450824 0.023226531 0.11215281 -0.015130591 -0.038652085
0.0027844992 0.027129535 -0.0418061 -0.021170303 0.008146531 0.067188576 -0.09645796 -0.003425001
0.006125629 0.013364504 0.053529646 -0.04826066 0.04992182 -0.04420639 0.09868719 0.00761112
-0.0273818 -0.10644772 -0.016853228 0.048418984 -0.007231531 0.06411206 -0.017110366 -0.04262889
0.117614396 -0.037526976 -0.02818468 0.06509184 0.059088998 0.053930998 -0.06955745 0.06782857
0.08709118 0.11012607 0.09367393 -0.025426874 -0.030420521 0.049184687 -0.014418721 0.03569108
0.017011546 0.14386275 -0.0545914 0.12754335 0.100765154 0.046035293 0.0063629495 0.035534624
0.07641359 0.06864981 0.10287116 0.018268082 -0.08942858 0.06446951 0.072345294 -0.09303004
-0.07013601 0.011186669 0.014246253 0.088220835 0.036437687 -0.061747883 0.12274867 -0.010192977
-0.019620491 0.024377668 -0.0063756197 -0.057453234 -0.02219001 -0.11625906 -0.018272942 -0.012530424
-0.105407946 -0.06593965 -0.045732815 -0.043249227 0.12725233 0.026830416 0.052898083 0.034194015
-0.029016323 -0.101752065 -0.08584731 -0.048092127 0.09027347 0.104829036 0.12334055 0.0017842015
0.01974741 0.04882083 0.015421419 0.08727485 0.032435946 -0.06709991 0.027278747 0.04521538
0.11486242 0.10935328 -0.061142806 -0.09433032 0.026305754 -0.075493336 0.034164675 -0.019036546
-0.0044875653 -0.017246522 -0.054162115 0.089173764 0.02953862 0.023495093 0.05925328 0.0074934745
0.077083424 0.11879617 0.08609428 0.08365964 -0.09906384 0.013181214 -0.06642245 -0.04554258
-0.066214815 -0.059406284 -0.038365547 0.08205912 0.09973306 0.047246438 0.056966994 -0.012982299
-0.086777195 -0.037529096 0.08912591 0.072442345 0.042934872 0.03015144 0.027195333 -0.13358946
-0.0945326 0.019067582 -0.046430845 -0.02031969 0.00039027687 -0.09896726 0.09253797 0.06744919
00000000: f0e9 1b3c 7126 9cbd eb2f bcbd 993a 303d
00000010: 399f d33d 036d ef3d 15bb c73c 5e28 b63d
00000020: 7a07 553d b037 92bd 9b9d 0fbd e2e0 08bc
00000030: 1cd8 81bd 2254 97bd ff73 68bd 88a9 cb3d
00000040: f308 6b3d 79d0 da3d 64b9 eabc 809b dc3b
00000050: 80db 0abd 3260 a3bd 5b18 ca3d 6a29 2d3c
00000060: 25ad 9b3d 7070 883d ceb0 0cbd e42d 24bd
00000070: 9090 583d 58d4 a83d 47db f3bd 6710 68bd
00000080: 1d96 073d 8652 3cbc 3bd0 0e3d 3790 033e
00000090: 2ce3 c2bc d808 703c df42 b7bd 4f1e f7bc
000000a0: 1088 913d 3085 2bbd b9f3 353c 9e06 b13d
000000b0: 4904 413c dcdf a53d 8811 bbbd 9066 43bd
000000c0: 1f55 debc 6db3 b0bd 5781 b93d 86a0 f6bc
000000d0: 422c 7c3d b2b4 9c3d 04c7 403d 1ec3 c83b
000000e0: 250a 193d 7478 f93c 1fd7 83bb 55d6 48bd
000000f0: cfbb 55bd 0900 3abc c554 483b 5b5c b2bd
00000100: 9758 93bc b69c e0bd f0f7 063d 17c2 403d
00000110: e51f a0bd 62b9 673d 1c3f edbc f48b 31bd
00000120: 985b b5ba e6e6 d0bc 2206 46bd 851c e6bd
00000130: 36f6 dabc 27d4 343d 1664 cebc df2d edbd
00000140: 23b6 a4ba f954 533c 4864 91bd 799d c33c
00000150: af0d d03d 20b7 ea3c 2d7e f2bc 7ff7 8b3d
00000160: 6ffd 0a3d e341 923d 1af5 edbc 4f24 e7bd
00000170: ca95 acbc bb86 cfbd 685a 423d 3d73 833d
00000180: cb1a c1bc 8756 3ebd f4bb e7bc c11f cc3a
00000190: 668d a9bd b40e e6bd 88b8 b5bc 6eef ddbd
000001a0: 774f dbba f816 2dbc eff8 e83d 53a8 383d
000001b0: 9145 be3c 5fb0 e53d 4ce6 77bc a651 1ebd
000001c0: 257c 363b c23e de3c e03c 2bbd 586d adbc
000001d0: 0779 053c 2a9a 893d c08b c5bd fb75 60bb
000001e0: 80b9 c83b cbf6 5a3c e741 5b3d f8ac 45bd
000001f0: d37a 4c3d c211 35bd 821c ca3d b466 f93b
00000200: cc4f e0bc 4301 dabd c80f 8abc fc52 463d
00000210: 7bf6 ecbb 2f4d 833d 0a2b 8cbc a29b 2ebd
00000220: d1df f03d e3b5 19bd 8fe3 e6bc df4e 853d
00000230: 4e07 723d c0e6 5c3d 2374 8ebd b5e9 8a3d
00000240: dc5c b23d c789 e13d 1ed8 bf3d 054c d0bc
00000250: 7534 f9bc e275 493d 803c 6cbc cf30 123d
00000260: cc5b 8b3c c250 133e 3b9b 5fbd b99a 023e
00000270: f65d ce3d 818f 3c3d 4a80 d03b c18c 113d
00000280: ba7e 9c3d 4698 8c3d 1dae d23d f2a6 953c
00000290: 5526 b7bd 9708 843d c529 943d 8986 bebd
000002a0: 78a3 8fbd 4a48 373c 1e69 693c 20ad b43d
000002b0: af3f 153d 59eb 7cbd a863 fb3d 7200 27bc
000002c0: 27bb a0bc adb3 c73c 93ea d0bb 1554 6bbd
000002d0: d3c7 b5bc 3b19 eebd 23b1 95bc 684c 4dbc
000002e0: 1fe0 d7bd 5e0b 87bd 5552 3bbd 1a26 31bd
000002f0: 6f4e 023e 76cb db3c a9ab 583d 060f 0c3d
00000300: a4b3 edbc 6363 d0bd b7d0 afbd 40fc 44bd
00000310: 4ce1 b83d 9bb0 d63d f899 fc3d dedb e93a
00000320: 52c5 a13c 5af8 473d 1faa 7c3c 28bd b23d
00000330: 8edb 043d ad6b 89bd ae77 df3c c333 393d
00000340: fd3c eb3d 9df4 df3d e170 7abd 4130 c1bd
00000350: 2a7f d73c 409c 9abd 42f0 0b3d 88f2 9bbc
00000360: 6d0c 93bb 9448 8dbc 18d9 5dbd bca0 b63d
00000370: fafa f13c c878 c03c 91b3 723d d28b f53b
00000380: eadd 9d3d 684b f33d 3352 b03d bf55 ab3d
00000390: fce1 cabd 05f6 573c 7e08 88bd db8a 3abd
000003a0: a29b 87bd 0154 73bd 3125 1dbd 9d0e a83d
000003b0: d940 cc3d 7b85 413d 3956 693d b5b3 54bc
000003c0: 3eb8 b1bd 1cb8 19bd a587 b63d a75c 943d
000003d0: 7adc 2f3d 2700 f73c bfc8 de3c adcb 08be
000003e0: 4f9a c1bd 9e33 9c3c 452e 3ebd 7b75 a6bc
000003f0: 139e cc39 59af cabd 8c84 bd3d cd22 8a3d

layers.0.Ah.conv2.bias f4 [16]
-0.013535462 -0.06622805 0.027712177 0.084611766 0.07417911 -0.04977534 -0.07597419 -0.007720757
0.008702236 -0.0018019903 -0.113917224 0.02727439 -0.030067395 0.041297264 -0.11292332 -0.10355588
00000000: d8c3 5dbc 92a2 87bd a604 e33c ef48 ad3d
00000010: 38eb 973d 3ae1 4bbd 5b98 9bbd 67fe fcbb
00000020: d393 0e3c c330 ecba 6f4d e9bd 8b6e df3c
00000030: e64f f6bc 5227 293d 5744 e7bd 1b15 d4bd

layers.0.Ah.conv3.weight f4 [1, 16, 3]
-0.14504021 -0.0089407675 -0.09796561 0.10010088 0.005260402 0.016603792 -0.02541353 -0.10013428
0.0026940692 0.11907105 -0.013419247 0.0019419573 -0.10965631 0.081682965 0.10666695 0.15030645
0.0494015 0.016022783 -0.025797023 -0.073285826 0.12740314 -0.025877412 -0.01622861 0.1465651
-0.25650457 0.0027983864 -0.15300518 -0.0044455323 -0.12187048 0.030392054 -0.1646158 -0.067957826
0.13524012 0.08861542 -0.01219477 0.054892946 0.12525903 0.07972093 -0.10470357 0.07989362
0.056361545 0.01577513 -0.06920407 -0.017701609 -0.0927271 0.02576327 -0.14710271 -0.07638666
00000000: 6c85 14be 4c7c 12bc 32a2 c8bd b101 cd3d
00000010: 735f ac3b ad04 883c 0930 d0bc 3413 cdbd
00000020: fb8e 303b 86db f33d 67dc 5bbc 4689 fe3a
00000030: 7d93 e0bd 6649 a73d 3474 da3d efe9 193e
00000040: 3a59 4a3d 3642 833c 4754 d3bc e116 96bd
00000050: f875 023e defc d3bc ddf1 84bc 2915 163e
00000060: 9154 83be 2265 373b 64ad 1cbe d4ab 91bb
00000070: 3b97 f9bd c2f8 f83c 0b91 28be 792d 8bbd
00000080: 637c 0a3e 007c b53d 93cc 47bc 6dd7 603d
00000090: e743 003e ba44 a33d d36e d6bd 449f a33d
000000a0: 5ddb 663d d83a 813c ddba 8dbd f702 91bc
000000b0: b5e7 bdbd 7e0d d33c 18a2 16be 9c70 9cbd

layers.1.Aw.conv1.weight f4 [32, 1, 5]
-0.32272893 -0.10980325 -0.09764172 0.32508576 0.38957116 0.06859259 -0.40328124 0.09868158
-0.2734761 -0.27553818 0.45670158 0.24562983 -0.18614207 0.5004018 0.3566189 0.14094251
-0.22529852 0.09453998 0.20056656 0.27009872 0.2602916 0.4005824 -0.4742786 -0.053478483
0.45743826 -0.019320395 0.32240042 0.26870367 0.16403756 0.35868657 0.16772507 0.07636439
0.08500674 0.27358034 -0.06742629 -0.39935407 -0.19648753 -0.28819117 -0.06441073 0.42993683
0.15840463 0.21175905 0.25280043 -0.104463845 0.0028214152 0.16055506 -0.30547652 0.13037726
0.25128525 -0.28522283 -0.39270207 -0.34391737 0.20676748 -0.37776974 -0.41917652 -0.24346629
0.021523017 -0.37946916 0.100431934 0.24960113 -0.3119196 -0.0104855355 0.21693237 0.512913
-0.0030649833 -0.10505204 -0.1641446 0.09722406 0.021270612 0.08031789 -0.40949714 -0.01345994
0.036235515 -0.22806177 -0.45522532 -0.02798831 0.30743 -0.13091698 0.40369806 -0.42195523
0.1619311 -0.2062473 -0.24662831 0.37002188 0.09147926 -0.26631173 0.18419445 -0.15219074
-0.24905641 -0.2537802 0.05347373 0.38229692 -0.21421108 0.23647194 -0.3682925 -0.06549731
-0.26221916 -0.09800135 0.2886764 0.43402427 0.10471936 -0.3214432 -0.49832442 -0.16736655
0.31561017 -0.34309608 -0.43600214 -0.23094214 0.18793583 -0.13275984 0.3888048 -0.03530612
0.35114965 0.18243708 0.29235926 0.24552788 -0.33290118 -0.22278203 0.38430014 0.5363012
-0.2760552 0.1807676 -0.03167337 0.4563939 -0.3203566 -0.039703965 0.1230248 -0.13105126
-0.029541003 -0.43062678 -0.48134696 -0.2659747 0.42252025 0.36927202 -0.03823308 -0.113565415
-0.20108221 -0.13295855 0.18207622 0.30784252 -0.2316314 0.26224074 -0.013185245 0.07138414
-0.2362038 0.15489708 -0.111494355 -0.38460094 -0.17093672 -0.36889735 0.072954066 -0.16967133
0.56813467 0.52845085 0.28706202 0.30028996 0.3073499 -0.26107687 -0.3498235 0.2971864
00000000: ba3c a5be 87e0 e0bd 62f8 c7bd a471 a63e
00000010: df75 c73e 467a 8c3d e17a cebe 9119 ca3d
00000020: 0f05 8cbe 5713 8dbe cad4 e93e 6386 7b3e
00000030: 079c 3ebe 551a 003f c196 b63e 3c53 103e
00000040: a8b4 66be 2d9e c13d 5261 4d3e 614a 8a3e
00000050: f144 853e 2319 cd3e a5d4 f2be 410c 5bbd
00000060: 5935 ea3e ce45 9ebc ab11 a53e 8793 893e
00000070: 76f9 273e c4a5 b73e 1fc0 2b3e ef64 9c3d
00000080: 0418 ae3d b912 8c3e cb16 8abd 2378 ccbe
00000090: 0734 49be cb8d 93be c6e9 83bd ae20 dc3e
000000a0: d334 223e 5dd7 583e 0f6f 813e 24f1 d5bd
000000b0: 7ee7 383b 8c68 243e 6b67 9cbe 9e81 053e
000000c0: 76a8 803e ba08 92be 3f10 c9be f015 b0be
000000d0: dbba 533e 096b c1be 4e9e d6be 3a4f 79be
000000e0: 0a51 b03c c849 c2be 42af cd3d 7097 7f3e
000000f0: edb3 9fbe 86cb 2bbc 8523 5e3e 444e 033f
00000100: e3dd 48bb 8625 d7bd 8615 28be 681d c73d
00000110: b53f ae3c b57d a43d 9ca9 d1be 1587 5cbc
00000120: b16b 143d 0689 69be 4b13 e9be be47 e5bc
00000130: 7767 9d3e 1a0f 06be 83b1 ce3e 840a d8be
00000140: 44d1 253e 7e32 53be 228c 7cbe 8273 bd3e
00000150: 7a59 bb3d 035a 88be 789d 3c3e e4d7 1bbe
00000160: a508 7fbe 7aef 81be 4507 5b3d 6cbc c33e
00000170: 265a 5bbe b325 723e d690 bcbe 7423 86bd
00000180: 9741 86be efb4 c8bd 65cd 933e 6e38 de3e
00000190: 1b77 d63d 3494 a4be 6124 ffbe 2362 2bbe
000001a0: a897 a13e 4aaa afbe ac3b dfbe 197c 6cbe
000001b0: 4072 403e 32f2 07be 6c11 c73e 269d 10bd
000001c0: e3c9 b33e c9d0 3a3e 1db0 953e a96b 7b3e
000001d0: 0672 aabe f920 64be fdc2 c43e 094b 093f
000001e0: 1b57 8dbe 241b 393e f0bb 01bd 76ac e93e
000001f0: c805 a4be a0a0 22bd 6df4 fb3d 4d32 06be
00000200: f9ff f1bc 1d7b dcbe 1c73 f6be d62d 88be
00000210: 9354 d83e 3911 bd3e 4a9a 1cbd fc94 e8bd
00000220: 7fe8 4dbe 4926 08be 3072 3a3e 899d 9d3e
00000230: c830 6dbe 6b44 863e ed06 58bc d931 923d
00000240: 69df 71be 579d 1e3e 2757 e4bd 6aea c4be
00000250: 090a 2fbe 1de0 bcbe f168 953d 52be 2dbe
00000260: 4671 113f 8e48 073f cbf9 923e 9bbf 993e
00000270: f75c 9d3e deab 85be 111c b3be d128 983e

layers.1.Aw.conv1.bias f4 [32]
0.30698782 0.10272663 -0.16503766 -0.3999732 0.07173646 -0.11695962 0.10938334 -0.025882684
0.43951905 -0.1873597 -0.1809286 0.41777098 -0.056341026 -0.14758702 0.45592558 0.0019815862
-0.368257 0.29943606 0.10543918 -0.08222554 0.042601332 0.37130147 0.026254524 -0.11022056
-0.3969058 -0.05146227 -0.04627307 0.19551125 -0.3183708 0.23076938 -0.20224606 0.2429143
00000000: 822d 9d3e 5762 d23d a2ff 28be 4ac9 ccbe
00000010: 91ea 923d 8688 efbd 5f04 e03d ec07 d4bc
00000020: a408 e13e 39db 3fbe 5945 39be 14e6 d53e
00000030: d9c5 66bd 0d21 17be 146f e93e 80dd 013b
00000040: 2e8c bcbe af4f 993e 7ff0 d73d dd65 a8bd
00000050: bc7e 2e3d 3a1b be3e ba13 d73c 51bb e1bd
00000060: 3d37 cbbe 1aca 52bd d588 3dbd 1a34 483e
00000070: 7f01 a3be cf4e 6c3e 9719 4fbe 87be 783e

layers.1.Aw.conv2.weight f4 [16, 32, 3]
-0.011725093 0.009775102 0.004667014 -0.049482863 -0.11863022 -0.05085581 0.15130521 0.07782749
0.21912372 0.024727983 0.118743084 0.106011346 -0.015379441 0.06961212 0.06596316 0.026197
0.06079073 0.007564787 0.073434375 -0.026888166 -0.033207275 0.18170485 0.23653255 -0.17130777
-0.034842126 0.029120367 -0.06982357 -0.06620559 0.044352636 -0.03734937 0.02124544 -0.017059727
-0.12711866 0.060035557 0.045759685 -0.017656963 0.13749143 -0.055123277 0.10984482 0.033753987
0.024021383 0.05472089 -0.052673914 -0.06422768 -0.0064730044 0.25420165 -0.059370816 0.14574039
0.011978695 0.020256473 -0.055169284 -0.015667036 -0.0031605088 0.005728744 0.09062948 -0.008132687
0.03533967 0.02856029 0.21704225 0.037729263 0.055550188 0.02226212 0.08031441 -0.028838947
-0.026971295 -0.09742442 0.016029982 0.05752614 0.04095262 0.1072468 0.15696688 0.10654138
0.110209495 -0.0058711716 0.125577 -0.058274556 -0.049400922 0.026008124 0.08442447 -0.0071565537
0.22394405 -0.081595 -0.0033981549 0.018129012 -0.0011082547 -0.019204346 0.023428233 -0.013504352
0.0005044691 0.04766691 0.09936938 0.29562795 0.24548374 -0.07571818 0.058610745 0.1065512
-0.07049744 -0.09592345 -0.05508844 -0.0330012 0.08803148 -0.0067775203 0.030160593 -0.054824293
-0.08391111 0.035670564 0.0026367977 0.08630377 0.066255055 0.025385782 0.0115312915 -0.043914553
-0.10594548 -0.048866462 -0.052874852 0.07959436 0.039722122 0.04247228 -0.13541219 0.07433602
-0.07573373 0.030460583 -0.100535706 0.04583476 -0.0905326 -0.032338675 -0.002766551 -0.0065038763
0.08139997 0.049262192 0.025528949 0.027346384 0.025646174 -0.09841651 -0.03739894 -0.06078751
-0.020366756 0.043586984 0.06388864 0.09397914 -0.061178066 -0.09365172 0.04653992 0.05280658
0.051019046 0.007348548 -0.05118053 -0.038647998 0.00922184 0.014408074 0.0033329304 -0.014597916
-0.027921405 0.009268841 0.016588202 -0.098495774 0.022605691 -0.09529762 -0.018478375 -0.011676491
-0.009676319 -0.051827133 -0.006332154 0.045307726 0.019604642 0.04737208 -0.103383146 -0.079765305
-0.048668712 0.08193693 -0.06524677 -0.004741307 -0.04074656 0.0526649 0.06736957 0.04640568
-0.07322719 0.04858986 0.04444447 0.06273934 -0.05948239 -0.08244604 0.09119351 0.026206918
0.10844957 -0.0901812 0.05807563 0.04285594 -0.065164484 -0.09553208 0.015889607 0.05478674
0.03372567 -0.034660216 0.06371862 0.04736431 -0.04901225 0.02197658 -0.11014547 -0.1994408
-0.11650591 -0.1100895 0.025402386 -0.04241297 0.069351465 -0.06522082 -0.015721655 -0.16314332
-0.068067886 -0.17121637 0.008360845 -0.0030265723 0.04553846 -0.04374775 0.023436151 0.037479248
-0.085108966 0.07926379 0.017048853 0.05973777 0.043842882 -0.036821175 0.06507317 0.08669911
-0.05722046 0.09994154 -0.0038955272 0.070918866 -0.03545819 -0.055108983 -0.05651234 -0.07137759
-0.0050679287 -0.028722571 -0.019506233 0.052509878 0.107657224 -0.07170511 0.10544933 -0.073793046
0.0489313 -0.091677584 -0.026993798 0.08185111 0.047296595 0.087120384 0.013647132 0.09644871
-0.058701716 -0.23541495 -0.19450352 -0.0088876905 -0.06396784 -0.058821253 0.10143303 0.01335008
00000000: 9b1a 40bc c027 203c c0ed 983b 8bae 4abd
00000010: 67f4 f2bd 2f4e 50bd c1ef 1a3e 0564 9f3d
00000020: f861 603e 5792 ca3c 932f f33d 7a1c d93d
00000030: 0dfa 7bbc cd90 8e3d b117 873d 179b d63c
00000040: b3ff 783d 08e2 f73b c364 963d 9244 dcbc
00000050: 5a04 08bd d610 3a3e 9735 723e 4e6b 2fbe
00000060: 9eb6 0ebd d68d ee3c a9ff 8ebd cc96 87bd
00000070: 1cab 353d a7fb 18bd eb0a ae3c d7c0 8bbc
00000080: 652b 02be d8e7 753d 826e 3b3d 56a5 90bc
00000090: 8eca 0c3e f2c8 61bd 52f6 e03d 9f41 0a3d
000000a0: 7ec8 c43c 0323 603d 9ac0 57bd cd89 83bd
000000b0: 7f1b d4bb b826 823e d02e 73bd f83c 153e
000000c0: 4a42 443c e7f0 a53c 30f9 61bd 2858 80bc
000000d0: 8a20 4fbb 30b8 bb3b f39b b93d f63e 05bc
000000e0: 54c0 103d 45f7 e93c 5340 5e3e 008a 1a3d
000000f0: 9888 633d 0d5f b63c e27b a43d a83f ecbc
00000100: e8f2 dcbc 7486 c7bd 4f51 833c 88a0 6b3d
00000110: efbd 273d 36a4 db3d edbb 203e 5e32 da3d
00000120: 84b5 e13d f562 c0bb 4297 003e 4db1 6ebd
00000130: 9f58 4abd fd0e d53c bde6 ac3d 8681 eabb
00000140: 9751 653e 481b a7bd 94b3 5ebb 4b83 943c
00000150: db42 91ba 6f52 9dbc 91ec bf3c 5c41 5dbc
00000160: 593e 043a 613e 433d 2c82 cb3d 8c5c 973e
00000170: 1760 7b3e 2212 9bbd d211 703d 8437 da3d
00000180: f660 90bd 8473 c4bd 6ba4 61bd 442c 07bd
00000190: d949 b43d f615 debb 5913 f73c 708f 60bd
000001a0: 97d9 abbd 4c1b 123d 20ce 2c3b 08c0 b03d
000001b0: bbb0 873d d8f5 cf3c beed 3c3c bfdf 33bd
000001c0: f2f9 d8bd 3328 48bd 4d93 58bd 5e02 a33d
000001d0: aab3 223d 6af7 2d3d 7ea9 0abe 7c3d 983d
000001e0: 491a 9bbd 7988 f93c aae5 cdbd 3bbd 3b3d
000001f0: 2869 b9bd 8f75 04bd 064f 35bb 781e d5bb
00000200: 07b5 a63d 27c7 493d 1622 d13c 8605 e03c
00000210: ed17 d23c 988e c9bd a22f 19bd 53fc 78bd
00000220: 2fd8 a6bc 4488 323d 0cd8 823d 2378 c03d
00000230: da95 7abd 79cc bfbd a5a0 3e3d b64b 583d
00000240: 59f9 503d 17cc f03b ada2 51bd 5d4d 1ebd
00000250: 3317 173c d80f 6c3c 4b6d 5a3b 192c 6fbc
00000260: 6ebb e4bc 56dc 173c fbe3 873c 27b8 c9bd
00000270: 922f b93c 662b c3bd f65f 97bc c14e 3fbc
00000280: 6c89 1ebc b048 54bd f57d cfbb 9894 393d
00000290: ea99 a03c 3a09 423d 8bba d3bd fe5b a3bd
000002a0: d858 47bd 8dce a73d 19a0 85bd f75c 9bbb
000002b0: dde5 26bd 26b7 573d 0ff9 893d e213 3e3d
000002c0: 23f8 95bd 2906 473d 680b 363d 7c7d 803d
000002d0: cea3 73bd 78d9 a8bd aac3 ba3d e4af d63c
000002e0: cf1a de3d ecb0 b8bd b6e0 6d3d b689 2f3d
000002f0: f574 85bd 53a6 c3bd ec2a 823c 1068 603d
00000300: ee23 0a3d dff7 0dbd e87e 823d 1401 423d
00000310: 12c1 48bd 3b08 b43c f393 e1bd 363a 4cbe
00000320: a79a eebd 9b76 e1bd aa18 d03c 39b9 2dbd
00000330: 2408 8e3d 7e92 85bd b3ca 80bc 0b0f 27be
00000340: 2d67 8bbd 5853 2fbe edfb 083c 7559 46bb
00000350: 8986 3a3d d730 33bd 2cfd bf3c d783 193d
00000360: 9c4d aebd 0e55 a23d 09aa 8b3c 98af 743d
00000370: 9894 333d cdd1 16bd 1545 853d 4e8f b13d
00000380: 0060 6abd 26ae cc3d 1a4c 7fbb e93d 913d
00000390: 9b3c 11bd f5b9 61bd 7c79 67bd 6a2e 92bd
000003a0: de10 a6bb 994b ebbc 89cb 9fbc 9914 573d
000003b0: 647b dc3d 21da 92bd d1f5 d73d cf20 97bd
000003c0: 306c 483d 75c1 bbbd 1922 ddbc 8ea1 a73d
000003d0: 13ba 413d 2c6c b23d 3898 5f3c e786 c53d
000003e0: 3671 70bd 9e10 71be ee2b 47be ad9d 11bc
000003f0: 9201 83bd 8eee 70bd 1fbc cf3d 4bba 5a3c

layers.1.Aw.conv2.bias f4 [16]
0.029595627 -0.04131957 -0.007539408 0.059600692 0.06895 0.08341924 0.06406511 0.09708816
0.052633997 0.037299395 -0.026133979 0.034447946 -0.07886359 0.0062453123 0.1018817 0.016715659
00000000: 8772 f23c b63e 29bd 230d f7bb db1f 743d
00000010: a835 8d3d b5d7 aa3d 9234 833d 28d6 c63d
00000020: bf96 573d 40c7 183d ed16 d6bc 4a19 0d3d
00000030: 3c83 a1bd 7aa5 cc3b 5aa7 d03d 47ef 883c

layers.1.Aw.conv3.weight f4 [1, 16, 3]
-0.090215504 0.07530336 -0.11190003 0.1049256 -0.119540185 0.069771096 0.08242183 -0.005781133
0.12275177 -0.11480519 0.062054418 -0.013891738 0.08078748 -0.06357251 -0.070760794 0.10655353
0.14608979 0.083666086 -0.07086362 -0.121769674 -0.079295345 0.08648209 0.11851669 0.009260278
-0.15983686 0.17541562 -0.012096495 0.042189095 0.03396521 0.14296353 -0.015815442 0.12743862
0.04954098 0.05701468 0.11976976 0.11743308 -0.099739075 0.14815305 0.043363728 -0.10607205
-0.060601916 0.07113336 0.08248187 -0.052196465 0.14114289 0.1404525 0.054163545 0.11023611
00000000: e8c2 b8bd a638 9a3d d82b e5bd 3ce3 d63d
00000010: 7cd1 f4bd 26e4 8e3d c7cc a83d a96f bdbb
00000020: 4865 fb3d fc1e ebbd c62c 7e3d 2c9a 63bc
00000030: e873 a53d 4e32 82bd 09eb 90bd bd38 da3d
00000040: 9098 153e 2059 ab3d f220 91bd 6162 f9bd
00000050: 9965 a2bd 861d b13d e1b8 f23d 6cb8 173c
00000060: 46ac 23be 27a0 333e 6130 46bc 79ce 2c3d
00000070: 1b1f 0b3d 0865 123e 638f 81bc 457f 023e
00000080: 7ceb 4a3d 3a88 693d d949 f53d c180 f03d
00000090: 0044 ccbd 6fb5 173e 2a9e 313d 4e3c d9bd
000000a0: b739 78bd 5eae 913d 41ec a83d f6cb 55bd
000000b0: c387 103e c8d2 0f3e 98da 5d3d 78c3 e13d

layers.1.Ah.conv1.weight f4 [32, 1, 5]
-0.39023647 0.26692092 0.02563059 0.044074047 0.08317048 0.2578286 -0.20357408 -0.05876322
-0.39650533 -0.13279663 -0.2976191 0.41886848 0.17412353 -0.25802824 0.26073635 0.21449013
0.003823662 0.33119446 -0.254927 -0.1921399 -0.26448947 -0.12292057 0.04741519 0.30275944
-0.30648333 0.2500783 0.41359413 0.1012051 0.3687555 -0.123457275 0.4511355 -0.03747178
-0.32155368 -0.10919073 -0.14990307 -0.19407628 -0.4090611 -0.18828239 -0.41535625 0.15862294
0.07763429 0.10055152 -0.41425133 -0.20285009 0.43275413 -0.021148348 0.090775706 0.44099954
-0.087537795 0.065281935 0.3240921 0.099474795 0.30554152 -0.32844245 -0.2595723 0.074800804
0.047059245 0.25180736 0.3297153 0.16830717 -0.057033174 -0.3789819 0.25577474 0.036150135
-0.05219081 0.42070517 0.1097541 -0.34571475 0.32406294 -0.024373235 0.31379876 0.3286781
0.12862633 0.40950817 -0.28834215 0.09880701 -0.11064909 -0.031138737 0.42210883 0.18171068
-0.10663365 0.12416134 0.4267264 -0.24485657 -0.2163884 -0.2585586 0.10269258 -0.3317937
0.014576908 -0.24344048 -0.26091018 0.11511127 0.02982118 -0.052834734 -0.1969153 -0.23409548
-0.05047515 0.1707329 -0.098839216 -0.19880332 -0.40754116 0.29582918 -0.0980727 0.37208453
-0.033613186 0.36947328 0.1701968 0.08302628 0.01510224 0.030798484 0.07866578 0.42325515
0.33462858 -0.20841554 0.052636616 -0.32146987 -0.15676664 0.11090916 0.019161914 -0.07919093
-0.44564834 -0.19423082 -0.25366467 -0.35057765 -0.13253917 0.4337669 -0.36371556 0.21567868
-0.4123362 0.19512028 -0.3488631 0.20528312 0.0071085477 -0.411919 0.12996519 0.23896602
-0.08854648 0.10958362 -0.37387386 -0.028312879 0.105578445 -0.2561329 -0.44516793 0.28451148
0.080829196 0.39294043 0.30502313 -0.06723195 -0.12918435 -0.43171522 -0.3891724 0.31468922
0.15253544 -0.13949375 0.38391802 0.13982014 0.19883081 0.0436164 0.32803357 0.043781884
00000000: 13cd c7be dca9 883e 3ef7 d13c fd86 343d
00000010: 4955 aa3d 1c02 843e b975 50be b4b1 70bd
00000020: bf02 cbbe d7fb 07be 8861 98be ee75 d63e
00000030: 704d 323e 471c 84be 3c7f 853e 4da3 5b3e
00000040: 6796 7a3b 5292 a93e cb85 82be 52c0 44be
00000050: 2a6b 87be c8bd fbbd 6e36 423d 4903 9b3e
00000060: 62eb 9cbe 430a 803e 9cc2 d33e 9f44 cf3d
00000070: 85cd bc3e 2bd7 fcbd 3bfb e63e 027c 19bd
00000080: afa2 a4be 649f dfbd 3180 19be efbb 46be
00000090: 7570 d1be 19cd 40be 93a9 d4be 0d6e 223e
000000a0: bafe 9e3d f5ed cd3d c018 d4be efb7 4fbe
000000b0: f391 dd3e 4d3f adbc 9de8 b93d b1ca e13e
000000c0: 0447 b3bd 89b2 853d 66ef a53e 71b9 cb3d
000000d0: f06f 9c3e 9c29 a8be a9e6 84be 2a31 993d
000000e0: 32c1 403d e5ec 803e 72d0 a83e b758 2c3e
000000f0: 9e9b 69bd ea09 c2be e8f4 823e 2a12 143d
00000100: 08c6 55bd ab66 d73e c2c6 e03d 8601 b1be
00000110: 94eb a53e 61aa c7bc 3baa a03e 7f48 a83e
00000120: 9fb6 033e 0eab d13e 95a1 93be 545b ca3d
00000130: fd9b e2bd aa16 ffbc a61e d83e 5d12 3a3e
00000140: be62 dabd 4d48 fe3d e27b da3e aebb 7abe
00000150: ec94 5dbe cb61 84be 7d50 d23d dde0 a9be
00000160: fcd3 6e3c 7648 79be 0596 85be 75bf eb3d
00000170: 8c4b f43c 3c69 58bd 2aa4 49be bab6 6fbe
00000180: 08bf 4ebd 9bd4 2e3e 376c cabd 1993 4bbe
00000190: 3ca9 d0be ec76 973e 57da c8bd dd81 be3e
000001a0: fbad 09bd 9a2b bd3e 1248 2e3e af09 aa3d
000001b0: 636f 773c 1a4d fc3c 861b a13d e6b4 d83e
000001c0: 7054 ab3e e26a 55be 7e99 573d b397 a4be
000001d0: 6f87 20be 5724 e33d 72f9 9c3c db2e a2bd
000001e0: 052c e4be 72e4 46be 56e0 81be ea7e b3be
000001f0: 59b8 07be b216 de3e ed38 babe dfda 5c3e
00000200: bb1d d3be 9ccd 473e 2f9e b2be bd35 523e
00000210: d2ee e83b 0ce7 d2be 9815 053e 82b3 743e
00000220: db57 b5bd 616d e03d 656c bfbe 69f0 e7bc
00000230: 8339 d83d da23 83be 0ded e3be 7dab 913e
00000240: c789 a53d 7d2f c93e fe2b 9c3e e8b0 89bd
00000250: e748 04be c709 ddbe 9b41 c7be f21e a13e
00000260: 4032 1c3e 73d7 0ebe e790 c43e 032d 0f3e
00000270: 4e9a 4b3e 1ca7 323d 04f4 a73e a254 333d

layers.1.Ah.conv1.bias f4 [32]
0.10618858 -0.33473703 -0.13042854 0.1779288 0.22013201 -0.4144431 0.31492826 -0.15081021
-0.16832335 -0.38628113 0.17712258 -0.25265372 0.32958224 0.3247189 -0.20046814 0.054133184
0.0016411735 0.11382797 0.2092517 0.28713346 0.020396985 0.37643 -0.061288282 -0.40241763
-0.14876832 0.04376218 0.34451446 -0.07489162 -0.21479017 -0.1417437 0.43354285 0.3006591
00000000: 6679 d93d a762 abbe 0f8f 05be f832 363e
00000010: 496a 613e e331 d4be 473e a13e fe6d 1abe
00000020: f55c 2cbe a4c6 c5be 9f5f 353e d45b 81be
00000030: 01bf a83e 8e41 a63e 8547 4dbe c2ba 5d3d
00000040: a51c d73a a41e e93d 1446 563e 2803 933e
00000050: 9417 a73c 6fbb c03e 6c09 7bbd af09 cebe
00000060: b956 18be f93f 333d 3364 b03e c760 99bd
00000070: f4f1 5bbe 4325 11be 54f9 dd3e fdef 993e

layers.1.Ah.conv2.weight f4 [16, 32, 3]
0.009516224 -0.076245196 -0.09188827 0.043024633 0.10333104 0.11690714 0.0243812 0.08894418
0.052009083 -0.07139528 -0.035062414 -0.0083543975 -0.06340048 -0.07389094 -0.056751247 0.09944445
0.05738158 0.10684294 -0.028652854 0.006732404 -0.033900738 -0.07977332 0.09867927 0.010568956
0.07601384 0.06662071 -0.0343483 -0.040082827 0.05287224 0.08243626 -0.11907058 -0.056656267
0.033102144 -0.0114942845 0.034866553 0.12847982 -0.023789965 0.014650546 -0.089483015 -0.03016582
0.0710603 -0.041875064 0.011105471 0.0864384 0.011780807 0.080993384 -0.09134203 -0.047705233
-0.027140198 -0.08627973 0.09057873 -0.03010584 0.061565645 0.076516524 0.047064796 0.0061267754
0.03736319 0.030452944 -0.004023447 -0.049032528 -0.05218106 -0.011352547 0.0030568105 -0.08709022
-0.017986579 -0.1096739 0.032951295 0.0470601 -0.078185834 0.05657328 -0.028960757 -0.04334636
-0.0013836501 -0.025500726 -0.048345692 -0.112359084 -0.02672873 0.044147637 -0.02519421 -0.11581015
-0.0012566488 0.012898677 -0.07099205 0.0238788 0.1015886 0.028651774 -0.02960118 0.068343155
0.0339331 0.07141473 -0.029047538 -0.11286222 -0.021067519 -0.1013312 0.0474495 0.06418464
-0.023572346 -0.046469238 -0.028287865 0.0015573428 -0.08278923 -0.11233273 -0.022182718 -0.10836683
-0.0016732056 -0.010564558 0.11375605 0.0450824 0.023226531 0.11215281 -0.015130591 -0.038652085
0.0027844992 0.027129535 -0.0418061 -0.021170303 0.008146531 0.067188576 -0.09645796 -0.003425001
0.006125629 0.013364504 0.053529646 -0.04826066 0.04992182 -0.04420639 0.09868719 0.00761112
-0.0273818 -0.10644772 -0.016853228 0.048418984 -0.007231531 0.06411206 -0.017110366 -0.04262889
0.117614396 -0.037526976 -0.02818468 0.06509184 0.059088998 0.053930998 -0.06955745 0.06782857
0.08709118 0.11012607 0.09367393 -0.025426874 -0.030420521 0.049184687 -0.014418721 0.03569108
0.017011546 0.14386275 -0.0545914 0.12754335 0.100765154 0.046035293 0.0063629495 0.035534624
0.07641359 0.06864981 0.10287116 0.018268082 -0.08942858 0.06446951 0.072345294 -0.09303004
-0.07013601 0.011186669 0.014246253 0.088220835 0.036437687 -0.061747883 0.12274867 -0.010192977
-0.019620491 0.024377668 -0.0063756197 -0.057453234 -0.02219001 -0.11625906 -0.018272942 -0.012530424
-0.105407946 -0.06593965 -0.045732815 -0.043249227 0.12725233 0.026830416 0.052898083 0.034194015
-0.029016323 -0.101752065 -0.08584731 -0.048092127 0.09027347 0.104829036 0.12334055 0.0017842015
0.01974741 0.04882083 0.015421419 0.08727485 0.032435946 -0.06709991 0.027278747 0.04521538
0.11486242 0.10935328 -0.061142806 -0.09433032 0.026305754 -0.075493336 0.034164675 -0.019036546
-0.0044875653 -0.017246522 -0.054162115 0.089173764 0.02953862 0.023495093 0.05925328 0.0074934745
0.077083424 0.11879617 0.08609428 0.08365964 -0.09906384 0.013181214 -0.06642245 -0.04554258
-0.066214815 -0.059406284 -0.038365547 0.08205912 0.09973306 0.047246438 0.056966994 -0.012982299
-0.086777195 -0.037529096 0.08912591 0.072442345 0.042934872 0.03015144 0.027195333 -0.13358946
-0.0945326 0.019067582 -0.046430845 -0.02031969 0.00039027687 -0.09896726 0.09253797 0.06744919
00000000: f0e9 1b3c 7126 9cbd eb2f bcbd 993a 303d
00000010: 399f d33d 036d ef3d 15bb c73c 5e28 b63d
00000020: 7a07 553d b037 92bd 9b9d 0fbd e2e0 08bc
00000030: 1cd8 81bd 2254 97bd ff73 68bd 88a9 cb3d
00000040: f308 6b3d 79d0 da3d 64b9 eabc 809b dc3b
00000050: 80db 0abd 3260 a3bd 5b18 ca3d 6a29 2d3c
00000060: 25ad 9b3d 7070 883d ceb0 0cbd e42d 24bd
00000070: 9090 583d 58d4 a83d 47db f3bd 6710 68bd
00000080: 1d96 073d 8652 3cbc 3bd0 0e3d 3790 033e
00000090: 2ce3 c2bc d808 703c df42 b7bd 4f1e f7bc
000000a0: 1088 913d 3085 2bbd b9f3 353c 9e06 b13d
000000b0: 4904 413c dcdf a53d 8811 bbbd 9066 43bd
000000c0: 1f55 debc 6db3 b0bd 5781 b93d 86a0 f6bc
000000d0: 422c 7c3d b2b4 9c3d 04c7 403d 1ec3 c83b
000000e0: 250a 193d 7478 f93c 1fd7 83bb 55d6 48bd
000000f0: cfbb 55bd 0900 3abc c554 483b 5b5c b2bd
00000100: 9758 93bc b69c e0bd f0f7 063d 17c2 403d
00000110: e51f a0bd 62b9 673d 1c3f edbc f48b 31bd
00000120: 985b b5ba e6e6 d0bc 2206 46bd 851c e6bd
00000130: 36f6 dabc 27d4 343d 1664 cebc df2d edbd
00000140: 23b6 a4ba f954 533c 4864 91bd 799d c33c
00000150: af0d d03d 20b7 ea3c 2d7e f2bc 7ff7 8b3d
00000160: 6ffd 0a3d e341 923d 1af5 edbc 4f24 e7bd
00000170: ca95 acbc bb86 cfbd 685a 423d 3d73 833d
00000180: cb1a c1bc 8756 3ebd f4bb e7bc c11f cc3a
00000190: 668d a9bd b40e e6bd 88b8 b5bc 6eef ddbd
000001a0: 774f dbba f816 2dbc eff8 e83d 53a8 383d
000001b0: 9145 be3c 5fb0 e53d 4ce6 77bc a651 1ebd
000001c0: 257c 363b c23e de3c e03c 2bbd 586d adbc
000001d0: 0779 053c 2a9a 893d c08b c5bd fb75 60bb
000001e0: 80b9 c83b cbf6 5a3c e741 5b3d f8ac 45bd
000001f0: d37a 4c3d c211 35bd 821c ca3d b466 f93b
00000200: cc4f e0bc 4301 dabd c80f 8abc fc52 463d
00000210: 7bf6 ecbb 2f4d 833d 0a2b 8cbc a29b 2ebd
00000220: d1df f03d e3b5 19bd 8fe3 e6bc df4e 853d
00000230: 4e07 723d c0e6 5c3d 2374 8ebd b5e9 8a3d
00000240: dc5c b23d c789 e13d 1ed8 bf3d 054c d0bc
00000250: 7534 f9bc e275 493d 803c 6cbc cf30 123d
00000260: cc5b 8b3c c250 133e 3b9b 5fbd b99a 023e
00000270: f65d ce3d 818f 3c3d 4a80 d03b c18c 113d
00000280: ba7e 9c3d 4698 8c3d 1dae d23d f2a6 953c
00000290: 5526 b7bd 9708 843d c529 943d 8986 bebd
000002a0: 78a3 8fbd 4a48 373c 1e69 693c 20ad b43d
000002b0: af3f 153d 59eb 7cbd a863 fb3d 7200 27bc
000002c0: 27bb a0bc adb3 c73c 93ea d0bb 1554 6bbd
000002d0: d3c7 b5bc 3b19 eebd 23b1 95bc 684c 4dbc
000002e0: 1fe0 d7bd 5e0b 87bd 5552 3bbd 1a26 31bd
000002f0: 6f4e 023e 76cb db3c a9ab 583d 060f 0c3d
00000300: a4b3 edbc 6363 d0bd b7d0 afbd 40fc 44bd
00000310: 4ce1 b83d 9bb0 d63d f899 fc3d dedb e93a
00000320: 52c5 a13c 5af8 473d 1faa 7c3c 28bd b23d
00000330: 8edb 043d ad6b 89bd ae77 df3c c333 393d
00000340: fd3c eb3d 9df4 df3d e170 7abd 4130 c1bd
00000350: 2a7f d73c 409c 9abd 42f0 0b3d 88f2 9bbc
00000360: 6d0c 93bb 9448 8dbc 18d9 5dbd bca0 b63d
00000370: fafa f13c c878 c03c 91b3 723d d28b f53b
00000380: eadd 9d3d 684b f33d 3352 b03d bf55 ab3d
00000390: fce1 cabd 05f6 573c 7e08 88bd db8a 3abd
000003a0: a29b 87bd 0154 73bd 3125 1dbd 9d0e a83d
000003b0: d940 cc3d 7b85 413d 3956 693d b5b3 54bc
000003c0: 3eb8 b1bd 1cb8 19bd a587 b63d a75c 943d
000003d0: 7adc 2f3d 2700 f73c bfc8 de3c adcb 08be
000003e0: 4f9a c1bd 9e33 9c3c 452e 3ebd 7b75 a6bc
000003f0: 139e cc39 59af cabd 8c84 bd3d cd22 8a3d

layers.1.Ah.conv2.bias f4 [16]
-0.013535462 -0.06622805 0.027712177 0.084611766 0.07417911 -0.04977534 -0.07597419 -0.007720757
0.008702236 -0.0018019903 -0.113917224 0.02727439 -0.030067395 0.041297264 -0.11292332 -0.10355588
00000000: d8c3 5dbc 92a2 87bd a604 e33c ef48 ad3d
00000010: 38eb 973d 3ae1 4bbd 5b98 9bbd 67fe fcbb
00000020: d393 0e3c c330 ecba 6f4d e9bd 8b6e df3c
00000030: e64f f6bc 5227 293d 5744 e7bd 1b15 d4bd

layers.1.Ah.conv3.weight f4 [1, 16, 3]
-0.14504021 -0.0089407675 -0.09796561 0.10010088 0.005260402 0.016603792 -0.02541353 -0.10013428
0.0026940692 0.11907105 -0.013419247 0.0019419573 -0.10965631 0.081682965 0.10666695 0.15030645
0.0494015 0.016022783 -0.025797023 -0.073285826 0.12740314 -0.025877412 -0.01622861 0.1465651
-0.25650457 0.0027983864 -0.15300518 -0.0044455323 -0.12187048 0.030392054 -0.1646158 -0.067957826
0.13524012 0.08861542 -0.01219477 0.054892946 0.12525903 0.07972093 -0.10470357 0.07989362
0.056361545 0.01577513 -0.06920407 -0.017701609 -0.0927271 0.02576327 -0.14710271 -0.07638666
00000000: 6c85 14be 4c7c 12bc 32a2 c8bd b101 cd3d
00000010: 735f ac3b ad04 883c 0930 d0bc 3413 cdbd
00000020: fb8e 303b 86db f33d 67dc 5bbc 4689 fe3a
00000030: 7d93 e0bd 6649 a73d 3474 da3d efe9 193e
00000040: 3a59 4a3d 3642 833c 4754 d3bc e116 96bd
00000050: f875 023e defc d3bc ddf1 84bc 2915 163e
00000060: 9154 83be 2265 373b 64ad 1cbe d4ab 91bb
00000070: 3b97 f9bd c2f8 f83c 0b91 28be 792d 8bbd
00000080: 637c 0a3e 007c b53d 93cc 47bc 6dd7 603d
00000090: e743 003e ba44 a33d d36e d6bd 449f a33d
000000a0: 5ddb 663d d83a 813c ddba 8dbd f702 91bc
000000b0: b5e7 bdbd 7e0d d33c 18a2 16be 9c70 9cbd
