models/non_shared_layers_15_iter_warmup.pt (torch, 869680 bytes, 450 tensors)

layers.0.Aw.conv1.weight f4 [32, 1, 5]
-0.17204829 0.39775833 0.067975216 -0.33003187 0.3973276 -0.39854962 -0.15927462 -0.08762679
-0.1717501 0.39097086 0.3467132 0.0921908 0.41384494 -0.434787 -0.174943 -0.020513512
0.13989834 0.43422914 0.2635783 0.103058256 -0.34544143 0.03271654 -0.080176204 0.24959351
0.060093116 -0.42793202 -0.08504874 0.2949351 -0.20761846 0.15996827 0.32629946 0.2319506
0.13479717 -0.3586737 -0.40153074 0.2235656 -0.17578211 0.43589115 -0.02266704 0.12650584
-0.065094605 0.20995048 0.2883786 0.29033437 0.21070296 -0.22114556 0.2627933 -0.32232326
0.36572045 -0.17829163 0.050242983 0.26083866 0.1441279 -0.17110683 -0.2515117 0.13875774
0.399451 -0.27853554 -0.3877793 -0.41162166 -0.4206561 -0.4064042 -0.03450279 0.086687066
-0.2725367 0.12771201 -0.06222046 0.012332428 0.13840997 0.016551495 0.38476568 0.39601222
0.4155975 -0.08606569 -0.31542072 0.07698036 -0.10529102 -0.07114128 -0.06831769 -0.25462064
0.38164738 -0.08234418 -0.24127108 -0.27963662 0.2642618 -0.43687463 0.41137335 0.42364904
0.062066767 -0.41114002 0.019480987 0.15081103 -0.26950166 0.43646502 0.25499004 -0.25403526
-0.15178679 0.11804098 -0.03227692 0.13200496 0.122559935 -0.017094547 0.42533526 0.20355712
0.03518428 0.27272025 -0.3418716 0.31846708 -0.23443346 -0.24976277 0.31342047 0.051900107
0.31004 0.4391974 -0.32099932 -0.2497405 -0.26080647 -0.1789007 -0.085474595 -0.018233858
-0.34885788 -0.18565072 0.07712395 0.32070807 -0.034436602 0.3941276 0.10614161 0.27065703
-0.32674775 0.034523934 0.063175194 0.24477217 0.09757618 0.3683868 -0.1959285 0.25365868
0.116593674 -0.38704592 -0.19519463 0.2930639 0.4066124 0.20447938 -0.14376956 -0.28153893
0.40752757 -0.11289514 -0.33983073 0.36006832 0.0021090028 0.32631505 0.3768623 0.08283573
-0.098889135 0.31193233 -0.12880115 -0.41155225 0.4141346 -0.13125408 0.30414313 0.050851706
00000000: 6d2d 30be fba6 cb3e 9736 8b3d f0f9 a8be
00000010: 866e cb3e b20e ccbe e318 23be ad75 b3bd
00000020: 42df 2fbe 552d c83e 6484 b13e 88ce bc3d
00000030: 7ce3 d33e 679c debe 4224 33be f40b a8bc
00000040: 8341 0f3e 4853 de3e bcf3 863e 3510 d33d
00000050: b3dd b0be c701 063d 6c33 a4bd 7195 7f3e
00000060: 3324 763d e819 dbbe 092e aebd bc01 973e
00000070: ef99 54be b9ce 233e b910 a73e 7584 6d3e
00000080: 4508 0a3e 14a4 b7be 7095 cdbe 61ee 643e
00000090: 3a00 34be 202d df3e 3ab0 b9bc bf8a 013e
000000a0: 5250 85bd 42fd 563e 5ca6 933e b5a6 943e
000000b0: 84c2 573e fb73 62be d88c 863e 8e07 a5be
000000c0: b63f bb3e 1592 36be 96cb 4d3d a58c 853e
000000d0: 4496 133e a136 2fbe 24c6 80be 8216 0e3e
000000e0: d784 cc3e 369c 8ebe 028b c6be 13c0 d2be
000000f0: 3d60 d7be 3614 d0be cc52 0dbd fd88 b13d
00000100: ee89 8bbe f0c6 023e e2da 7ebd f40d 4a3c
00000110: 58bb 0d3e 0097 873c 0200 c53e 1dc2 ca3e
00000120: 32c9 d43e 3543 b0bd d37e a1be e1a7 9d3d
00000130: d1a2 d7bd 85b2 91bd 25ea 8bbd a35d 82be
00000140: 4967 c33e 11a4 a8bd c40f 77be 882c 8fbe
00000150: 534d 873e 08ae dfbe 879f d23e 87e8 d83e
00000160: b939 7e3d f280 d2be 9796 9f3c 356e 1a3e
00000170: 1ffc 89be 5878 df3e 0e8e 823e e910 82be
00000180: ff6d 1bbe 78bf f13d ce34 04bd 4f2c 073e
00000190: b400 fb3d dd09 8cbc 8bc5 d93e 4771 503e
000001a0: 641d 103d fda1 8b3e cb09 afbe 1e0e a33e
000001b0: 530f 70be d0c1 7fbe a678 a03e 3595 543d
000001c0: 90bd 9e3e 7bde e03e 065a a4be f9bb 7fbe
000001d0: 6d88 85be bf31 37be 4e0d afbd 2c5f 95bc
000001e0: 809d b2be 391b 3ebe 29f3 9d3d d933 a43e
000001f0: 650d 0dbd 18cb c93e c660 d93d 8f93 8a3e
00000200: 7b4b a7be f868 0d3d ff61 813d 8ea5 7a3e
00000210: 05d6 c73d 329d bc3e 7ba1 48be 8ddf 813e
00000220: aac8 ee3d e22a c6be 1ae1 47be 790c 963e
00000230: 802f d03e 0b63 513e 5438 13be df25 90be
00000240: 74a7 d03e 9135 e7bd 4bfe adbe e05a b83e
00000250: 3237 0a3b c412 a73e 18f4 c03e c7a5 a93d
00000260: 6386 cabd 98b5 9f3e 73e4 03be fab6 d2be
00000270: 7309 d43e 7867 06be a6b8 9b3e e149 503d

layers.0.Aw.conv1.bias f4 [32]
-0.122522905 0.4460982 0.070583135 0.11435299 -0.3686897 0.32200405 -0.020323103 0.097420685
0.44222823 -0.29233104 -0.22097532 0.05177898 0.4579446 -0.19857013 0.24208978 0.15538283
0.3886673 0.08939358 -0.2261947 -0.021913178 0.32241118 0.12463814 -0.34840834 0.20240387
-0.20844233 0.23370202 -0.0076182354 0.31915832 -0.21628588 0.022150388 -0.36552078 0.3639278
00000000: 4aed fabd fc66 e43e e48d 903d e731 ea3d
00000010: e5c4 bcbe b7dd a43e a37c a6bc 7f84 c73d
00000020: bd6b e23e 6aac 95be 5b47 62be 3216 543d
00000030: b777 ea3e f855 4bbe 62e6 773e ad1c 1f3e
00000040: 66ff c63e fb13 b73d 959f 67be 4483 b3bc
00000050: 1413 a53e 4842 ff3d 9462 b2be f642 4f3e
00000060: e871 55be 954f 6f3e 64a2 f9bb b868 a33e
00000070: 0c7a 5dbe bb74 b53c 8a25 bbbe bf54 ba3e

layers.0.Aw.conv2.weight f4 [16, 32, 3]
-0.042584892 0.06318994 0.07934312 0.0018942698 0.033138257 0.04949008 0.0077322763 0.046050128
-0.0040722038 0.08437932 -0.06459461 -0.09906494 -0.049633656 0.09555791 -0.006591702 0.022885708
0.021266563 -0.11588876 0.033588078 -0.0025520448 -0.030383531 0.009094521 -0.07911592 -0.10297922
-0.10830038 -0.09111292 0.016390152 0.105616696 0.06596302 0.08802575 -0.0780376 0.02781873
0.06991892 -0.041719865 -0.051615182 -0.025125857 0.008427543 0.059000734 -0.094611146 -0.024477562
0.0076692393 0.0889289 0.070491225 -0.0062126173 -0.094098285 -0.082956985 -0.007711629 0.08315092
0.055541757 -0.028200801 0.056954045 -0.10940869 -0.10313462 -0.10983118 -0.052336838 0.10365225
-0.08179918 0.05511092 0.04560594 0.057162948 -0.08164987 -0.10487565 -0.022836408 0.043556828
-0.020464778 0.0070382934 -0.051853646 0.08746974 -0.007344382 0.04610961 -0.10153936 0.00606051
-0.06916789 -0.017376777 0.11431724 0.04770847 -0.019718263 0.0215364 0.00945364 0.091371015
-0.020420218 0.017900283 0.07536376 0.009707301 -0.05632016 0.02622631 -0.05577041 -0.04342979
-0.02885306 -0.0036101846 0.1105462 -0.013446096 0.052930888 0.041351 0.006007497 -0.008068965
0.059200197 -0.01596469 -0.0157686 -0.077178754 0.08365728 0.043726537 0.087274686 -0.07480965
-0.008347474 -0.0138724195 0.024679342 -0.031007957 0.085498154 -0.042569544 -0.031123905 0.054267317
0.027351437 0.046350524 -0.09079117 0.0067258277 0.043553714 0.00993635 -0.0955727 -0.073642015
-0.080637954 -0.10516207 0.033692684 0.113300584 -0.041262787 -0.028841114 -0.06164946 0.02215401
-0.05314447 -0.11019621 0.0010342047 -0.056780055 0.06870198 0.024073519 0.032983027 0.09488492
0.08153972 0.095277146 0.027162252 -0.0801792 -0.034350205 0.030448312 -0.018082809 -0.0820233
-0.06815044 0.05459618 -0.09561928 0.014960818 -0.09395349 0.013011855 -0.030751582 -0.014884492
-0.05818754 0.040680002 0.06519148 -0.094603635 0.055904016 0.080834895 -0.040247124 -0.06721286
0.048528682 0.056076847 0.09737873 -0.07050366 -0.08516157 -0.04779635 -0.062392965 0.05826489
0.0300601 -0.07480037 0.062546924 0.08039966 0.03991858 -0.081198305 -0.09237852 0.08613852
0.043243103 -0.1102461 -0.11449565 -0.025699982 -0.07228253 0.100062124 0.08452653 -0.10426404
0.03093369 0.006390331 -0.019951962 0.054251138 0.09663478 -0.054101683 -0.028915104 -0.08754951
0.09785537 0.05982905 -0.0612004 0.053256366 -0.051657278 0.03259575 -0.029762229 0.054050323
-0.09585076 0.05130478 0.07709229 0.09371461 0.03929722 0.0116339065 0.014902031 0.08662832
0.017092602 0.057637587 0.09568047 -0.034426235 0.06905609 -0.06776529 0.034258865 0.09771627
-0.07857029 -0.054122463 -0.08938084 0.09151484 0.06951247 0.081881404 0.0013448863 -0.062669806
-0.07899869 0.045500346 -0.042904522 -0.0083227465 -0.094801836 -0.016627276 -0.021480078 0.07371768
0.047510084 0.091057315 -0.086233914 -0.037760437 0.024206229 -0.09221189 0.011967064 -0.057022866
-0.06685932 0.052724373 0.07603119 0.0316386 0.06125219 -0.009872049 0.072722785 0.08906169
0.018991064 0.014768695 0.0089639295 0.04359971 0.06321233 -0.07930607 0.0001203452 -0.07914039
00000000: 7f6d 2ebd ba69 813d a57e a23d 2649 f83a
00000010: fbbb 073d 1cb6 4a3d 095f fd3b 0f9f 3c3d
00000020: 1f70 85bb 11cf ac3d 2e4a 84bd 8fe2 cabd
00000030: a94c 4bbd deb3 c33d 34ff d7bb cf7a bb3c
00000040: 3737 ae3c 1657 edbd a793 093d 3540 27bb
00000050: e2e6 f8bc 3001 153c 8707 a2bd c5e6 d2bd
00000060: 97cc ddbd 6999 babd a444 863c 914d d83d
00000070: 9f17 873d d846 b43d 2dd2 9fbd 1be4 e33c
00000080: a731 8f3d 73e2 2abd 716a 53bd bed4 cdbc
00000090: ad13 0a3c c1aa 713d 7dc3 c1bd 2b85 c8bc
000000a0: 3e4e fb3b 5b20 b63d b45d 903d 3693 cbbb
000000b0: 9ab6 c0bd 5ae5 a9bd d5b1 fcbb 084b aa3d
000000c0: c17f 633d 5e05 e7bc a548 693d aa11 e0bd
000000d0: 3e38 d3bd 2bef e0bd 275f 56bd a147 d43d
000000e0: 5486 a7bd fdbb 613d 4bcd 3a3d b223 6a3d
000000f0: 0c38 a7bd 0bc9 d6bd 6b13 bbbc a568 323d
00000100: c0a5 a7bc 7ca1 e63b 7d64 54bd 5623 b33d
00000110: 24a9 f0bb 6edd 3c3d def3 cfbd 3e97 c63b
00000120: e5a7 8dbd be59 8ebc 281f ea3d f569 433d
00000130: 3288 a1bc 1b6d b03c 71e3 1a3c ba20 bb3d
00000140: 4d48 a7bc 9da3 923c 5158 9a3d 5f0b 1f3c
00000150: f8af 66bd 8fd8 d63c 836f 64bd 6fe3 31bd
00000160: 415d ecbc d998 6cbb 0c66 e23d 044d 5cbc
00000170: 0fce 583d ab5f 293d 8ada c43b b133 04bc
00000180: e87b 723d 62c8 82bc 272d 81bc e50f 9ebd
00000190: 8254 ab3d 991a 333d 12bd b23d cd35 99bd
000001a0: d8c3 08bc 2549 63bc 552c ca3c 6604 febc
000001b0: a819 af3d 675d 2ebd 8ff7 febc 6847 5e3d
000001c0: 1f10 e03c 0cda 3d3d b9f0 b9bd 5564 dc3b
000001d0: 6165 323d 13cc 223c 9fbb c3bd a0d1 96bd
000001e0: 8325 a5bd 365f d7bd 5701 0a3d 230a e83d
000001f0: 2b03 29bd 3344 ecbc 2584 7cbd 547c b53c
00000200: 04ae 59bd 8dae e1bd 278e 873a 3492 68bd
00000210: a0b3 8c3d d435 c53c 3619 073d 0653 c23d
00000220: 4cfe a63d aa20 c33d 5f83 de3c fe34 a4bd
00000230: cdb2 0cbd bd6e f93c 6622 94bc d5fb a7bd
00000240: 7592 8bbd 3ea0 5f3d 0bd4 c3bd 381e 753c
00000250: b06a c0bd ad2f 553c beea fbbc 16de 73bc
00000260: 0f56 6ebd 13a0 263d 1c83 853d 8dbf c1bd
00000270: 9cfb 643d c48c a53d 2bda 24bd e5a6 89bd
00000280: 03c6 463d d6b0 653d 806e c73d 3964 90bd
00000290: 3069 aebd 1bc6 43bd c48f 7fbd 2aa7 6e3d
000002a0: 9940 f63c f030 99bd 9a18 803d 94a8 a43d
000002b0: aa81 233d 4c4b a6bd f330 bdbd 6469 b03d
000002c0: ae1f 313d b5c8 e1bd b27c eabd c588 d2bc
000002d0: dd08 94bd 5fed cc3d 3f1c ad3d 6388 d5bd
000002e0: a668 fd3c fb65 d13b 4c72 a3bc 7136 5e3d
000002f0: 75e8 c53d ba99 5dbd 5edf ecbc 284d b3bd
00000300: 6568 c83d 4e0f 753d 45ad 7abd 5923 5a3d
00000310: 9596 53bd 1f83 053d ebcf f3bc df63 5d3d
00000320: 674d c4bd f624 523d 90e2 9d3d 72ed bf3d
00000330: 1ff6 203d 249c 3e3c a627 743c 306a b13d
00000340: c905 8c3c 6415 6c3d 1ff4 c33d 8602 0dbd
00000350: 486d 8d3d 87c8 8abd 0653 0c3d 781f c83d
00000360: 76e9 a0bd 84af 5dbd 4d0d b7bd 226c bb3d
00000370: 8e5c 8e3d 70b1 a73d e546 b03a 0759 80bd
00000380: 11ca a1bd 925e 3a3d a7bc 2fbd 215c 08bc
00000390: 7727 c2bd ed35 88bc fdf6 afbc 4cf9 963d
000003a0: ef99 423d 427c ba3d 689b b0bd b0aa 1abd
000003b0: 244c c63c 96d9 bcbd 8111 443c cf90 69bd
000003c0: 8aed 88bd 83f5 573d 3eb6 9b3d 7a97 013d
000003d0: 94e3 7a3d 60be 21bc afef 943d fa65 b63d
000003e0: 2693 9b3c 66f8 713c 72dd 123c 9c95 323d
000003f0: 7775 813d 396b a2bd d661 fc38 5b14 a2bd

layers.0.Aw.conv2.bias f4 [16]
0.024761653 0.004346793 -0.052147586 0.04364177 -0.046382234 -0.0914229 0.0738463 -0.065962866
-0.08714614 0.07219062 -0.05161445 0.01832217 0.07751885 0.10463733 -0.015196106 -0.06823029
00000000: f3d8 ca3c 8b6f 8e3b b598 55bd b6c1 323d
00000010: 4cfb 3dbd ee3b bbbd bb3c 973d 8a17 87bd
00000020: ad79 b2bd add8 933d ac69 53bd 6018 963c
00000030: 34c2 9e3d 194c d63d 17f9 78bc 53bc 8bbd

layers.0.Aw.conv3.weight f4 [1, 16, 3]
-0.0089541245 0.025508948 -0.060704496 0.07070583 -0.11667988 -0.09824637 0.073588975 -0.054975346
0.10795831 0.03139209 0.0090831285 0.053374827 0.02100132 -0.08578562 -0.11114368 0.12020768
-0.10750944 -0.094729915 -0.03190157 -0.011893755 0.14093895 -0.10821057 0.037414484 0.12593885
-0.084800564 0.1585075 -0.023950858 -0.122316025 0.12876402 0.1396533 0.08591729 -0.046552937
0.045520723 0.06644419 0.14813563 -0.07176455 0.14518188 0.102683954 0.038924083 0.3033666
0.20047061 -0.03853131 -0.03348526 0.14257026 0.00989972 -0.028928516 -0.10944482 0.06932644
00000000: 52b4 12bc 24f8 d03c 47a5 78bd 38ce 903d
00000010: dcf5 eebd 6535 c9bd d1b5 963d d42d 61bd
00000020: 3f19 dd3d fe94 003d 67d1 143c 909f 5a3d
00000030: f60a ac3c 5fb0 afbd 4c9f e3bd 722f f63d
00000040: e92d dcbd c201 c2bd 38ab 02bd 06de 42bc
00000050: 4d52 103e 819d ddbd ee3f 193d 1df6 003e
00000060: ebab adbd ca4f 223e 9734 c4bc d380 fabd
00000070: b7da 033e 4601 0f3e 67f5 af3d 4bae 3ebd
00000080: f073 3a3d e413 883d deb0 173e 4bf9 92bd
00000090: 8faa 143e f74b d23d dc6e 1f3d de52 9b3e
000000a0: 2b48 4d3e 02d3 1dbd d727 09bd f0fd 113e
000000b0: 6f32 223c 7ffb ecbc 9b24 e0bd 05fb 8d3d

layers.0.Ah.conv1.weight f4 [32, 1, 5]
-0.12098733 -0.007761558 0.30823308 0.40964577 -0.1765303 0.21608979 -0.3768033 0.15364663
-0.15129793 0.37155026 0.20615934 0.41859388 0.26133794 -0.14279056 -0.19591904 -0.016048037
-0.1327537 -0.02251547 0.31727102 -0.15933315 -0.34111163 -0.19222844 -0.4406915 0.28307632
0.20793167 -0.22274931 0.23024242 0.32284197 -0.39518604 -0.25413108 0.1793774 0.29145673
0.055932958 -0.21044204 0.6214253 0.17324597 -0.21257675 -0.30590913 0.023894567 0.056931302
0.0834567 0.14655447 0.1350879 0.24115726 -0.21379973 0.37517667 -0.3481024 0.2493101
0.23715389 -0.31773806 0.041811287 0.19009908 -0.25478172 -0.39108527 0.15253 0.07396998
0.1606532 0.14781308 0.31467432 0.0011056593 -0.044507753 0.38420233 -0.28840715 0.24904355
-0.0636428 0.43825606 -0.061051767 -0.41370344 -0.35968456 -0.15770695 -0.28477988 0.2779324
0.025552152 -0.40387505 -0.007891503 -0.3389338 0.07590091 0.1463595 -0.3054034 0.35849047
0.41371045 0.053329237 -0.008326523 0.52431417 0.4968024 -0.4163836 0.16332522 0.43444437
-0.11275958 0.39064926 0.03747269 0.32192796 -0.36812738 -0.05618122 0.3356757 0.28911608
0.016885199 0.2232421 0.031104978 0.21366642 0.29806882 0.37725824 0.003296578 -0.19178481
-0.2161051 -0.3845354 -0.4229976 -0.031482335 -0.38068125 0.077721946 -0.19567357 0.032605432
-0.11387223 0.17466457 0.43103927 -0.12975685 -0.27156383 0.24701616 0.04243463 0.4305559
0.419159 0.1666426 0.21024112 0.25446022 0.08405312 -0.0029196907 0.43950525 0.07012311
0.10559803 0.048390094 0.4073869 0.3305783 -0.29484776 -0.12234009 0.27752846 -0.16848256
-0.06610186 -0.4305297 -0.32056922 0.23503953 0.03249701 -0.25980356 -0.41524723 -0.23816337
-0.3167206 0.41822055 -0.32501122 0.20803632 0.06153169 -0.019540666 -0.31063595 0.19056137
-0.248211 -0.3251392 -0.36479893 -0.28280902 0.23699585 0.030568276 -0.22040251 -0.029745607
00000000: 35c8 f7bd ab54 febb bad0 9d3e 17bd d13e
00000010: 5cc4 34be a446 5d3e 5dec c0be 8b55 1d3e
00000020: d8ed 1abe d63b be3e 6f1b 533e f051 d63e
00000030: 16ce 853e b037 12be 009f 48be 2c77 83bc
00000040: 96f0 07be 5d72 b8bc 5971 a23e 3b28 23be
00000050: 2fa6 aebe 88d7 44be 51a2 e1be 61ef 903e
00000060: 0aec 543e 6518 64be abc4 6b3e 8b4b a53e
00000070: d355 cabe 781d 82be b6ae 373e d139 953e
00000080: f519 653d 1e7e 57be ba15 1f3f 6467 313e
00000090: b8ad 59be 1fa0 9cbe 8abe c33c cc30 693d
000000a0: 59eb aa3d 6012 163e 7c54 0a3e eef1 763e
000000b0: 51ee 5abe 2817 c03e 7a3a b2be 264b 7f3e
000000c0: 78d8 723e 90ae a2be 5042 2b3d 55a9 423e
000000d0: c072 82be 543c c8be d330 1c3e 937d 973d
000000e0: 4682 243e 505c 173e fe1c a13e c5eb 903a
000000f0: c34d 36bd 2bb6 c43e 1aaa 93be 4605 7f3e
00000100: 2857 82bd 1963 e03e 6b11 7abd f0d0 d3be
00000110: 9328 b8be ee7d 21be abce 91be 284d 8e3e
00000120: bf52 d13c b6c8 cebe 5d4b 01bc bb88 adbe
00000130: f071 9b3d 44df 153e d65d 9cbe 108c b73e
00000140: dbd1 d33e c26f 5a3d f86b 08bc 7439 063f
00000150: e25c fe3e 3b30 d5be ba3e 273e 7e6f de3e
00000160: 7fee e6bd 2e03 c83e f77c 193d bed3 a43e
00000170: 317b bcbe 471e 66bd afdd ab3e 0607 943e
00000180: d452 8a3c 9499 643e decf fe3c 5fcb 5a3e
00000190: 7a9c 983e fe27 c13e 670b 583b 3d63 44be
000001a0: a84a 5dbe d3e1 c4be 2493 d8be 9ff3 00bd
000001b0: a7e8 c2be af2c 9f3d a75e 48be 468d 053d
000001c0: d835 e9bd 45db 323e 2eb1 dc3e fbde 04be
000001d0: 6a0a 8bbe cef1 7c3e efcf 2d3d d371 dc3e
000001e0: 029c d63e 5ca4 2a3e 7349 573e 9c48 823e
000001f0: 0b24 ac3d 4858 3fbb d506 e13e b59c 8f3d
00000200: c843 d83d b134 463d 0495 d03e 8f41 a93e
00000210: 49f6 96be 718d fabd 3618 8e3e b186 2cbe
00000220: 6960 87bd 646e dcbe a621 a4be 34ae 703e
00000230: 961b 053d f904 85be 499b d4be 19e1 73be
00000240: 3429 a2be 0121 d63e df67 a6be 7907 553e
00000250: a708 7c3d bf13 a0bc ad0b 9fbe 8522 433e
00000260: 062b 7ebe a578 a6be edc6 babe 58cc 90be
00000270: 0aaf 723e 526a fa3c 32b1 61be 0fad f3bc

layers.0.Ah.conv1.bias f4 [32]
-0.19289546 0.21111934 0.4243065 0.20240046 0.41854855 -0.14451611 -0.26281998 0.41685048
-0.19393077 0.42751607 -0.17115548 -0.15419699 0.26257092 -0.16290729 -0.034787554 -0.11625109
-0.0027075182 0.071690194 3.5056957e-05 0.36724737 0.33305135 -0.19666845 0.2091873 0.38811323
0.29007035 0.26456714 0.051148538 -0.34897497 0.10420102 0.05224913 0.026174458 -0.104419604
00000000: 6386 45be ab2f 583e b43e d93e 1142 4f3e
00000010: ff4b d63e 08fc 13be 5790 86be 6d6d d53e
00000020: ca95 46be 63e3 da3e 6243 2fbe d1e5 1dbe
00000030: b26f 863e 2bd1 26be 657d 0ebd 0d15 eebd
00000040: 9e70 31bb 4fd2 923d 1f0a 1338 d907 bc3e
00000050: b585 aa3e 7463 49be 3235 563e c7b6 c63e
00000060: 1a84 943e 5875 873e 2181 513d d9ac b2be
00000070: 5867 d53d 2f03 563d d16b d63c f2d9 d5bd

layers.0.Ah.conv2.weight f4 [16, 32, 3]
0.031963848 0.04941116 -0.05075077 0.1088699 -0.050443828 0.08399223 0.064194344 -0.010521265
-0.053557433 0.016603518 0.09622539 0.11176539 0.102516845 -0.079127856 0.042296823 -0.010830357
-0.0019921681 -0.042673305 0.015825912 -0.095059976 -0.019561365 0.008584401 0.031156853 -0.05408996
-0.09443308 0.014144758 0.028465813 0.06651308 0.0990723 -0.07042181 0.013948478 -0.028820422
-0.020258043 0.05836746 -0.061633606 -0.083385676 0.0452084 -0.044082407 -0.082942896 -0.0068205083
0.05802238 -0.104047626 -0.10570491 -0.036269557 -0.00032728075 -0.004628628 -0.10259299 -0.10446213
-0.030913036 0.030718124 0.05116172 0.015611159 -0.0019520983 0.038517058 0.05355413 0.032397587
0.026741004 0.008698854 0.04402794 0.110348254 -0.013034649 -0.022951204 -0.08553009 -0.049643043
0.008890044 0.058456313 -0.059201457 0.08280153 0.06279579 0.10240573 0.023862658 0.03202903
-0.044205423 0.038849864 0.024914807 0.054411266 0.013962164 -0.042806 -0.076174214 -0.004893022
-0.052807998 -0.06444962 -0.019326767 0.06266288 0.05080832 0.025927488 0.058139507 0.056115367
-0.021426661 -0.005059946 -0.0702317 -0.058185503 0.024385704 0.07175547 -0.0652346 0.011810106
0.012812548 -0.13312219 -0.010566401 0.113037735 -0.072039254 -0.07107034 -0.03278323 0.105891116
-0.033229206 0.072670914 -0.02394908 0.051869217 0.005411031 0.039332353 -0.069386885 -0.066518724
-0.017637948 -0.030243855 -0.06724293 -0.074452505 -0.08054827 0.029404903 -0.06940371 -0.043630175
-0.030683318 -0.044356696 0.06989461 -0.049683277 0.103835024 0.09485672 -0.10764277 -0.0011419803
-0.10595762 -0.07095735 -0.0006275272 0.03177601 -0.034644615 0.10036619 -0.06768993 0.07628298
0.063195445 -0.005492236 0.06499546 0.0014728532 0.06971726 -0.029181117 0.06009215 0.007816282
-0.0966789 0.09683988 -0.06487514 0.05236344 -0.08752968 0.070141315 0.054147754 0.036229264
-0.01007143 0.03977076 -0.031069439 0.024691053 0.041030303 0.02099662 -0.023417067 0.02080722
0.08952836 0.0025313466 -0.010751252 0.013855824 -0.02186344 -0.06256653 0.10689206 0.0662249
0.016145585 -0.080314316 0.09427735 0.06892007 0.022254955 -0.08449536 0.03555632 -0.07550136
0.0018873633 0.03868026 -0.032625206 0.059514347 -0.027559917 0.02687753 -0.029275779 -0.078623876
-0.0437013 0.022503236 -0.034051426 0.0815948 0.048746444 0.07395983 -0.012985794 -0.009737741
-0.0743355 -0.07258428 0.03422632 0.034435667 -0.05044099 0.096191876 0.0021595228 0.087059535
0.016905399 0.073598474 0.043737262 0.11540702 -0.013490067 0.11099111 0.0651282 -0.0038092555
0.0777932 -0.06659751 0.06641773 0.0038986648 -0.02433292 -0.04209124 0.05946621 0.0326502
0.03874166 -0.097129025 0.06838525 0.0024325976 -0.014383407 0.10758898 -0.04901135 0.0509485
0.055857193 -0.019319009 -0.08465931 -0.075850144 -0.023580246 -0.0612037 0.11494322 0.048159912
-0.035487372 0.004689063 0.078109555 0.05998282 -0.05681879 0.033415657 -0.032069672 0.041551918
-0.078101404 -0.07619058 -0.093909316 -0.08100826 0.05554168 0.061225917 0.013719596 -0.07246559
0.05536522 -0.0021360123 0.04932318 0.03947683 -0.015944537 0.042307414 -0.06858304 -0.035265904
00000000: 86ec 023d 5b63 4a3d 0ae0 4fbd 2ff7 de3d
00000010: 309e 4ebd 1e04 ac3d 5378 833d 6261 2cbc
00000020: 0a5f 5bbd 1a04 883c d111 c53d 41e5 e43d
00000030: 5af4 d13d c90d a2bd 6f3f 2d3d cf71 31bc
00000040: 098f 02bb 34ca 2ebd 58a5 813c ceae c2bd
00000050: 283f a0bc 96a5 0c3c a83c ff3c 6f8d 5dbd
00000060: 2166 c1bd 6abf 673c 2331 e93c 0238 883d
00000070: 6be6 ca3d 4f39 90bd 2888 643c ce18 ecbc
00000080: 32f4 a5bc b812 6f3d 8573 7cbd 1cc6 aabd
00000090: 712c 393d c18f 34bd f7dd a9bd 927e dfbb
000000a0: e0a8 6d3d ec16 d5bd d17b d8bd 638f 14bd
000000b0: e196 abb9 bfab 97bb 461c d2bd 3ef0 d5bd
000000c0: 563d fdbc 93a4 fb3c f48e 513d f2c5 7f3c
000000d0: 8ddd ffba 10c4 1d3d 935b 5b3d 55b3 043d
000000e0: f30f db3c a385 0e3c a456 343d 44fe e13d
000000f0: 488f 55bc 2a04 bcbc 662a afbd 8156 4bbd
00000100: 8ca7 113c e36f 6f3d 3a7d 72bd d993 a93d
00000110: 149b 803d 18ba d13d 9f7b c33c df30 033d
00000120: bf10 35bd 0921 1f3d 231a cc3c 59de 5e3d
00000130: 8fc1 643c 5855 2fbd 3a01 9cbd a555 a0bb
00000140: 334d 58bd 2afe 83bd 2b53 9ebc 6555 803d
00000150: 631c 503d e265 d43c b123 6e3d 3ad9 653d
00000160: f786 afbc e7cd a5bb a3d5 8fbd ec53 6ebd
00000170: 87c4 c73c 88f4 923d b899 85bd 2d7f 413c
00000180: b9eb 513c 2f51 08be b31e 2dbc 5480 e73d
00000190: 5189 93bd 548d 91bd b547 06bd 71dd d83d
000001a0: 591b 08bd 7dd4 943d dc30 c4bc d174 543d
000001b0: 054f b13b f61a 213d b61a 8ebd f83a 88bd
000001c0: 757d 90bc f6c1 f7bc a9b6 89bd 8e7a 98bd
000001d0: 7ef6 a4bd 8de2 f03c 8823 8ebd 8eb5 32bd
000001e0: 955b fbbc 5eaf 35bd e824 8f3d b180 4bbd
000001f0: 75a7 d43d 3d44 c23d d073 dcbd 80ae 95ba
00000200: 4f00 d9bd 1652 91bd a380 24ba 9027 023d
00000210: 83e7 0dbd ca8c cd3d 05a1 8abd 403a 9c3d
00000220: 9d6c 813d 37f8 b3bb 571c 853d c10c c13a
00000230: ecc7 8e3d 3d0d efbc 3023 763d dd0f 003c
00000240: 96ff c5bd fd53 c63d 42dd 84bd 0c7b 563d
00000250: c342 b3bd 40a6 8f3d 09ca 5d3d 2365 143d
00000260: a402 25bc aae6 223d 5685 febc e444 ca3c
00000270: 640f 283d 1b01 ac3c 26d5 bfbc e773 aa3c
00000280: a55a b73d f3e4 253b 0526 30bc 8a03 633c
00000290: f51a b3bc e222 80bd 39ea da3d eca0 873d
000002a0: bf43 843c d57b a4bd 7c14 c13d f725 8d3d
000002b0: 0650 b63c e70b adbd 81a3 113d 75a0 9abd
000002c0: 6761 f73a 316f 1e3d 02a2 05bd 51c5 733d
000002d0: 56c5 e1bc 442e dc3c c2d3 efbc 8e05 a1bd
000002e0: 2200 33bd b558 b83c 8279 0bbd 2d1b a73d
000002f0: 5aaa 473d 4078 973d 5ec2 54bc 0c8b 1fbc
00000300: 363d 98bd 11a7 94bd e630 0c3d 6a0c 0d3d
00000310: 369b 4ebd 3f00 c53d c886 0d3b 454c b23d
00000320: 317d 8a3c ccba 963d d825 333d 845a ec3d
00000330: 7105 5dbc 4f4f e33d ef61 853d b4a4 79bb
00000340: 0b52 9f3d 4664 88bd 0506 883d be80 7f3b
00000350: d555 c7bc dd67 2cbd d792 733d 37bc 053d
00000360: 93af 1e3d 95eb c6bd 910d 8c3d 376c 1f3b
00000370: 62a8 6bbc 9c57 dc3d 20c0 48bd 60af 503d
00000380: 83ca 643d e642 9ebc dc61 adbd 5257 9bbd
00000390: 5c2b c1bc bbb0 7abd 5a67 eb3d 5443 453d
000003a0: 355b 11bd b6a6 993b e7f7 9f3d 8cb0 753d
000003b0: d2ba 68bd dbde 083d 7d5b 03bd 5832 2a3d
000003c0: a1f3 9fbd cf09 9cbd 8753 c0bd a9e7 a5bd
000003d0: ac7f 633d 07c8 7a3d 28c8 603c d768 94bd
000003e0: a4c6 623d 57fc 0bbb 1a07 4a3d 75b2 213d
000003f0: 1e9e 82bc 8a4a 2d3d 4475 8cbd fb72 10bd

layers.0.Ah.conv2.bias f4 [16]
0.06359107 0.011566158 -0.05180269 -0.010366018 -0.07512038 -0.080579564 0.08475919 -0.08070427
0.043858513 0.02625702 -0.057533346 -0.07758909 0.0998203 0.07071175 0.105699964 -0.023113642
00000000: 093c 823d fc7f 3d3c 0f2f 54bd 3bd6 29bc
00000010: b7d8 99bd e606 a5bd 3a96 ad3d 4848 a5bd
00000020: fca4 333d f618 d73c 16a8 6bbd 07e7 9ebd
00000030: 966e cc3d 52d1 903d 3979 d83d d258 bdbc

layers.0.Ah.conv3.weight f4 [1, 16, 3]
-0.10551765 0.09649229 0.11255588 0.07099494 0.06467942 0.013315809 -0.018161474 0.11497539
0.036288004 -0.10955618 -0.07263578 0.09155285 0.07132448 0.14717244 0.08693908 0.12164215
0.12906837 -0.039045386 0.14244655 -0.12684254 -0.027813653 -0.07411673 0.08310454 -0.023403848
0.064823866 0.06375572 -0.026906462 0.0818371 -0.09387183 0.088295214 -0.032655008 0.113628544
0.13248189 0.04505404 0.06767973 -0.13915685 0.21725486 0.2155746 0.107051365 0.11704914
-0.02295715 0.10945947 0.067418404 -0.058259588 0.10663456 -0.062146973 -0.030999014 -0.123161875
00000000: a319 d8bd c09d c53d b283 e63d cc65 913d
00000010: a576 843d 8d2a 5a3c 5fc7 94bc 3878 eb3d
00000020: bba2 143d fe5e e0bd 11c2 94bd 1080 bb3d
00000030: 9212 923d 5fb4 163e 1e0d b23d 851f f93d
00000040: 802a 043e 0eee 1fbd 82dd 113e 03e3 01be
00000050: 75d9 e3bc 83ca 97bd b732 aa3d 6db9 bfbc
00000060: 60c2 843d 5c92 823d f16a dcbc 369a a73d
00000070: e03f c0bd 1fd4 b43d 42c1 05bd 15b6 e83d
00000080: 55a9 073e 968a 383d ac9b 8a3d 227f 0ebe
00000090: 0f78 5e3e 97bf 5c3e bf3d db3d 76b7 ef3d
000000a0: a210 bcbc 492c e03d a912 8a3d 9ba1 6ebd
000000b0: 3863 da3d d38d 7ebd a5f1 fdbc 4b3c fcbd

layers.1.Aw.conv1.weight f4 [32, 1, 5]
-0.21997145 0.4142825 -0.26706067 -0.12476077 -0.33569014 0.35760278 -0.38881186 -0.38169482
0.1978254 0.12608999 -0.22622886 0.059648108 0.2512332 0.30346915 -0.24475743 0.28919795
0.18018173 -0.07953425 -0.34990558 -0.051705867 0.053700864 0.32912707 0.34758118 -0.0850706
-0.43866172 -0.112009004 0.36768702 -0.16841394 -0.33543205 -0.33976266 -0.44588202 -0.06288776
-0.39662808 -0.13401982 0.1593379 0.34337443 -0.25307563 0.38193405 -0.40638468 -0.17216852
0.34556696 0.09103659 -0.17168419 0.07529951 -0.04543022 0.24385 -0.29026625 0.1737415
0.052040014 -0.106545925 0.3921272 -0.12869026 -0.15618037 -0.06812951 -0.41994146 0.25829318
0.4257448 -0.40527764 0.3682688 -0.11193008 0.17174031 -0.4242698 0.20772128 0.13533
0.120815 0.075560674 0.06716229 0.26448196 -0.2816648 0.13136485 -0.15011933 -0.080987655
-0.3398367 0.25775826 0.19579776 0.091259405 -0.113008864 0.29496783 0.4126095 -0.36109743
-0.19696607 -0.17658517 0.10981164 0.18138507 -0.283414 0.3849226 0.20864096 0.40571576
0.1410992 -0.016111242 0.104725376 -0.2426706 -0.108260535 0.076318555 -0.18420191 -0.3432951
0.035800394 0.4095562 -0.31820437 0.41001686 0.42622542 -0.30528817 0.19489208 -0.1564622
-0.4003102 0.37856618 0.24672142 0.1482397 -0.27333578 -0.29814374 0.2026535 0.20102546
0.07735968 -0.39631048 -0.22454116 0.27883187 0.3257054 -0.17484255 -0.40415686 -0.30117422
-0.2662636 -0.41222095 -0.13385777 0.25833908 0.42977402 0.34251302 -0.43286437 0.23239295
0.38527477 0.38856977 0.3819576 -0.116714224 -0.35332847 0.27689356 -0.3772604 0.36596695
0.2117339 0.41435465 -0.15826981 -0.34838003 -0.09421087 -0.2923174 -0.2425624 0.26467386
-0.3326466 0.027725525 -0.3882871 -0.2228151 0.33525133 0.4031878 0.4283996 -0.35850653
-0.038692717 -0.026481414 -0.14813864 0.33935314 0.07514094 -0.19223139 0.17586891 -0.17736746
00000000: 3240 61be d61c d43e 2dbc 88be 9382 ffbd
00000010: 94df abbe b617 b73e 5912 c7be 816d c3be
00000020: be92 4a3e bc1d 013e 8aa8 67be 9351 743d
00000030: a3a1 803e 4f60 9b3e b1a1 7abe c111 943e
00000040: 8f81 383e dae2 a2bd d326 b3be 88c9 53bd
00000050: 70f5 5b3d 5883 a83e 29f6 b13e 7f39 aebd
00000060: 4598 e0be fa64 e5bd 7941 bc3e b474 2cbe
00000070: c0bd abbe 5ff5 adbe a64a e4be 4ccb 80bd
00000080: d612 cbbe 7e3c 09be 7929 233e c6ce af3e
00000090: 2193 81be dc8c c33e a711 d0be f24c 30be
000000a0: 27ee b03e 6471 ba3d fbcd 2fbe a136 9a3d
000000b0: 0a15 3abd d0b3 793e c79d 94be 4be9 313e
000000c0: e927 553d c034 dabd e5c4 c83e 61c7 03be
000000d0: bfed 1fbe 7c87 8bbd 9102 d7be 013f 843e
000000e0: 39fb d93e 8d80 cfbe ba8d bc3e 993b e5bd
000000f0: b1dc 2f3e e439 d9be e3b4 543e f393 0a3e
00000100: db6d f73d 8ebf 9a3d 628c 893d 2e6a 873e
00000110: 5e36 90be 8284 063e e2b8 19be dbdc a5bd
00000120: 13ff adbe e4f8 833e 357f 483e 36e6 ba3d
00000130: 3171 e7bd 0606 973e 8d41 d33e c3e1 b8be
00000140: 79b1 49be bed2 34be ede4 e03d 02bd 393e
00000150: a41b 91be 9314 c53e faa5 553e fab9 cf3e
00000160: 4f7c 103e b9fb 83bc 427a d63d a47e 78be
00000170: b3b7 ddbd e74c 9c3d 6d9f 3cbe 60c4 afbe
00000180: 6fa3 123d 5ab1 d13e afeb a2be bbed d13e
00000190: 383a da3e bb4e 9cbe ca91 473e a137 20be
000001a0: 75f5 ccbe 6dd3 c13e 8aa4 7c3e 26cc 173e
000001b0: abf2 8bbe 4ca6 98be 6684 4f3e 9ed9 4d3e
000001c0: c06e 9e3d 35e9 cabe 1eee 65be 0dc3 8e3e
000001d0: dcc2 a63e ed09 33be a6ed cebe 8233 9abe
000001e0: b453 88be a00e d3be 0312 09be 0545 843e
000001f0: 570b dc3e de5d af3e 66a0 ddbe 6bf8 6d3e
00000200: bc42 c53e 9ef2 c63e f28f c33e de07 efbd
00000210: 78e7 b4be fec4 8d3e 4628 c1be 0560 bb3e
00000220: c5d0 583e 4b26 d43e 7b11 22be de5e b2be
00000230: a1f1 c0bd a0aa 95be 4762 78be 5583 873e
00000240: a850 aabe a420 e33c 91cd c6be a429 64be
00000250: 10a6 ab3e a26e ce3e 3157 db3e 2b8e b7be
00000260: 417c 1ebd 8def d8bc a8b1 17be b2bf ad3e
00000270: 7ee3 993d 4ed8 44be fb16 343e d19f 35be

layers.1.Aw.conv1.bias f4 [32]
-0.20426738 0.13893309 0.039302662 -0.4351495 0.14878511 -0.1285038 0.3192416 0.23660909
-0.097006276 0.02962775 0.43698052 -0.04174123 -0.042124204 -0.110254526 -0.24417135 0.36122882
-0.24453126 -0.15288179 0.12721668 -0.06799082 -0.21745647 -0.2824842 -0.18716869 -0.14802767
-0.16824557 -0.40322942 -0.10461417 0.071764275 -0.260312 -0.15925051 0.24887176 -0.31966105
00000000: 782b 51be 7a44 0e3e d4fb 203d eacb debe
00000010: 205b 183e 8096 03be a373 a33e a749 723e
00000020: 3aab c6bd e5b5 f23c e9bb df3e daf8 2abd
00000030: 6e8a 2cbd 20cd e1bd 0e08 7abe fcf2 b83e
00000040: 6766 7abe 0b8d 1cbe 1745 023e c53e 8bbd
00000050: e9ac 5ebe c5a1 90be 26a9 3fbe 9194 17be
00000060: 9148 2cbe 1674 cebe f43f d6bd 26f9 923d
00000070: 9d47 85be 9112 23be 3dd8 7e3e 9daa a3be

layers.1.Aw.conv2.weight f4 [16, 32, 3]
-0.008361874 -0.069223925 -0.091526546 -0.10235238 0.014388445 0.02890502 -0.003549088 -0.07944362
0.011089443 0.038962327 0.06248013 0.079786666 0.072239704 -0.063581936 -0.060596872 0.01425902
0.10393669 0.0058165714 -0.07012479 -0.083415225 -0.043396864 0.006977912 -0.064525984 -0.018758759
0.054440122 0.043717608 -0.072204605 -0.0867377 0.065026246 0.049157295 -0.0397609 -0.050578825
-0.0764788 -0.08576253 -0.020919172 0.07683933 0.039616294 -0.0128890965 0.015350837 -0.017456098
0.08161331 -0.0070551448 0.04732863 -0.00047059997 -0.029788906 0.00010348158 0.0014551722 -0.063870855
-0.08028343 -0.031797312 -0.053230334 0.06831326 -0.04284131 0.05375729 -0.15431698 -0.12678933
0.016303308 0.02525395 -0.07568026 0.04032449 -0.056886677 0.08517368 0.006977167 0.051414102
0.061352834 0.06527757 -0.022385595 -0.00091580057 -0.06635495 0.07449921 0.010724838 0.076091446
0.10008905 0.050966352 0.08042053 -0.055704806 0.060887504 0.032077968 0.08765843 -0.04781157
0.010465537 -0.011925482 -0.0017651592 -0.0399064 0.048821285 -0.06346954 0.0197601 0.006491968
0.11431917 -0.072710425 0.082585044 0.041403353 -0.0607216 -0.048820514 0.103515185 0.05240979
-0.003937434 -0.070531815 0.052751567 -0.023856616 0.023274617 0.10618859 0.060810596 -0.009317506
0.007391394 -0.07275063 0.01372571 -0.009067189 0.056898154 -0.047541693 -0.03921388 -0.03481484
-0.09834684 -0.090787984 -0.013719992 -0.01759841 0.073169544 -0.011339948 0.04832924 0.030955793
0.037798543 -0.06569691 -0.06175128 0.049555007 -0.051070996 0.078989446 0.059175946 -0.01053006
-0.010693304 -0.05763577 -0.038930897 0.057067674 -0.06277109 -0.0032438426 -0.014571599 -0.002488431
-0.10660359 -0.05802986 -0.08186374 0.0052489475 -0.10544306 0.004190336 -0.0533183 -0.07681658
-0.05342029 0.012034486 -0.07900694 -0.006008608 0.012000695 -0.10798757 0.0064406106 0.12018618
0.04030065 -0.04674308 -0.055089004 0.07456714 -0.018547758 -0.042455383 -0.033878233 0.08577628
-0.033853102 0.046763662 -0.03212933 0.06261321 -0.06741342 0.046997987 -0.06536698 -0.06387044
0.042367846 0.03520722 0.035278995 0.07353687 0.07250975 0.02211922 -0.054635674 -0.017767087
-0.073088475 0.020910852 0.055700127 -0.001683347 -0.07880036 -0.047404997 0.07793444 -0.048733484
0.042140003 0.05259301 0.014133505 0.08943529 -0.021528438 -0.044027347 0.021121562 -0.050809678
0.059141953 -0.0153126875 0.0523984 0.109109655 -0.07037414 0.061741162 0.022096207 0.061124925
0.022578642 -0.029857937 -0.050584633 0.088958666 0.027972618 0.06693433 0.052314088 -0.0725047
0.0523705 0.029540285 0.09556636 0.08151689 0.009012601 0.05366185 -0.07666925 -0.049985547
-0.05218907 -0.060270492 -0.10053752 0.09754154 0.054561056 -0.07478881 0.026012067 0.0019994022
0.031800967 -0.0074602715 0.025932148 -0.05988042 0.0060108486 0.04930705 0.020104367 0.02062299
-0.058356654 -0.012753106 0.06756591 -0.06577021 0.058884706 0.06389092 0.10002011 0.10637871
0.030236224 0.08776968 0.03829623 0.07530175 -0.06291387 0.053474456 0.05652524 0.026516965
-0.042704813 0.07249223 -0.081135295 -0.09889531 0.03164897 -0.056561705 0.041457627 -0.0119777685
00000000: 3e00 09bc 46c5 8dbd 4572 bbbd 209e d1bd
00000010: 83bd 6b3c 38ca ec3c d197 68bb 56b3 a2bd
00000020: 7fb0 353c f696 1f3d 2aeb 7f3d 3167 a33d
00000030: 69f2 933d 3f37 82bd 6d34 78bd aa9e 693c
00000040: c2dc d43d f098 be3b 969d 8fbd 9ad5 aabd
00000050: e9c0 31bd f8a6 e43b 3326 84bd f8ab 99bc
00000060: 9bfc 5e3d 3c11 333d 02e0 93bd 89a3 b1bd
00000070: 7b2c 853d 2959 493d 53dc 22bd be2b 4fbd
00000080: eba0 9cbd 44a4 afbd af5e abbc f05d 9d3d
00000090: b244 223d ca2c 53bc 1482 7b3c 1700 8fbc
000000a0: e124 a73d d82e e7bb aadb 413d dcba f6b9
000000b0: dd07 f4bc 4004 d938 7abb be3a b9ce 82bd
000000c0: a46b a4bd e63d 02bd 0d08 5abd d3e7 8b3d
000000d0: 5f7a 2fbd 9b30 5c3d 4505 1ebe 10d5 01be
000000e0: 848e 853c 5fe1 ce3c 41fe 9abd 4b2b 253d
000000f0: 0102 69bd 8a6f ae3d b8a0 e43b 9897 523d
00000100: 1c4d 7b3d 3fb0 853d ff61 b7bc 5612 70ba
00000110: 1be5 87bd 0b93 983d 3bb7 2f3c d5d5 9b3d
00000120: 7dfb cc3d 18c2 503d 85b3 a43d b92a 64bd
00000130: 2d65 793d 3064 033d 4386 b33d 11d6 43bd
00000140: a577 2b3c 1963 43bc ea5c e7ba e574 23bd
00000150: d4f8 473d 51fc 81bd efdf a13c 93ba d43b
00000160: 2b20 ea3d 34e9 94bd 5922 a93d 9096 293d
00000170: 36b7 78bd 05f8 47bd c5ff d33d a6ab 563d
00000180: 9705 81bb fc72 90bd 0712 583d f36e c3bc
00000190: 69aa be3c 6779 d93d 8814 793d 74a8 18bc
000001a0: 8233 f23b 48fe 94bd cde1 603c 8c8e 14bc
000001b0: 0a0e 693d 14bb 42bd bc9e 20bd 019a 0ebd
000001c0: 116a c9bd 0def b9bd d1c9 60bc 8a2a 90bc
000001d0: ead9 953d 30cb 39bc e2f4 453d 0197 fd3c
000001e0: a5d2 1a3d 1a8c 86bd e9ee 7cbd 31fa 4a3d
000001f0: d22f 51bd 38c5 a13d 7a62 723d 4686 2cbc
00000200: f832 2fbc 7c13 6cbd 0176 1fbd cbbf 693d
00000210: 218e 80bd a696 54bb b7bd 6ebc f214 23bb
00000220: fc52 dabd b8b0 6dbd 2da8 a7bd 5dff ab3b
00000230: 88f2 d7bd 164f 893b 4a64 5abd 0352 9dbd
00000240: 3ccf 5abd 4b2c 453c 64ce a1bd dbe3 c4bb
00000250: 909e 443c 9628 ddbd c20b d33b 2c24 f63d
00000260: 4b12 253d ac75 3fbd 02a5 61bd a8b6 983d
00000270: 78f1 97bc b2e5 2dbd e7c3 0abd 79ab af3d
00000280: 8da9 0abd 418b 3f3d 0b9a 03bd 5b3b 803d
00000290: 0c10 8abd f680 403d 20df 85bd 81ce 82bd
000002a0: e889 2d3d 7235 103d b580 103d 809a 963d
000002b0: fe7f 943d 5e33 b53c a8c9 5fbd 488c 91bc
000002c0: 69af 95bd 3c4d ab3c d125 643d c1a3 dcba
000002d0: 1562 a1bd be2b 42bd 179c 9f3d c39c 47bd
000002e0: ff9a 2c3d c56b 573d 3790 673c d929 b73d
000002f0: 685c b0bc 0556 34bd 2007 ad3c cf1d 50bd
00000300: d53e 723d 11e2 7abc b49f 563d e274 df3d
00000310: 5120 90bd 4de4 7c3d 1b03 b53c 215e 7a3d
00000320: d8f6 b83c a298 f4bc d531 4fbd f62f b63d
00000330: d526 e53c de14 893d 4c47 563d 587d 94bd
00000340: 7382 563d 78fe f13c 4cb8 c33d 54f2 a63d
00000350: 97a9 133c 87cc 5b3d c504 9dbd a5bd 4cbd
00000360: 35c4 55bd 31de 76bd 9ee6 cdbd dcc3 c73d
00000370: 6a7b 5f3d e02a 99bd 4217 d53c 6708 033b
00000380: bb41 023d 4b75 f4bb a86f d43c 2c45 75bd
00000390: a7f6 c43b 30f6 493d eab1 a43c 8bf1 a83c
000003a0: 6307 6fbd 67f2 50bc ff5f 8a3d 88b2 86bd
000003b0: 1731 713d 3ed9 823d 58d7 cc3d 15dd d93d
000003c0: f5b1 f73c 97c0 b33d 82dc 1c3d ce37 9a3d
000003d0: fdd8 80bd 0808 5b3d 0387 673d 1b3a d93c
000003e0: 3eeb 2ebd ce76 943d 432a a6bd a089 cabd
000003f0: 5aa2 013d 3fad 67bd 79cf 293d 673e 44bc

layers.1.Aw.conv2.bias f4 [16]
-0.07116979 0.06004822 -0.045354586 -0.079390116 -0.06001679 -0.02131527 0.058479417 0.018442087
0.011156502 0.015557354 0.04306398 0.07208187 0.0074773757 0.09296069 -0.031259913 0.08788302
00000000: 78c1 91bd 1ff5 753d bbc5 39bd 4997 a2bd
00000010: 2ad4 75bd 5c9d aebc 1d88 6f3d dc13 973c
00000020: c3c9 363c 46e4 7e3c db63 303d a99f 933d
00000030: c604 f53b 2d62 be3d 650a 00bd 03fc b33d

layers.1.Aw.conv3.weight f4 [1, 16, 3]
-0.06638809 -0.069652066 -0.10090906 0.082772166 0.11944834 0.034457535 0.040916797 0.07623972
0.054537497 -0.011955037 0.06104731 -0.09841193 0.1320718 -0.13906483 -0.0016954055 0.13565052
0.12412655 0.19236614 -0.067464724 0.039349318 -0.04432408 0.11594894 -0.060565274 0.12859695
-0.11487329 -0.0099458555 -0.0027213804 0.19537266 0.12356485 -0.11128626 -0.06853505 -0.078268625
0.0878009 0.13027632 0.13390338 0.11399753 -0.113921374 -0.07796573 -0.07049442 0.022814717
0.059883308 0.02789196 0.019617252 0.046370104 0.105935834 -0.067841515 0.01722932 -0.0034201294
00000000: 7bf6 87bd bea5 8ebd 69a9 cebd 7484 a93d
00000010: 55a1 f43d 5823 0d3d 5f98 273d 9223 9c3d
00000020: b662 5f3d 0fdf 43bc be0c 7a3d 328c c9bd
00000030: d43d 073e 0367 0ebe 5e38 deba f8e7 0a3e
00000040: 1036 fe3d a1fb 443e f22a 8abd c02c 213d
00000050: 2b8d 35bd a376 ed3d 4b13 78bd ebae 033e
00000060: b042 ebbd f1f3 22bc 3059 32bb c50f 483e
00000070: 910f fd3d 0dea e3bd 1b5c 8cbd 4d4b a0bd
00000080: f5d0 b33d 2867 053e f81d 093e 8977 e93d
00000090: 9c4f e9bd 7fac 9fbd 615f 90bd eee5 ba3c
000000a0: 3348 753d ae7d e43c 5cb4 a03c 94ee 3d3d
000000b0: e3f4 d83d 7ef0 8abd 8124 8d3c 4024 60bb

layers.1.Ah.conv1.weight f4 [32, 1, 5]
-0.37567198 -0.3030135 0.3096861 0.223406 -0.13728718 -0.21808368 -0.3200399 0.11020883
0.020890303 -0.039321546 -0.022211488 0.233037 -0.06739928 0.119963415 0.17888494 -0.392742
-0.23430325 -0.2702204 0.21775477 -0.046852414 -0.2552643 -0.4531861 -0.05518264 0.3978489
-0.40284237 -0.22238958 -0.39387763 -0.008835059 -0.3527187 0.2815506 0.20808953 0.08652685
0.08971333 -0.37177807 0.1917933 0.2810269 -0.10397401 0.24000278 -0.28243828 0.020668471
-0.24286935 -0.0615137 -0.31995872 -0.38819507 0.040375747 -0.33770716 -0.074528635 -0.39719903
-0.38397682 -0.24313395 -0.23342064 -0.14066988 0.11238334 0.18896434 0.22896327 -0.1380398
0.06578708 -0.16751944 -0.13979708 0.2807913 0.2927433 0.02777616 0.33066255 -0.3032998
-0.13582799 -0.42691132 -0.20479444 0.11758592 0.43748227 0.3645683 0.3703696 -0.30260143
0.1471749 0.11782773 -0.1794199 0.05060465 -0.13781272 0.29725492 -0.06803695 -0.35744506
0.36101434 -0.2878885 0.3573744 -0.009076126 0.06236397 -0.4388564 -0.116784416 0.04373568
-0.17151952 0.12968068 0.2462953 0.28339773 -0.41450807 0.4019799 0.149513 -0.07927625
0.06592802 -0.3125568 -0.42281333 -0.41565695 0.1361274 -0.16396995 -0.37217882 -0.14131442
0.3624437 -0.40658355 -0.37396798 0.23774798 -0.34194502 0.121142596 0.16208577 -0.41269076
0.30913407 0.18068178 0.347745 -0.26784834 0.08200724 0.13970667 0.1772614 0.077465855
0.09308315 0.2545865 -0.16243087 -0.23515396 -0.15194875 0.18670034 0.13621755 0.25329834
0.2750184 0.30436984 -0.37750354 -0.33645594 0.27118975 0.2556534 -0.18966405 0.027793318
0.3368746 0.06856384 -0.27879328 0.17760262 0.16227491 0.21123677 -0.14147641 0.23194097
0.34268558 0.20442948 0.24339046 0.42117316 -0.13178991 0.3797444 -0.1471971 0.1058061
0.40684375 -0.122869216 -0.39935103 0.07828306 0.042860553 0.19883487 0.35833484 -0.0007225865
00000000: 1458 c0be 9624 9bbe 2d8f 9e3e 8bc4 643e
00000010: 0395 0cbe 5451 5fbe 45dc a3be 2bb5 e13d
00000020: 2422 ab3c a10f 21bd def4 b5bc 40a1 6e3e
00000030: a208 8abd 61af f53d 9d2d 373e 7b15 c9be
00000040: 31ed 6fbe 545a 8abe 1bfb 5e3e 51e8 3fbd
00000050: 01b2 82be 0208 e8be 3107 62bd dab2 cb3e
00000060: 5b41 cebe 18ba 63be 54aa c9be ecc0 10bc
00000070: 8c97 b4be 6627 903e 6c15 553e fd34 b13d
00000080: 9fbb b73d b259 bebe 7665 443e c2e2 8f3e
00000090: 53f0 d4bd 4ac3 753e c09b 90be ed50 a93c
000000a0: beb2 78be caf5 7bbd a1d1 a3be 81c1 c6be
000000b0: 0a61 253d f4e7 acbe 78a2 98bd ac5d cbbe
000000c0: 9c98 c4be 1bf8 78be d205 6fbe c40b 10be
000000d0: 3d29 e63d de7f 413e 5975 6a3e 4e5a 0dbe
000000e0: 60bb 863d 378a 2bbe f726 0fbe e1c3 8f3e
000000f0: 73e2 953e d48a e33c 9a4c a93e 1d4a 9bbe
00000100: 7e16 0bbe 1f94 dabe a2b5 51be e3d0 f03d
00000110: adfd df3e b2a8 ba3e 16a1 bd3e 93ee 9abe
00000120: 04b5 163e aa4f f13d dab9 37be d246 4f3d
00000130: c71e 0dbe cc31 983e f556 8bbd 0a03 b7be
00000140: dfd6 b83e 1f66 93be c7f9 b63e 08b4 14bc
00000150: 5d71 7f3d c9b1 e0be ab2c efbd 2f24 333d
00000160: d0a2 2fbe 03cb 043e d634 7c3e 8219 913e
00000170: 673a d4be 4fd0 cd3e f019 193e 965b a2bd
00000180: 4505 873d 7207 a0be fd7a d8be fdd0 d4be
00000190: fb64 0b3e bde7 27be 398e bebe bab4 10be
000001a0: 3892 b93e b82b d0be bb78 bfbe 3574 733e
000001b0: 6b13 afbe 9c19 f83d d0f9 253e 344c d3be
000001c0: d246 9e3e a504 393e a20b b23e 6b23 89be
000001d0: 69f3 a73d 440f 0f3e 0384 353e 6ba6 9e3d
000001e0: 61a2 be3d 2959 823e 4754 26be 33cc 70be
000001f0: 7498 1bbe 602e 3f3e 9d7c 0b3e 52b0 813e
00000200: 36cf 8c3e 5dd6 9b3e 2548 c1be f443 acbe
00000210: 62d9 8a3e 01e5 823e 4b37 42be d0ae e33c
00000220: d47a ac3e 336b 8c3d febd 8ebe 76dd 353e
00000230: 652b 263e 744e 583e 31df 10be ef81 6d3e
00000240: 7c74 af3e f655 513e 593b 793e 02a4 d73e
00000250: eff3 06be dc6d c23e d6ba 16be deb0 d83d
00000260: d34d d03e dba2 fbbd bd77 ccbe de52 a03d
00000270: 8c8e 2f3d 5e9b 4b3e aa77 b73e f66b 3dba

layers.1.Ah.conv1.bias f4 [32]
0.077822804 0.2017175 0.37637317 0.47561032 -0.06868109 0.054788027 0.11369111 -0.28140727
-0.32623348 0.0385751 -0.41541854 0.26431748 0.08802881 -0.21661879 -0.25645047 0.21776918
0.31137797 0.049817357 0.38060698 0.38570455 0.40138718 -0.11467699 -0.051227152 0.33591995
-0.16776027 0.38649946 0.3861909 0.10711619 -0.33775273 -0.15897499 -0.10449039 0.0037071677
00000000: 9061 9f3d 088f 4e3e fcb3 c03e 3283 f33e
00000010: aca8 8cbd 6969 603d e2d6 e83d 9d14 90be
00000020: 1308 a7be ed00 1e3d bdb1 d4be 9f54 873e
00000030: 7348 b43d 51d1 5dbe 7a4d 83be e2fe 5e3e
00000040: ef6c 9f3e 490d 4c3d ebde c23e 117b c53e
00000050: 9f82 cd3e c5db eabd 90d3 51bd b3fd ab3e
00000060: 59c9 2bbe 42e3 c53e d0ba c53e bc5f db3d
00000070: eded acbe 57ca 22be 0fff d5bd f4f3 723b

layers.1.Ah.conv2.weight f4 [16, 32, 3]
-0.10262693 -0.0089724995 0.06155625 0.036552317 0.0016655637 -0.1125997 0.03413367 0.06610653
0.07462328 0.06367558 -0.1028678 0.07566814 -0.041431066 -0.01506822 0.06835869 0.018457226
-0.017096952 0.06473289 0.011348748 0.015731068 0.04445584 0.0009867988 -0.05354027 -0.00742565
0.00063837424 -0.00896427 -0.04773599 -0.102364436 -0.07949959 0.069505945 0.082334384 -0.052178327
0.10473607 -0.016724283 -0.0032859314 -0.006704994 0.064667515 -0.037791256 0.07288923 0.08038364
0.077446334 0.066706434 0.03249785 -0.010525857 0.007556592 0.08164659 -0.09948888 0.058526713
0.07474966 -0.027978435 0.032923516 -0.09340614 -0.0666446 -0.02388347 0.021413386 -0.034157865
0.0727559 -0.025999883 0.004606272 -0.018418908 -0.03772343 -0.080190405 0.022201892 0.016383313
0.06923655 -0.024573086 -0.09130253 -0.060773164 -0.102145255 0.051562317 -0.090059385 -0.046613894
0.045131847 -0.08591119 -0.048058264 -0.004605889 0.08746564 -0.05232539 -0.084977254 -0.10901238
0.016279895 -0.0524253 0.04412025 0.009313664 -0.08172361 -0.028786723 -0.0040903413 -0.015318741
0.0005715295 -0.098787166 0.027000882 -0.04134289 -0.004695031 0.050077483 0.06827782 0.07306308
-0.08188782 0.07829959 0.024467709 0.105509646 0.009917987 0.064736106 0.09485902 0.015853422
0.07857638 -0.0721929 -0.040268 0.03302026 -0.07463627 -0.07675197 -0.11455746 0.05204177
0.05757955 0.058431134 -0.018752059 0.0326547 0.103792235 -0.06643789 -0.06279417 -0.10888841
0.065573074 -0.0356063 -0.030189954 0.077230625 -0.08239699 0.044417907 0.014168548 -0.020846322
-0.03459333 0.33382103 0.33659872 0.15934393 -0.008910732 0.089088775 -0.0646618 0.06720621
-0.01804292 -0.10262497 0.05156175 -0.07305405 0.08295284 -0.014852336 0.099174 0.05542405
0.08042786 0.051701352 -0.06584297 0.0141370855 0.021392455 -0.07334551 0.107237376 0.11379694
0.052595947 0.021609 0.022319114 -0.022711087 -0.073997356 -0.07420539 0.0166224 0.05492171
0.028514141 0.05102102 -0.07781631 0.08645157 -0.008182958 -0.01661722 0.11902437 0.071200155
-0.07873523 -0.11713114 -0.07962444 -0.05161564 0.022709023 0.027010499 0.08142479 0.03387501
0.04270097 -0.02529927 0.11463227 0.085611604 -0.0737853 0.07664391 0.06612446 -0.033754304
0.089786015 0.085080385 -0.016356908 -0.037478436 -0.10921336 -0.05229172 -0.03875331 -0.065480545
-0.023555212 -0.020708265 0.025067525 -0.028754951 0.0130114565 -0.06771736 0.052086435 0.04626064
-0.056832336 -0.084039256 0.06843015 -0.04535785 0.062224187 -0.058098394 0.014494006 -0.010600198
-0.06847283 -0.10770853 0.04319755 0.07274583 -0.052589383 -0.0116670225 0.044195097 0.055185314
-0.0306098 -0.0030882442 -0.09274126 0.08083865 0.05029266 0.049592547 0.07363312 -0.011469172
-0.050696447 -0.029181313 -0.042266086 -0.08210217 0.013668637 0.027207337 -0.06765491 -0.052863654
0.039745092 0.006605872 0.018378424 -0.07553112 0.044935074 0.027000586 -0.072487004 -0.0073607215
-0.094467126 -0.085291006 -0.021325478 -0.06588309 -0.10545439 0.008640987 -0.059054464 -0.025433585
0.0845488 -0.037773587 0.08538811 -0.041103862 -0.019116772 -0.025835821 0.0022208688 0.06616972
00000000: 112e d2bd 6401 13bc 6822 7c3d e2b7 153d
00000010: 0b4f da3a ac9a e6bd bfcf 0b3d dc62 873d
00000020: 17d4 983d 5868 823d 5aac d2bd e6f7 9a3d
00000030: 9fb3 29bd b2e0 76bc a4ff 8b3d 9c33 973c
00000040: e80e 8cbc ad92 843d 19f0 393c 71de 803c
00000050: 5417 363d 7957 813a 0b4d 5bbd de52 f3bb
00000060: 9258 273a e0de 12bc d086 43bd 72a4 d1bd
00000070: aed0 a2bd 2259 8e3d ee9e a83d f1b8 55bd
00000080: dd7f d63d 5d01 89bc c858 57bb 91b5 dbbb
00000090: 6770 843d 01cb 1abd f346 953d 2ea0 a43d
000000a0: 2f9c 9e3d 629d 883d 771c 053d a574 2cbc
000000b0: 4a9d f73b 5436 a73d d3c0 cbbd b5b9 6f3d
000000c0: 5a16 993d 0833 e5bc cfda 063d b84b bfbd
000000d0: f77c 88bd 44a7 c3bc 206b af3c 1ee9 0bbd
000000e0: 0c01 953d b5fd d4bc 36f0 963b 40e3 96bc
000000f0: e283 1abd de3a a4bd bee0 b53c 4c36 863c
00000100: e4cb 8d3d 7f4d c9bc d2fc babd 48ed 78bd
00000110: 8831 d1bd 0233 533d 0e71 b8bd 36ee 3ebd
00000120: 2cdc 383d 35f2 afbd bed8 44bd ffec 96bb
00000130: 2f21 b33d 2653 56bd 8e08 aebd e241 dfbd
00000140: 6a5d 853c e9bb 56bd 6fb7 343d 5798 183c
00000150: b55e a7bd 22d2 ebbc 4508 86bb 75fb 7abc
00000160: b2d2 153a ed50 cabd f430 dd3c 2a57 29bd
00000170: c6d8 99bb 0c1e 4d3d 3ed5 8b3d 19a2 953d
00000180: cdb4 a7bd 895b a03d 8170 c83c 7115 d83d
00000190: 0d7f 223c 5d94 843d 7245 c23d 09df 813c
000001a0: a7ec a03d dfd9 93bd 0ff0 24bd 4140 073d
000001b0: e7da 98bd 2330 9dbd 1a9d eabd c029 553d
000001c0: 89d8 6b3d 7c55 6f3d eb9d 99bc efc0 053d
000001d0: 0691 d43d 9710 88bd 3b9a 80bd e300 dfbd
000001e0: 2d4b 863d e9d7 11bd ec50 f7bc 172b 9e3d
000001f0: c1bf a8bd 8def 353d 3323 683c e8c5 aabc
00000200: bcb1 0dbd 97ea aa3e ab56 ac3e 0e2b 233e
00000210: 52fe 11bc 2d74 b63d 686d 84bd 69a3 893d
00000220: bfce 93bc 0a2d d2bd 6a32 533d 5d9d 95bd
00000230: 2ee3 a93d 3657 73bc bd1b cb3d 5404 633d
00000240: 5db7 a43d ccc4 533d aed8 86bd 3c9f 673c
00000250: 3b3f af3c 2c36 96bd 459f db3d 5f0e e93d
00000260: d96e 573d 5c05 b13c 93d6 b63c 9a0c babc
00000270: ed8b 97bd fff8 97bd b32b 883c 96f5 603d
00000280: 7d96 e93c 6bfb 503d 285e 9fbd 850d b13d
00000290: d011 06bc d620 88bc 0dc3 f33d 63d1 913d
000002a0: f03f a1bd 73e2 efbd 2312 a3bd ec6a 53bd
000002b0: 4608 ba3c 1f45 dd3c 0ac2 a63d 86c0 0a3d
000002c0: 36e7 2e3d 6a40 cfbc 53c4 ea3d 2355 af3d
000002d0: bf1c 97bd 7bf7 9c3d 436c 873d f441 0abd
000002e0: bbe1 b73d a03e ae3d ecfe 85bc fd82 19bd
000002f0: 41ab dfbd d82f 56bd cabb 1ebd aa1a 86bd
00000300: dcf6 c0bc 61a4 a9bc 695a cd3c 818f ebbc
00000310: 012e 553c 66af 8abd 9658 553d cc7b 3d3d
00000320: 06c9 68bd c61c acbd 1b25 8c3d 27c9 39bd
00000330: cade 7e3d 95f8 6dbd 4478 6d3c 74ac 2dbc
00000340: 7c3b 8cbd 4a96 dcbd eaef 303d c4fb 943d
00000350: f767 57bd 0a27 3fbc eb05 353d ff09 623d
00000360: 67c1 fabc 2464 4abb 21ef bdbd bc8e a53d
00000370: adff 4d3d 8e21 4b3d f6cc 963d 32e9 3bbc
00000380: 14a7 4fbd a60d efbc 341f 2dbd 2f25 a8bd
00000390: 6bf2 5f3c ece1 de3c a88e 8abd 8f87 58bd
000003a0: c0cb 223d 1276 d83b 598e 963c 0fb0 9abd
000003b0: d70d 383d 5530 dd3c 1174 94bd 3532 f1bb
000003c0: fb77 c1bd 0dad aebd c5b2 aebc b7ed 86bd
000003d0: 79f8 d7bd ed92 0d3c 18e3 71bd 185a d0bc
000003e0: ec27 ad3d 7ab8 1abd f6df ae3d 865c 28bd
000003f0: c79a 9cbc a5a5 d3bc ff8b 113b fd83 873d

layers.1.Ah.conv2.bias f4 [16]
-0.048544884 -0.048121825 0.044610605 -0.028030384 -0.0443353 0.09818187 0.06847596 0.0557104
0.057799753 -0.02175853 -0.03928802 -0.0057838205 -0.10780663 0.109060876 0.06546105 0.03672697
00000000: 00d7 46bd 641b 45bd 9cb9 363d fa9f e5bc
00000010: ee98 35bd 9413 c93d 203d 8c3d 9730 643d
00000020: 6fbf 6c3d f23e b2bc 7aec 20bd 3486 bdbb
00000030: b9c9 dcbd 4f5b df3d 7110 863d 056f 163d

layers.1.Ah.conv3.weight f4 [1, 16, 3]
0.08060033 -0.02645024 -0.09652905 -0.04461907 0.05884812 0.063958935 -0.10231196 -0.014307709
0.11456261 -0.11278244 -0.1315705 0.027933441 0.015104976 0.14850563 -0.05584887 -0.10189297
0.15001431 0.09735227 0.043594033 0.09544793 0.13533816 -0.04702685 -0.10163514 0.08279292
0.036855888 -0.073016696 0.12290793 0.024093004 -0.013577601 0.06196158 -0.0632662 0.061265405
-0.1111887 -0.1295807 0.088490754 -0.091931194 0.07506334 -0.095221035 -0.056017432 -0.009433439
0.113762304 0.13451952 -0.08518801 -0.114190176 0.04680505 0.15049991 0.0567015 -0.10498549
00000000: c911 a53d 2cae d8bc 06b1 c5bd 7cc2 36bd
00000010: ba0a 713d e7fc 823d ef88 d1bd e26a 6abc
00000020: cd9f ea3d 7bfa e6bd 6bba 06be acd4 e43c
00000030: dc7a 773c dc11 183e c9c1 64bd 43ad d0bd
00000040: 5a9d 193e a060 c73d a88f 323d 347a c33d
00000050: 1696 0a3e 3a9f 40bd 1626 d0bd 568f a93d
00000060: 33f6 163d c789 95bd 27b7 fb3d b15e c53c
00000070: 9674 5ebc 6dcb 7d3d b691 81bd 6ff1 7a3d
00000080: e7b6 e3bd ceb0 04be a43a b53d 6c46 bcbd
00000090: cfba 993d 3f03 c3bd 8972 65bd b68e 1abc
000000a0: 36fc e83d 7cbf 093e 0d77 aebd 8adc e9bd
000000b0: a7b6 3f3d a61c 1a3e d53f 683d a202 d7bd
