models/non_shared_warmup.pt (torch, 78965 bytes, 120 tensors)

layers.0.Aw.conv1.weight f4 [32, 1, 5]
0.13625172 -0.33643544 -0.4336914 0.41437083 -0.3504833 -0.24622843 -0.27873555 0.094004855
0.38074157 0.2694941 0.10106352 -0.019140506 -0.19451796 -0.3692973 -0.4241743 -0.25369495
-0.048503783 0.06759712 -0.2845567 -0.24379954 0.04531098 0.34387034 0.117591254 0.34159765
-0.32514367 -0.3607357 0.19204286 0.41990137 0.29149756 -0.29427832 -0.26592994 0.3564379
0.28627646 0.18985708 -0.15419957 0.0101971645 0.2341256 -0.04003193 -0.42672285 -0.048146427
-0.08555285 0.31072003 -0.4371223 -0.054683723 -0.27965274 -0.10585462 -0.4138679 -0.20640917
0.10274036 0.2809464 0.23867495 0.22010048 -0.035117816 0.26097897 0.0224902 -0.40585187
0.34033072 0.17084002 0.0877355 0.14520608 0.4080482 0.25998342 -0.0057474053 0.3310296
-0.010417295 -0.2759436 -0.15365349 -0.081840366 -0.10133979 0.070442125 -0.32534903 0.058679767
0.19282866 -0.36517727 0.033319876 -0.1871953 0.28779316 0.40797156 0.25679243 -0.291734
0.32960936 0.13573523 0.32154265 -0.018270116 0.3718938 -0.20134452 -0.40470952 0.12557279
0.37367365 -0.25685972 -0.23524722 0.1191477 0.23218729 0.29790178 0.3718548 0.15142561
-0.23107092 0.3489962 -0.032539766 0.24198848 -0.4394934 0.3359014 0.40838575 0.37550268
0.24177137 -0.28406933 -0.21033667 0.09511329 0.08083809 -0.3881826 0.25114244 -0.27851328
0.1689943 0.22051649 -0.41392392 -0.37338525 -0.2694976 0.014938002 -0.16243929 0.23785666
0.23744853 -0.34066647 0.25542152 -0.43509334 -0.4014995 -0.11565812 -0.4210319 -0.35350677
0.2006521 -0.16477112 -0.15613624 -0.35442623 0.2286572 -0.09025366 -0.21704242 0.30117092
0.42618617 -0.04486462 0.20710501 0.44462588 -0.14378592 -0.010172623 -0.17608859 0.27887583
0.35551408 0.408284 -0.44295666 0.24168767 0.3507789 0.05371861 -0.38793004 0.08130326
0.17310339 0.38387373 0.3579956 -0.23529635 0.3264609 -0.016586196 -0.29827043 -0.08218748
00000000: 9285 0b3e 4441 acbe cd0c debe 6a28 d43e
00000010: 8c72 b3be 4e23 7cbe 6db6 8ebe 9e85 c03d
00000020: 8ff0 c23e 21fb 893e 64fa ce3d 8dcc 9cbc
00000030: b72f 47be 8914 bdbe 602d d9be 4ee4 81be
00000040: e7ab 46bd 5c70 8a3d 6ab1 91be 96a6 79be
00000050: 0298 393d c60f b03e afd3 f03d e3e5 ae3e
00000060: 3b79 a6be 5ab2 b8be e2a6 443e 50fd d63e
00000070: 2b3f 953e a6ab 96be f827 88be 077f b63e
00000080: d492 923e e569 423e 7ee6 1dbe 0212 273c
00000090: 9fbe 6f3e 85f8 23bd 6b7b dabe 3035 45bd
000000a0: 5536 afbd b216 9f3e 7ece dfbe 0afc 5fbd
000000b0: a52e 8fbe 4fca d8bd 7ee6 d3be ed5c 53be
000000c0: 8a69 d23d 35d8 8f3e 3567 743e 0562 613e
000000d0: b3d7 0fbd 099f 853e 5e3d b83c d1cb cfbe
000000e0: d43f ae3e b0f0 2e3e abae b33d e7b0 143e
000000f0: b2eb d03e 8c1c 853e bb54 bcbb b67c a93e
00000100: 4dad 2abc 7b48 8dbe 5757 1dbe ec9b a7bd
00000110: 3c8b cfbd f643 903d 2694 a6be 325a 703d
00000120: e074 453e 84f8 babe 6c7a 083d 20b0 3fbe
00000130: a059 933e a6e1 d03e 4c7a 833e 295e 95be
00000140: 8fc2 a83e 2dfe 0a3e 3da1 a43e 36ab 95bc
00000150: dd68 be3e 422d 4ebe 1636 cfbe 2796 003e
00000160: 2752 bf3e 1e83 83be a6e4 70be b603 f43d
00000170: 81c2 6d3e 9586 983e c163 be3e 510f 1b3e
00000180: db9d 6cbe a1af b23e 6b48 05bd d4cb 773e
00000190: 4705 e1be 45fb ab3e f017 d13e e341 c03e
000001a0: ea92 773e 8971 91be 7f62 57be c2ca c23d
000001b0: 718e a53d dfbf c6be be95 803e 4b99 8ebe
000001c0: d70c 2d3e 13cf 613e d6ed d3be 5a2c bfbe
000001d0: 97fb 89be 86be 743c 7c56 26be b290 733e
000001e0: b525 733e d66b aebe 9cc6 823e 8ec4 debe
000001f0: 5891 cdbe 2ade ecbd 7e91 d7be d7fe b4be
00000200: be77 4d3e c3b9 28be 2ee2 1fbe 5b77 b5be
00000210: 1d25 6a3e e9d6 b8bd 5e40 5ebe 1333 9a3e
00000220: 1335 da3e f7c3 37bd 5613 543e 01a6 e33e
00000230: 9e3c 13be 13ab 26bc 9150 34be d0c8 8e3e
00000240: f105 b63e 9a0a d13e 37cb e2be f97c 773e
00000250: 4b99 b33e 0c08 5c3d c49e c6be 5382 a63d
00000260: 0442 313e 198b c43e 334b b73e 87f1 70be
00000270: e225 a73e c6df 87bc e7b6 98be e951 a8bd

layers.0.Aw.conv1.bias f4 [32]
-0.32072747 -0.36393705 0.054015536 0.4156106 -0.2193784 0.17368923 0.14296407 -0.27273923
-0.069538966 -0.08037452 0.30706778 0.21013711 0.4770919 0.3227165 -0.12694453 -0.12092219
0.35600156 -0.41908818 -0.12282666 0.28821275 -0.0485262 -0.2980191 0.3872605 -0.38461006
-0.27932283 -0.33783036 0.35661304 -0.32257286 -0.20690903 0.4435038 0.41931424 -0.31982064
00000000: 6436 a4be f555 babe 653f 5d3d eaca d43e
00000010: bba4 60be 97db 313e 2c65 123e 7aa4 8bbe
00000020: 726a 8ebd 659b a4bd fd37 9d3e 2f2e 573e
00000030: 6445 f43e 193b a53e bffd 01be 0ea6 f7bd
00000040: d645 b63e ba92 d6be 8b8c fbbd 9f90 933e
00000050: 69c3 46bd f695 98be 0247 c63e 9ceb c4be
00000060: 6703 8fbe 1af8 acbe fc95 b63e 4528 a5be
00000070: f6df 53be ee12 e33e 5bb0 d63e 88bf a3be

layers.0.Aw.conv2.weight f4 [16, 32, 3]
0.022581248 0.03161345 0.013858212 -0.013605745 -0.10784121 -0.10633413 -0.05730096 0.08949267
-0.0038251176 0.08870431 0.0147446245 0.051555242 0.056624606 -0.05812355 -0.04473999 0.021485249
0.03903755 -0.07866079 -0.08258614 0.036749877 0.022221243 -0.007829896 0.061472382 0.043211453
0.029353734 0.06352891 -0.07600473 -0.08543546 0.08336156 0.05395379 -0.05140263 0.08789029
0.0001635668 0.049673308 -0.08591562 -0.09573095 -0.008015737 -0.012479453 0.0053938306 0.0067289863
-0.0052612987 -0.04904735 -0.019552374 0.05553703 0.0712122 0.059623256 -0.0008087567 -0.00095399073
-0.025886925 0.03214578 -0.09723056 -0.042943493 -0.0034560852 0.034752574 -0.07649214 -0.049754906
-0.085996486 0.007846925 -0.08169135 -0.031734385 -0.059019156 -0.018434877 -0.034564026 0.06489391
-0.072701015 -0.075517565 -0.030643962 0.04394763 0.06958301 0.01758528 -0.06742256 0.08860743
-0.034830008 -0.06946014 0.05937585 0.012432812 0.044014398 -0.044452835 -0.094587564 0.06259053
0.08963235 -0.053359658 -0.0022777661 -0.07302426 0.018578332 0.020351905 0.05988223 -0.011795504
-0.0550415 0.07992213 -0.045620173 -0.08681408 0.024617385 0.06330448 -0.06489493 -0.034372907
0.054494895 -0.02640332 0.017864794 0.006391113 -0.04690341 -0.01636419 0.07425279 0.046110284
-0.09101272 0.019707737 0.12618032 -0.046632715 -0.016482754 -0.068788186 0.009020595 0.07479817
0.06726744 -0.09410958 -0.019921869 0.075736195 -0.069346994 -0.10565377 0.019133007 -0.0059582745
-0.13519442 -0.066508725 -0.08347615 0.024652062 -0.06572926 0.07710164 0.109936595 -0.081348434
0.0007920116 -0.05638903 -0.040287964 -0.032206565 0.081028625 -0.0187321 -0.022737566 0.08981262
0.097573824 0.013848384 -0.0044728452 0.027168248 0.0020260117 -0.088178314 -0.07119651 0.00437956
0.08336351 0.07697947 0.106348485 0.003266261 0.042341102 -0.021455381 0.07301901 0.0669068
-0.06281097 0.016754426 0.022302313 0.08799474 -0.066693366 -0.06249576 -0.0537967 -0.027907815
0.07601071 -0.03334075 0.08773514 0.0985779 0.06478978 0.047275126 -0.11665962 -0.03925956
0.0722477 -0.050121352 -0.129765 0.011233158 -0.017263206 -0.09826591 -0.03262779 0.030385127
-0.072084546 -0.026705433 -0.107527286 -0.10935797 0.017761545 0.030169055 -0.048788466 0.058584053
-0.007391575 0.058688127 -0.07614281 0.0027265626 0.0012162306 -0.07650931 -0.018997427 -0.052606046
0.057103436 -0.025287792 0.040790807 0.090279564 0.096156776 0.027136063 0.0046859533 -0.033891063
-0.07595048 -0.0732499 0.059943948 -0.050558273 0.057247438 0.009532642 0.009549798 -0.034538556
-0.08048939 0.07036658 0.09135804 0.04636697 0.04409897 -0.098525956 0.06286311 -0.070834905
-0.026072249 0.08634142 0.03510769 -0.06900898 0.010055686 0.079770744 -0.027772656 0.00093487505
-0.03911895 -0.075817905 0.016553668 0.0019334077 -0.02595793 -0.02310735 -0.07512782 -0.0002009838
0.10635708 0.018697958 -0.071028724 -0.09341547 -0.082444154 0.020877775 -0.0283547 0.020755414
0.034497626 0.088900454 0.039577745 0.046607003 0.0062529924 0.020797536 -0.030184265 -0.029079279
-0.10271566 0.042084593 0.053360824 -0.10016783 0.035752777 0.015277617 0.015056658 -0.03058201
00000000: 4ffc b83c 1b7d 013d 8e0d 633c a1ea 5ebc
00000010: dadb dcbd b5c5 d9bd 69b4 6abd ef47 b73d
00000020: d3ae 7abb 9baa b53d 7093 713c 972b 533d
00000030: 34ef 673d f612 6ebd 4841 37bd d501 b03c
00000040: d7e5 1f3d e918 a1bd ec22 a9bd 0a87 163d
00000050: 5309 b63c f748 00bc 77ca 7b3d 7efe 303d
00000060: 3e77 f03c 721b 823d 5ea8 9bbd c9f8 aebd
00000070: 77b9 aa3d a6fe 5c3d 908b 52bd d3ff b33d
00000080: 2183 2b39 3d76 4b3d 87f4 afbd 970e c4bd
00000090: 7054 03bc 9f76 4cbc bbbe b03b d47e dc3b
000000a0: f966 acbb e0e5 48bd 4d2c a0bc cc7a 633d
000000b0: b4d7 913d 8437 743d be02 54ba 3c15 7aba
000000c0: d110 d4bc 4bab 033d d120 c7bd 84e5 2fbd
000000d0: 7d7f 62bb b758 0e3d e9a7 9cbd cdcb 4bbd
000000e0: ed1e b0bd 6490 003c cb4d a7bd eafb 01bd
000000f0: 12be 71bd bd04 97bc 0293 0dbd 19e7 843d
00000100: 45e4 94bd f4a8 9abd 0c09 fbbc 6e02 343d
00000110: 8a81 8e3d 010f 903c d714 8abd d077 b53d
00000120: e9a9 0ebd 1e41 8ebd 1734 733d feb2 4b3c
00000130: 7148 343d 2d14 36bd 20b7 c1bd 772f 803d
00000140: 2a91 b73d a88f 5abd 9346 15bb be8d 95bd
00000150: 9631 983c 0ab9 a63c 1247 753d ee41 41bc
00000160: 3273 61bd 37ae a33d 38dc 3abd 95cb b1bd
00000170: 66aa c93c c7a5 813d a2e7 84bd 9bca 0cbd
00000180: 0a36 5f3d c64b d8bc 3059 923c 8b6c d13b
00000190: ca1d 40bd 320e 86bc d911 983d 23de 3c3d
000001a0: e064 babd 1f72 a13c 6a35 013e f201 3fbd
000001b0: d706 87bc d2e0 8cbd 1ecb 133c c82f 993d
000001c0: 83c3 893d 86bc c0bd 3033 a3bc 941b 9b3d
000001d0: cc05 8ebd 0161 d8bd d3bc 9c3c a13d c3bb
000001e0: 6870 0abe ba35 88bd 8bf5 aabd 1ff3 c93c
000001f0: 109d 86bd 77e7 9d3d 7026 e13d 029a a6bd
00000200: 009f 4f3a 2ff8 66bd fe04 25bd 08eb 03bd
00000210: 56f2 a53d 1074 99bc 2244 babc aeef b73d
00000220: c9d4 c73d 55e4 623c f290 92bb f28f de3c
00000230: d6c6 043b d596 b4bd 7acf 91bd 6982 8f3b
00000240: 7dba aa3d 6aa7 9d3d 3ccd d93d c40e 563b
00000250: dd6d 2d3d 32c3 afbc fe8a 953d 6f06 893d
00000260: 0aa3 80bd 9440 893c 57b3 b63c 9636 b43d
00000270: 8896 88bd 8efb 7fbd ee59 5cbd ee9e e4bc
00000280: 81ab 9b3d 4f90 08bd 7bae b33d 36e3 c93d
00000290: 81b0 843d 90a3 413d 3deb eebd a2ce 20bd
000002a0: 9af6 933d 0c4c 4dbd 1ee1 04be 480b 383c
000002b0: 916b 8dbc a33f c9bd b8a4 05bd 3bea f83c
000002c0: 10a1 93bd 5ac5 dabc 4437 dcbd 12f7 dfbd
000002d0: a980 913c 1825 f73c 6ad6 47bd d5f5 6f3d
000002e0: 0635 f2bb f662 703d c3f0 9bbd 21b0 323b
000002f0: ed69 9f3a eab0 9cbd 7ea0 9bbc 7079 57bd
00000300: 4be5 693d 5828 cfbc 4314 273d 7ee4 b83d
00000310: d8ed c43d 734c de3c a08c 993b 5bd1 0abd
00000320: ed8b 9bbd 0b04 96bd c987 753d 3116 4fbd
00000330: 4a7c 6a3d cc2e 1c3c c276 1c3c 4d78 0dbd
00000340: 9fd7 a4bd 5a1c 903d ed19 bb3d 4beb 3d3d
00000350: 1fa1 343d fac7 c9bd 60be 803d e411 91bd
00000360: 7895 d5bc c5d3 b03d 15cd 0f3d 9554 8dbd
00000370: 9bc0 243c d85e a33d 7b83 e3bc 6712 753a
00000380: 313b 20bd 6b46 9bbd 8f9b 873c 666a fd3a
00000390: baa5 d4bc a04b bdbc 9ddc 99bd 2ebf 52b9
000003a0: bed1 d93d 762c 993c 8277 91bd 9c50 bfbd
000003b0: 7bd8 a8bd de07 ab3c 1e48 e8bc 4207 aa3c
000003c0: 624d 0d3d 7111 b63d 461c 223d fce6 3e3d
000003d0: e7e5 cc3b 985f aa3c fe44 f7bc ab37 eebc
000003e0: 975c d2bd e560 2c3d e190 5a3d cb24 cdbd
000003f0: 8171 123d f84e 7a3c 33b0 763c 2087 fabc

layers.0.Aw.conv2.bias f4 [16]
-0.013562792 0.060941942 -0.030123057 -0.019288821 -0.03960081 0.025375303 -0.020021914 0.05830709
0.08261462 -0.09033069 -0.087295674 0.11180717 0.015616998 0.08586247 -0.00435886 0.015947858
00000000: 7936 5ebc 429e 793d a1c4 f6bc 9703 9ebc
00000010: 7534 22bd dedf cf3c ff04 a4bc 6ad3 6e3d
00000020: db31 a93d 4cff b8bd 13c8 b2bd 28fb e43d
00000030: 70de 7f3c aad8 af3d c5d4 8ebb 15a5 823c

layers.0.Aw.conv3.weight f4 [1, 16, 3]
0.124323525 -0.017822811 0.116337165 0.15741447 0.057526555 0.035195895 0.0952635 0.057807248
0.018670246 0.018342473 0.06158075 0.13284338 -0.08689967 0.056267556 0.10775497 -0.057930455
0.063964516 0.066099405 0.07424998 0.057548396 0.08945194 0.110746786 -0.054127462 0.13018048
-0.042271093 0.060444787 -0.060203824 0.09326697 -0.0046820785 -0.12508139 -0.08271875 -0.023218174
-0.057511687 -0.06142925 0.13319202 0.026249459 -0.12977041 0.030173827 0.12600118 -0.077480264
-0.08704179 0.09640534 0.11813209 0.017341431 -0.09616507 0.05572641 0.13736108 0.01669798
00000000: 559d fe3d 2501 92bc 2e42 ee3d 4231 213e
00000010: f7a0 6b3d 9229 103d 8319 c33d 4bc7 6c3d
00000020: 58f2 983c f442 963c 193c 7c3d 1808 083e
00000030: 74f8 b1bd cf78 663d a3ae dc3d 7c48 6dbd
00000040: d4ff 823d 205f 873d 6010 983d deb7 6b3d
00000050: 9432 b73d 36cf e23d c2b4 5dbd 084e 053e
00000060: 7424 2dbd f494 773d 4998 76bd c102 bf3d
00000070: 1f6c 99bb 5615 00be 7368 a9bd 0a34 bebc
00000080: 6091 6bbd 3d9d 7bbd 7d63 083e 1b09 d73c
00000090: 89e2 04be 1a2f f73c 7406 013e f9ad 9ebd
000000a0: f742 b2bd 2a70 c53d 3def f13d 9e0f 8e3c
000000b0: 31f2 c4bd 6041 643d 62a8 0c3e 34ca 883c

layers.0.Ah.conv1.weight f4 [32, 1, 5]
0.11147754 0.3858232 -0.34431106 0.3632667 0.28399038 -0.285759 0.1784959 -0.38509485
0.19240509 -0.37865084 0.31148508 -0.21102838 -0.026501464 0.3481246 -0.035853725 -0.4404764
0.18443437 0.047631215 0.18357126 -0.027051311 0.089341 -0.1953664 -0.19479583 0.18936025
0.35593033 0.24083742 -0.05319824 0.100413315 -0.045820814 -0.26220775 -0.3569282 0.3038815
0.18371232 -0.21822304 -0.0029517375 0.055984616 0.20569545 0.37435907 -0.39535663 0.41500264
-0.04702707 -0.38395977 -0.0075334148 0.39540282 0.09622967 -0.0010754504 -0.28635073 0.026143413
0.11334481 -0.12633552 -0.28073218 -0.064421415 -0.002192621 0.3276268 0.17744893 -0.25043327
0.35913357 -0.067385145 -0.40393364 0.22747481 -0.37589964 0.18132602 0.17566863 0.31036833
0.1392926 0.49194184 0.13592845 -0.28625795 0.24737266 0.25064936 0.40205055 -0.35122696
0.30925372 -0.15800612 -0.11473762 0.40243408 -0.1289609 0.1913631 0.10690183 -0.19114442
0.12040991 0.18346927 -0.12502928 0.2548331 0.033845328 0.2531378 -0.3880638 -0.10401352
-0.28991067 0.26043898 0.2397025 0.13739519 0.06519674 -0.44344512 0.03249095 -0.16126257
-0.097239755 -0.12843764 -0.108214445 0.33104458 -0.26288727 -0.13882963 0.09057973 -0.17054252
-0.2068305 0.114477925 -0.3010532 0.0003221205 0.27738836 0.0056416932 0.22287098 0.007745876
0.18773068 -0.06574437 0.06258665 -0.13180481 0.09838989 -0.36661768 -0.22227208 0.19239058
-0.06858655 0.0151669895 0.13431323 0.4358775 0.151564 0.043410074 0.08452441 0.35640243
0.045560278 0.024197048 -0.0011208272 -0.09386648 -0.13811299 0.06258158 -0.23436944 0.29165998
0.076310985 0.27490786 -0.12509073 0.2169668 0.2496361 0.23165026 -0.21748126 -0.12716198
0.3240268 -0.43268964 0.42621222 -0.02298921 0.041086398 0.33091992 0.21135885 0.2172908
-0.37020293 -0.09401236 0.34522334 0.05686545 -0.39900583 0.1702468 -0.2933619 0.2007317
00000000: 564e e43d 9e8a c53e 8a49 b0be 18fe b93e
00000010: 3067 913e 014f 92be a1c7 363e 272b c5be
00000020: d705 453e 86de c1be f97a 9f3e d317 58be
00000030: 9919 d9bc 633d b23e 5bdb 12bd 1f86 e1be
00000040: 5ddc 3c3e f318 433d 1bfa 3b3e b69a ddbc
00000050: 6af8 b63d 210e 48be 8f78 47be a7e7 413e
00000060: 803c b63e 169e 763e 66e6 59bd 7fa5 cd3d
00000070: 9bae 3bbd 1840 86be 4bbf b6be 5b96 9b3e
00000080: 151f 3c3e dc75 5fbe f071 41bb 2050 653d
00000090: d4a1 523e feab bf3e 2f6c cabe 3a7b d43e
000000a0: 759f 40bd 6096 c4be ddda f6bb 3d72 ca3e
000000b0: 1014 c53d 21f6 8cba 909c 92be b62a d63c
000000c0: 5321 e83d 195e 01be 21bc 8fbe 60ef 83bd
000000d0: 13b2 0fbb b3be a73e 2cb5 353e ca38 80be
000000e0: 5be0 b73e 3901 8abd 64d0 cebe 28ef 683e
000000f0: eb75 c0be 87ad 393e 7ae2 333e 99e8 9e3e
00000100: b8a2 0e3e cddf fb3e d430 0b3e 6790 92be
00000110: 424f 7d3e 1d55 803e 92d9 cd3e 05d4 b3be
00000120: 8156 9e3e 5bcc 21be 8ffb eabd d70b ce3e
00000130: 530e 04be b0f4 433e 59ef da3d 5dbb 43be
00000140: 7999 f63d 5edf 3b3e ad07 00be 7c79 823e
00000150: 66a1 0a3d 479b 813e 4cb0 c6be 0a05 d5bd
00000160: 2c6f 94be 4258 853e 9274 753e 53b1 0c3e
00000170: de85 853d 3d0b e3be 3b15 053d 0422 25be
00000180: a325 c7bd 2885 03be 899f ddbd ad7e a93e
00000190: 2999 86be 5b29 0ebe de81 b93d b3a2 2ebe
000001a0: 60cb 53be 6773 ea3d a523 9abe 48e2 a839
000001b0: d905 8e3e f4dd b83b 4a38 643e 1ed1 fd3b
000001c0: 793c 403e fca4 86bd 6e2d 803d d7f7 06be
000001d0: a380 c93d 50b5 bbbe 4b9b 63be 0902 453e
000001e0: 1b77 8cbd f77e 783c 6889 093e 562b df3e
000001f0: 9833 1b3e c3ce 313d 221b ad3d 617a b63e
00000200: 6a9d 3a3d e338 c63c b8e8 92ba 123d c0bd
00000210: 7e6d 0dbe c52a 803d 8bfe 6fbe 7554 953e
00000220: ef48 9c3d b9c0 8c3e c917 00be 8b2c 5e3e
00000230: 9ba0 7f3e ba35 6d3e 68b3 5ebe c036 02be
00000240: d7e6 a53e 7f89 ddbe 7d38 da3e de53 bcbc
00000250: 364a 283d 566e a93e 746e 583e 7b81 5e3e
00000260: 3d8b bdbe 8d89 c0bd 1dc1 b03e bfeb 683d
00000270: 7e4a ccbe 2d55 2e3e 8833 96be 9c8c 4d3e

layers.0.Ah.conv1.bias f4 [32]
0.3671073 0.41166225 -0.39824805 0.042512745 -0.087586045 0.12205489 0.30275774 -0.0016493736
0.24462052 0.14005034 0.29603067 0.1568025 0.13624495 -0.37932256 -0.40819535 0.19214606
0.28132993 0.3087756 0.016553467 0.1614328 -0.34811097 0.14276323 0.2743543 0.4271854
0.29334033 -0.3324291 0.061850507 -0.114966884 -0.20667273 0.031160831 0.24411507 0.05926855
00000000: 7df5 bb3e 65c5 d23e 2be7 cbbe d821 2e3d
00000010: 5060 b3bd eaf7 f93d 1003 9b3e cb2f d8ba
00000020: cd7d 7a3e 5b69 0f3e 5591 973e d690 203e
00000030: cc83 0b3e 9136 c2be fbfe d0be f0c1 443e
00000040: 7a0a 903e d617 9e3e 239b 873c a44e 253e
00000050: 9a3b b2be 8630 123e 2b78 8c3e 0bb8 da3e
00000060: b430 963e 2634 aabe f556 7d3d c273 ebbd
00000070: 04a2 53be 0045 ff3c 4df9 793e 94c3 723d

layers.0.Ah.conv2.weight f4 [16, 32, 3]
0.052902345 -0.070392445 0.010482573 -0.08766564 -0.066787615 -0.013788391 -0.03140559 0.02332106
0.014661399 0.04384491 -0.09079028 -0.093835175 -0.086546846 0.015663005 -0.028383752 0.051299397
0.15293781 0.14259772 0.067830056 0.034608714 -0.07072516 0.012649157 -0.11980682 0.07786542
0.06796231 -0.10538477 -0.06372095 0.08096358 -0.04949208 0.053334802 -0.08663959 0.048803914
-0.08274152 -0.04018953 -0.106716625 0.0139739355 -0.04039827 0.046032503 -0.12911195 -0.005663724
-0.13805954 -0.13763471 -0.02557565 0.095252 -0.007619556 -0.067456536 0.10089086 -0.06629479
0.0073342174 0.08509591 -0.09000962 -0.02521115 0.023266962 -0.07996773 -0.103498384 -0.0076920725
0.26228142 0.03092251 0.057268202 -0.03834046 -0.0834633 0.015808497 0.107485004 -0.09077069
0.05438445 -0.13621652 -0.052550435 -0.007896451 0.09573319 -0.09791613 -0.03971324 0.054936897
-0.03312176 -0.08379415 0.041733548 0.026048394 0.0061362116 0.12243733 -0.009571794 0.016212843
0.023937235 0.05610811 -0.07127255 -0.03637169 -0.024988687 -0.06855664 -0.037079845 -0.07340157
-0.10768025 -0.1085762 -0.023910968 -0.030163119 0.018311946 -0.11222987 -0.12726787 0.057913296
-0.045422398 -0.057341293 -0.023688136 -0.043373436 0.04578562 -0.054696083 -0.09533281 0.017583316
0.08844677 -0.14126618 0.053138684 -0.11392779 0.03913877 -0.029593574 -0.016064843 0.107309185
0.031763624 -0.07802971 -0.034491714 -0.0432165 0.014432372 0.049655233 0.015494872 -0.043407835
0.00047370736 -0.029520778 -0.080718264 0.10831664 0.11804796 -0.08962909 -0.00029521322 -0.05958307
-0.096294954 -0.016003298 0.12186036 0.043494448 0.07488351 -0.022001896 0.06507529 -0.011025364
-0.07351946 0.032582145 0.05975038 0.05266234 -0.043950766 -0.051305544 -0.0477634 -0.09224792
-0.0518241 0.028888568 0.030979041 -0.044337112 0.017241431 -0.09357514 -0.03989293 0.113236666
-0.044440147 0.09096993 -0.043714926 0.03227778 0.023958249 0.07768537 -0.0625261 -0.09330708
0.019106122 -0.03832217 0.03342628 0.04043898 0.005552007 0.029559465 0.1273217 -0.052822977
0.0740177 -0.03868145 0.06938245 -0.11316349 -0.14362778 -0.11570157 -0.05589868 -0.0019873483
0.05158838 0.08927502 -0.029593257 0.08290932 0.009249574 -0.045133777 -0.09966399 0.06233829
0.07521126 0.015257191 0.09557952 -0.004929522 0.007659729 0.030173846 -0.039482582 0.04371553
-0.108367 0.068202235 -0.08831003 0.0010255082 -0.109422706 0.073865466 -0.033513065 0.07411074
0.08811632 0.039416496 0.111300655 0.053697754 0.030576212 -0.08146909 -0.090706296 0.051285077
-0.039007053 -0.06523616 -0.00704404 -0.04872664 0.06630328 -0.07860034 0.07233116 0.010327587
-0.0030324515 0.07946059 0.033326577 -0.06938104 -0.047614492 -0.036679063 0.0156737 -0.018264296
-0.0033344126 -0.0070873345 0.02568383 -0.074309036 0.039874934 -0.078635 -0.06047007 0.08314777
-0.07459091 0.06343406 -0.021085192 0.060572334 0.039919484 0.047320075 0.052252278 0.045659907
-0.026734196 -0.049630266 0.016884662 -0.0037371998 0.01700534 -0.032553326 -0.03505851 -0.11704746
-0.022700513 0.036906097 -0.00846152 0.040592052 -0.022072125 0.032871418 0.075628944 0.05605477
00000000: 21b0 583d ea29 90bd 19bf 2b3c 0b8a b3bd
00000010: f2c7 88bd b4e8 61bc 26a3 00bd cf0b bf3c
00000020: 5d36 703c b896 333d 41f0 b9bd a82c c0bd
00000030: 793f b1bd b44f 803c 0b85 e8bc 511f 523d
00000040: bb9b 1c3e 2305 123e 7cea 8a3d dec1 0d3d
00000050: 5ad8 90bd 693e 4f3c 475d f5bd e877 9f3d
00000060: d32f 8b3d f8d3 d7bd 2180 82bd 3cd0 a53d
00000070: 35b8 4abd 9875 5a3d 1970 b1bd 9de6 473d
00000080: 6374 a9bd c79d 24bd 3f8e dabd eff2 643c
00000090: a878 25bd 948c 3c3d ec35 04be c396 b9bb
000000a0: 7b5f 0dbe 1df0 0cbe 0784 d1bc 7b13 c33d
000000b0: 78ad f9bb a726 8abd de9f ce3d 90c5 87bd
000000c0: e053 f03b c446 ae3d f756 b8bd 9d87 cebc
000000d0: 5b9a be3c 1fc6 a3bd f6f6 d3bd c80d fcbb
000000e0: c049 863e 3451 fd3c 1092 6a3d e30a 1dbd
000000f0: ceee aabd d280 813c 1921 dc3d fce5 b9bd
00000100: 3bc2 5e3d 587c 0bbe 203f 57bd 1e60 01bc
00000110: c30f c43d 4188 c8bd 5aaa 22bd 8305 613d
00000120: afaa 07bd 449c abbd ccf0 2a3d 7163 d53c
00000130: 4612 c93b 6cc0 fa3d 04d3 1cbc ccd0 843c
00000140: 0518 c43c 9ed1 653d 58f7 91bd 7bfa 14bd
00000150: 13b5 ccbc 6c67 8cbd 09e1 17bd 9053 96bd
00000160: 7787 dcbd 335d debd efe0 c3bc a518 f7bc
00000170: ef02 963c c6d8 e5bd 8252 02be 7e36 6d3d
00000180: d60c 3abd b4de 6abd 9f0d c2bc 58a8 31bd
00000190: b489 3b3d 0009 60bd d93d c3bd e30a 903c
000001a0: 9523 b53d 15a8 10be f3a7 593d f952 e9bd
000001b0: fa4f 203d 396e f2bc 6b9a 83bc ebc4 db3d
000001c0: 931a 023d 0ace 9fbd 2f47 0dbd c903 31bd
000001d0: c175 6c3c 4963 4b3d 34de 7d3c 6acc 31bd
000001e0: ed5b f839 8fd5 f1bc 9e4f a5bd 1dd5 dd3d
000001f0: 21c3 f13d 758f b7bd d9c6 9ab9 610d 74bd
00000200: 4a36 c5bd 5919 83bc ed91 f93d 3c27 323d
00000210: 875c 993d 523d b4bc 3246 853d baa3 34bc
00000220: 5f91 96bd db74 053d d1bc 743d 77b4 573d
00000230: b805 34bd c325 52bd 8ea3 43bd 7aec bcbd
00000240: 8245 54bd b8a7 ec3c c2c7 fd3c d59a 35bd
00000250: e73d 8d3c 53a4 bfbd c566 23bd a0e8 e73d
00000260: df06 36bd 714e ba3d 6c0e 33bd b535 043d
00000270: 1744 c43c 8219 9f3d af0d 80bd c817 bfbd
00000280: 7184 9c3c b5f7 1cbd ffe9 083d 58a3 253d
00000290: 9ced b53b b126 f23c 9f60 023e e85c 58bd
000002a0: 9896 973d 7170 1ebd 6318 8e3d 43c2 e7bd
000002b0: 2913 13be f2f4 ecbd 04f6 64bd 2c3e 02bb
000002c0: 564e 533d d2d5 b63d 8f6d f2bc 5dcc a93d
000002d0: 868b 173c 32de 38bd a21c ccbd 6f56 7f3d
000002e0: 5c08 9a3d 4cf9 793c 32bf c33d d487 a1bb
000002f0: 77fe fa3b 242f f73c 7db8 21bd 0e0f 333d
00000300: 85ef ddbd 9dad 8b3d e4db b4bd 586a 863a
00000310: 0319 e0bd c746 973d ff44 09bd 5fc7 973d
00000320: 5476 b43d 3173 213d 99f1 e33d 2df2 5b3d
00000330: f77a fa3c 44d9 a6bd 39c4 b9bd 4d10 523d
00000340: dcc5 1fbd 899a 85bd b1d1 e6bb 9695 47bd
00000350: 04ca 873d 37f9 a0bd 5c22 943d 0a35 293c
00000360: 18bc 46bb 3cbc a23d 7381 083d a617 8ebd
00000370: 6a07 43bd c93c 16bd 2266 803c 019f 95bc
00000380: 2986 5abb df3c e8bb e566 d23c 562f 98bd
00000390: e653 233d 630b a1bd 77af 77bd 6149 aa3d
000003a0: 1ec3 98bd b7e9 813d daba acbc b21a 783d
000003b0: 9d82 233d b2d2 413d 7c06 563d e205 3b3d
000003c0: ac01 dbbc 1b49 4bbd b451 8a3c cfeb 74bb
000003d0: c84e 8b3c a356 05bd 8399 0fbd 94b6 efbd
000003e0: 6df6 b9bc d92a 173d 30a2 0abc da43 263d
000003f0: 9ad0 b4bc 2ea4 063d 59e3 9a3d b099 653d

layers.0.Ah.conv2.bias f4 [16]
-0.07918432 -0.06981183 -0.0039761886 -0.0803372 0.121557906 -0.17745437 -0.04495852 -0.028188592
-0.15427202 0.11349358 -0.009298482 -0.062109113 -0.1183744 0.14814386 -0.18480581 -0.18633215
00000000: 642b a2bd 81f9 8ebd b04a 82bb d487 a4bd
00000010: 5af3 f83d 99b6 35be 6d26 38bd c3eb e6bc
00000020: 7cf9 1dbe 526f e83d a958 18bc 2066 7ebd
00000030: 476e f2bd 06b3 173e bc3d 3dbe dbcd 3ebe

layers.0.Ah.conv3.weight f4 [1, 16, 3]
0.074561834 -0.025879666 -0.12693852 -0.059133515 0.055670436 0.113633126 0.07157803 -0.09883209
-0.034543447 -0.17854068 -0.06860855 -0.0073818876 -0.05166015 0.19068198 0.11320778 0.03544735
-0.23791423 0.021515587 0.12633538 -0.036137335 0.09523265 -0.19868292 -0.18900062 -0.09400566
-0.15655898 -0.090894975 0.020677267 0.015633577 0.17328207 0.028012864 0.07671941 0.1873383
0.086568445 -0.17637034 -0.0586307 0.016576111 -0.20196679 -0.057467602 0.06911257 0.044461403
0.3605566 -0.08563077 -0.110280685 -0.142036 -0.0050530783 -0.10363918 -0.20794328 0.102663845
00000000: e0b3 983d 9801 d4bc 2cfc 01be fc35 72bd
00000010: af06 643d 7cb8 e83d 8197 923d 7b68 cabd
00000020: 6e7d 0dbd 5ed3 36be a482 8cbd c3e3 f1bb
00000030: 9899 53bd 2342 433e 7bd9 e73d 3e31 113d
00000040: ca9f 73be 7541 b03c 105e 013e be04 14bd
00000050: 5609 c33d 8973 4bbe 6189 41be 0a86 c0bd
00000060: ff50 20be 2527 babd 5f63 a93c fd11 803c
00000070: db70 313e 3c7b e53c 111f 9d3d 9cd5 3f3e
00000080: cc4a b13d 6d9a 34be bf26 70bd a0ca 873c
00000090: 62d0 4ebe 2663 6bbd e48a 8d3d 291d 363d
000000a0: e09a b83e 2f5f afbd d7da e1bd e371 11be
000000b0: 4b94 a5bb c740 d4bd 15ef 54be 6c41 d23d

layers.1.Aw.conv1.weight f4 [32, 1, 5]
0.13625172 -0.33643544 -0.4336914 0.41437083 -0.3504833 -0.24622843 -0.27873555 0.094004855
0.38074157 0.2694941 0.10106352 -0.019140506 -0.19451796 -0.3692973 -0.4241743 -0.25369495
-0.048503783 0.06759712 -0.2845567 -0.24379954 0.04531098 0.34387034 0.117591254 0.34159765
-0.32514367 -0.3607357 0.19204286 0.41990137 0.29149756 -0.29427832 -0.26592994 0.3564379
0.28627646 0.18985708 -0.15419957 0.0101971645 0.2341256 -0.04003193 -0.42672285 -0.048146427
-0.08555285 0.31072003 -0.4371223 -0.054683723 -0.27965274 -0.10585462 -0.4138679 -0.20640917
0.10274036 0.2809464 0.23867495 0.22010048 -0.035117816 0.26097897 0.0224902 -0.40585187
0.34033072 0.17084002 0.0877355 0.14520608 0.4080482 0.25998342 -0.0057474053 0.3310296
-0.010417295 -0.2759436 -0.15365349 -0.081840366 -0.10133979 0.070442125 -0.32534903 0.058679767
0.19282866 -0.36517727 0.033319876 -0.1871953 0.28779316 0.40797156 0.25679243 -0.291734
0.32960936 0.13573523 0.32154265 -0.018270116 0.3718938 -0.20134452 -0.40470952 0.12557279
0.37367365 -0.25685972 -0.23524722 0.1191477 0.23218729 0.29790178 0.3718548 0.15142561
-0.23107092 0.3489962 -0.032539766 0.24198848 -0.4394934 0.3359014 0.40838575 0.37550268
0.24177137 -0.28406933 -0.21033667 0.09511329 0.08083809 -0.3881826 0.25114244 -0.27851328
0.1689943 0.22051649 -0.41392392 -0.37338525 -0.2694976 0.014938002 -0.16243929 0.23785666
0.23744853 -0.34066647 0.25542152 -0.43509334 -0.4014995 -0.11565812 -0.4210319 -0.35350677
0.2006521 -0.16477112 -0.15613624 -0.35442623 0.2286572 -0.09025366 -0.21704242 0.30117092
0.42618617 -0.04486462 0.20710501 0.44462588 -0.14378592 -0.010172623 -0.17608859 0.27887583
0.35551408 0.408284 -0.44295666 0.24168767 0.3507789 0.05371861 -0.38793004 0.08130326
0.17310339 0.38387373 0.3579956 -0.23529635 0.3264609 -0.016586196 -0.29827043 -0.08218748
00000000: 9285 0b3e 4441 acbe cd0c debe 6a28 d43e
00000010: 8c72 b3be 4e23 7cbe 6db6 8ebe 9e85 c03d
00000020: 8ff0 c23e 21fb 893e 64fa ce3d 8dcc 9cbc
00000030: b72f 47be 8914 bdbe 602d d9be 4ee4 81be
00000040: e7ab 46bd 5c70 8a3d 6ab1 91be 96a6 79be
00000050: 0298 393d c60f b03e afd3 f03d e3e5 ae3e
00000060: 3b79 a6be 5ab2 b8be e2a6 443e 50fd d63e
00000070: 2b3f 953e a6ab 96be f827 88be 077f b63e
00000080: d492 923e e569 423e 7ee6 1dbe 0212 273c
00000090: 9fbe 6f3e 85f8 23bd 6b7b dabe 3035 45bd
000000a0: 5536 afbd b216 9f3e 7ece dfbe 0afc 5fbd
000000b0: a52e 8fbe 4fca d8bd 7ee6 d3be ed5c 53be
000000c0: 8a69 d23d 35d8 8f3e 3567 743e 0562 613e
000000d0: b3d7 0fbd 099f 853e 5e3d b83c d1cb cfbe
000000e0: d43f ae3e b0f0 2e3e abae b33d e7b0 143e
000000f0: b2eb d03e 8c1c 853e bb54 bcbb b67c a93e
00000100: 4dad 2abc 7b48 8dbe 5757 1dbe ec9b a7bd
00000110: 3c8b cfbd f643 903d 2694 a6be 325a 703d
00000120: e074 453e 84f8 babe 6c7a 083d 20b0 3fbe
00000130: a059 933e a6e1 d03e 4c7a 833e 295e 95be
00000140: 8fc2 a83e 2dfe 0a3e 3da1 a43e 36ab 95bc
00000150: dd68 be3e 422d 4ebe 1636 cfbe 2796 003e
00000160: 2752 bf3e 1e83 83be a6e4 70be b603 f43d
00000170: 81c2 6d3e 9586 983e c163 be3e 510f 1b3e
00000180: db9d 6cbe a1af b23e 6b48 05bd d4cb 773e
00000190: 4705 e1be 45fb ab3e f017 d13e e341 c03e
000001a0: ea92 773e 8971 91be 7f62 57be c2ca c23d
000001b0: 718e a53d dfbf c6be be95 803e 4b99 8ebe
000001c0: d70c 2d3e 13cf 613e d6ed d3be 5a2c bfbe
000001d0: 97fb 89be 86be 743c 7c56 26be b290 733e
000001e0: b525 733e d66b aebe 9cc6 823e 8ec4 debe
000001f0: 5891 cdbe 2ade ecbd 7e91 d7be d7fe b4be
00000200: be77 4d3e c3b9 28be 2ee2 1fbe 5b77 b5be
00000210: 1d25 6a3e e9d6 b8bd 5e40 5ebe 1333 9a3e
00000220: 1335 da3e f7c3 37bd 5613 543e 01a6 e33e
00000230: 9e3c 13be 13ab 26bc 9150 34be d0c8 8e3e
00000240: f105 b63e 9a0a d13e 37cb e2be f97c 773e
00000250: 4b99 b33e 0c08 5c3d c49e c6be 5382 a63d
00000260: 0442 313e 198b c43e 334b b73e 87f1 70be
00000270: e225 a73e c6df 87bc e7b6 98be e951 a8bd

layers.1.Aw.conv1.bias f4 [32]
-0.32072747 -0.36393705 0.054015536 0.4156106 -0.2193784 0.17368923 0.14296407 -0.27273923
-0.069538966 -0.08037452 0.30706778 0.21013711 0.4770919 0.3227165 -0.12694453 -0.12092219
0.35600156 -0.41908818 -0.12282666 0.28821275 -0.0485262 -0.2980191 0.3872605 -0.38461006
-0.27932283 -0.33783036 0.35661304 -0.32257286 -0.20690903 0.4435038 0.41931424 -0.31982064
00000000: 6436 a4be f555 babe 653f 5d3d eaca d43e
00000010: bba4 60be 97db 313e 2c65 123e 7aa4 8bbe
00000020: 726a 8ebd 659b a4bd fd37 9d3e 2f2e 573e
00000030: 6445 f43e 193b a53e bffd 01be 0ea6 f7bd
00000040: d645 b63e ba92 d6be 8b8c fbbd 9f90 933e
00000050: 69c3 46bd f695 98be 0247 c63e 9ceb c4be
00000060: 6703 8fbe 1af8 acbe fc95 b63e 4528 a5be
00000070: f6df 53be ee12 e33e 5bb0 d63e 88bf a3be

layers.1.Aw.conv2.weight f4 [16, 32, 3]
0.022581248 0.03161345 0.013858212 -0.013605745 -0.10784121 -0.10633413 -0.05730096 0.08949267
-0.0038251176 0.08870431 0.0147446245 0.051555242 0.056624606 -0.05812355 -0.04473999 0.021485249
0.03903755 -0.07866079 -0.08258614 0.036749877 0.022221243 -0.007829896 0.061472382 0.043211453
0.029353734 0.06352891 -0.07600473 -0.08543546 0.08336156 0.05395379 -0.05140263 0.08789029
0.0001635668 0.049673308 -0.08591562 -0.09573095 -0.008015737 -0.012479453 0.0053938306 0.0067289863
-0.0052612987 -0.04904735 -0.019552374 0.05553703 0.0712122 0.059623256 -0.0008087567 -0.00095399073
-0.025886925 0.03214578 -0.09723056 -0.042943493 -0.0034560852 0.034752574 -0.07649214 -0.049754906
-0.085996486 0.007846925 -0.08169135 -0.031734385 -0.059019156 -0.018434877 -0.034564026 0.06489391
-0.072701015 -0.075517565 -0.030643962 0.04394763 0.06958301 0.01758528 -0.06742256 0.08860743
-0.034830008 -0.06946014 0.05937585 0.012432812 0.044014398 -0.044452835 -0.094587564 0.06259053
0.08963235 -0.053359658 -0.0022777661 -0.07302426 0.018578332 0.020351905 0.05988223 -0.011795504
-0.0550415 0.07992213 -0.045620173 -0.08681408 0.024617385 0.06330448 -0.06489493 -0.034372907
0.054494895 -0.02640332 0.017864794 0.006391113 -0.04690341 -0.01636419 0.07425279 0.046110284
-0.09101272 0.019707737 0.12618032 -0.046632715 -0.016482754 -0.068788186 0.009020595 0.07479817
0.06726744 -0.09410958 -0.019921869 0.075736195 -0.069346994 -0.10565377 0.019133007 -0.0059582745
-0.13519442 -0.066508725 -0.08347615 0.024652062 -0.06572926 0.07710164 0.109936595 -0.081348434
0.0007920116 -0.05638903 -0.040287964 -0.032206565 0.081028625 -0.0187321 -0.022737566 0.08981262
0.097573824 0.013848384 -0.0044728452 0.027168248 0.0020260117 -0.088178314 -0.07119651 0.00437956
0.08336351 0.07697947 0.106348485 0.003266261 0.042341102 -0.021455381 0.07301901 0.0669068
-0.06281097 0.016754426 0.022302313 0.08799474 -0.066693366 -0.06249576 -0.0537967 -0.027907815
0.07601071 -0.03334075 0.08773514 0.0985779 0.06478978 0.047275126 -0.11665962 -0.03925956
0.0722477 -0.050121352 -0.129765 0.011233158 -0.017263206 -0.09826591 -0.03262779 0.030385127
-0.072084546 -0.026705433 -0.107527286 -0.10935797 0.017761545 0.030169055 -0.048788466 0.058584053
-0.007391575 0.058688127 -0.07614281 0.0027265626 0.0012162306 -0.07650931 -0.018997427 -0.052606046
0.057103436 -0.025287792 0.040790807 0.090279564 0.096156776 0.027136063 0.0046859533 -0.033891063
-0.07595048 -0.0732499 0.059943948 -0.050558273 0.057247438 0.009532642 0.009549798 -0.034538556
-0.08048939 0.07036658 0.09135804 0.04636697 0.04409897 -0.098525956 0.06286311 -0.070834905
-0.026072249 0.08634142 0.03510769 -0.06900898 0.010055686 0.079770744 -0.027772656 0.00093487505
-0.03911895 -0.075817905 0.016553668 0.0019334077 -0.02595793 -0.02310735 -0.07512782 -0.0002009838
0.10635708 0.018697958 -0.071028724 -0.09341547 -0.082444154 0.020877775 -0.0283547 0.020755414
0.034497626 0.088900454 0.039577745 0.046607003 0.0062529924 0.020797536 -0.030184265 -0.029079279
-0.10271566 0.042084593 0.053360824 -0.10016783 0.035752777 0.015277617 0.015056658 -0.03058201
00000000: 4ffc b83c 1b7d 013d 8e0d 633c a1ea 5ebc
00000010: dadb dcbd b5c5 d9bd 69b4 6abd ef47 b73d
00000020: d3ae 7abb 9baa b53d 7093 713c 972b 533d
00000030: 34ef 673d f612 6ebd 4841 37bd d501 b03c
00000040: d7e5 1f3d e918 a1bd ec22 a9bd 0a87 163d
00000050: 5309 b63c f748 00bc 77ca 7b3d 7efe 303d
00000060: 3e77 f03c 721b 823d 5ea8 9bbd c9f8 aebd
00000070: 77b9 aa3d a6fe 5c3d 908b 52bd d3ff b33d
00000080: 2183 2b39 3d76 4b3d 87f4 afbd 970e c4bd
00000090: 7054 03bc 9f76 4cbc bbbe b03b d47e dc3b
000000a0: f966 acbb e0e5 48bd 4d2c a0bc cc7a 633d
000000b0: b4d7 913d 8437 743d be02 54ba 3c15 7aba
000000c0: d110 d4bc 4bab 033d d120 c7bd 84e5 2fbd
000000d0: 7d7f 62bb b758 0e3d e9a7 9cbd cdcb 4bbd
000000e0: ed1e b0bd 6490 003c cb4d a7bd eafb 01bd
000000f0: 12be 71bd bd04 97bc 0293 0dbd 19e7 843d
00000100: 45e4 94bd f4a8 9abd 0c09 fbbc 6e02 343d
00000110: 8a81 8e3d 010f 903c d714 8abd d077 b53d
00000120: e9a9 0ebd 1e41 8ebd 1734 733d feb2 4b3c
00000130: 7148 343d 2d14 36bd 20b7 c1bd 772f 803d
00000140: 2a91 b73d a88f 5abd 9346 15bb be8d 95bd
00000150: 9631 983c 0ab9 a63c 1247 753d ee41 41bc
00000160: 3273 61bd 37ae a33d 38dc 3abd 95cb b1bd
00000170: 66aa c93c c7a5 813d a2e7 84bd 9bca 0cbd
00000180: 0a36 5f3d c64b d8bc 3059 923c 8b6c d13b
00000190: ca1d 40bd 320e 86bc d911 983d 23de 3c3d
000001a0: e064 babd 1f72 a13c 6a35 013e f201 3fbd
000001b0: d706 87bc d2e0 8cbd 1ecb 133c c82f 993d
000001c0: 83c3 893d 86bc c0bd 3033 a3bc 941b 9b3d
000001d0: cc05 8ebd 0161 d8bd d3bc 9c3c a13d c3bb
000001e0: 6870 0abe ba35 88bd 8bf5 aabd 1ff3 c93c
000001f0: 109d 86bd 77e7 9d3d 7026 e13d 029a a6bd
00000200: 009f 4f3a 2ff8 66bd fe04 25bd 08eb 03bd
00000210: 56f2 a53d 1074 99bc 2244 babc aeef b73d
00000220: c9d4 c73d 55e4 623c f290 92bb f28f de3c
00000230: d6c6 043b d596 b4bd 7acf 91bd 6982 8f3b
00000240: 7dba aa3d 6aa7 9d3d 3ccd d93d c40e 563b
00000250: dd6d 2d3d 32c3 afbc fe8a 953d 6f06 893d
00000260: 0aa3 80bd 9440 893c 57b3 b63c 9636 b43d
00000270: 8896 88bd 8efb 7fbd ee59 5cbd ee9e e4bc
00000280: 81ab 9b3d 4f90 08bd 7bae b33d 36e3 c93d
00000290: 81b0 843d 90a3 413d 3deb eebd a2ce 20bd
000002a0: 9af6 933d 0c4c 4dbd 1ee1 04be 480b 383c
000002b0: 916b 8dbc a33f c9bd b8a4 05bd 3bea f83c
000002c0: 10a1 93bd 5ac5 dabc 4437 dcbd 12f7 dfbd
000002d0: a980 913c 1825 f73c 6ad6 47bd d5f5 6f3d
000002e0: 0635 f2bb f662 703d c3f0 9bbd 21b0 323b
000002f0: ed69 9f3a eab0 9cbd 7ea0 9bbc 7079 57bd
00000300: 4be5 693d 5828 cfbc 4314 273d 7ee4 b83d
00000310: d8ed c43d 734c de3c a08c 993b 5bd1 0abd
00000320: ed8b 9bbd 0b04 96bd c987 753d 3116 4fbd
00000330: 4a7c 6a3d cc2e 1c3c c276 1c3c 4d78 0dbd
00000340: 9fd7 a4bd 5a1c 903d ed19 bb3d 4beb 3d3d
00000350: 1fa1 343d fac7 c9bd 60be 803d e411 91bd
00000360: 7895 d5bc c5d3 b03d 15cd 0f3d 9554 8dbd
00000370: 9bc0 243c d85e a33d 7b83 e3bc 6712 753a
00000380: 313b 20bd 6b46 9bbd 8f9b 873c 666a fd3a
00000390: baa5 d4bc a04b bdbc 9ddc 99bd 2ebf 52b9
000003a0: bed1 d93d 762c 993c 8277 91bd 9c50 bfbd
000003b0: 7bd8 a8bd de07 ab3c 1e48 e8bc 4207 aa3c
000003c0: 624d 0d3d 7111 b63d 461c 223d fce6 3e3d
000003d0: e7e5 cc3b 985f aa3c fe44 f7bc ab37 eebc
000003e0: 975c d2bd e560 2c3d e190 5a3d cb24 cdbd
000003f0: 8171 123d f84e 7a3c 33b0 763c 2087 fabc

layers.1.Aw.conv2.bias f4 [16]
-0.013562792 0.060941942 -0.030123057 -0.019288821 -0.03960081 0.025375303 -0.020021914 0.05830709
0.08261462 -0.09033069 -0.087295674 0.11180717 0.015616998 0.08586247 -0.00435886 0.015947858
00000000: 7936 5ebc 429e 793d a1c4 f6bc 9703 9ebc
00000010: 7534 22bd dedf cf3c ff04 a4bc 6ad3 6e3d
00000020: db31 a93d 4cff b8bd 13c8 b2bd 28fb e43d
00000030: 70de 7f3c aad8 af3d c5d4 8ebb 15a5 823c

layers.1.Aw.conv3.weight f4 [1, 16, 3]
0.124323525 -0.017822811 0.116337165 0.15741447 0.057526555 0.035195895 0.0952635 0.057807248
0.018670246 0.018342473 0.06158075 0.13284338 -0.08689967 0.056267556 0.10775497 -0.057930455
0.063964516 0.066099405 0.07424998 0.057548396 0.08945194 0.110746786 -0.054127462 0.13018048
-0.042271093 0.060444787 -0.060203824 0.09326697 -0.0046820785 -0.12508139 -0.08271875 -0.023218174
-0.057511687 -0.06142925 0.13319202 0.026249459 -0.12977041 0.030173827 0.12600118 -0.077480264
-0.08704179 0.09640534 0.11813209 0.017341431 -0.09616507 0.05572641 0.13736108 0.01669798
00000000: 559d fe3d 2501 92bc 2e42 ee3d 4231 213e
00000010: f7a0 6b3d 9229 103d 8319 c33d 4bc7 6c3d
00000020: 58f2 983c f442 963c 193c 7c3d 1808 083e
00000030: 74f8 b1bd cf78 663d a3ae dc3d 7c48 6dbd
00000040: d4ff 823d 205f 873d 6010 983d deb7 6b3d
00000050: 9432 b73d 36cf e23d c2b4 5dbd 084e 053e
00000060: 7424 2dbd f494 773d 4998 76bd c102 bf3d
00000070: 1f6c 99bb 5615 00be 7368 a9bd 0a34 bebc
00000080: 6091 6bbd 3d9d 7bbd 7d63 083e 1b09 d73c
00000090: 89e2 04be 1a2f f73c 7406 013e f9ad 9ebd
000000a0: f742 b2bd 2a70 c53d 3def f13d 9e0f 8e3c
000000b0: 31f2 c4bd 6041 643d 62a8 0c3e 34ca 883c

layers.1.Ah.conv1.weight f4 [32, 1, 5]
0.11147754 0.3858232 -0.34431106 0.3632667 0.28399038 -0.285759 0.1784959 -0.38509485
0.19240509 -0.37865084 0.31148508 -0.21102838 -0.026501464 0.3481246 -0.035853725 -0.4404764
0.18443437 0.047631215 0.18357126 -0.027051311 0.089341 -0.1953664 -0.19479583 0.18936025
0.35593033 0.24083742 -0.05319824 0.100413315 -0.045820814 -0.26220775 -0.3569282 0.3038815
0.18371232 -0.21822304 -0.0029517375 0.055984616 0.20569545 0.37435907 -0.39535663 0.41500264
-0.04702707 -0.38395977 -0.0075334148 0.39540282 0.09622967 -0.0010754504 -0.28635073 0.026143413
0.11334481 -0.12633552 -0.28073218 -0.064421415 -0.002192621 0.3276268 0.17744893 -0.25043327
0.35913357 -0.067385145 -0.40393364 0.22747481 -0.37589964 0.18132602 0.17566863 0.31036833
0.1392926 0.49194184 0.13592845 -0.28625795 0.24737266 0.25064936 0.40205055 -0.35122696
0.30925372 -0.15800612 -0.11473762 0.40243408 -0.1289609 0.1913631 0.10690183 -0.19114442
0.12040991 0.18346927 -0.12502928 0.2548331 0.033845328 0.2531378 -0.3880638 -0.10401352
-0.28991067 0.26043898 0.2397025 0.13739519 0.06519674 -0.44344512 0.03249095 -0.16126257
-0.097239755 -0.12843764 -0.108214445 0.33104458 -0.26288727 -0.13882963 0.09057973 -0.17054252
-0.2068305 0.114477925 -0.3010532 0.0003221205 0.27738836 0.0056416932 0.22287098 0.007745876
0.18773068 -0.06574437 0.06258665 -0.13180481 0.09838989 -0.36661768 -0.22227208 0.19239058
-0.06858655 0.0151669895 0.13431323 0.4358775 0.151564 0.043410074 0.08452441 0.35640243
0.045560278 0.024197048 -0.0011208272 -0.09386648 -0.13811299 0.06258158 -0.23436944 0.29165998
0.076310985 0.27490786 -0.12509073 0.2169668 0.2496361 0.23165026 -0.21748126 -0.12716198
0.3240268 -0.43268964 0.42621222 -0.02298921 0.041086398 0.33091992 0.21135885 0.2172908
-0.37020293 -0.09401236 0.34522334 0.05686545 -0.39900583 0.1702468 -0.2933619 0.2007317
00000000: 564e e43d 9e8a c53e 8a49 b0be 18fe b93e
00000010: 3067 913e 014f 92be a1c7 363e 272b c5be
00000020: d705 453e 86de c1be f97a 9f3e d317 58be
00000030: 9919 d9bc 633d b23e 5bdb 12bd 1f86 e1be
00000040: 5ddc 3c3e f318 433d 1bfa 3b3e b69a ddbc
00000050: 6af8 b63d 210e 48be 8f78 47be a7e7 413e
00000060: 803c b63e 169e 763e 66e6 59bd 7fa5 cd3d
00000070: 9bae 3bbd 1840 86be 4bbf b6be 5b96 9b3e
00000080: 151f 3c3e dc75 5fbe f071 41bb 2050 653d
00000090: d4a1 523e feab bf3e 2f6c cabe 3a7b d43e
000000a0: 759f 40bd 6096 c4be ddda f6bb 3d72 ca3e
000000b0: 1014 c53d 21f6 8cba 909c 92be b62a d63c
000000c0: 5321 e83d 195e 01be 21bc 8fbe 60ef 83bd
000000d0: 13b2 0fbb b3be a73e 2cb5 353e ca38 80be
000000e0: 5be0 b73e 3901 8abd 64d0 cebe 28ef 683e
000000f0: eb75 c0be 87ad 393e 7ae2 333e 99e8 9e3e
00000100: b8a2 0e3e cddf fb3e d430 0b3e 6790 92be
00000110: 424f 7d3e 1d55 803e 92d9 cd3e 05d4 b3be
00000120: 8156 9e3e 5bcc 21be 8ffb eabd d70b ce3e
00000130: 530e 04be b0f4 433e 59ef da3d 5dbb 43be
00000140: 7999 f63d 5edf 3b3e ad07 00be 7c79 823e
00000150: 66a1 0a3d 479b 813e 4cb0 c6be 0a05 d5bd
00000160: 2c6f 94be 4258 853e 9274 753e 53b1 0c3e
00000170: de85 853d 3d0b e3be 3b15 053d 0422 25be
00000180: a325 c7bd 2885 03be 899f ddbd ad7e a93e
00000190: 2999 86be 5b29 0ebe de81 b93d b3a2 2ebe
000001a0: 60cb 53be 6773 ea3d a523 9abe 48e2 a839
000001b0: d905 8e3e f4dd b83b 4a38 643e 1ed1 fd3b
000001c0: 793c 403e fca4 86bd 6e2d 803d d7f7 06be
000001d0: a380 c93d 50b5 bbbe 4b9b 63be 0902 453e
000001e0: 1b77 8cbd f77e 783c 6889 093e 562b df3e
000001f0: 9833 1b3e c3ce 313d 221b ad3d 617a b63e
00000200: 6a9d 3a3d e338 c63c b8e8 92ba 123d c0bd
00000210: 7e6d 0dbe c52a 803d 8bfe 6fbe 7554 953e
00000220: ef48 9c3d b9c0 8c3e c917 00be 8b2c 5e3e
00000230: 9ba0 7f3e ba35 6d3e 68b3 5ebe c036 02be
00000240: d7e6 a53e 7f89 ddbe 7d38 da3e de53 bcbc
00000250: 364a 283d 566e a93e 746e 583e 7b81 5e3e
00000260: 3d8b bdbe 8d89 c0bd 1dc1 b03e bfeb 683d
00000270: 7e4a ccbe 2d55 2e3e 8833 96be 9c8c 4d3e

layers.1.Ah.conv1.bias f4 [32]
0.3671073 0.41166225 -0.39824805 0.042512745 -0.087586045 0.12205489 0.30275774 -0.0016493736
0.24462052 0.14005034 0.29603067 0.1568025 0.13624495 -0.37932256 -0.40819535 0.19214606
0.28132993 0.3087756 0.016553467 0.1614328 -0.34811097 0.14276323 0.2743543 0.4271854
0.29334033 -0.3324291 0.061850507 -0.114966884 -0.20667273 0.031160831 0.24411507 0.05926855
00000000: 7df5 bb3e 65c5 d23e 2be7 cbbe d821 2e3d
00000010: 5060 b3bd eaf7 f93d 1003 9b3e cb2f d8ba
00000020: cd7d 7a3e 5b69 0f3e 5591 973e d690 203e
00000030: cc83 0b3e 9136 c2be fbfe d0be f0c1 443e
00000040: 7a0a 903e d617 9e3e 239b 873c a44e 253e
00000050: 9a3b b2be 8630 123e 2b78 8c3e 0bb8 da3e
00000060: b430 963e 2634 aabe f556 7d3d c273 ebbd
00000070: 04a2 53be 0045 ff3c 4df9 793e 94c3 723d

layers.1.Ah.conv2.weight f4 [16, 32, 3]
0.052902345 -0.070392445 0.010482573 -0.08766564 -0.066787615 -0.013788391 -0.03140559 0.02332106
0.014661399 0.04384491 -0.09079028 -0.093835175 -0.086546846 0.015663005 -0.028383752 0.051299397
0.15293781 0.14259772 0.067830056 0.034608714 -0.07072516 0.012649157 -0.11980682 0.07786542
0.06796231 -0.10538477 -0.06372095 0.08096358 -0.04949208 0.053334802 -0.08663959 0.048803914
-0.08274152 -0.04018953 -0.106716625 0.0139739355 -0.04039827 0.046032503 -0.12911195 -0.005663724
-0.13805954 -0.13763471 -0.02557565 0.095252 -0.007619556 -0.067456536 0.10089086 -0.06629479
0.0073342174 0.08509591 -0.09000962 -0.02521115 0.023266962 -0.07996773 -0.103498384 -0.0076920725
0.26228142 0.03092251 0.057268202 -0.03834046 -0.0834633 0.015808497 0.107485004 -0.09077069
0.05438445 -0.13621652 -0.052550435 -0.007896451 0.09573319 -0.09791613 -0.03971324 0.054936897
-0.03312176 -0.08379415 0.041733548 0.026048394 0.0061362116 0.12243733 -0.009571794 0.016212843
0.023937235 0.05610811 -0.07127255 -0.03637169 -0.024988687 -0.06855664 -0.037079845 -0.07340157
-0.10768025 -0.1085762 -0.023910968 -0.030163119 0.018311946 -0.11222987 -0.12726787 0.057913296
-0.045422398 -0.057341293 -0.023688136 -0.043373436 0.04578562 -0.054696083 -0.09533281 0.017583316
0.08844677 -0.14126618 0.053138684 -0.11392779 0.03913877 -0.029593574 -0.016064843 0.107309185
0.031763624 -0.07802971 -0.034491714 -0.0432165 0.014432372 0.049655233 0.015494872 -0.043407835
0.00047370736 -0.029520778 -0.080718264 0.10831664 0.11804796 -0.08962909 -0.00029521322 -0.05958307
-0.096294954 -0.016003298 0.12186036 0.043494448 0.07488351 -0.022001896 0.06507529 -0.011025364
-0.07351946 0.032582145 0.05975038 0.05266234 -0.043950766 -0.051305544 -0.0477634 -0.09224792
-0.0518241 0.028888568 0.030979041 -0.044337112 0.017241431 -0.09357514 -0.03989293 0.113236666
-0.044440147 0.09096993 -0.043714926 0.03227778 0.023958249 0.07768537 -0.0625261 -0.09330708
0.019106122 -0.03832217 0.03342628 0.04043898 0.005552007 0.029559465 0.1273217 -0.052822977
0.0740177 -0.03868145 0.06938245 -0.11316349 -0.14362778 -0.11570157 -0.05589868 -0.0019873483
0.05158838 0.08927502 -0.029593257 0.08290932 0.009249574 -0.045133777 -0.09966399 0.06233829
0.07521126 0.015257191 0.09557952 -0.004929522 0.007659729 0.030173846 -0.039482582 0.04371553
-0.108367 0.068202235 -0.08831003 0.0010255082 -0.109422706 0.073865466 -0.033513065 0.07411074
0.08811632 0.039416496 0.111300655 0.053697754 0.030576212 -0.08146909 -0.090706296 0.051285077
-0.039007053 -0.06523616 -0.00704404 -0.04872664 0.06630328 -0.07860034 0.07233116 0.010327587
-0.0030324515 0.07946059 0.033326577 -0.06938104 -0.047614492 -0.036679063 0.0156737 -0.018264296
-0.0033344126 -0.0070873345 0.02568383 -0.074309036 0.039874934 -0.078635 -0.06047007 0.08314777
-0.07459091 0.06343406 -0.021085192 0.060572334 0.039919484 0.047320075 0.052252278 0.045659907
-0.026734196 -0.049630266 0.016884662 -0.0037371998 0.01700534 -0.032553326 -0.03505851 -0.11704746
-0.022700513 0.036906097 -0.00846152 0.040592052 -0.022072125 0.032871418 0.075628944 0.05605477
00000000: 21b0 583d ea29 90bd 19bf 2b3c 0b8a b3bd
00000010: f2c7 88bd b4e8 61bc 26a3 00bd cf0b bf3c
00000020: 5d36 703c b896 333d 41f0 b9bd a82c c0bd
00000030: 793f b1bd b44f 803c 0b85 e8bc 511f 523d
00000040: bb9b 1c3e 2305 123e 7cea 8a3d dec1 0d3d
00000050: 5ad8 90bd 693e 4f3c 475d f5bd e877 9f3d
00000060: d32f 8b3d f8d3 d7bd 2180 82bd 3cd0 a53d
00000070: 35b8 4abd 9875 5a3d 1970 b1bd 9de6 473d
00000080: 6374 a9bd c79d 24bd 3f8e dabd eff2 643c
00000090: a878 25bd 948c 3c3d ec35 04be c396 b9bb
000000a0: 7b5f 0dbe 1df0 0cbe 0784 d1bc 7b13 c33d
000000b0: 78ad f9bb a726 8abd de9f ce3d 90c5 87bd
000000c0: e053 f03b c446 ae3d f756 b8bd 9d87 cebc
000000d0: 5b9a be3c 1fc6 a3bd f6f6 d3bd c80d fcbb
000000e0: c049 863e 3451 fd3c 1092 6a3d e30a 1dbd
000000f0: ceee aabd d280 813c 1921 dc3d fce5 b9bd
00000100: 3bc2 5e3d 587c 0bbe 203f 57bd 1e60 01bc
00000110: c30f c43d 4188 c8bd 5aaa 22bd 8305 613d
00000120: afaa 07bd 449c abbd ccf0 2a3d 7163 d53c
00000130: 4612 c93b 6cc0 fa3d 04d3 1cbc ccd0 843c
00000140: 0518 c43c 9ed1 653d 58f7 91bd 7bfa 14bd
00000150: 13b5 ccbc 6c67 8cbd 09e1 17bd 9053 96bd
00000160: 7787 dcbd 335d debd efe0 c3bc a518 f7bc
00000170: ef02 963c c6d8 e5bd 8252 02be 7e36 6d3d
00000180: d60c 3abd b4de 6abd 9f0d c2bc 58a8 31bd
00000190: b489 3b3d 0009 60bd d93d c3bd e30a 903c
000001a0: 9523 b53d 15a8 10be f3a7 593d f952 e9bd
000001b0: fa4f 203d 396e f2bc 6b9a 83bc ebc4 db3d
000001c0: 931a 023d 0ace 9fbd 2f47 0dbd c903 31bd
000001d0: c175 6c3c 4963 4b3d 34de 7d3c 6acc 31bd
000001e0: ed5b f839 8fd5 f1bc 9e4f a5bd 1dd5 dd3d
000001f0: 21c3 f13d 758f b7bd d9c6 9ab9 610d 74bd
00000200: 4a36 c5bd 5919 83bc ed91 f93d 3c27 323d
00000210: 875c 993d 523d b4bc 3246 853d baa3 34bc
00000220: 5f91 96bd db74 053d d1bc 743d 77b4 573d
00000230: b805 34bd c325 52bd 8ea3 43bd 7aec bcbd
00000240: 8245 54bd b8a7 ec3c c2c7 fd3c d59a 35bd
00000250: e73d 8d3c 53a4 bfbd c566 23bd a0e8 e73d
00000260: df06 36bd 714e ba3d 6c0e 33bd b535 043d
00000270: 1744 c43c 8219 9f3d af0d 80bd c817 bfbd
00000280: 7184 9c3c b5f7 1cbd ffe9 083d 58a3 253d
00000290: 9ced b53b b126 f23c 9f60 023e e85c 58bd
000002a0: 9896 973d 7170 1ebd 6318 8e3d 43c2 e7bd
000002b0: 2913 13be f2f4 ecbd 04f6 64bd 2c3e 02bb
000002c0: 564e 533d d2d5 b63d 8f6d f2bc 5dcc a93d
000002d0: 868b 173c 32de 38bd a21c ccbd 6f56 7f3d
000002e0: 5c08 9a3d 4cf9 793c 32bf c33d d487 a1bb
000002f0: 77fe fa3b 242f f73c 7db8 21bd 0e0f 333d
00000300: 85ef ddbd 9dad 8b3d e4db b4bd 586a 863a
00000310: 0319 e0bd c746 973d ff44 09bd 5fc7 973d
00000320: 5476 b43d 3173 213d 99f1 e33d 2df2 5b3d
00000330: f77a fa3c 44d9 a6bd 39c4 b9bd 4d10 523d
00000340: dcc5 1fbd 899a 85bd b1d1 e6bb 9695 47bd
00000350: 04ca 873d 37f9 a0bd 5c22 943d 0a35 293c
00000360: 18bc 46bb 3cbc a23d 7381 083d a617 8ebd
00000370: 6a07 43bd c93c 16bd 2266 803c 019f 95bc
00000380: 2986 5abb df3c e8bb e566 d23c 562f 98bd
00000390: e653 233d 630b a1bd 77af 77bd 6149 aa3d
000003a0: 1ec3 98bd b7e9 813d daba acbc b21a 783d
000003b0: 9d82 233d b2d2 413d 7c06 563d e205 3b3d
000003c0: ac01 dbbc 1b49 4bbd b451 8a3c cfeb 74bb
000003d0: c84e 8b3c a356 05bd 8399 0fbd 94b6 efbd
000003e0: 6df6 b9bc d92a 173d 30a2 0abc da43 263d
000003f0: 9ad0 b4bc 2ea4 063d 59e3 9a3d b099 653d

layers.1.Ah.conv2.bias f4 [16]
-0.07918432 -0.06981183 -0.0039761886 -0.0803372 0.121557906 -0.17745437 -0.04495852 -0.028188592
-0.15427202 0.11349358 -0.009298482 -0.062109113 -0.1183744 0.14814386 -0.18480581 -0.18633215
00000000: 642b a2bd 81f9 8ebd b04a 82bb d487 a4bd
00000010: 5af3 f83d 99b6 35be 6d26 38bd c3eb e6bc
00000020: 7cf9 1dbe 526f e83d a958 18bc 2066 7ebd
00000030: 476e f2bd 06b3 173e bc3d 3dbe dbcd 3ebe

layers.1.Ah.conv3.weight f4 [1, 16, 3]
0.074561834 -0.025879666 -0.12693852 -0.059133515 0.055670436 0.113633126 0.07157803 -0.09883209
-0.034543447 -0.17854068 -0.06860855 -0.0073818876 -0.05166015 0.19068198 0.11320778 0.03544735
-0.23791423 0.021515587 0.12633538 -0.036137335 0.09523265 -0.19868292 -0.18900062 -0.09400566
-0.15655898 -0.090894975 0.020677267 0.015633577 0.17328207 0.028012864 0.07671941 0.1873383
0.086568445 -0.17637034 -0.0586307 0.016576111 -0.20196679 -0.057467602 0.06911257 0.044461403
0.3605566 -0.08563077 -0.110280685 -0.142036 -0.0050530783 -0.10363918 -0.20794328 0.102663845
00000000: e0b3 983d 9801 d4bc 2cfc 01be fc35 72bd
00000010: af06 643d 7cb8 e83d 8197 923d 7b68 cabd
00000020: 6e7d 0dbd 5ed3 36be a482 8cbd c3e3 f1bb
00000030: 9899 53bd 2342 433e 7bd9 e73d 3e31 113d
00000040: ca9f 73be 7541 b03c 105e 013e be04 14bd
00000050: 5609 c33d 8973 4bbe 6189 41be 0a86 c0bd
00000060: ff50 20be 2527 babd 5f63 a93c fd11 803c
00000070: db70 313e 3c7b e53c 111f 9d3d 9cd5 3f3e
00000080: cc4a b13d 6d9a 34be bf26 70bd a0ca 873c
00000090: 62d0 4ebe 2663 6bbd e48a 8d3d 291d 363d
000000a0: e09a b83e 2f5f afbd d7da e1bd e371 11be
000000b0: 4b94 a5bb c740 d4bd 15ef 54be 6c41 d23d
