models/non_shared_layers_warmup.pt (torch, 429995 bytes, 220 tensors)

layers.0.Aw.conv1.weight f4 [32, 1, 5]
0.11897484 0.20425521 -0.089873224 0.084067635 0.18933162 0.24173345 -0.030963361 0.31363
0.06534623 0.17353301 0.1638625 0.37798145 0.12553369 0.36519787 -0.14063318 0.33750618
0.30518702 0.07481271 -0.10345605 -0.10421845 0.43126303 0.14059632 0.2972436 -0.13786285
0.38762948 0.3189587 -0.3133844 -0.31543872 0.26265347 0.32843748 -0.03215565 0.36204472
0.25257522 -0.007331029 0.038494196 -0.26362392 -0.25205863 -0.078614816 0.29449773 0.24077104
0.26527944 -0.028352136 0.05413469 0.042430986 0.36366045 -0.35086784 -0.031959143 0.3124406
-0.22093713 0.36674985 -0.15300067 0.29276142 -0.12675501 -0.34483278 0.30217844 0.35302892
-0.24851547 0.4037711 -0.24027424 0.35703826 0.099877596 -0.32386214 -0.034491666 -0.15118699
0.2932383 0.13442503 0.16436595 0.32463807 0.10774318 0.32316327 -0.21791726 0.02769385
-0.23140131 -0.29616195 0.28828144 -0.33466288 -0.30721 0.23658769 -0.3218555 0.06154819
0.061256565 -0.012243896 0.10916022 0.054755818 0.41525838 -0.3681613 -0.07339108 -0.3220188
0.22714677 0.17472932 -0.04005425 -0.05490445 0.14695515 -0.36511362 -0.206877 0.31583387
-0.2118954 0.30634138 -0.16845597 0.16488373 -0.028288582 0.22346756 -0.30772188 0.42616153
-0.17917088 -0.2765757 0.23685436 0.13957079 0.13764746 0.1871138 -0.040413223 0.31904167
0.3049021 -0.31420982 0.3199317 -0.10496887 0.2850681 -0.40107253 -0.099589966 -0.07605011
0.43018222 0.25620186 -0.12267079 0.38483268 -0.21285656 0.33915308 0.17609183 -0.29599836
0.33880794 0.26952156 0.24738863 0.21032907 -0.052529424 0.40592644 0.16943021 -0.3848285
-0.21838754 -0.42588267 -0.08375629 0.06464868 0.36222336 0.4092125 -0.206591 0.18229131
-0.19979727 0.25436622 0.11400777 0.076344766 0.15455388 -0.20511779 0.13262916 -0.17276657
-0.3790789 -0.33749488 -0.41066426 0.25803882 -0.0828604 0.34265617 -0.07314126 0.06287
00000000: 15a9 f33d 4728 513e 740f b8bd a72b ac3d
00000010: 26e0 413e f988 773e e0a6 fdbc 1d94 a03e
00000020: 3fd4 853d a3b2 313e 92cb 273e c986 c13e
00000030: e78b 003e 37fb ba3e 2502 10be 9ccd ac3e
00000040: 7941 9c3e 6837 993d c4e0 d3bd 7c70 d5bd
00000050: 82ce dc3e 7bf8 0f3e 5030 983e eb2b 0dbe
00000060: 5f77 c63e 8e4e a33e ec73 a0be 2f81 a1be
00000070: 847a 863e f528 a83e a5b5 03bd ed5d b93e
00000080: 8a51 813e 2139 f0bb 17ac 1d3d b7f9 86be
00000090: d40d 81be ce00 a1bd 68c8 963e af8c 763e
000000a0: b5d2 873e bd42 e8bc 56bc 5d3d 1dcc 2d3d
000000b0: b431 ba3e f3a4 b3be 97e7 02bd 37f8 9f3e
000000c0: 583d 62be a3c6 bb3e 35ac 1cbe d3e4 953e
000000d0: 11cc 01be ec8d b0be 22b7 9a3e 35c0 b43e
000000e0: d77a 7ebe 16bb ce3e 730a 76be b8cd b63e
000000f0: a08c cc3d 42d1 a5be 2247 0dbd c3d0 1abe
00000100: 5523 963e b7a6 093e 8c4f 283e f636 a63e
00000110: 75a8 dc3d a875 a53e b425 5fbe 37de e23c
00000120: 77f4 6cbe 8aa2 97be a099 933e ef58 abbe
00000130: a14a 9dbe 0b44 723e 3eca a4be f419 7c3d
00000140: 2ae8 7a3d 9f9a 48bc 658f df3d a347 603d
00000150: bf9c d43e a37f bcbe 104e 96bd a6df a4be
00000160: 2a99 683e 3eec 323e ed0f 24bd 7de3 60bd
00000170: 697b 163e 2cf0 babe 90d7 53be fab4 a13e
00000180: 1cfb 58be c7d8 9c3e b97f 2cbe 48d7 283e
00000190: 75bd e7bc aed4 643e b98d 9dbe d831 da3e
000001a0: 9278 37be 559b 8dbe f389 723e a5eb 0e3e
000001b0: 75f3 0c3e c39a 3f3e 5688 25bd 6e59 a33e
000001c0: 211c 9c3e 1ce0 a0be 16ce a33e ebf9 d6bd
000001d0: 72f4 913e 6159 cdbe d3f5 cbbd 29c0 9bbd
000001e0: d840 dc3e e42c 833e d33a fbbd ca08 c53e
000001f0: 12f7 59be 79a5 ad3e 6b51 343e 198d 97be
00000200: 3c78 ad3e bbfe 893e 7253 7d3e 8160 573e
00000210: 1829 57bd 97d5 cf3e 1d7f 2d3e 3e08 c5be
00000220: fca0 5fbe 4b0d dabe 6b88 abbd 8766 843d
00000230: 5775 b93e 4d84 d13e 978c 53be 93aa 3a3e
00000240: a897 4cbe 4a3c 823e e87c e93d a55a 9c3d
00000250: 5f43 1e3e 660a 52be f0cf 073e b8e9 30be
00000260: a116 c2be 21cc acbe 9642 d2be aa1d 843e
00000270: b7b2 a9bd a170 af3e 16cb 95bd fdc1 803d

layers.0.Aw.conv1.bias f4 [32]
-0.36869994 -0.18980527 -0.33238554 0.11428832 0.13748203 -0.25505295 0.14937232 0.19975404
0.45637816 0.22579457 0.3059161 -0.31209314 -0.08427754 -0.0019790144 0.2140193 0.14568494
0.13744414 0.27921924 -0.3396545 -0.41517958 0.44621617 -0.37592965 0.09817563 0.3656091
-0.07009834 0.37693545 0.30768088 -0.17438738 -0.41870108 -0.004448828 0.053864826 -0.23284617
00000000: 3dc6 bcbe 505c 42be 702e aabe ff0f ea3d
00000010: 17c8 0c3e 4d96 82be 0ff5 183e 538c 4c3e
00000020: 66aa e93e b136 673e 09a1 9c3e acca 9fbe
00000030: b499 acbd 5ab2 01bb e027 5b3e 6f2e 153e
00000040: 28be 0c3e d3f5 8e3e 32e7 adbe 6b92 d4be
00000050: 7276 e43e da79 c0be 4e10 c93d 1e31 bb3e
00000060: b88f 8fbd affd c03e 5988 9d3e 9b92 32be
00000070: fd5f d6be 79c7 91bb 5da1 5c3d 3a6f 6ebe

layers.0.Aw.conv2.weight f4 [16, 32, 3]
0.056613214 0.054384544 -0.024323815 -0.024453612 -0.109982625 0.07525504 0.034180094 -0.033099648
-0.019411037 -0.023807276 0.09657665 0.028046964 0.069779634 -0.004460541 -0.03792449 -0.014813551
-0.116692305 0.06385046 0.03287298 0.040480543 -0.039103463 -0.026398843 -0.010814433 -0.019231312
0.06586746 -0.03505451 -0.012379143 -0.022895686 0.05445695 -0.06298926 0.087355494 0.121560685
0.05231505 0.057723917 -0.085528955 -0.09472474 -0.038718328 -0.046610825 -0.04391358 0.091699295
-0.058342386 -0.0755697 0.05334193 -0.050452236 0.016617361 0.07025724 0.033527028 0.088570334
-0.00041079218 -0.034731742 0.03444496 0.11379345 -0.07192688 0.050169248 -0.008867856 -0.06588744
-0.105786614 -0.075462215 -0.044027325 -0.037893575 -0.04202795 0.077960454 -0.062167227 -0.11877967
-0.022583485 0.04772679 -0.014952416 -0.037362423 0.03487679 0.06119967 -0.011332094 0.05763767
0.014274066 0.09043578 -0.080887035 0.08765746 0.110727265 0.015019113 0.04234267 -0.038882717
-0.05958813 -0.124098554 -0.07589839 -0.042318504 -0.01355706 0.0028752785 0.010986188 -0.055237368
0.02182237 0.0791038 0.01317765 -0.011652654 0.10167103 -0.10290944 -0.07848261 0.008114467
0.084032744 0.11960405 0.08510399 0.064986326 -0.02131809 0.07692374 -0.034586247 0.07557241
-0.030833349 -0.07993332 -0.113712154 0.039428182 0.004255151 -0.0632882 -0.095044136 -0.056574482
-0.061457988 -0.04118841 0.05948529 0.04411826 0.00075183884 -0.083946265 -0.062343918 -0.069896825
-0.014252092 -0.08837635 -0.031474344 0.050640177 -0.038629662 -0.093025655 -0.08496214 0.0732101
-0.08173099 -0.05504959 0.043579638 0.056805648 -0.015450297 -0.06823579 0.002593528 0.018785166
-0.008936752 -0.027087748 -0.090071596 0.03679114 -0.08319127 -0.044956714 -0.096963815 -0.007312567
-0.05363895 -0.018978037 -0.003594246 -0.052161068 -0.08139235 0.0008425146 0.022841841 0.012409425
-0.03898991 0.115787014 -0.04944679 0.11207775 0.004651882 0.03463783 -0.060578965 -0.050095025
0.0748497 0.047572214 0.06899357 0.06981598 0.018179737 -0.070924096 0.05764579 -0.037428036
0.052949004 0.061518803 0.038019408 -0.07579465 -0.017848227 -0.08605495 -0.0736962 -0.01785615
-0.003748715 0.04339379 0.11653839 -0.03501243 -0.03369038 -0.04445415 -0.05596486 -0.035171445
-0.087350324 0.03966976 -0.014810317 -0.05220575 -0.09514725 0.123665884 -0.06826988 0.049299378
-0.06410817 0.023605427 -0.07617689 -0.08785397 -0.042433582 0.029178688 0.044131454 0.0031698232
0.098510414 -0.061555702 0.0721465 0.025610711 0.05695012 0.079666294 -0.10763714 -0.043558706
0.089727305 -0.08980115 -0.005655897 0.000104983694 0.01624665 -0.09076305 0.02702703 0.06081679
0.08694587 -0.076385096 -0.031745598 0.03141937 0.0021157085 -0.02816317 -0.08633151 -0.0052701416
-0.06653447 -0.067697935 -0.029003855 -0.018142307 0.07825689 0.0044362256 -0.011424553 0.0034767117
-0.10905442 -0.037519373 0.042461548 -0.1104954 -0.060290582 0.0851526 -0.052871205 -0.063245095
-0.02823127 -0.095382385 0.028072406 -0.10342376 -0.008670805 -0.038499586 -0.03228917 -0.07392074
0.07418577 -0.05164312 -0.07700416 0.07693818 -0.067888126 -0.101159774 0.01920815 -0.062869094
00000000: 42e3 673d 54c2 5e3d bd42 c7bc f152 c8bc
00000010: 923e e1bd 501f 9a3d 6d00 0c3d 7f93 07bd
00000020: e503 9fbc 7a07 c3bc fbc9 c53d bfc2 e53c
00000030: a0e8 8e3d bb29 92bb b656 1bbd 89b4 72bc
00000040: 60fc eebd 08c4 823d d1a5 063d edce 253d
00000050: f42a 20bd 6342 d8bc 052f 31bc fc8a 9dbc
00000060: 85e5 863d 5195 0fbd e4d1 4abc bc8f bbbc
00000070: 400e 5f3d 8300 81bd 70e7 b23d cff4 f83d
00000080: 4e48 563d ea6f 6c3d ce29 afbd 0bff c1bd
00000090: 1c97 1ebd feea 3ebd bade 33bd d7cc bb3d
000000a0: 6df8 6ebd 49c4 9abd 117d 5a3d 01a7 4ebd
000000b0: 2221 883c 07e3 8f3d a353 093d 5d64 b53d
000000c0: 985f d7b9 df42 0ebd 2916 0d3d 8a0c e93d
000000d0: 664e 93bd 457e 4d3d 7c4a 11bc ffef 86bd
000000e0: a7a6 d8bd ef8b 9abd ff55 34bd 4b36 1bbd
000000f0: 8025 2cbd bba9 9f3d 10a3 7ebd c142 f3bd
00000100: 0001 b9bc 2b7d 433d fafa 74bc 5709 19bd
00000110: f7da 0e3d 81ac 7a3d 3faa 39bc 7a15 6c3d
00000120: c6dd 693c 6536 b93d 1aa8 a5bd c185 b33d
00000130: fac4 e23d ba12 763c 826f 2d3d 7c43 1fbd
00000140: af12 74bd 6227 febd 9d70 9bbd 2b56 2dbd
00000150: 6e1e 5ebc 2b6f 3c3b 6aff 333c 9440 62bd
00000160: d4c4 b23c 2c01 a23d 12e7 573c c6ea 3ebc
00000170: e738 d03d 2fc2 d2bd 7ebb a0bd 8bf2 043c
00000180: 5c19 ac3d f8f2 f43d 004b ae3d 8d17 853d
00000190: 46a3 aebc 328a 9d3d 4faa 0dbd b5c5 9a3d
000001a0: 3896 fcbc 15b4 a3bd ebe1 e8bd 727f 213d
000001b0: cb6e 8b3b 3e9d 81bd 80a6 c2bd a5ba 67bd
000001c0: 5fbb 7bbd 2eb5 28bd d9a6 733d 59b5 343d
000001d0: 0d17 453a 05ec abbd 565c 7fbd 1126 8fbd
000001e0: 9b81 69bc a9fe b4bd 3eeb 00bd 136c 4f3d
000001f0: 233a 1ebd 3c84 bebd a100 aebd 2def 953d
00000200: 9462 a7bd ae7b 61bd 9080 323d 0aad 683d
00000210: 3e23 7dbc 35bf 8bbd 2ef8 293b 59e3 993c
00000220: 746b 12bc 20e7 ddbc 7577 b8bd 4eb2 163d
00000230: 2f60 aabd 8824 38bd f794 c6bd 429e efbb
00000240: 84b4 5bbd d477 9bbc 718d 6bbb d8a6 55bd
00000250: 08b1 a6bd 33dc 5c3a d01e bb3c e750 4b3c
00000260: e2b3 1fbd be21 ed3d b888 4abd 0589 e53d
00000270: d16e 983b 66e0 0d3d a621 78bd 7130 4dbd
00000280: cd4a 993d 15db 423d 804c 8d3d aefb 8e3d
00000290: aced 943c a740 91bd fe1d 6c3d 244e 19bd
000002a0: 0ee1 583d 24fb 7b3d 3dba 1b3d 3a3a 9bbd
000002b0: 7236 92bc 943d b0bd 09ee 96bd 1047 92bc
000002c0: 00ad 75bb b0bd 313d aeab ee3d 3269 0fbd
000002d0: edfe 09bd 8e15 36bd 693b 65bd ef0f 10bd
000002e0: bae4 b2bd c27c 223d f9a6 72bc b2d5 55bd
000002f0: 90dc c2bd 8a44 fd3d 14d1 8bbd 25ee 493d
00000300: 254b 83bd 2b60 c13c a102 9cbd c8ec b3bd
00000310: d6ce 2dbd 2508 ef3c 2fc3 343d cfbc 4f3b
00000320: d4bf c93d d521 7cbd 8bc1 933d 8ecd d13c
00000330: 8744 693d 1528 a33d dc70 dcbd 9d6a 32bd
00000340: f3c2 b73d aae9 b7bd 1a55 b9bb b12a dc38
00000350: b217 853c fae1 b9bd ca67 dd3c 071b 793d
00000360: ad10 b23d ca6f 9cbd ac07 02bd 99b1 003d
00000370: b3a7 0a3b 73b6 e6bc 93ce b0bd 27b1 acbb
00000380: 3943 88bd 37a5 8abd 7e99 edbc 2d9f 94bc
00000390: 2645 a03d c25d 913b 0c2e 3bbc 8bd9 633b
000003a0: ec57 dfbd eaad 19bd 29ec 2d3d 6a4b e2bd
000003b0: 42f3 76bd 7d64 ae3d 7a8f 58bd a586 81bd
000003c0: 4445 e7bc d757 c3bd 1af8 e53c d6cf d3bd
000003d0: fe0f 0ebc beb1 1dbd a641 04bd c263 97bd
000003e0: b5ee 973d bc87 53bd 5bb4 9dbd c491 9d3d
000003f0: ee08 8bbd db2c cfbd 695a 9d3c 83c1 80bd

layers.0.Aw.conv2.bias f4 [16]
0.005393587 -0.042138796 0.071290314 0.09766052 -0.063327804 -0.08152181 0.017134441 0.077470794
-0.079973154 -0.059679877 -0.0467477 -0.06344353 0.016652683 0.044924553 -0.039017852 -0.06525908
00000000: b0bc b03b bb99 2cbd a800 923d 3d02 c83d
00000010: 02b2 81bd e8f4 a6bd 875d 8c3c 02a9 9e3d
00000020: f7c8 a3bd e372 74bd 847a 3fbd aeee 81bd
00000030: 356b 883c cf02 383d 2fd1 1fbd 8da6 85bd

layers.0.Aw.conv3.weight f4 [1, 16, 3]
-0.04721578 0.11319692 0.09787042 -0.13909577 0.059825305 -0.12408283 0.10168675 -0.087859385
-0.017698964 0.12194821 -0.04289258 -0.01594543 0.08626853 -0.1594677 -0.07772294 -0.099652655
-0.04215214 0.07148562 0.16739005 0.14008892 0.0022204106 0.061854187 0.10961554 0.16428944
-0.14346538 -0.023493612 0.014468176 -0.019338641 0.019022942 0.008783667 -0.039214566 -0.028550267
0.016122675 0.04767021 -0.12483607 0.066604406 0.030326616 -0.0027495187 0.15892191 0.043358274
0.013882502 0.10892658 0.03983004 0.035125926 -0.09600519 0.0429181 0.0054733697 0.015244372
00000000: 5565 41bd c9d3 e73d 4970 c83d 1f6f 0ebe
00000010: 610b 753d 241f febd 2541 d03d 9fef b3bd
00000020: 6bfd 90bc fcbf f93d 21b0 2fbd fe9f 82bc
00000030: 8ead b03d 804b 23be 342d 9fbd b116 ccbd
00000040: b9a7 2cbd 0e67 923d 4c68 2b3e 7873 0f3e
00000050: 4f84 113b d15a 7d3d 1d7e e03d 7e3b 283e
00000060: 97e8 12be ad75 c0bc ee0b 6d3c 126c 9ebc
00000070: 00d6 9b3c 5fe9 0f3c 749f 20bd 40e2 e9bc
00000080: b313 843c d741 433d 0eaa ffbd e467 883d
00000090: 866f f83c 4531 34bb 6dbc 223e 7298 313d
000000a0: 6f73 633c e614 df3d d324 233d 34e0 0f3d
000000b0: 5e9e c4bd e4ca 2f3d f459 b33b 88c3 793c

layers.0.Ah.conv1.weight f4 [32, 1, 5]
0.012516315 0.12409733 0.038463138 0.42918494 -0.30825117 0.26141557 0.40386578 -0.028029663
-0.04555807 -0.058914516 0.12434116 0.056403846 0.028331667 -0.1196204 -0.29052198 -0.13226332
0.22780454 0.1511192 0.25238338 0.12160712 0.017990356 -0.29762703 -0.1146598 -0.2640266
0.25989276 0.12291662 -0.19661431 0.37933183 -0.110992044 -0.3156925 0.23450166 0.43015698
0.15300801 -0.17268269 0.36802006 0.182075 -0.35240084 -0.015886558 -0.36472404 0.17769957
0.10392507 -0.19981834 0.09127298 -0.25117657 -0.0478579 -0.22940877 -0.103762254 -0.00703068
0.26792732 -0.19982284 0.1729709 0.09670729 -0.0047247447 0.29410243 0.20267496 -0.27055517
0.44563878 0.35140163 0.39055124 0.022193192 -0.29955563 -0.15426117 -0.3313167 0.38547388
-0.24596567 -0.26846126 0.06504204 0.115663946 -0.32329255 0.29882833 0.022400845 -0.013010488
-0.27553564 0.45598987 -0.059937272 -0.39013934 -0.25789753 -0.41529855 -0.107328065 0.10128455
0.11413502 -0.2951311 -0.017263234 -0.45110053 -0.19834454 -0.25573516 -0.058734667 -0.16733849
0.29106697 -0.19854154 0.2773792 -0.19014405 0.10966407 -0.12702225 -0.3385231 0.39851078
-0.103649706 -0.036480866 -0.16663466 -0.21396196 0.26154754 -0.13178977 0.026232386 0.15250579
-0.16034062 0.15736844 0.08463028 -0.24027923 0.111976214 -0.004308842 0.099949345 0.2262438
0.41058633 0.18670718 -0.37393573 -0.3366043 0.29211918 -0.009740909 0.26924893 -0.2559665
0.26749015 0.14744936 0.056018297 -0.36629096 0.38206756 -0.011006934 -0.32298613 -0.18406758
0.26334745 -0.17845374 0.15307218 0.30550602 0.2246204 0.043434884 0.3161606 0.047874376
-0.39140943 -0.27141285 0.2153399 -0.3879813 0.15299737 -0.40531003 -0.34773812 -0.34149352
-0.29938573 -0.42881104 -0.27043584 -0.42194942 -0.1518167 -0.2988416 -0.13365796 -0.38461798
0.36436644 -0.17699662 -0.033408985 -0.12053505 -0.11262758 -0.37700853 0.14981148 -0.18574786
00000000: 3b11 4d3c be26 fe3d 868b 1d3d 21be db3e
00000010: 19d3 9dbe 43d8 853e 7fc7 ce3e 779e e5bc
00000020: 199b 3abd 5950 71bd 94a6 fe3d b807 673d
00000030: d017 e83c 8afb f4bd 4cbf 94be 0970 07be
00000040: 9845 693e febe 1a3e 6538 813e 270d f93d
00000050: 8360 933c 9262 98be c2d2 eabd 7f2e 87be
00000060: aa10 853e b5bb fb3d 4355 49be c837 c23e
00000070: cc4f e3bd 73a2 a1be 3421 703e 893d dc3e
00000080: 22ae 1c3e bbd3 30be 206d bc3e de71 3a3e
00000090: e26d b4be 8724 82bc 1cbd babe e0f6 353e
000000a0: abd6 d43d 2e9d 4cbe 54ed ba3d 379a 80be
000000b0: a506 44bd 22ea 6abe 4e81 d4bd 9e61 e6bb
000000c0: c52d 893e 5c9e 4cbe 491f 313e 790e c63d
000000d0: 08d2 9abb 9894 963e 068a 4f3e 3586 8abe
000000e0: c42a e43e eaea b33e 55f6 c73e 7fce b53c
000000f0: 5b5f 99be a4f6 1dbe 58a2 a9be d55c c53e
00000100: 6dde 7bbe c173 89be c334 853d 38e1 ec3d
00000110: 9a86 a5be 0700 993e fa81 b73c f129 55bc
00000120: 0213 8dbe 8177 e93e c980 75bd 58c0 c7be
00000130: 250b 84be 03a2 d4be d1ce dbbd 466e cf3d
00000140: 9fbf e93d 6c1b 97be a06b 8dbc a6f6 e6be
00000150: d51a 4bbe b8ef 82be c393 70bd c85a 2bbe
00000160: bb06 953e 794e 4bbe a604 8e3e 1fb5 42be
00000170: 8e97 e03d 1f12 02be e652 adbe 9b09 cc3e
00000180: 4c46 d4bd f66c 15bd 47a2 2abe d818 5bbe
00000190: 8fe9 853e e6f3 06be 4de5 d63c 7a2a 1c3e
000001a0: 5530 24be 3125 213e a452 ad3d c20b 76be
000001b0: c953 e53d 3031 8dbb 3eb2 cc3d 74ac 673e
000001c0: 5f38 d23e 2b30 3f3e 8174 bfbe 6657 acbe
000001d0: a590 953e 5598 1fbc ffda 893e 0b0e 83be
000001e0: 78f4 883e f7fc 163e 7173 653d 7d8a bbbe
000001f0: 5c9e c33e 6d56 34bc 705e a5be 367c 3cbe
00000200: 7ad5 863e 94bc 36be f4be 1c3e 496b 9c3e
00000210: e402 663e c7e8 313d cddf a13e ec17 443d
00000220: d166 c8be a0f6 8abe 1082 5c3e 7ca5 c6be
00000230: 58ab 1c3e cc84 cfbe bb0a b2be 3dd8 aebe
00000240: 1649 99be 1f8d dbbe 9176 8abe c109 d8be
00000250: d675 1bbe c401 99be a2dd 08be a6ec c4be
00000260: 3d8e ba3e 9a3e 35be dcd7 08bd 15db f6bd
00000270: 4aa9 e6bd 4307 c1be 2e68 193e b034 3ebe

layers.0.Ah.conv1.bias f4 [32]
0.20105892 0.015353714 0.2904591 -0.09943535 0.14961897 0.07836935 -0.10504043 -0.18735047
0.09378094 0.30353004 0.30823058 -0.24542162 -0.18469435 0.19991915 0.2888945 -0.15121438
-0.37237915 0.40668586 0.26835024 -0.35192278 0.234873 -0.26417628 0.27427098 -0.15481962
0.20554897 -0.08915183 -0.39869925 -0.1753873 0.39441386 -0.18025008 0.23837276 0.024636187
00000000: 64e2 4d3e 258e 7b3c 0eb7 943e c3a4 cbbd
00000010: b735 193e 1c80 a03d 701f d7bd cdd8 3fbe
00000020: 3910 c03d 4a68 9b3e 66d0 9d3e ce4f 7bbe
00000030: 8420 3dbe 9bb7 4c3e fbe9 933e f1d7 1abe
00000040: 7ba8 bebe 2139 d03e 3465 893e 392f b4be
00000050: 8c82 703e 1d42 87be 3f6d 8c3e 0989 1ebe
00000060: 6e7b 523e 3c95 b6bd 4f22 ccbe ba98 33be
00000070: 9df0 c93e 7a93 38be fd17 743e d4d1 c93c

layers.0.Ah.conv2.weight f4 [16, 32, 3]
0.0409912 0.015191546 0.06382868 0.041715328 -0.06738994 -0.074467935 0.12240914 0.05011175
0.0701642 -0.05217167 -0.07693724 -0.06707416 0.03668656 0.09763124 -0.023969222 0.07473597
-0.04124011 -0.047664195 0.023975601 0.026700541 -0.02496975 0.0474274 0.06340406 -0.11684489
-0.025051832 -0.020899441 -0.008111914 0.043112986 0.008071474 -0.012886276 0.06170577 -0.067690395
0.10521612 -0.03473148 0.009506357 -0.081524506 0.022562668 0.046980347 -0.026003899 -0.028127952
0.10308669 0.047226734 -0.061415114 -0.01846036 0.09316244 0.069229476 -0.0935393 0.0608107
0.03512585 0.02509161 -0.08978638 0.030928409 0.061744418 -0.031726416 0.03061381 0.092322245
0.028816639 -0.0181959 -0.10539206 0.03544487 -0.03753467 -0.0059466017 -0.023241825 -0.08647303
-0.017639803 -0.06921829 -0.07136737 -0.051291835 0.10111373 -0.10395989 -0.07387124 -0.017055053
-0.058038604 0.08130048 0.031730253 0.0074167554 -0.0880598 -0.06759519 -0.10118444 -0.027356792
-0.041277666 0.042904463 0.030372903 -0.092243426 -0.049067426 -0.046202276 0.0841236 -0.101491034
-0.014072042 0.0009947915 0.054205198 0.011185047 -0.059079755 0.041204117 0.07122242 0.050835177
-0.011004051 -0.017427962 -0.11549402 -0.00087582355 0.059629988 -0.07293097 0.022167053 -0.059000123
0.028149007 -0.06240578 0.07359208 -0.09957414 0.0074479734 0.028014127 0.033435382 -0.0749968
-0.09650379 -0.015228062 0.018272541 -0.026857972 0.052723497 0.08230748 0.11206017 0.048080385
0.019793125 0.009019636 0.06219926 0.0063868733 -0.07559262 -0.050607692 -0.10419686 0.03255114
0.058061402 0.03546813 -0.045625545 -0.093547285 0.049903613 0.093566336 0.071795665 -0.0028304516
0.07190638 -0.080135584 0.034031946 0.014981663 -0.086631484 -0.07619652 -0.039808232 -0.044000544
-0.048926216 -0.014805123 -0.061553378 -0.10593552 -0.0044389316 0.02212342 0.0046244557 -0.06699296
-0.0029414792 0.12697294 0.03148001 0.05751085 -0.010548511 -0.06647525 -0.022164771 0.03262478
0.06883729 -0.04092158 -0.021733146 -0.086699195 0.052352533 0.05398447 -0.067054816 -0.073719636
0.03556742 -0.04384811 0.056394164 0.120109014 0.0050096526 0.006862485 0.066567495 -0.045090217
0.021112727 -0.03921301 -0.016635098 0.111900926 -0.074829645 0.049164128 -0.022889405 -0.0056409147
0.07204531 0.03289413 -0.07481911 -0.029650595 0.033468347 -0.097948454 0.04815234 -0.0329695
-0.10674889 -0.012388051 -0.09723553 0.013723307 0.058403537 -0.07860693 -0.08976714 -0.08178253
-0.056225102 -0.015637483 -0.040247597 -0.08836685 -0.062499564 0.049144648 -0.10757155 -0.09705578
-0.04183357 0.06867179 0.057037514 0.058067825 -0.01511812 -0.0076582194 0.000733238 -0.055152908
0.061524644 0.02364403 0.040669393 0.054677222 -0.038942516 0.055495452 -0.06056117 -0.11332582
-0.058939885 0.10074215 0.07296063 0.012181304 0.013453941 0.08675298 0.11528837 -0.051790897
0.03593589 -0.123482116 0.0473657 0.008753209 -0.04425009 0.07346107 -0.06366449 0.04397809
0.0063416464 -0.06778817 0.11453347 0.065035455 0.054419894 0.04267354 -0.089015916 0.07162929
-0.06396738 0.10124908 0.04267957 0.056534603 0.026710613 -0.11944701 0.054915033 -0.017151311
00000000: 63e6 273d f6e5 783c 9cb8 823d b1dd 2a3d
00000010: bd03 8abd a582 98bd a5b1 fa3d fa41 4d3d
00000020: 40b2 8f3d f6b1 55bd 4691 9dbd 2d5e 89bd
00000030: a544 163d e3f2 c73d 1a5b c4bc 2c0f 993d
00000040: 64eb 28bd 883b 43bd 7b68 c43c 18bb da3c
00000050: 5c8d ccbc 3c43 423d fdd9 813d 604c efbd
00000060: 8039 cdbc 4e35 abbc d5e7 04bc 3e97 303d
00000070: 373e 043c f520 53bc 31bf 7c3d 43a1 8abd
00000080: 8d7b d73d 9942 0ebd 8dc0 1b3c 52f6 a6bd
00000090: 58d5 b83c 776e 403d 2106 d5bc 976c e6bc
000000a0: 1d1f d33d d270 413d 6a8e 7bbd 2e3a 97bc
000000b0: f3cb be3d 2fc8 8d3d 8891 bfbd a414 793d
000000c0: 20e0 0f3d ec8c cd3c ece1 b7bd 935d fd3c
000000d0: b7e7 7c3d 8ff3 01bd d0c9 fa3c 7213 bd3d
000000e0: df10 ec3c 910f 95bc cbd7 d7bd a42e 113d
000000f0: f4bd 19bd b6db c2bb a465 bebc c618 b1bd
00000100: 5981 90bc 52c2 8dbd 0e29 92bd 6317 52bd
00000110: b714 cf3d ece8 d4bd ce49 97bd 0ab7 8bbc
00000120: e3b9 6dbd de80 a63d 95f7 013d 4108 f33b
00000130: b258 b4bd 596f 8abd ca39 cfbd 5a1b e0bc
00000140: c512 29bd 97bc 2f3d 98d0 f83c 1fea bcbd
00000150: edfa 48bd 993e 3dbd fe48 ac3d 88da cfbd
00000160: 6c8e 66bc aa63 823a 4506 5e3d 7d41 373c
00000170: 9dfd 71bd a6c5 283d 0fdd 913d 8c38 503d
00000180: 564a 34bc 16c5 8ebc 2188 ecbd 8697 65ba
00000190: 933e 743d d55c 95bd ae97 b53c 1daa 71bd
000001a0: bf98 e63c 349d 7fbd 72b7 963d 87ed cbbd
000001b0: 210e f43b e27d e53c 8af3 083d ec97 99bd
000001c0: c7a3 c5bd 1f7f 79bc 4cb0 953c 4005 dcbc
000001d0: 98f4 573d d390 a83d cd7f e53d f0ef 443d
000001e0: 3125 a23c 18c7 133c a7c4 7e3d fa48 d13b
000001f0: 4ed0 9abd 034a 4fbd 2a65 d5bd 5854 053d
00000200: cbd1 6d3d 0847 113d dae1 3abd b895 bfbd
00000210: bb67 4c3d b59f bf3d 9b09 933d 197f 39bb
00000220: a743 933d 201e a4bd 1565 0b3d a675 753c
00000230: d96b b1bd ec0c 9cbd f50d 23bd ea39 34bd
00000240: db66 48bd 3091 72bc 651f 7cbd b9f4 d8bd
00000250: 7574 91bb 2d3c b53c bf88 973b 9b33 89bd
00000260: d5c5 40bb 3205 023e 2ff1 003d 7f90 6b3d
00000270: a9d3 2cbc 2d24 88bd e592 b5bc 90a1 053d
00000280: 91fa 8c3d 639d 27bd b609 b2bc 598f b1bd
00000290: 9c6f 563d d21e 5d3d 0954 89bd 52fa 96bd
000002a0: 25af 113d 139a 33bd 91fd 663d b7fb f53d
000002b0: 0328 a43b b2de e03b 8a54 883d 85b0 38bd
000002c0: 99f4 ac3c d29d 20bd 5446 88bc 502c e53d
000002d0: 4940 99bd 5360 493d 9082 bbbc 6cd7 b8bb
000002e0: 7e8c 933d ffbb 063d c33a 99bd cee5 f2bc
000002f0: 1b16 093d 3399 c8bd 633b 453d 070b 07bd
00000300: 299f dabd 40f7 4abc 6c23 c7bd b9d7 603c
00000310: 8c38 6f3d acfc a0bd d6d7 b7bd 997d a7bd
00000320: 4b4c 66bd 2e1a 80bc aada 24bd aef9 b4bd
00000330: 8bff 7fbd e64b 493d 794e dcbd 2ec5 c6bd
00000340: ad59 2bbd cca3 8c3d 2ba0 693d 87d8 6d3d
00000350: feb1 77bc cdf1 fabb c536 403a 04e8 61bd
00000360: 4401 7c3d 20b1 c13c f394 263d 39f5 5f3d
00000370: 3082 1fbd 334f 633d fd0e 78bd 5e17 e8bd
00000380: f36a 71bd e651 ce3d 626c 953d 1894 473c
00000390: eb6d 5c3c 8cab b13d 4f1c ec3d b122 54bd
000003a0: 8331 133d 31e4 fcbd 8902 423d 9f69 0f3c
000003b0: 953f 35bd c272 963d 8762 82bd 5f22 343d
000003c0: 96cd cf3b 86d4 8abd 8690 ea3d 4f31 853d
000003d0: 65e7 5e3d 73ca 2e3d fa4d b6bd 61b2 923d
000003e0: 5401 83bd ad5b cf3d c6d0 2e3d d490 673d
000003f0: 37d0 da3c a2a0 f4bd 96ee 603d e880 8cbc

layers.0.Ah.conv2.bias f4 [16]
0.120974146 -0.120357394 -0.0661902 -0.07756838 -0.030187512 0.047212765 -0.0664129 -0.020157063
-0.026859652 0.124782756 -0.06070302 0.016721528 -0.11016091 -0.055397823 0.0549311 -0.012822292
00000000: 4bc1 f73d f07d f6bd ba8e 87bd 2cdc 9ebd
00000010: cd4b f7bc 2c62 413d 7d03 88bd 6d20 a5bc
00000020: c608 dcbc 1a8e ff3d bba3 78bd 96fb 883c
00000030: 0b9c e1bd d4e8 62bd 6fff 603d 9714 52bc

layers.0.Ah.conv3.weight f4 [1, 16, 3]
0.100115635 0.1620736 0.03311517 -0.11704576 -0.14774945 -0.10218928 -0.027758475 -0.061971564
-0.15685007 -0.0126362275 -0.049445555 -0.1196353 0.04657638 -0.15968351 -0.013597595 -0.109296925
0.032719523 0.12582588 0.0922456 -0.05524492 0.12701625 0.07199404 -0.15334876 -0.15169217
-0.016974783 -0.04602241 0.1589936 0.109537795 -0.00943942 0.123252966 -0.02925836 -0.083597094
0.00812165 -0.15074417 -0.005022575 -0.09513446 -0.05197068 -0.11892425 0.12231909 0.10402175
-0.036726642 0.12875862 0.13529979 0.08705177 0.02328791 0.1376039 0.124710776 0.044981707
00000000: 6d09 cd3d 9ff6 253e c6a3 073d b0b5 efbd
00000010: a24b 17be 9d48 d1bd be65 e3bc e5d5 7dbd
00000020: 4e9d 20be 2e08 4fbc 6c87 4abd 5a03 f5bd
00000030: e0c6 3e3d 1384 23be 72c8 5ebc 11d7 dfbd
00000040: e804 063d 80d8 003e 43eb bc3d 7f48 62bd
00000050: 8c10 023e 9c71 933d 7507 1dbe 3155 1bbe
00000060: b30e 8bbc ff81 3cbd 38cf 223e 5a55 e03d
00000070: cca7 1abc 0d6c fc3d 3aaf efbc f434 abbd
00000080: ab10 053c ae5c 1abe 6a94 a4bb dbd5 c2bd
00000090: 35df 54bd 8f8e f3bd 6e82 fa3d 5b09 d53d
000000a0: ad6e 16bd 4dd9 033e 078c 0a3e 3348 b23d
000000b0: 49c6 be3c 09e8 0c3e 5d68 ff3d bd3e 383d

layers.1.Aw.conv1.weight f4 [32, 1, 5]
-0.2555744 -0.37908012 0.25621188 0.29183614 0.14654891 -0.048058674 -0.26902032 -0.19363305
0.33672434 0.05974155 -0.08760121 -0.25497332 -0.10584676 -0.111344755 0.06734645 -0.14749417
-0.3455985 -0.17907074 0.36271873 0.34444678 -0.1380947 -0.36014533 0.4363854 -0.42112502
0.287365 -0.10581814 0.019163324 0.20736246 -0.30007508 0.10579785 -0.026954208 0.1566212
-0.1623881 -0.25898454 0.21169902 0.2501277 -0.4306804 0.41718847 0.36157382 0.41373187
0.16494583 0.3858925 -0.38428208 -0.15519471 0.26671937 -0.2362034 -0.1977063 -0.27488768
0.21122237 -0.007369506 -0.17278883 0.19142473 -0.058068246 0.25439695 -0.18048649 -0.18063976
0.20580682 0.20945421 -0.21554273 -0.31149912 -0.30315953 0.35531643 0.012349568 0.06304002
0.13356994 0.00017811544 -0.19364005 0.20188385 0.23337169 -0.40476185 -0.23470819 0.32782266
-0.044940747 0.18658927 -0.29466695 -0.1801112 -0.015466002 0.3394975 0.3841973 0.17304525
-0.2609568 0.12555827 0.38577843 -0.3175585 0.25669163 -0.17141399 0.37901372 0.03594584
0.42827323 -0.1248127 -0.15417458 -0.085498795 -0.26340243 -0.13717309 0.078267425 -0.41325852
-0.25451308 0.3551364 -0.3402172 0.27278116 0.36094996 0.33097985 0.27020085 -0.3514198
0.14592709 0.1583628 -0.23849484 -0.44418013 0.19816524 0.20184478 -0.118871875 0.15401436
-0.23771545 0.04445822 -0.39189574 0.3713683 0.33640718 -0.3154604 -0.44106483 -0.23270684
-0.22618999 -0.39940482 0.023345971 -0.19399603 0.28355035 0.07102104 -0.09265524 0.053702578
0.42653626 0.30108744 0.0870752 -0.13055827 0.25127542 0.097882725 -0.096569486 -0.39808866
-0.2795007 0.17725952 0.24784675 0.32141846 -0.21622889 0.31271547 0.25018016 0.09929672
0.1926878 0.09319388 -0.3658828 -0.26071423 0.081091575 0.3716068 -0.05860022 -0.27835456
0.004597095 0.4180608 -0.29322833 -0.39909664 -0.29073107 -0.20461045 -0.11072961 -0.0670901
00000000: a6da 82be ca16 c2be 342e 833e 8c6b 953e
00000010: eb10 163e 2cd9 44bd 08bd 89be be47 46be
00000020: 2267 ac3e 8eb3 743d 4368 b3bd dd8b 82be
00000030: 30c6 d8bd b808 e4bd f0ec 893d b608 17be
00000040: 49f2 b0be 525e 37be 45b6 b93e 545b b03e
00000050: b268 0dbe f864 b8be e86d df3e b39d d7be
00000060: 8121 933e 2eb7 d8bd 67fc 9c3c d356 543e
00000070: 71a3 99be 8bac d83d 12cf dcbc 4f61 203e
00000080: 1149 26be 9f99 84be a1c7 583e bd10 803e
00000090: 2482 dcbe ba99 d53e 3420 b93e aad4 d33e
000000a0: 8fe7 283e b493 c53e 9fc0 c4be 5deb 1ebe
000000b0: 718f 883e 4edf 71be 8573 4abe 14be 8cbe
000000c0: ad4a 583e e67b f1bb 8eef 30be d804 443e
000000d0: f8d8 6dbd 5140 823e 73d1 38be a1f9 38be
000000e0: 06bf 523e 2a7b 563e 3cb7 5cbe d07c 9fbe
000000f0: ba37 9bbe 09ec b53e d855 4a3c 201b 813d
00000100: 8fc6 083e 80c4 3a39 9449 46be a4ba 4e3e
00000110: fdf8 6e3e f23c cfbe 5857 70be 5fd8 a73e
00000120: ca13 38bd 4211 3f3e 96de 96be 126f 38be
00000130: 1d65 7dbc 9ed2 ad3e 82b5 c43e c632 313e
00000140: 219c 85be 5992 003e c084 c53e 0797 a2be
00000150: 166d 833e 2687 2fbe 160e c23e f23b 133d
00000160: a146 db3e cd9d ffbd f1df 1dbe fe19 afbd
00000170: afdc 86be 1a77 0cbe ac4a a03d 9f96 d3be
00000180: 8a4f 82be 70d4 b53e f330 aebe f9a9 8b3e
00000190: 6fce b83e 3176 a93e c457 8a3e 4ced b3be
000001a0: e96d 153e dc29 223e fe37 74be 946b e3be
000001b0: d4eb 4a3e 66b0 4e3e 1973 f3bd f1b5 1d3e
000001c0: ae6b 73be d319 363d 8fa6 c8be fc23 be3e
000001d0: 903d ac3e 0784 a1be 40d3 e1be b44a 6ebe
000001e0: 599e 67be ca7e ccbe 0d40 bf3c e5a6 46be
000001f0: 832d 913e 7b73 913d 08c2 bdbd 3cf7 5b3d
00000200: f662 da3e 2228 9a3e 7c54 b23d 11b1 05be
00000210: 2ca7 803e bd76 c83d 39c6 c5bd 47d2 cbbe
00000220: b71a 8fbe 8583 353e 8acb 7d3e f690 a43e
00000230: 1b6b 5dbe 3e1c a03e 9d17 803e 145c cb3d
00000240: f34f 453e 6fdc be3d fe54 bbbe 567c 85be
00000250: 5713 a63d 3f43 be3e c906 70bd 7d84 8ebe
00000260: 3aa3 963b 110c d63e 0622 96be 6556 ccbe
00000270: b4da 94be 6785 51be 35c6 e2bd 8966 89bd

layers.1.Aw.conv1.bias f4 [32]
0.2800964 -0.10943963 0.124586076 0.177528 -0.2460138 -0.18061289 0.25285962 -0.3674601
0.1899657 0.024754848 -0.18842323 0.31744042 0.42373878 -0.402083 0.2714311 0.16947953
0.37889403 -0.21394807 0.3750548 -0.09639833 0.08166393 -0.12972717 -0.3043578 -0.41350216
-0.13351037 -0.34620437 -0.23165719 -0.18091913 -0.19094723 0.3873056 -0.30279627 -0.05310095
00000000: cc68 8f3e e221 e0bd fc26 ff3d e6c9 353e
00000010: 0beb 7bbe 96f2 38be d176 813e bb23 bcbe
00000020: 5e86 423e aeca ca3c 05f2 40be 8d87 a23e
00000030: 4af4 d83e d3dd cdbe 04f9 8a3e 0b8c 2d3e
00000040: 66fe c13e 3415 5bbe 2f07 c03e 7d6c c5bd
00000050: 6b3f a73d 33d7 04be c9d4 9bbe 8eb6 d3be
00000060: f1b6 08be b341 b1be 8b37 6dbe dd42 39be
00000070: ac87 43be eb4c c63e 1d08 9bbe 6280 59bd

layers.1.Aw.conv2.weight f4 [16, 32, 3]
-0.024528109 -0.09378733 0.05373371 0.0900703 -0.048430007 -0.037194118 0.034759086 -0.087635785
0.06776685 -0.08507024 -0.07985092 0.014829781 -0.06760015 -0.09258003 0.0144545585 -0.02656705
-0.057235714 0.00085340004 0.07864334 -0.04118469 0.07287719 0.026794037 0.0047643646 -0.039398838
0.041383866 -0.094595104 -0.075694986 0.017486645 0.03711801 0.045918155 -0.097861156 -0.0017271611
-0.07770317 -0.08390097 0.054018244 -0.07371261 0.06229365 -0.053820428 0.021394642 0.03911096
-0.06483441 -0.0068998965 0.055650752 -0.07762674 0.06764934 0.039344415 -0.049937584 0.0959153
0.099004485 0.013316712 0.07883005 0.06451644 -0.10127934 -0.0008508572 0.044107318 -0.079019606
0.10106557 0.05197435 0.07407997 -0.06143743 -0.0813301 -0.08475455 -0.02008977 -0.070851326
-0.032870024 0.029576913 -0.08839683 -0.054015566 -0.00945574 0.08121777 -0.08664685 -0.06575925
0.029752687 -0.08843747 -0.0067166467 0.019422984 0.020758078 0.064817384 0.08499045 0.099751756
-0.035826746 0.08594095 -0.006137011 0.09421054 -0.009381444 0.03181623 0.07658625 -0.046788286
-0.0831308 0.043372717 0.069023356 -0.011361875 -0.06342056 0.01683115 0.01878738 0.09562343
-0.101442195 -0.008609744 -0.097084165 0.057506703 -0.050557405 -0.05954383 0.07355546 0.06999274
0.012360017 -0.06284587 -0.039490666 -0.013104518 -0.09526438 0.063024044 -0.007854001 -0.0175547
-0.04216039 0.04660581 0.08038583 -0.06540953 -0.03638497 0.034948885 -0.087827586 0.011413005
-0.0066096284 -0.029531458 -0.047582258 0.023085162 -0.08153077 -0.08794453 -0.068380706 -0.019207474
-0.0676888 -0.05093444 0.009971282 0.035868656 0.05342897 0.017833581 -0.055277895 0.0073845955
-0.05787245 0.033328094 0.031803828 -0.09191968 -0.038211443 0.07045385 -0.088070035 0.054708
-0.076827005 -0.071329616 -0.044254057 -0.020125438 -0.061256118 0.03763315 -0.008080181 0.022406794
-0.008120635 -0.033767268 -0.07643902 0.007786037 0.017373532 0.028311973 0.09577101 0.007648346
-0.0071609705 0.08923398 -0.02395713 0.09285797 -0.0250651 -0.00499723 0.037776705 0.10099283
-0.06922171 -0.0054513966 -0.031119408 0.05408011 -0.048674952 0.05151923 0.08364821 0.0060087065
0.08139889 -0.08107475 -0.07133763 -0.09360078 -0.020782307 0.059122548 0.05796146 0.035191137
-0.049772315 0.06034163 -0.091083124 0.05177934 -0.0052398955 0.045531414 -0.080853045 0.010539932
-0.06387401 0.03337929 0.007697086 0.06687354 0.06773186 0.057933405 -0.067499004 -0.06824735
-0.02168258 -0.023183087 -0.0007855278 -0.036057647 -0.07346321 0.0019844086 0.048195884 -0.044988677
-0.06070842 -0.032910135 -0.058535777 -0.013049445 0.055081178 -0.06423786 0.013439949 0.031503066
0.05510695 0.06338143 0.04719063 0.0742569 -0.00067165925 0.031942543 -0.035900965 0.045633007
-0.0024659443 0.01837325 -0.027037432 0.09715547 0.08474623 -0.014389704 0.074218094 -0.010294279
-0.049759552 0.028636035 -0.029508274 0.0130324485 0.01730002 0.0035837155 -0.080818936 -0.004144627
-0.016738646 0.05921438 0.04762902 -0.007708985 -0.030588914 -0.030161738 0.08595958 0.08664334
-0.09099913 -0.09568075 -0.021325352 0.033523187 0.044334777 0.032610923 -0.07757073 0.013249004
00000000: 2cef c8bc 9213 c0bd e117 5c3d c776 b83d
00000010: 8b5e 46bd dc58 18bd 8b5f 0e3d 647a b3bd
00000020: 59c9 8a3d 4e39 aebd e188 a3bd 9cf8 723c
00000030: f371 8abd 999a bdbd d0d2 6c3c 24a3 d9bc
00000040: ff6f 6abd b5b6 5f3a c20f a13d 47b1 28bd
00000050: a340 953d 2b7f db3c 631e 9c3b ad60 21bd
00000060: 2182 293d 14bb c1bd f905 9bbd 2740 8f3c
00000070: 0e09 183d ad14 3c3d 6e6b c8bd e961 e2ba
00000080: d722 9fbd 46d4 abbd 3c42 5d3d a3f6 96bd
00000090: a027 7f3d cf72 5cbd d143 af3c d032 203d
000000a0: e7c7 84bd 8718 e2bb 0bf2 633d c5fa 9ebd
000000b0: bd8b 8a3d 9c27 213d 5a8b 4cbd 3e6f c43d
000000c0: ddc2 ca3d 572e 5a3c a671 a13d 3221 843d
000000d0: 8b6b cfbd 0f0c 5fba e0a9 343d 08d5 a1bd
000000e0: 77fb ce3d 0ee3 543d 3db7 973d d1a5 7bbd
000000f0: 6590 a6bd cb93 adbd 4d93 a4bc 801a 91bd
00000100: b8a2 06bd 484b f23c 6609 b5bd 6d3f 5dbd
00000110: 40ec 1abc 8155 a63d e773 b1bd c9ac 86bd
00000120: e8bb f33c b41e b5bd 5117 dcbb f31c 9f3c
00000130: d80c aa3c fabe 843d 790f ae3d a64a cc3d
00000140: 11bf 12bd cf01 b03d fb18 c9bb 75f1 c03d
00000150: a1b4 19bc bc51 023d 40d9 9c3d 13a5 3fbd
00000160: 7b40 aabd 97a7 313d 1e5c 8d3d 2827 3abc
00000170: a3e2 81bd 7be1 893c fee7 993c 38d6 c33d
00000180: edc0 cfbd e20f 0dbc 10d4 c6bd 268c 6b3d
00000190: 4815 4fbd 3be4 73bd 3fa4 963d 5b58 8f3d
000001a0: ab81 4a3c 56b5 80bd f7c0 21bd 55b4 56bc
000001b0: f919 c3bd c012 813d 11ae 00bc e0ce 8fbc
000001c0: 60b0 2cbd bce5 3e3d 53a1 a43d 6ff5 85bd
000001d0: 6808 15bd 9026 0f3d f3de b3bd 9dfd 3a3c
000001e0: 9595 d8bb f5eb f1bc 9de5 42bd 181d bd3c
000001f0: 9bf9 a6bd 431c b4bd 2f0b 8cbd fe58 9dbc
00000200: 6da0 8abd a2a0 50bd 975e 233c 03eb 123d
00000210: 56d8 5a3d bb17 923c 136b 62bd 7afa f13b
00000220: aa0b 6dbd 0a83 083d bb44 023d 6340 bcbd
00000230: 9a83 1cbd 1c4a 903d 105e b4bd 7f15 603d
00000240: 7a57 9dbd 4315 92bd be43 35bd 1ade a4bc
00000250: b2e7 7abd 3825 1a3d bc62 04bc 748e b73c
00000260: 690c 05bc 8c4f 0abd 108c 9cbd 0322 ff3b
00000270: f052 8e3c 83ee e73c 9723 c43d fa9e fa3b
00000280: 93a6 eabb 4ec0 b63d be41 c4bc 522c be3d
00000290: 5355 cdbc cebf a3bb bfbb 1a3d 54d5 ce3d
000002a0: 1dc4 8dbd a1a1 b2bb 21ee febc 1b83 5d3d
000002b0: 635f 47bd d405 533d c14f ab3d afe4 c43b
000002c0: 76b4 a63d 850a a6bd 7719 92bd c4b1 bfbd
000002d0: a83f aabc 7c2a 723d ff68 6d3d 9524 103d
000002e0: 0ede 4bbd c928 773d ca89 babd 9316 543d
000002f0: 6eb3 abbb 267f 3a3d 4896 a5bd aeaf 2c3c
00000300: 61d0 82bd b9b8 083d d637 fc3b fff4 883d
00000310: 00b7 8a3d 944b 6d3d eb3c 8abd 44c5 8bbd
00000320: aa9f b1bc 75ea bdbc e1eb 4dba 2fb1 13bd
00000330: e173 96bd da0c 023b 0c69 453d 0c46 38bd
00000340: 64a9 78bd c7cc 06bd 36c3 6fbd 57cd 55bc
00000350: cd9c 613d 248f 83bd 3b33 5c3c 5c09 013d
00000360: d3b7 613d 20ce 813d f64a 413d 0014 983d
00000370: 4a12 30ba 2fd6 023d e40c 13bd ade9 3a3d
00000380: ae9b 21bb 7f83 963c 9b7d ddbc 72f9 c63d
00000390: 6e8f ad3d cbc2 6bbc a8ff 973d 56a9 28bc
000003a0: acd0 4bbd 1e96 ea3c 56bb f1bc 0d86 553c
000003b0: c6b8 8d3c c5dc 6a3b 6684 a5bd a7cf 87bb
000003c0: 7c1f 89bc c78a 723d a616 433d a79b fcbb
000003d0: 9a95 fabc c015 f7bc 940b b03d 1072 b13d
000003e0: c05d babd 45f4 c3bd 81b2 aebc 9c4f 093d
000003f0: 6298 353d 0893 053d 67dd 9ebd 5a12 593c

layers.1.Aw.conv2.bias f4 [16]
-0.043576796 -0.06450483 0.08444288 -0.012492537 -0.082513526 -0.0040650866 0.059166394 -0.018391663
-0.015037845 -0.068083815 0.022108525 -0.06974731 -0.046170227 0.07195613 -0.058028173 -0.060469065
00000000: 957d 32bd 1c1b 84bd 63f0 ac3d 7fad 4cbc
00000010: dafc a8bd 6b34 85bb 7658 723d 1daa 96bc
00000020: 4b61 76bc 876f 8bbd f01c b53c add7 8ebd
00000030: fe1c 3dbd bc5d 933d f3ae 6dbd 69ae 77bd

layers.1.Aw.conv3.weight f4 [1, 16, 3]
0.049787033 -0.13035665 0.08034605 -0.119633935 0.025223743 -0.029921263 -0.065813124 -0.11983437
0.022098342 -0.0615961 0.098381944 0.09535807 -0.13354163 -0.07656718 0.0024016835 0.029678335
0.06942072 -0.115834035 0.042383336 -0.020105524 0.05591158 0.03296785 -0.027458955 -0.033387445
0.120837435 -0.018253231 0.12748772 -0.13615905 -0.14183898 0.026810583 -0.04026445 -0.14178121
-0.08109062 -0.14334713 0.07769781 0.06089845 0.054194 -0.010713792 0.08557264 -0.0195561
-0.08827154 -0.12888588 -0.14419043 0.12083078 -0.09229479 0.03915716 -0.018211877 0.10088294
00000000: 7ded 4b3d 377c 05be 788c a43d a302 f5bd
00000010: 06a2 ce3c 701d f5bc 08c9 86bd b96b f5bd
00000020: 9507 b53c 314c 7cbd 797c c93d 184b c33d
00000030: 23bf 08be 41cf 9cbd 9065 1d3b fb1f f33c
00000040: 732c 8e3d 653a edbd 269a 2d3d 57b4 a4bc
00000050: 8a03 653d 4c09 073d 9af1 e0bc 46c1 08bd
00000060: 9e79 f73d cd87 95bc 248c 023e 476d 0bbe
00000070: 3d3e 11be dea1 db3c 56ec 24bd 182f 11be
00000080: d712 a6bd 97c9 12be 0820 9f3d a770 793d
00000090: 87fa 5d3d e788 2fbc b540 af3d 1d34 a0bc
000000a0: b6c7 b4bd a9fa 03be a8a6 13be 2176 f73d
000000b0: 0d05 bdbd 4263 203d 1331 95bc b79b ce3d

layers.1.Ah.conv1.weight f4 [32, 1, 5]
-0.36785367 -0.105064444 0.120069124 0.37186077 -0.22369544 -0.2605247 -0.33703777 0.15075462
0.11152446 -0.4155745 0.18493633 0.13076702 -0.15311246 -0.2936121 -0.118343115 -0.32708263
-0.36539525 -0.2703005 -0.22290456 -0.06946549 -0.41177496 -0.17021754 -0.33426297 -0.2914727
0.06866757 0.03630003 0.22154608 0.38990188 -0.15895416 0.2749156 0.41789836 0.13764858
0.06466882 0.43237138 -0.13632014 0.29646447 -0.14541824 -0.39993426 -0.25133017 0.19971243
0.2940484 0.013395939 0.08849246 0.012924846 -0.24772073 0.18100566 0.28092027 0.08403325
0.3349747 0.1106479 -0.17027126 0.3089136 0.04761321 0.33965507 0.30494657 -0.12985438
0.342771 -0.035468526 -0.0031733897 -0.11997509 -0.11991562 -0.05112182 -0.341854 0.13905354
0.2629228 -0.40559202 -0.3048552 0.1206643 -0.24743028 -0.25589103 -0.43426645 0.2401068
0.33943126 -0.37726453 0.25584286 -0.10628382 -0.37345904 -0.37471148 -0.18667963 0.124647744
-0.33422554 -0.33666688 -0.07480608 -0.005146675 -0.15853997 -0.32557815 -0.04196419 0.32051587
0.4115816 -0.43667522 0.22359031 0.3817245 -0.47407228 -0.2591189 0.04797227 -0.25053075
0.3488192 -0.32221362 0.32084465 -0.23558566 -0.0017215923 0.118544534 0.3199151 0.078040786
0.21930122 -0.15340658 -0.03794594 0.26575696 0.35093376 -0.13283788 -0.07755996 0.20059268
-0.12311535 -0.06906604 -0.08428733 0.0017726069 -0.13044035 0.18672092 0.37397426 0.05032675
0.12678279 0.34231442 -0.41535485 0.119679965 -0.037403647 -0.2260751 0.10411829 0.21941978
-0.40681085 -0.31869173 -0.051801566 0.01718029 -0.19785883 0.22373012 0.27950013 0.27299035
-0.1127988 -0.34776264 0.33476278 0.14701115 -0.3829237 0.33846125 -0.15276812 -0.078252
-0.22795178 0.20108882 0.23069532 0.17174484 0.11515165 0.33095232 -0.11735181 -0.26316783
0.19610806 0.37434548 -0.053208858 0.05918801 0.38027856 0.26823837 -0.44191852 0.05838816
00000000: 5157 bcbe 072c d7bd cde6 f53d 8964 be3e
00000010: 6b10 65be 7e63 85be 3790 acbe 6b5f 1a3e
00000020: f066 e43d 2ec6 d4be f35f 3d3e cae7 053e
00000030: 83c9 1cbe 5354 96be e05d f2bd 6077 a7be
00000040: 1615 bbbe d464 8abe 1841 64be ec43 8ebd
00000050: 2bd4 d2be 824d 2ebe 8424 abbe e93b 95be
00000060: 95a1 8c3d 57af 143d fadc 623e 38a1 c73e
00000070: e1c4 22be bdc1 8c3e c6f6 d53e c0f3 0c3e
00000080: 1671 843d c85f dd3e 8297 0bbe 31ca 973e
00000090: 85e8 14be 2fc4 ccbe 59ae 80be 6a81 4c3e
000000a0: 838d 963e a47a 5b3c 893b b53d bcc2 533c
000000b0: 81aa 7dbe 8c59 393e c8d4 8f3e a019 ac3d
000000c0: ce81 ab3e 5e9b e23d 975b 2ebe ec29 9e3e
000000d0: 1206 433d 45e7 ad3e f521 9c3e 8cf8 04be
000000e0: ae7f af3e 7247 11bd a5f8 4fbb 80b5 f5bd
000000f0: 5296 f5bd 1d65 51bd 7d07 afbe 0d64 0e3e
00000100: d19d 863e c2a9 cfbe fb15 9cbe d81e f73d
00000110: 5d5e 7dbe 2604 83be 2c58 debe 8fde 753e
00000120: efc9 ad3e d128 c1be d6fd 823e 55ab d9bd
00000130: 0636 bfbe 2fda bfbe f228 3fbe 5147 ff3d
00000140: 9c1f abbe 9a5f acbe ee33 99bd 70a5 a8bb
00000150: 4d58 22be 2eb2 a6be a4e2 2bbd a81a a43e
00000160: d3ba d23e e593 dfbe dcf4 643e 6571 c33e
00000170: 9ab9 f2be 3cab 84be 927e 443d 9145 80be
00000180: 6e98 b23e 2ff9 a4be c045 a43e 5e3d 71be
00000190: 0da7 e1ba 7ac7 f23d e9cb a33e d9d3 9f3d
000001a0: 8090 603e 9d16 1dbe 346d 1bbd 4c11 883e
000001b0: 97ad b33e a706 08be c2d7 9ebd 2b68 4d3e
000001c0: e723 fcbd 7f72 8dbd d69e acbd d156 e83a
000001d0: 2892 05be c533 3f3e 8e79 bf3e 6c23 4e3d
000001e0: 59d3 013e d643 af3e 64a9 d4be c51a f53d
000001f0: 9134 19bd 3b80 67be f83b d53d 94af 603e
00000200: 8349 d0be 902b a3be e12d 54bd aebd 8c3c
00000210: 819b 4abe 8219 653e a41a 8f3e 64c5 8b3e
00000220: 0f03 e7bd f20d b2be 0766 ab3e 178a 163e
00000230: 930e c4be cb4a ad3e 3f6f 1cbe 9642 a0bd
00000240: 316c 69be 3aea 4d3e 653b 6c3e e1dd 2f3e
00000250: a1d4 eb3d 9572 a93e 2556 f0bd efbd 86be
00000260: 8dd0 483e 36aa bf3e 88f1 59bd 206f 723d
00000270: dfb3 c23e 8a56 893e 2543 e2be 6c28 6f3d

layers.1.Ah.conv1.bias f4 [32]
0.23463835 -0.36162314 -0.35425073 -0.06460395 -0.4533995 -0.45681986 -0.37060538 0.12137778
0.34219715 -0.17638119 -0.2404122 0.30675885 0.040384945 0.30611977 -0.35779512 -0.26069313
-0.05195535 -0.2986302 0.27571487 -0.06761917 -0.26771644 0.089879625 -0.42090735 0.36876875
0.113345884 -0.32655913 -0.36501798 -0.36362526 0.18158498 0.3055112 -0.17932193 -0.09805068
00000000: 0945 703e ab26 b9be 5a60 b5be 134f 84bd
00000010: fb23 e8be 4be4 e9be fdbf bdbe ea94 f83d
00000020: 7734 af3e 459d 34be 9e2e 76be 7f0f 9d3e
00000030: af6a 253d bbbb 9c3e ec30 b7be 9279 85be
00000040: 22cf 54bd 0fe6 98be 802a 8d3e eb7b 8abd
00000050: 2112 89be cf12 b83d 2b81 d7be 42cf bc3e
00000060: e321 e83d c232 a7be a3e3 babe 172d babe
00000070: 6af1 393e f76b 9c3e 2ba0 37be cbce c8bd

layers.1.Ah.conv2.weight f4 [16, 32, 3]
0.016871529 0.08336255 -0.019798659 0.021580275 0.038492203 0.054415077 -0.025467498 -0.046863005
-0.13486363 -0.11858363 0.04913078 -0.08082879 -0.011338851 -0.06686889 -0.049193114 -0.00555405
0.023061952 0.029509392 -0.011344936 0.065968364 0.055654403 0.13535582 0.10667493 0.07156992
-0.03368268 0.06547099 0.051718317 -0.026767641 0.050809115 0.090864904 0.07077151 0.042162616
0.08219878 0.09766094 0.06493413 0.09068955 0.067181334 0.08806296 0.018352853 -0.057005547
0.06448416 0.08639904 0.0020093326 -0.053807087 -0.12570427 -0.12594844 -0.13310884 -0.01663069
-0.072918266 0.00959387 0.015841981 0.0008189003 0.025893921 -0.08881427 0.02616278 0.04944851
0.10928616 -0.104715474 -0.11715143 -0.11450198 0.04922857 -0.09830252 0.07851097 -0.015880333
0.03140194 0.13079518 0.019962708 0.0039787465 0.011547434 0.11819925 0.024428343 0.0001872233
0.0035469532 -0.0040092235 0.107941434 0.03880002 0.046389133 -0.015516824 -0.12911153 -0.1144678
0.03783172 -0.00726797 -0.084894456 -0.04752545 0.08967331 0.14037058 0.03108209 -0.011780873
0.10226365 0.034687687 0.054725025 -0.113477394 -0.052072827 -0.032811593 -0.061020713 -0.08920937
0.049999308 -0.008918936 0.09427623 -0.039066486 -0.070743024 -0.0072617927 0.03860757 -0.119037576
-0.068803914 0.060850568 -0.10502525 9.470325e-05 -0.03288387 0.04950047 0.052850813 0.042592797
0.03289425 -0.060711894 0.017219638 0.061950333 0.023802664 0.010302167 0.13961649 0.02117142
-0.004638805 0.05455317 -0.029521726 -0.05681646 0.09418452 -0.06302991 0.031444654 -0.08688251
0.053555943 0.12105548 0.11665512 0.031317115 0.10590784 0.06339555 0.050358225 0.018828673
0.05756097 -0.020247504 -0.111702345 -0.043078687 -0.11943383 -0.1317604 0.021412307 -0.11830495
-0.03690777 -0.05765133 0.0073136385 -0.0930261 -0.008358493 0.005987919 0.02584711 0.08598052
-0.060400415 0.057546448 -0.12902462 -0.0993532 -0.05108107 -0.07794635 0.007323239 -0.04326659
0.12225175 0.0229433 -0.10105034 0.03533291 -0.02961455 0.054947075 0.076550715 0.033561848
-0.055827755 0.121346965 -0.05982456 -0.07494336 -0.06901967 -0.11058746 -0.14039262 -0.062015522
-0.0585204 0.04554737 0.030112516 -0.11189248 0.10362537 0.08597406 0.11410776 0.12076729
0.11715488 0.04002255 0.0016903349 0.0052416837 0.012849921 0.10324215 -0.05336618 -0.010777856
-0.11032764 0.0037929793 0.055652015 -0.056219373 0.013069626 0.076232105 0.028366467 0.10177313
0.0742386 0.0864256 0.10045936 -0.05344617 0.04167915 -0.04017143 -0.035881072 -0.041454107
0.0022409793 -0.050328724 0.07040695 0.060201276 0.036126208 0.05880749 0.045152098 -0.03462978
-0.120713346 -0.010596366 -0.10626948 0.0011738038 -0.0766916 -0.055046134 0.010373638 -0.079045184
-0.005300704 0.07026544 0.04043338 0.057760347 -0.12384221 -0.104439385 -0.07444296 0.0656572
-0.12148117 0.03720785 0.067333825 0.042448968 0.083384484 0.031275347 -0.05825334 0.056160413
-0.061050188 0.07572056 0.10640914 -0.0024684533 0.033313237 0.04271836 0.027739197 -0.07549204
0.060187504 -0.06932485 -0.06105717 -0.007157091 0.018738462 0.061053682 -0.02451909 0.025131369
00000000: 2936 8a3c fcb9 aa3d cc30 a2bc 1ec9 b03c
00000010: 00aa 1d3d 58e2 5e3d 37a1 d0bc 6cf3 3fbd
00000020: b119 0abe f9db f2bd 5b3d 493d 9189 a5bd
00000030: 97c6 39bc 8ef2 88bd b87e 49bd c0fe b5bb
00000040: 6bec bc3c aebd f13c 1ce0 39bc 6c1a 873d
00000050: dff5 633d b79a 0a3e 6378 da3d 4093 923d
00000060: daf6 09bd a815 863d 96d6 533d d047 dbbc
00000070: 381d 503d 6117 ba3d a7f0 903d b5b2 2c3d
00000080: d557 a83d 7502 c83d 2ffc 843d 71bb b93d
00000090: 5e96 893d 5a5a b43d b958 963c a67e 69bd
000000a0: 4510 843d fbf1 b03d 02af 033b d264 5cbd
000000b0: 9fb8 00be a1f8 00be af4d 08be 163d 88bc
000000c0: 2c56 95bd 9b2f 1d3c 0bc7 813c 78ab 563a
000000d0: 7d1f d43c 42e4 b5bd 5453 d63c 858a 4a3d
000000e0: 6cd1 df3d 1175 d6bd 17ed efbd 0480 eabd
000000f0: e6a3 493d d552 c9bd 5cca a03d 7917 82bc
00000100: 529f 003d 2cef 053e d588 a33c 2560 823b
00000110: 7331 3d3c 7312 f23d f31d c83c 5f51 4439
00000120: 0074 683b ce5f 83bb 6610 dd3d c5ec 1e3d
00000130: 8802 3e3d 473a 7ebc d035 04be 186e eabd
00000140: 6ff5 1a3d 2728 eebb 25dd adbd 0caa 42bd
00000150: a4a6 b73d 4ebd 0f3e de9f fe3c 9004 41bc
00000160: 9b6f d13d ad14 0e3d 5927 603d d666 e8bd
00000170: 514a 55bd 7365 06bd dbf0 79bd 67b3 b6bd
00000180: 13cc 4c3d bb20 12bc e513 c13d 2e04 20bd
00000190: b8e1 90bd 55f4 edbb f922 1e3d f9c9 f3bd
000001a0: 11e9 8cbd 723e 793d 7a17 d7bd 6c9b c638
000001b0: 3db1 06bd 01c1 4a3d 187a 583d c975 2e3d
000001c0: 1fbc 063d 09ad 78bd 3310 8d3c a2bf 7d3d
000001d0: cefd c23c 6cca 283c a0f7 0e3e b06f ad3c
000001e0: 1e01 98bb 2573 5f3d 8cd7 f1bc 60b8 68bd
000001f0: d0e3 c03d d315 81bd 1ccc 003d 75ef b1bd
00000200: 7a5d 5b3d efeb f73d e1e8 ee3d 6046 003d
00000210: 36e6 d83d 87d5 813d 6d44 4e3d 973e 9a3c
00000220: 0dc5 6b3d 18de a5bc 33c4 e4bd 4773 30bd
00000230: b999 f4bd 33ec 06be dd68 af3c de49 f2bd
00000240: 9a2c 17bd cd23 6cbd 3fa7 ef3b 7884 bebd
00000250: 10f2 08bc 4e36 c43b 52bd d33c 8e16 b03d
00000260: 6d66 77bd d3b5 6b3d 081f 04be b179 cbbd
00000270: 623a 51bd 56a2 9fbd c8f7 ef3b 4f38 31bd
00000280: 205f fa3d 96f3 bb3c 7bf3 cebd 3eb9 103d
00000290: 369a f2bc 2f10 613d 9fc6 9c3d 2678 093d
000002a0: a5ab 64bd c284 f83d 990a 75bd e87b 99bd
000002b0: 2f5a 8dbd ae7b e2bd 15c3 0fbe fd03 7ebd
000002c0: 16b3 6fbd e18f 3a3d 86ae f63c e227 e5bd
000002d0: 8a39 d43d 2b13 b03d 54b1 e93d d754 f73d
000002e0: e6ee ef3d afee 233d 3a8e dd3a 6ec2 ab3b
000002f0: 7a88 523c 9f70 d33d 7f96 5abd 9b95 30bc
00000300: 75f3 e1bd a293 783b 5ef3 633d 4946 66bd
00000310: fc21 563c 941f 9c3d cb60 e83c 6e6e d03d
00000320: 680a 983d e8ff b03d a3bd cd3d 5fea 5abd
00000330: c2b7 2a3d cc8a 24bd 08f8 12bd c8cb 29bd
00000340: 65dd 123b 7e25 4ebd 8531 903d 9d95 763d
00000350: 13f9 133d 1fe0 703d 68f1 383d f5d7 0dbd
00000360: 8f38 f7bd 619c 2dbc d0a3 d9bd 52da 993a
00000370: 7c10 9dbd 0e78 61bd 31f6 293c 71e2 a1bd
00000380: 87b1 adbb 54e7 8f3d 799d 253d 1d96 6c3d
00000390: fca0 fdbd 51e4 d5bd 8d75 98bd 4877 863d
000003a0: 1fcb f8bd 4267 183d 51e6 893d f8de 2d3d
000003b0: 7cc5 aa3d 941a 003d 0e9b 6ebd 7608 663d
000003c0: c30f 7abd 6213 9b3d 09ed d93d c6c5 21bb
000003d0: 7673 083d 72f9 2e3d 503d e33c 929b 9abd
000003e0: 2c87 763d 30fa 8dbd 1517 7abd 0886 eabb
000003f0: 6781 993c 6d13 7a3d 42dc c8bc 4de0 cd3c

layers.1.Ah.conv2.bias f4 [16]
0.06771878 -0.03014944 0.032392714 -0.03474671 0.034875233 0.002127482 -0.03626435 0.012794837
0.022664825 0.13660736 -0.040392414 -0.13610736 -0.052110597 -0.10372104 0.110000394 -0.008198808
00000000: 25b0 8a3d f5fb f6bc 39ae 043d 9152 0ebd
00000010: 55d9 0e3d 3a6d 0b3b ed89 14bd 70a1 513c
00000020: 95ab b93c cde2 0b3e 8472 25bd ba5f 0bbe
00000030: ec71 55bd b26b d4bd e347 e13d 4b54 06bc

layers.1.Ah.conv3.weight f4 [1, 16, 3]
-0.079407476 0.1125286 0.10686126 -0.0175759 0.07810917 0.08027987 -0.04247122 -0.05822305
0.10260797 0.05489057 -0.09861165 -0.17310798 -0.019556338 -0.030740174 0.01216397 -0.18022788
-0.1637068 0.08200076 -0.025266103 -0.06246061 -0.022886 0.047109637 0.14122866 -0.07771121
0.14356366 0.066721454 0.07804034 0.17292136 -0.07238629 0.1284925 -0.05525276 0.115757845
0.11768442 -0.079795256 -0.09444405 -0.1041963 0.108878285 -0.0658964 -0.11562809 0.015196669
0.039184373 -0.076536626 0.06936665 0.11715768 -0.07266678 -0.08246284 -0.017648172 0.015748924
00000000: 63a0 a2bd 6575 e63d 14da da3d 55fb 8fbc
00000010: b3f7 9f3d c669 a43d 4df6 2dbd 4b7b 6ebd
00000020: 2124 d23d efd4 603d e8f4 c9bd 3843 31be
00000030: 9d34 a0bc d1d2 fbbc 634b 473c a88d 38be
00000040: c1a2 27be 04f0 a73d dcfa cebc b2d6 7fbd
00000050: 6c7b bbbc 09f6 403d 3f9e 103e 0e27 9fbd
00000060: 5a02 133e 42a5 883d 9dd3 9f3d 4c12 313e
00000070: 433f 94bd 8a93 033e b850 62bd 7312 ed3d
00000080: 8704 f13d b26b a3bd e26b c1bd df64 d5bd
00000090: 94fb de3d b1f4 86bd 6cce ecbd 73fb 783c
000000a0: cb7f 203d 3cbf 9cbd 1a10 8e3d 5ef0 ef3d
000000b0: 52d2 94bd 47e2 a8bd e692 90bc e303 813c
