models/non_shared_15_iter_warmup.pt (torch, 882405 bytes, 450 tensors)

layers.0.Aw.conv1.weight f4 [32, 1, 5]
0	0x3e561255	0.2090543
1	0xbddc2412	-0.10749067
2	0x3e942eee	0.28942055
3	0xbd304f3f	-0.043044325
4	0xbe0d0911	-0.1377299
5	0xbdb7b1be	-0.089694485
6	0xbee27d6c	-0.44236314
7	0xbee1586e	-0.4401278
8	0xbed1a135	-0.40943304
9	0x3e9e7683	0.30949792
10	0x3e9a0791	0.30083898
11	0x3e316681	0.17324258
12	0x3e7876b6	0.24264035
13	0xbedbf17f	-0.42957684
14	0x3caa435b	0.02078407
15	0x3eae9d62	0.3410445
16	0x3e6554f2	0.22395685
17	0x3d39f2b1	0.045397464
18	0xbea3f02e	-0.3201918
19	0xbeb1ca76	-0.34724778
20	0x3e7f7b38	0.24949348
21	0xbeaf0a88	-0.34187722
22	0xbe5897cc	-0.21151656
23	0x3e32dbba	0.17466632
24	0x3eb1c918	0.34723735
25	0xbe6d57db	-0.23178045
26	0x3e916a3a	0.28401357
27	0xbe0d366b	-0.1379029
28	0xbe643b6e	-0.22288296
29	0x3df387ae	0.11891113
30	0xbd2fcdfa	-0.042921044
31	0xbc26c8ea	-0.010179738
32	0x3e80b008	0.251343
33	0xbe4b6580	-0.19862938
34	0x3e9d694c	0.30744398
35	0xbe4674d5	-0.19380505
36	0x3e901292	0.28139168
37	0x3eb83012	0.35974175
38	0x3e20af74	0.1569193
39	0xbe443a89	-0.19162954
40	0x3e30bc93	0.17259435
41	0x3ec6d7f3	0.3883663
42	0xbe943e3b	-0.28953728
43	0xbd1e2a54	-0.038614586
44	0xbe88672e	-0.2664122
45	0x3e83259e	0.25614637
46	0x3ed633f2	0.41836506
47	0xbea65708	-0.32488275
48	0x3e1d28e9	0.15347637
49	0x3d709297	0.05873355
50	0xbe170610	-0.14748406
51	0xbecef155	-0.40418497
52	0x3e836e65	0.25670162
53	0xbcb5981f	-0.022167264
54	0x3dd27f00	0.102781296
55	0xbeb7cf71	-0.35900453
56	0x3e5fdc41	0.21861364
57	0xbe4ebf3b	-0.20190136
58	0xbd7de222	-0.061983235
59	0xbe72a2f9	-0.23694982
60	0xbec6c6f1	-0.38823655
61	0x3e5dbeb2	0.21654776
62	0x3ed5ad7b	0.41733918
63	0xbda50d53	-0.08059182
64	0xbe9a584e	-0.30145496
65	0xbe91dd94	-0.28489363
66	0xbe4a2a07	-0.19742595
67	0xbe91c024	-0.28466904
68	0xbe1b313d	-0.15155502
69	0xbed44adb	-0.4146336
70	0x3ec0f207	0.37684652
71	0x3e84afa5	0.25915256
72	0xbe823458	-0.2543056
73	0xbce7dfba	-0.028304923
74	0x3e8c8d9c	0.2745179
75	0xbec619f8	-0.38691688
76	0x3ea476db	0.3212193
77	0xbd7e314a	-0.062058724
78	0x3e721ab0	0.23642993
79	0xbea815de	-0.32829183
80	0x3d1ae717	0.03781804
81	0xbe24b0dc	-0.16083091
82	0xbecc55b9	-0.3990915
83	0xbee3daed	-0.44502965
84	0x3e533fe8	0.20629847
85	0x3c20e0fe	0.009819267
86	0x3ee846d3	0.45366535
87	0x3eac2180	0.33619308
88	0xbd5742e1	-0.052554015
89	0x3e861122	0.26184946
90	0x3e7ccba4	0.24687058
91	0xbea38470	-0.3193698
92	0x3d77afeb	0.060470503
93	0xbec702cd	-0.38869324
94	0x3eab0408	0.33401513
95	0x3c61d54c	0.013783764
96	0xbec114b1	-0.377111
97	0xbd2d520d	-0.042314578
98	0x3e69a656	0.22817358
99	0xbdfb8ca4	-0.122826844
100	0xbd95f531	-0.07322157
101	0xbe18ebb4	-0.14933664
102	0xbdc7f538	-0.09763569
103	0xbea93260	-0.33046246
104	0xbe1fb5c3	-0.1559668
105	0x3c92610c	0.017868541
106	0x3e825137	0.25452587
107	0x3e91f196	0.28504628
108	0x3e99a42c	0.30008066
109	0xbe49b000	-0.19696045
110	0x3de2a085	0.11065773
111	0x3e816297	0.2527053
112	0xbd7b74ad	-0.061390568
113	0x3ea45282	0.32094198
114	0x3e40ed63	0.18840556
115	0x3e8739b5	0.26411214
116	0x3dcd2312	0.10016455
117	0x3e41afcb	0.18914716
118	0x3eb8bfa8	0.36083722
119	0x3df24420	0.118294
120	0x3d7ed928	0.062218815
121	0x3ecab770	0.39593077
122	0xbd2881a8	-0.041139275
123	0xbd06f3c5	-0.03294732
124	0xbc5ac984	-0.013353709
125	0x3e00db2d	0.12583609
126	0x3e26e3e0	0.16297865
127	0x3c3bb8bd	0.011457619
128	0xbd6f6258	-0.058443397
129	0xbea457fe	-0.32098383
130	0xbe7d103c	-0.24713224
131	0xbe9349d3	-0.2876726
132	0xbd6d7d3e	-0.05798077
133	0xbe219e13	-0.15782957
134	0xbe767096	-0.24066386
135	0xbe03edee	-0.12883732
136	0xbed60c20	-0.41806126
137	0xbe480b1b	-0.19535486
138	0x3dc3b1bb	0.09555384
139	0xbe8c6168	-0.27418065
140	0xbe25eea9	-0.16204323
141	0x3eb65058	0.35608172
142	0x3e7ceb23	0.24699073
143	0x3e4b4702	0.19851306
144	0xbe0ab783	-0.13546567
145	0x3ecf7041	0.4051533
146	0xbed78240	-0.4209156
147	0xbd0d754e	-0.0345357
148	0x3dab1bb0	0.0835489
149	0x3e08730b	0.13325135
150	0x3e2c5fa1	0.16833355
151	0x3ecece52	0.40391785
152	0xbec50002	-0.38476568
153	0x3e3ae068	0.18249667
154	0xbea414e0	-0.32047176
155	0xbe91362d	-0.28361645
156	0x3dd5bf80	0.10436916
157	0xbe88f13f	-0.26746556
158	0xbe30c1a1	-0.17261364
159	0x3deea399	0.116522975

layers.0.Aw.conv1.bias f4 [32]
0	0x3eaf59ee	0.34248298
1	0xbea5cc2d	-0.32382336
2	0x3e9d21d9	0.30689886
3	0xbd9f4123	-0.07776096
4	0x3e298602	0.16555026
5	0x3ed14cbc	0.40878856
6	0x3e648992	0.22318104
7	0xbea8be17	-0.32957527
8	0x3ea0c41a	0.31399614
9	0x3e95ac81	0.29233173
10	0x3e587213	0.21137266
11	0xbd33c0f9	-0.043885205
12	0x3e1995e2	0.14998582
13	0x3eaf21e9	0.3420556
14	0xbe5e29d2	-0.2169564
15	0xbee66ad4	-0.45003378
16	0xbeb2b999	-0.34907225
17	0xbe5e8c39	-0.21733178
18	0xbe957f3f	-0.29198644
19	0xbe38b558	-0.18037927
20	0xbde8c757	-0.11366146
21	0x3badde97	0.005306076
22	0xbe1aa6d6	-0.15102705
23	0xbe59ad41	-0.21257497
24	0xbd8ebc77	-0.069695406
25	0x3ed328c7	0.41242048
26	0x3ee4192f	0.44550464
27	0xbdb49fd3	-0.088195466
28	0x3ecd82b5	0.40138784
29	0xbdd7f808	-0.10545355
30	0x3edc7488	0.43057656
31	0x3e865dd8	0.26243472

layers.0.Aw.conv2.weight f4 [16, 32, 3]
0	0xbd1bcaea	-0.03803531
1	0xbd1b5fa4	-0.037933007
2	0xbd4dbb71	-0.050227586
3	0x3d9b0d2b	0.07570871
4	0xbd25a70d	-0.040442515
5	0xbc70f551	-0.0147069255
6	0xbd05ccc7	-0.032665994
7	0xbdbd5505	-0.09244732
8	0xbd0f2c56	-0.03495439
9	0x3da24f07	0.079252295
10	0x3d20fbae	0.03930252
11	0x3d53a516	0.05167111
12	0xbd4ad875	-0.049522836
13	0x3d69fd2f	0.05712622
14	0x3d3758b5	0.044762332
15	0x3d698a9c	0.057016954
16	0xbdc61fc3	-0.09674027
17	0xbd23f6eb	-0.0400304
18	0x3c260cd0	0.010134891
19	0x3cdbc582	0.026827578
20	0x3d4e2df7	0.050336804
21	0xbd34ead1	-0.04416925
22	0x3d904141	0.07043696
23	0xbd93ab89	-0.07210452
24	0xbd8c0596	-0.06837003
25	0x3cc2d443	0.023782855
26	0xbda60e39	-0.081081815
27	0x3d8b9ae1	0.0681665
28	0xbce862ff	-0.028367518
29	0x3d544801	0.05182648
30	0xbdc314ee	-0.095254764
31	0x3d0afefe	0.033934586
32	0xbd748ab4	-0.05970259
33	0xbca20544	-0.019777901
34	0xbcb2d14f	-0.021828322
35	0xbd40af4c	-0.047042176
36	0xbdcc992a	-0.09990151
37	0xbaca676d	-0.00154422
38	0x3da35e03	0.07976916
39	0xbd9c26b7	-0.07624572
40	0x3d4b9c4f	0.049709614
41	0x3d0223f4	0.03177257
42	0x3da525c8	0.08063847
43	0xbc313b14	-0.010817308
44	0x3c86c28a	0.016450185
45	0x3d50283c	0.05081962
46	0x3d8a2162	0.067446485
47	0xbc911eee	-0.017714944
48	0xbaab7dab	-0.0013083717
49	0x3c38c3dd	0.011277166
50	0x3d80d7af	0.062911384
51	0x3dbf0603	0.093273185
52	0xbd9fd011	-0.078033574
53	0xbc8bbc9b	-0.017057708
54	0xbda694cb	-0.08133849
55	0xbd5adfc8	-0.05343607
56	0x3dc89aeb	0.09795173
57	0x3da6bb40	0.08141184
58	0x3d3e298d	0.046426345
59	0xbcd72b35	-0.02626572
60	0x3d736e4a	0.05943135
61	0x3d2500c8	0.04028395
62	0x3cdc9896	0.026928227
63	0x3d566c33	0.05234928
64	0x3d25eff3	0.040512037
65	0xbd1e0f83	-0.038589012
66	0xbdb36045	-0.08758596
67	0xbdb7d7a7	-0.08976679
68	0xbc8d6755	-0.017261187
69	0xbc7b323b	-0.0153318
70	0xbd0f9bad	-0.035060573
71	0xbdad9ecb	-0.08477553
72	0xbdb28c2e	-0.087181434
73	0x3d9259c2	0.07146026
74	0x3d926371	0.07147873
75	0x3db97988	0.09056383
76	0xbd3e50ea	-0.046463884
77	0xbc517ed3	-0.012786585
78	0xbd6bcf16	-0.05757054
79	0xbc864174	-0.016388632
80	0xbd751b95	-0.059840757
81	0xbd98bbeb	-0.074577175
82	0xbb417d19	-0.0029524027
83	0x3d1b3e06	0.037900947
84	0x3d831af4	0.06401625
85	0xbccca52c	-0.024981104
86	0x3d58ac20	0.052898526
87	0x3cbaa599	0.022784041
88	0xbc8bf9af	-0.017086832
89	0xbd03c5f4	-0.032171205
90	0xbdd5009e	-0.10400508
91	0x3dc19e15	0.0945398
92	0xbd8e116f	-0.06936919
93	0xbd8d2a2a	-0.06892808
94	0x3d501ce9	0.05080882
95	0x3d654931	0.055978004
96	0x3d97c569	0.074107
97	0xbcdead3f	-0.02718222
98	0xbd98c3e8	-0.07459241
99	0x3dce1ed0	0.10064471
100	0xbd6f98c7	-0.05849531
101	0x3d10462a	0.035223164
102	0xbdd4a620	-0.10383248
103	0x3cba96ba	0.02277695
104	0x3c84d080	0.016212702
105	0xbceef4e7	-0.029169513
106	0xbd9c5b5e	-0.076346144
107	0xbdb2ee39	-0.087368436
108	0x3d05728e	0.03257995
109	0xbdc5f340	-0.09665537
110	0x3c93b1ac	0.018029056
111	0x3ca25cc9	0.019819634
112	0x3cfd2bad	0.030904615
113	0xbdd5807e	-0.104248986
114	0x3cebc868	0.028782085
115	0xbccfd225	-0.02536876
116	0x3ccd71a2	0.025078598
117	0x3d4a1c61	0.04934347
118	0xbd61db3f	-0.05514073
119	0x3cad64b0	0.021166176
120	0xbd76c26e	-0.060244016
121	0x3d9bd61c	0.076091975
122	0xbd95a6f1	-0.07307232
123	0xbd25dfd0	-0.040496647
124	0xbddbd683	-0.10734274
125	0xbdae7ceb	-0.0851992
126	0x3da6cfd5	0.081451096
127	0xbdc57d46	-0.09643035
128	0xbdd7908f	-0.10525619
129	0x3c01ad0b	0.007914792
130	0xbd5aa118	-0.053376287
131	0xbc3843e5	-0.011246656
132	0x3d403abd	0.046931017
133	0xbcf37756	-0.02971999
134	0xbc354250	-0.011063173
135	0x3cc6bc04	0.024259575
136	0x3b14f40f	0.0022728478
137	0xbdc96be1	-0.098350294
138	0xbda20c66	-0.07912521
139	0x3dac6a11	0.08418668
140	0xbb8930cd	-0.0041867257
141	0xbc8239da	-0.015896726
142	0x3d6b64cb	0.05746917
143	0x3ca05684	0.019572504
144	0xbc9741f5	-0.018464068
145	0xbd973fe4	-0.07385233
146	0xbda3b4a3	-0.07993438
147	0xbd18caff	-0.037302967
148	0xbd6e0a4c	-0.05811529
149	0xbda750ce	-0.08169709
150	0x3d168a20	0.03675282
151	0x3dcd9851	0.10038818
152	0x3c11d36b	0.008900504
153	0xbd153a34	-0.03643246
154	0x3d87ef01	0.06637383
155	0xbc954981	-0.018223526
156	0xbd4d0802	-0.050056465
157	0xbd2882a0	-0.0411402
158	0x3da4d144	0.08047727
159	0x3cc5b0f7	0.024132235
160	0xbb0ced54	-0.0021503763
161	0x3ca8dafa	0.020612229
162	0x3d861a0a	0.06547935
163	0xbd895f65	-0.06707648
164	0x3d90ef5b	0.070769034
165	0x3d926c2d	0.07149539
166	0xbd8844b7	-0.06653731
167	0xbdcb7745	-0.09934858
168	0x3db7d8d6	0.08976905
169	0xbcb09edc	-0.021560125
170	0x3d03c3b1	0.032169048
171	0x3d3d523b	0.046221
172	0x3d8e030e	0.069341764
173	0xbca225ec	-0.019793473
174	0x3da15267	0.07877045
175	0x3db073b4	0.086158186
176	0x3cecd99f	0.028912364
177	0x3db3f189	0.087863036
178	0x3cee0988	0.02905728
179	0xbcba6962	-0.022755329
180	0x3dbf1a1d	0.093311526
181	0xbc84c985	-0.016209373
182	0xbdbe1e44	-0.092831165
183	0xbd97e084	-0.0741587
184	0xbd4b1947	-0.049584653
185	0x3d0f0693	0.03491838
186	0xbd7127bc	-0.058875784
187	0xbd570c17	-0.052501764
188	0x39c1530a	0.00036873698
189	0xbcb37b13	-0.021909272
190	0xbd849ed3	-0.06475606
191	0x3d76f514	0.06029232
192	0x3bdeb389	0.0067963046
193	0xbd88a152	-0.066713944
194	0x3b93511b	0.0044957525
195	0xbce31da6	-0.027724098
196	0xbdbe4bd0	-0.09291804
197	0x3d010477	0.0314984
198	0xbd6323e1	-0.05545414
199	0xbd853491	-0.06504167
200	0xbcceb56b	-0.025232991
201	0x3d0605b0	0.032720268
202	0x3ce4282f	0.027851192
203	0x3d647467	0.055775072
204	0x3d1339d3	0.035943817
205	0xbd1b1eab	-0.037871044
206	0xbd934d66	-0.07192497
207	0x3d6cacce	0.057781987
208	0x3d93b225	0.07211713
209	0x3d162092	0.036652155
210	0x3c375363	0.011189315
211	0x3d88e387	0.066840224
212	0x3dc6dd02	0.09710123
213	0xbdccba61	-0.099964865
214	0xbb73a9e0	-0.003718011
215	0x3db74916	0.08949487
216	0x3c58573d	0.013204393
217	0xbcb65e9f	-0.022261916
218	0x3d6223e0	0.055209994
219	0xbc9670e1	-0.018364372
220	0xbd9d79b9	-0.076892324
221	0x3d6c56fe	0.05770015
222	0x3dd3e26a	0.103459194
223	0xbd60616b	-0.054780405
224	0x3d9d8f8f	0.07693397
225	0x3cb0069c	0.021487527
226	0xbd3afa96	-0.045649134
227	0x3c89cf80	0.016822577
228	0xbc751d86	-0.014960652
229	0xbd140b7d	-0.03614377
230	0xba901abb	-0.0010994294
231	0x3ab1412f	0.0013523455
232	0x3d23d8a2	0.04000152
233	0xbd32caab	-0.04365031
234	0xbd69d627	-0.057088997
235	0xbc7b0a94	-0.015322346
236	0xbdb6916d	-0.089144565
237	0xbd6ba37d	-0.05752896
238	0x3db1e5aa	0.08686383
239	0x3d803953	0.06260934
240	0xbd8597a6	-0.06523065
241	0xbda67190	-0.08127129
242	0xbcbb21b7	-0.022843225
243	0xbcf76b5e	-0.030202564
244	0xbc8152ef	-0.015786616
245	0x3d6e1843	0.058128607
246	0xbc65bdb7	-0.014022282
247	0x3d4c67ff	0.049903866
248	0xbdb9b126	-0.090669915
249	0x3c9914c5	0.018686661
250	0x3bfcc88f	0.007714338
251	0xbcdd45eb	-0.027010879
252	0x3d8e6584	0.06952956
253	0xbdc59dc7	-0.09649234
254	0x3d54ca39	0.051950667
255	0x3db0fbac	0.086417526

layers.0.Aw.conv2.bias f4 [16]
0	0xbdc72262	-0.09723355
1	0xbd4e1a88	-0.05031827
2	0xbcc21f94	-0.023696698
3	0x3d8991e7	0.06717282
4	0xbc0650ca	-0.008197973
5	0xbd1e6f8e	-0.038680606
6	0xbd274aa7	-0.04084268
7	0x3d163a5c	0.03667675
8	0x3adb2397	0.0016718981
9	0x3c98960d	0.018626237
10	0xbd9a27a0	-0.07527089
11	0xbd8c9b4b	-0.06865557
12	0x3cafef14	0.021476306
13	0x3d7461c4	0.05966355
14	0xbd68b852	-0.056816407
15	0x3d8a2d89	0.067469664

layers.0.Aw.conv3.weight f4 [1, 16, 3]
0	0xbd9e87df	-0.07740759
1	0x3d15c6f6	0.036566697
2	0x3c687907	0.014189011
3	0xbd13facd	-0.036127854
4	0xbe0607df	-0.1308894
5	0x3dc0f6d3	0.09422078
6	0xbde97023	-0.113983415
7	0x3d7de5fc	0.06198691
8	0x3e0dc296	0.1384376
9	0x3d170f80	0.036880016
10	0x3d301fbb	0.04299901
11	0xbdd21e50	-0.10259688
12	0x3dcdc1d2	0.10046734
13	0xbd4e5f80	-0.050384045
14	0x3d1cf879	0.0383229
15	0xbddddf6e	-0.108336315
16	0x3e0811be	0.13288018
17	0x3db01f46	0.08599715
18	0x3d885ea2	0.06658675
19	0xbd09798d	-0.033563185
20	0x3db0e950	0.08638251
21	0xbdc69d66	-0.0969799
22	0xbdc70d90	-0.09719384
23	0xbde6fe9b	-0.11279031
24	0x3dddc91e	0.10829376
25	0x3cfff940	0.031246781
26	0xbe194662	-0.14968255
27	0xbd084d81	-0.03327704
28	0xbdb0a858	-0.08625859
29	0x3cdfb5e6	0.027308416
30	0xbd75516b	-0.0598921
31	0x3ddb3b5c	0.10704681
32	0x3e011c42	0.12608436
33	0x3d27ded8	0.040984005
34	0xbdd7bb1a	-0.10533734
35	0x3e0efedc	0.13964409
36	0x3da74b94	0.08168712
37	0xbe05172d	-0.12997122
38	0x3e05be6f	0.13060926
39	0x3d9af4b7	0.07566207
40	0x3c00b56a	0.0078557525
41	0x3dc6e42c	0.09711489
42	0xbc7823fd	-0.015145299
43	0xbe127948	-0.14304078
44	0xbd1784dc	-0.03699194
45	0xbc4acea6	-0.01237837
46	0x3da80807	0.08204656
47	0xbe05fca0	-0.1308465

layers.0.Ah.conv1.weight f4 [32, 1, 5]
0	0xbe15cc2c	-0.14628667
1	0x3eb366b6	0.350393
2	0x3e4d5cb1	0.2005489
3	0xbdf5954a	-0.11991365
4	0x3ddc9632	0.10770835
5	0xbe28bb08	-0.16477597
6	0x3da41c05	0.08013157
7	0x3e03acf7	0.1285895
8	0xbe9d8367	-0.30764315
9	0x3ecb379d	0.39690867
10	0x3e218aba	0.15775576
11	0xbea66f6d	-0.32506886
12	0xbeafe98f	-0.3435788
13	0xbe2410ee	-0.16022083
14	0xbd7aae2f	-0.06120127
15	0x3e498d41	0.1968279
16	0x3eb2d528	0.3492825
17	0x3e693976	0.22775826
18	0xbea0d16e	-0.31409782
19	0xbdc9a7dc	-0.0984647
20	0xbe774c35	-0.24150164
21	0xbea42240	-0.3205738
22	0xbecc4f4e	-0.39904255
23	0x3ee28ff7	0.4425046
24	0x3e5c0a9e	0.21488425
25	0x3dcd07f1	0.1001128
26	0xbe9a9e8a	-0.3019908
27	0xbcb3ee10	-0.021964103
28	0xbe624b03	-0.22098927
29	0xbed74ada	-0.42049295
30	0x3e14de6f	0.14537977
31	0xbc888f35	-0.016669849
32	0xbe851671	-0.25993684
33	0x3eb7b163	0.35877523
34	0x3d6daf00	0.05802822
35	0xbeb45b0d	-0.35225716
36	0xbd64171a	-0.055686094
37	0xbeaf8971	-0.34284547
38	0x3ded7602	0.11594774
39	0xbea6cbc5	-0.3257734
40	0xbe280482	-0.1640797
41	0xbea7ba87	-0.32759497
42	0xbdf8fdbd	-0.12157772
43	0xbe8224f6	-0.25418824
44	0xbd15a684	-0.036535755
45	0x3eb8d8e3	0.3610297
46	0x3ca1efa6	0.019767594
47	0x3deb155b	0.114786826
48	0x3e943dfb	0.28953537
49	0x3d511c13	0.051052164
50	0x3eaec949	0.34137943
51	0x3e9f0608	0.3105929
52	0x3df57558	0.11985272
53	0xbb8f480c	-0.0043726023
54	0x3dd6115b	0.10452529
55	0xbedfa681	-0.4368172
56	0xbd519e92	-0.051176615
57	0x3e94a9c4	0.2903577
58	0xbeb72157	-0.35767624
59	0xbe429f6c	-0.19006127
60	0x3ee852e8	0.45375752
61	0x3ed66bb5	0.4187905
62	0x3eb48ccd	0.35263672
63	0x3dca22dd	0.09869931
64	0x3e4e7f17	0.20165668
65	0xbe8b6b86	-0.2723047
66	0xbdbcdfbe	-0.09222363
67	0x3dbeee7d	0.09322832
68	0xbee9d79d	-0.45672312
69	0xbe7e9cd3	-0.24864511
70	0xbe236dd3	-0.15959863
71	0xbec1ad04	-0.37827313
72	0xbe4d52c7	-0.20051108
73	0xbe8584bc	-0.2607783
74	0x3e8de97f	0.27717206
75	0xbe95b7f3	-0.29241905
76	0xbd416bf6	-0.0472221
77	0xbed95877	-0.42450306
78	0x3cd27653	0.025691187
79	0x3e913a46	0.28364772
80	0x3e785839	0.24252404
81	0x3e28d7fe	0.16488644
82	0x3e3127c0	0.1730032
83	0xbdb2c748	-0.08729416
84	0xbd657f99	-0.05602989
85	0x3e9ae2f1	0.30251268
86	0xbede2fd5	-0.43395868
87	0x3ecf16a4	0.4044696
88	0x3d97c569	0.074107
89	0xbc8471b0	-0.016167492
90	0x3eb709c9	0.35749653
91	0xbd4354f7	-0.04768845
92	0x3ec80209	0.39064053
93	0x3e338f21	0.17535068
94	0xbed46c2c	-0.4148878
95	0x3ec9e0db	0.39429364
96	0xbdf0eb58	-0.11763638
97	0xbee03af7	-0.43794987
98	0x3e843a41	0.25825694
99	0x3e70b363	0.2350593
100	0x3ebc310c	0.3675617
101	0x3e79eb20	0.244061
102	0x3e05c3ef	0.13063024
103	0xbb7088e9	-0.0036702699
104	0xbdf2c968	-0.118548214
105	0xbecd95fc	-0.40153491
106	0xbecc1e0f	-0.39866683
107	0x3e8f5f16	0.28002232
108	0x3dfa0d08	0.12209517
109	0xbe30edef	-0.17278264
110	0xbd6cb758	-0.057792038
111	0xbdf41207	-0.11917501
112	0x3eae3bdf	0.34030053
113	0x3edf90a6	0.43665045
114	0x3e598d7e	0.21245381
115	0x3e8ed257	0.27894852
116	0x3d547910	0.051873267
117	0xbdbb906c	-0.09158406
118	0xbd8b2eb7	-0.067960195
119	0x3da1ad37	0.07894366
120	0xbe2cee5c	-0.16887802
121	0xbed4b97b	-0.4154776
122	0x3e58ca01	0.21170808
123	0x3bd79c89	0.0065799397
124	0x3ed49026	0.41516227
125	0x3e8ced70	0.275249
126	0xbd277a51	-0.040888134
127	0xbdf4be55	-0.119503655
128	0xbe441366	-0.19148025
129	0x3eb445a2	0.35209376
130	0x3ebb0566	0.36527556
131	0xbded8eb8	-0.11599487
132	0xbc45e6c1	-0.012078942
133	0x3ed1082d	0.4082655
134	0xbdcaa1ae	-0.09894119
135	0x3ebffddd	0.3749837
136	0x3ea9210d	0.33033028
137	0x3ec4c057	0.38427994
138	0x3d7b5f08	0.061369926
139	0xbecdb93a	-0.4018038
140	0xb961de02	-0.00021540376
141	0x3e1ca809	0.15298475
142	0xbd2cebd6	-0.0422171
143	0xbdd7b438	-0.10532421
144	0xbeaefda6	-0.34177893
145	0xbc3dbf90	-0.011581317
146	0x3e65e1f8	0.22449481
147	0xbdfc70c0	-0.12326193
148	0xbea8dcfb	-0.32981095
149	0x3e8a415d	0.27002993
150	0xbe97083a	-0.29498464
151	0x3e74b9bf	0.23898982
152	0xbed11072	-0.4083286
153	0xbedbcf0d	-0.42931405
154	0x3e7d3cd6	0.24730238
155	0xbe548d18	-0.20756948
156	0xbe038b4b	-0.12846105
157	0xbe344463	-0.17604212
158	0x3ee9a150	0.45630884
159	0x3e51ac96	0.20475993

layers.0.Ah.conv1.bias f4 [32]
0	0xbc0179fc	-0.0079026185
1	0x3e2c4efe	0.16827008
2	0x3ed12ea7	0.40855905
3	0x3ec00743	0.3750554
4	0x3e35d14f	0.17755626
5	0xbec381bc	-0.38184917
6	0xbcda1573	-0.026621556
7	0xbcb18c0d	-0.021673227
8	0x3e25ce26	0.1619192
9	0xbe99b4da	-0.3002079
10	0x3e251b7f	0.1612377
11	0x3ec3d189	0.382458
12	0x3e9c765b	0.30559048
13	0xbe961c6f	-0.29318568
14	0x3ecf8d44	0.40537465
15	0xbe964a5f	-0.29353616
16	0x3e308633	0.17238693
17	0xbe84d4fc	-0.25943744
18	0xbe9e358d	-0.3090023
19	0xbe69ae9a	-0.22820511
20	0x3e9664a8	0.2937367
21	0x3ed6c09f	0.41943833
22	0xbe553b56	-0.20823416
23	0x3eda2cb4	0.4261223
24	0x3e64c863	0.22342066
25	0xbdc4e201	-0.09613419
26	0x3ea7df65	0.32787624
27	0x3e82f771	0.25579408
28	0xbeda8b16	-0.4268424
29	0x3ee816a3	0.4532977
30	0x3d9bcf79	0.07607932
31	0x3ecabd91	0.39597753

layers.0.Ah.conv2.weight f4 [16, 32, 3]
0	0x3c96b424	0.018396445
1	0x3cb78179	0.022400605
2	0xbd110284	-0.03540279
3	0x3d4a5e5e	0.0494064
4	0x3d2deb9a	0.042461015
5	0xbcf3719c	-0.02971726
6	0x3d9ce9de	0.07661794
7	0xbc2225a8	-0.009896673
8	0x3d819432	0.06327094
9	0xbd8c80da	-0.06860514
10	0x3bdc91f0	0.0067312643
11	0x3d5dee51	0.054182354
12	0xbc9b52b4	-0.018960334
13	0xbc812469	-0.015764432
14	0xbd51624d	-0.051119138
15	0x3d481780	0.048850536
16	0xbd8c30c6	-0.0684524
17	0xbd146b14	-0.03623493
18	0xbc6e9ba0	-0.014563471
19	0x3cfd076c	0.030887328
20	0xbd3dba13	-0.046320032
21	0xbd6cccbf	-0.05781245
22	0xbd33641e	-0.04379665
23	0x3d064352	0.032779045
24	0x3d9e711d	0.077364184
25	0xbb44f49d	-0.0030053027
26	0x3d2b73bd	0.041858424
27	0xbd7678e3	-0.06017388
28	0x3d918002	0.07104494
29	0x3de93618	0.11387271
30	0x3dac7fe9	0.084228344
31	0x3d325517	0.04353818
32	0xbda35bc9	-0.07976491
33	0x3d9a6d5c	0.0754039
34	0xbcc1b6c0	-0.023646712
35	0x3ddd458c	0.10804281
36	0x3d8a0f3f	0.06741189
37	0xbd88c422	-0.06678034
38	0x3bbeabaf	0.005818806
39	0x3cb55ee2	0.02213997
40	0x3c96a701	0.01839018
41	0x3cd6dbfa	0.02622794
42	0x3d846fa4	0.06466606
43	0xbce2649c	-0.027635865
44	0xbd30cdd0	-0.043165028
45	0xbc232f02	-0.009959938
46	0xbdc1ff32	-0.09472503
47	0x3d3353a8	0.043780953
48	0x3cdb4954	0.026768364
49	0x3c89f3d5	0.016839901
50	0x3dd340cf	0.10315096
51	0x3dc26cdf	0.09493422
52	0xbd0aaf4a	-0.033858575
53	0x3db6a53c	0.08918235
54	0xbd431e57	-0.047636356
55	0x3bb305d8	0.005463343
56	0x3d761721	0.06008065
57	0xbd9bfcd3	-0.07616582
58	0x3b612424	0.0034353817
59	0xbd59f947	-0.053216245
60	0x3dd647ae	0.104628906
61	0xbd713de7	-0.058896925
62	0x3d82e849	0.06391961
63	0xbccc50f9	-0.024940955
64	0x3d5daac6	0.05411794
65	0x3bb711e8	0.0055868514
66	0x3d8d4793	0.06898417
67	0xbc2409bc	-0.0100120865
68	0x3d9174e6	0.07102375
69	0x3d1417c0	0.036155462
70	0x3ca9ced4	0.020728506
71	0xbd2fee66	-0.042951964
72	0x3de353e8	0.11099988
73	0xbd3b381c	-0.045707807
74	0x3de26323	0.11054065
75	0xbbe862f1	-0.007091873
76	0x3db067cb	0.08613547
77	0xbcf52df3	-0.029929137
78	0x3d300ff1	0.042983953
79	0x3d83e4ae	0.064401016
80	0x3b27d9b3	0.0025611937
81	0x3ba86f2b	0.0051402054
82	0x3d87876c	0.066176265
83	0x3da75e20	0.0817225
84	0x3da9c889	0.08290202
85	0xba9a413a	-0.0011768707
86	0xbd0f3944	-0.034966722
87	0xbd84951f	-0.06473755
88	0xbb96648d	-0.0045896233
89	0xbcf62720	-0.030047953
90	0x3d81c2d3	0.06335988
91	0xbd861880	-0.06547642
92	0xbd67fc80	-0.056637287
93	0xbd43e061	-0.047821406
94	0xbca26696	-0.019824307
95	0x3d02f20e	0.031969123
96	0xbc180185	-0.009277706
97	0xbcf187bf	-0.029483674
98	0x3c94715a	0.018120456
99	0x3d936dae	0.07198654
100	0x3db46e8a	0.08810146
101	0x3cb5c505	0.022188673
102	0xbd2a89ad	-0.041635204
103	0xbd851979	-0.06498999
104	0x3d964f4a	0.07339342
105	0xbd8ab52d	-0.06772838
106	0x3d00c61b	0.031438928
107	0x3da9e495	0.08295552
108	0xbc9c73a4	-0.01909811
109	0xbd5396ff	-0.051657673
110	0xbc0a187e	-0.008428691
111	0xbdc404bd	-0.09571216
112	0x3d86351c	0.065530986
113	0x3bd18153	0.0063935905
114	0xbd1f8447	-0.03894451
115	0x3d77db44	0.060511842
116	0x3db37108	0.087617934
117	0xbd8cd667	-0.068768315
118	0x3c16bf46	0.009200877
119	0xbd78f957	-0.060784664
120	0xbd7a3f9b	-0.061095815
121	0x3d17ba7a	0.037043072
122	0xbd5721c2	-0.05252243
123	0x3d7c8531	0.06165046
124	0x3da92637	0.08259242
125	0x3db45cc7	0.088067584
126	0xbda3a69f	-0.07990765
127	0xbd8bdced	-0.068292476
128	0x3d2eeddb	0.042707305
129	0x3d0cca7e	0.0343728
130	0xbd6dd925	-0.058068413
131	0xbd419827	-0.047264244
132	0xbd6f27ad	-0.058387447
133	0x3d65e2e5	0.056124587
134	0xbb7ced58	-0.0038593616
135	0xbd09c024	-0.033630505
136	0x3c1ee973	0.009699213
137	0xbcfbd820	-0.030742705
138	0xbd78879f	-0.060676213
139	0xbd8f36df	-0.06992888
140	0xbd00ba5e	-0.031427734
141	0xbdb89ac4	-0.09013894
142	0xbdc160a8	-0.09442264
143	0xbd74a3e6	-0.05972662
144	0x3c795d6a	0.015220026
145	0xbcfe4259	-0.031037496
146	0xbc2d20f0	-0.010566935
147	0x3d816805	0.06318668
148	0x3d8b3e21	0.067989595
149	0x3cae62ce	0.021287348
150	0xbd9554dd	-0.07291577
151	0xbd53a904	-0.051674858
152	0xbd94aca6	-0.072594926
153	0xbd287b40	-0.041133165
154	0x3d33110e	0.043717436
155	0x3cfa5d47	0.030562056
156	0xbcad821b	-0.021180203
157	0xbd9bcb8a	-0.07607181
158	0xbd00da4e	-0.03145819
159	0xbcb53086	-0.022117864
160	0xbce6bfee	-0.028167691
161	0x3de2f8b0	0.110825896
162	0x3d8f20ed	0.06988702
163	0x3d3619d3	0.04445822
164	0xbd9abe50	-0.075558305
165	0xba9feca2	-0.0012201259
166	0x3d8331d8	0.06405991
167	0xbd9c7890	-0.07640183
168	0xbdb27605	-0.08713917
169	0xbb6bac67	-0.0035960914
170	0xbc8962e7	-0.016770793
171	0x3d3e3394	0.046435907
172	0x3d838190	0.064211965
173	0xbc075de2	-0.0082621295
174	0xbc671c1e	-0.014105825
175	0xbd132a86	-0.035929225
176	0x3d0a828f	0.033815917
177	0x3c400dcc	0.011722039
178	0x3b261af7	0.0025345662
179	0xbdda6b76	-0.10665028
180	0xbcf49b5d	-0.02985924
181	0x3c0ef32b	0.008724968
182	0xbc7d9cfe	-0.015479324
183	0xbc17090f	-0.009218468
184	0x3d725270	0.05916065
185	0x3d212439	0.039341185
186	0x3dbe6a91	0.0929767
187	0x3d68d231	0.05684108
188	0xbca63b3e	-0.02029192
189	0xbd7d12ac	-0.061785385
190	0x3cd1a76f	0.025592534
191	0xbd0f9aa0	-0.03505957
192	0x3d1f1e23	0.0388471
193	0x3ceff0b5	0.029289583
194	0x3c9bec98	0.019033715
195	0x3cb9cca5	0.02268059
196	0x3cdaae65	0.026694486
197	0xbdc958d1	-0.098313935
198	0xbdbd177f	-0.09232997
199	0xbdd5054e	-0.104014024
200	0xbdc353ca	-0.09537466
201	0xbb82f2b1	-0.003996216
202	0xbdb684e8	-0.089120686
203	0x3c66d9ea	0.014090041
204	0xbdad7f65	-0.08471564
205	0xbde32008	-0.11090094
206	0x3d23eef5	0.04002281
207	0x3c4a0235	0.012329628
208	0x3d67d2d2	0.05659754
209	0x3cda6d82	0.026663546
210	0xbcb1e715	-0.021716634
211	0xbd65ede0	-0.05613506
212	0xbd6fe7fa	-0.05857084
213	0x3d85ec41	0.065392025
214	0xbd98f8bd	-0.07469318
215	0x3dd5e869	0.10444719
216	0xbcdcffe9	-0.026977496
217	0x3d2b245d	0.041782726
218	0x3dbf0245	0.09326605
219	0xbd8367f3	-0.06416311
220	0xbddb01dd	-0.10693715
221	0xbc52701e	-0.012844114
222	0xbd6c192c	-0.057641193
223	0xbde0374b	-0.10948046
224	0x3d818a87	0.0632525
225	0x3da196a9	0.07890064
226	0xbd949cc3	-0.072564624
227	0x3d844e68	0.06460267
228	0xbda5cfdf	-0.08096289
229	0x3cc45068	0.023964122
230	0x3d155557	0.03645834
231	0xbc9381fd	-0.01800632
232	0xbcbbbb8c	-0.022916578
233	0x3cf745cf	0.030184655
234	0x3db2d89c	0.08732721
235	0x3d0ba8df	0.034096595
236	0x3b84b49b	0.00404985
237	0x3cd1b087	0.02559687
238	0x3da16d78	0.07882208
239	0x3d216ceb	0.039410513
240	0xbd910d81	-0.07082654
241	0xbdb97cc6	-0.09057002
242	0xbdd7171b	-0.10502454
243	0xbd986ce7	-0.074426465
244	0x3dbbd0ac	0.091706604
245	0x3d922d79	0.071375795
246	0xbda3f9c8	-0.08006626
247	0xbd7d0269	-0.061769877
248	0x3d2713a4	0.040790215
249	0x3d35cb90	0.044383585
250	0x3d927aaf	0.07152306
251	0x3dd1b997	0.102404766
252	0xbd2d7fc8	-0.04235819
253	0xbda664a4	-0.081246644
254	0xbd1d3a22	-0.038385518
255	0x3d26f582	0.04076148

layers.0.Ah.conv2.bias f4 [16]
0	0x3d45c7e3	0.04828633
1	0x3ddf6960	0.109087706
2	0xbd9ce279	-0.07660384
3	0xbdb51f6a	-0.088438824
4	0xbdac621b	-0.0841715
5	0x3d3ad4d1	0.045613114
6	0x3d6acd68	0.057324797
7	0x3d0a63b4	0.03378649
8	0xbcee82fb	-0.02911519
9	0xbc6c9a7d	-0.01444113
10	0xbd9ef82e	-0.0776218
11	0xbc3af525	-0.011410986
12	0x3d846b6e	0.06465803
13	0x3c8d32bd	0.017236108
14	0x3de5783f	0.11204576
15	0x3da8c8a5	0.08241395

layers.0.Ah.conv3.weight f4 [1, 16, 3]
0	0x3d305e3e	0.043058626
1	0xbdf0e986	-0.11763291
2	0xbce033a0	-0.027368367
3	0x3dbece69	0.09316713
4	0xbcad7d5e	-0.021177944
5	0xbdaaebf7	-0.08345788
6	0x3d79eeae	0.06101864
7	0xbd289dde	-0.04116618
8	0x3df778eb	0.1208361
9	0xbd18f9bd	-0.037347544
10	0xbdd588a0	-0.1042645
11	0xbdeaf51a	-0.11472531
12	0x3d9d493e	0.076799855
13	0x3dc88780	0.097914696
14	0x3dae28eb	0.08503898
15	0x3dbbb79d	0.09165881
16	0x3db0e61f	0.08637642
17	0xbe1f0496	-0.15529093
18	0xbd6af18c	-0.057359263
19	0xbdbeaf6f	-0.09310805
20	0xbddabe33	-0.10680809
21	0x3d25f435	0.040516097
22	0xbd690a41	-0.056894545
23	0xbd1142cb	-0.03546409
24	0xbdb09f8e	-0.08624183
25	0x3c20bd49	0.009810754
26	0x3e03b2f5	0.12861235
27	0x3dea9ed8	0.11456078
28	0x3d924f49	0.07144029
29	0x3d80bfe1	0.06286598
30	0x3dc225ec	0.09479889
31	0xbddf4667	-0.109021
32	0xbe17d592	-0.14827564
33	0xbca78380	-0.020448446
34	0x3cb8171f	0.022471962
35	0xbd7327ca	-0.059364118
36	0x3de5426e	0.11194311
37	0xbdc0f6fb	-0.09422108
38	0x3d8ecc66	0.0697258
39	0x3b8fac80	0.0043845773
40	0xbdc1c6ee	-0.09461771
41	0xbd0bb26e	-0.03410571
42	0xbd5a9bc8	-0.05337122
43	0x3d76c456	0.060245834
44	0xbe09d391	-0.13459612
45	0xbbdde2ac	-0.006771406
46	0x3d15dccf	0.036587533
47	0x3db8664b	0.09003886

layers.1.Aw.conv1.weight f4 [32, 1, 5]
0	0xbe4aa85f	-0.19790791
1	0xbdbe3d0e	-0.09288989
2	0xbe8e5d0c	-0.27805364
3	0x3da01036	0.07815592
4	0xbd273865	-0.040825266
5	0x3de4a745	0.11164717
6	0xbec23a0f	-0.3793492
7	0x3e8669a9	0.26252487
8	0x3ebb2aff	0.3655624
9	0x3d1efc77	0.038814988
10	0xbd71c68a	-0.059027232
11	0x3e42f734	0.19039613
12	0xbe66ec80	-0.22551155
13	0xbebfe584	-0.37479794
14	0x3e433123	0.19061713
15	0x3eb96869	0.3621247
16	0x3d8c4fac	0.06851134
17	0x3a4582b9	0.0007534433
18	0x3e3eedbf	0.1864538
19	0x3edfe225	0.43727222
20	0xbe4f3dc9	-0.20238413
21	0xbe3da827	-0.18521176
22	0x3d9c8154	0.07641855
23	0x3ee1f2e5	0.44130626
24	0xbede6a84	-0.4344064
25	0x3e9e2fd0	0.30895853
26	0x3e39bcb9	0.18138398
27	0x3e709eaa	0.23498026
28	0xbd1fd6ff	-0.039023396
29	0x3e549bc2	0.20762542
30	0xbed2f9fe	-0.41206354
31	0x3edb0310	0.42775774
32	0x3e276d61	0.16350318
33	0xbea3d4fe	-0.31998438
34	0xbedca97b	-0.43098053
35	0x3ca05832	0.019573305
36	0x3d885f55	0.06658808
37	0xbe730892	-0.23733738
38	0x3ee1c657	0.44096634
39	0xbe5fa4b5	-0.21840174
40	0x3e9061a3	0.2819949
41	0x3d87cc1d	0.066307284
42	0xbe996790	-0.29961824
43	0xbcb68a54	-0.022282757
44	0xbeb79073	-0.35852394
45	0xbc9a2e70	-0.018820971
46	0xbe285bc9	-0.16441263
47	0xbea1f3f8	-0.31631446
48	0xbe8b6760	-0.27227306
49	0x3d1625d4	0.03665717
50	0xbeb590f6	-0.3546216
51	0xbe210721	-0.15725376
52	0xbec9961b	-0.39372334
53	0x3e895584	0.26823056
54	0x3ece7059	0.4032009
55	0x3e9a694c	0.3015846
56	0x3ebe2ed3	0.371451
57	0x3edbf3d4	0.42959464
58	0x3d0f932a	0.035052456
59	0x3d28be88	0.04119733
60	0xbed304b1	-0.41214517
61	0x3d63918b	0.055558722
62	0xbe1fe4db	-0.15614645
63	0x3e702fd8	0.23455751
64	0x3ebb8ba2	0.3662997
65	0xbe640316	-0.22266802
66	0x3ed831e8	0.42225575
67	0xbddd4e3f	-0.1080594
68	0x3e930f7a	0.28722745
69	0xbe03458b	-0.12819497
70	0x3e37b191	0.1793883
71	0x3e6ed57f	0.2332363
72	0xbdb9798f	-0.090563886
73	0x3e81199a	0.25214845
74	0x3abf1e22	0.0014581124
75	0x3ec8a9c3	0.39192018
76	0xbe04d89d	-0.12973256
77	0xbe82029e	-0.25392622
78	0x3dca9fda	0.098937705
79	0x3e148b2f	0.1450622
80	0x3d84043d	0.06446121
81	0x3ec14bd2	0.3775316
82	0x3e483861	0.19552757
83	0xbdbb67b7	-0.091506414
84	0x3db840a1	0.08996702
85	0x3d65e0da	0.05612264
86	0xbe074fd8	-0.13214052
87	0xbd52bf72	-0.051452108
88	0xbe0af0c7	-0.13568412
89	0x3c690124	0.014221463
90	0xbd93c8b0	-0.072160125
91	0x3ec8af14	0.39196074
92	0x3e2b5cdb	0.1673464
93	0xbdbd90ea	-0.09256156
94	0xbeca5033	-0.39514312
95	0x3dba8f92	0.09109415
96	0x3ec80681	0.39067462
97	0xbe8c2352	-0.27370697
98	0x3ebbdbd9	0.36691168
99	0xbc43274e	-0.011911226
100	0xbdd163a7	-0.10224085
101	0xbe02eb9b	-0.12785189
102	0x3e494ec8	0.19658959
103	0xbce3258c	-0.027727865
104	0x3e2b6967	0.16739427
105	0x3ee41e34	0.44554293
106	0xbe3219d4	-0.17392665
107	0x3ee671ae	0.45008606
108	0xbd9f1db0	-0.07769334
109	0xbda0c0b9	-0.07849259
110	0x3e0d68eb	0.13809554
111	0x3e60b298	0.21943128
112	0xbea11516	-0.314614
113	0x3e49a304	0.19691092
114	0xbdcccaa3	-0.099995874
115	0xbe131762	-0.14364389
116	0x3dfc48dd	0.12318585
117	0x3ed67ecd	0.41893616
118	0x3d532567	0.05154934
119	0x3e7fdbe2	0.24986222
120	0xbe5c1a73	-0.21494465
121	0xbed74475	-0.42044416
122	0x3ee50e3e	0.44737428
123	0xbe769e68	-0.24083865
124	0xbec24045	-0.3793966
125	0xbc31f9f3	-0.010862815
126	0xbdd08b98	-0.101828754
127	0x3d9e46ab	0.077283226
128	0x3d8f65f7	0.0700187
129	0x3e91adf3	0.28453025
130	0x3eacc1f2	0.3374172
131	0x3ebb36c3	0.36565217
132	0xbed360b9	-0.4128473
133	0x3e4f36a7	0.20235692
134	0xbed2117c	-0.41028965
135	0xbe4235ab	-0.18965785
136	0xbd8fe1d5	-0.07025496
137	0xbea942ce	-0.3305878
138	0x3ec540f9	0.38526133
139	0xbeb19651	-0.34684995
140	0xbea94185	-0.330578
141	0x3e4e2c5a	0.20134106
142	0xbdda3d25	-0.10656194
143	0xbec072a7	-0.37587473
144	0x3e04eb87	0.12980472
145	0x3da1b0db	0.07895061
146	0xbe20a81f	-0.15689133
147	0x3ed5a31e	0.4172601
148	0xbe38f99b	-0.18063967
149	0x3e51e21f	0.20496415
150	0xbeb68405	-0.35647598
151	0xbe7e05fa	-0.24806967
152	0xbccb672d	-0.024829471
153	0x3ebc06d9	0.36723974
154	0xbe2c1632	-0.16805342
155	0xbe82bf38	-0.25536513
156	0xbe054007	-0.13012706
157	0x3eb98784	0.36236203
158	0xbea6f35b	-0.3260754
159	0xbcda89cd	-0.026677037

layers.1.Aw.conv1.bias f4 [32]
0	0xbe91c5bf	-0.2847118
1	0xbec289bd	-0.3799571
2	0x3ead3e71	0.33836702
3	0x3ec4fd5e	0.38474554
4	0xbe848253	-0.2588068
5	0xbed44852	-0.41461426
6	0x3eb55c56	0.3542201
7	0x3ec76c01	0.38949588
8	0xbebb4aac	-0.36580408
9	0x3c8cdd06	0.017195236
10	0x3e7caca0	0.24675226
11	0xbd82b1fc	-0.06381604
12	0xbddafec5	-0.10693125
13	0xbe054c80	-0.13017464
14	0x3e2f43e6	0.17115745
15	0x3c9bb50b	0.019007226
16	0xbeca3f25	-0.395013
17	0x3ecd736e	0.40127128
18	0x3ead3e0c	0.338364
19	0x3e5203ec	0.20509309
20	0x3e0d6276	0.13807091
21	0x3e6896df	0.22713803
22	0xbcd24827	-0.02566917
23	0xbeada87d	-0.3391761
24	0x3ec2f928	0.38080716
25	0xbea8829e	-0.32912153
26	0xbe7e2d8e	-0.24822065
27	0x3c14865b	0.009065236
28	0x3ee7bc37	0.45260784
29	0x3db6e8fa	0.089311555
30	0xbea6928d	-0.32533684
31	0x3ecd586f	0.40106532

layers.1.Aw.conv2.weight f4 [16, 32, 3]
0	0xbd05e955	-0.032693226
1	0xbd99a895	-0.075028576
2	0x3d6c7eb5	0.057738025
3	0xbdb3259b	-0.08747407
4	0xbdab0673	-0.083508395
5	0x3d089c4e	0.03335219
6	0x3ddb86f9	0.10719103
7	0x3c1dcae5	0.009630893
8	0x3d6151f0	0.055009782
9	0x3c82d75e	0.015971836
10	0xbd4597a5	-0.048240323
11	0x3ba7d9b9	0.00512239
12	0xbd86345f	-0.06552958
13	0x3c884511	0.016634496
14	0x3d054810	0.032539427
15	0xbd31ffa4	-0.04345669
16	0x3d952320	0.0728209
17	0xbde04656	-0.109509155
18	0x3dc22e6d	0.09481511
19	0x3b651d93	0.0034960255
20	0x3da340fd	0.0797138
21	0x3dc5e465	0.096627034
22	0x3d139096	0.03602656
23	0xbd87dc0a	-0.06633766
24	0x3dab10e8	0.08352834
25	0x3d2c971d	0.0421363
26	0x3d69ca58	0.057077736
27	0xbd270ba9	-0.040782604
28	0xbdc59634	-0.096477896
29	0x3cf51e98	0.029921815
30	0x3d987c14	0.07445541
31	0xbd46eb62	-0.048564322
32	0x3dabf8f1	0.08397091
33	0xbc5c52f2	-0.01344751
34	0x3de56fae	0.11202942
35	0xbc4220b7	-0.01184862
36	0xbd86779d	-0.06565783
37	0xbd1244a4	-0.035709992
38	0x3d950474	0.0727624
39	0xbd2240bb	-0.039612513
40	0x3dbc4798	0.09193343
41	0x3d87adab	0.066249214
42	0x3d8d9925	0.069139756
43	0x3dc86648	0.097851336
44	0x3db64802	0.08900453
45	0xbdb23ba8	-0.08702785
46	0x3d92d192	0.071688786
47	0x3d88cbe8	0.06679517
48	0xbdcaeca6	-0.09908418
49	0xbc8ac5fd	-0.016940111
50	0xbd0a3ff4	-0.033752397
51	0x3d538169	0.051637087
52	0x3cfc774d	0.030818606
53	0xbd938cea	-0.072046116
54	0x3dba8c95	0.09108845
55	0x3d0b1c90	0.033962786
56	0xbd929192	-0.071566716
57	0xbd9cec97	-0.076623134
58	0x3dc194c0	0.094522
59	0xbd87bf29	-0.06628258
60	0xbc35b92e	-0.011091514
61	0x3ddb58a0	0.10710263
62	0x3dc6439a	0.09680863
63	0x3da7e7d2	0.08198513
64	0xbd223a4b	-0.039606374
65	0x3d86eadc	0.065877646
66	0xbd466a30	-0.048441112
67	0xbdb5581d	-0.08854697
68	0xbc914560	-0.017733276
69	0x3d730a76	0.05933615
70	0x3cedbb75	0.02902005
71	0x3d4f4ac3	0.050608408
72	0xbda2930f	-0.079382055
73	0x3dc7e935	0.097612776
74	0x3de4cdc8	0.11172062
75	0xbd71cf9a	-0.059035875
76	0x3c8e4efa	0.017371643
77	0xbc2f6488	-0.010705121
78	0x3db3c81a	0.08778401
79	0x3d754c88	0.05988744
80	0x3c4ccc36	0.01249986
81	0x3dbc61fe	0.09198378
82	0x3d910bca	0.07082327
83	0xbd02aa4c	-0.03190069
84	0x3dbd4594	0.092417866
85	0x3db5417e	0.08850382
86	0x3d122357	0.035678234
87	0xbc96f39b	-0.018426707
88	0xbd88fcf5	-0.06688873
89	0x3da8a17a	0.08233924
90	0xbd2a5667	-0.041586306
91	0x3d5a1d8c	0.053250834
92	0xbdc93351	-0.09824241
93	0x3d9f5e99	0.07781715
94	0xbd82d112	-0.06387533
95	0xbd193a0c	-0.037408873
96	0x3d62f62c	0.05541055
97	0xbc893ef5	-0.016753653
98	0xbda7a2ea	-0.0818537
99	0x3ca9f89e	0.020748433
100	0x3d2041fd	0.03912543
101	0xbc9b841b	-0.018983891
102	0x3d846af3	0.064657114
103	0xbdb7038c	-0.089362234
104	0xbd845f17	-0.064634494
105	0x3d9bbb86	0.07604127
106	0x3cd19e84	0.025588281
107	0x3d3bf584	0.04588844
108	0x3ba7bb1c	0.0051187407
109	0x3d02d3d0	0.03194028
110	0xbd81cf27	-0.06338339
111	0x3dce193f	0.10063409
112	0xbc9ac6e9	-0.018893676
113	0x3d5689e5	0.0523776
114	0x3be25fa4	0.006908374
115	0xbd582ae6	-0.052775286
116	0xbcb5d5f2	-0.022196744
117	0xbdce453e	-0.10071801
118	0xbdacbc9d	-0.08434413
119	0x3da3c96a	0.07997401
120	0x3dbd114f	0.09231817
121	0x3dcbc240	0.099491596
122	0xbc65d8c4	-0.014028732
123	0xbde52de2	-0.11190392
124	0x3d99e057	0.075134926
125	0x3d7a71f4	0.06114383
126	0xbd9a05f8	-0.0752067
127	0x3be8376f	0.0070866863
128	0x3cf3e473	0.029772019
129	0x3bbd7979	0.005782303
130	0x3d3cd5b9	0.04610226
131	0xbd7d561d	-0.061849702
132	0x3d836739	0.064161725
133	0xbdc96e10	-0.09835446
134	0xbc835f54	-0.016036667
135	0x3de03765	0.10948066
136	0x3d2b3f79	0.04180858
137	0x3dc2b69a	0.09507485
138	0xbcc32f5c	-0.023826294
139	0x3d482b04	0.048869148
140	0x3d99ca55	0.07509295
141	0xbc2ebb04	-0.010664705
142	0xbde4741f	-0.11154961
143	0xbd2fca0e	-0.042917304
144	0x3cc04539	0.023470508
145	0x3d776f0c	0.060408637
146	0x3d9a6c8d	0.07540236
147	0x3ccf2b31	0.02528915
148	0xbc1705da	-0.009217704
149	0x3d9d3cd6	0.07677619
150	0x3d83183d	0.064011075
151	0xbd7dbfc0	-0.061950445
152	0x3c42dd30	0.0118935555
153	0x3dac26e2	0.08405854
154	0x3d7b821b	0.061403375
155	0xbd92b33a	-0.07163091
156	0xbd82c20c	-0.06384668
157	0x3d03f98b	0.032220405
158	0x3d3cb194	0.04606779
159	0xbda0c833	-0.07850685
160	0x3cfae8a9	0.03062852
161	0x3b7f839f	0.0038988364
162	0xbd62c65a	-0.055364944
163	0xbd81f55f	-0.06345629
164	0xbd1d271a	-0.03836737
165	0xbc0306c3	-0.007997218
166	0xbcf585e3	-0.029971069
167	0xbd4856f3	-0.048911046
168	0xbdd8b9f1	-0.105823405
169	0xbdc3fe8b	-0.095700346
170	0x3d78b678	0.06072089
171	0xbb9255fe	-0.0044658175
172	0x3d9ce8fb	0.07661625
173	0x3d369e90	0.04458481
174	0x3d75b212	0.059984274
175	0x3dd26859	0.10273809
176	0xbd1746d2	-0.036932774
177	0x3c8244a4	0.015901871
178	0x3d13b0dd	0.03605734
179	0x3dcb1e00	0.099178314
180	0x3db35faf	0.087584846
181	0xbde02411	-0.10944379
182	0x3c25e4ca	0.010125348
183	0x3cd610ca	0.026131053
184	0x3ce7a629	0.028277474
185	0x3d8f2c70	0.06990898
186	0x3d88ccba	0.066796735
187	0x3cb58729	0.022159176
188	0x3da95adb	0.082692824
189	0x3d85d05c	0.06533882
190	0x3d9d6516	0.07685296
191	0x3c9a270a	0.018817443
192	0xbd8858fa	-0.06657596
193	0x3c966af0	0.018361539
194	0x3c3d25ec	0.011544686
195	0x3d32206e	0.04348796
196	0xbd835d9b	-0.06414338
197	0x3d5de645	0.05417468
198	0xbcea4e3b	-0.028601756
199	0x3dc8fe75	0.09814159
200	0xbc99e8fa	-0.01878785
201	0x3db38335	0.0876526
202	0xbbe177b5	-0.0068807253
203	0xbcf0bd0d	-0.029387021
204	0xbcca6b53	-0.02470938
205	0x3d9bf372	0.07614793
206	0xbd5791f8	-0.05262944
207	0xbd390f05	-0.04518034
208	0x391210e0	0.00013929931
209	0x3d3c848d	0.046024848
210	0xbd2b415f	-0.04181039
211	0x3d194808	0.03742221
212	0xbd8e6dbc	-0.06954524
213	0xbd787f31	-0.060668174
214	0x3d92c5a9	0.07166607
215	0x3d589ba5	0.05288281
216	0x3d317f70	0.043334424
217	0x3c36566e	0.011129005
218	0x3a8cc0cc	0.001073861
219	0xbd5d989c	-0.054100618
220	0xbd825c96	-0.063653156
221	0x3ca1ff26	0.019774985
222	0x3d28c350	0.04120189
223	0xbcd9ca06	-0.02658559
224	0x3dad40e9	0.08459646
225	0xbc047c51	-0.00808628
226	0x3d15945d	0.036518443
227	0xbd8c28dc	-0.06843731
228	0x3d01781d	0.03160869
229	0x3cde3a60	0.027127445
230	0xbd050731	-0.03247756
231	0xbd9ec699	-0.07752723
232	0x3c5061fa	0.012718672
233	0xbcc4386e	-0.023952689
234	0xbd063d6f	-0.03277343
235	0x3de71b4c	0.11284503
236	0xbdaed83c	-0.08537337
237	0xbc5aa54f	-0.013345077
238	0xbd3b8218	-0.045778364
239	0xbd0ae08b	-0.033905547
240	0xbd4b4c00	-0.049633026
241	0x3cce3927	0.025173737
242	0xbde8bfb4	-0.113646895
243	0xbc9049cf	-0.01761332
244	0xbc9c2ad1	-0.019063385
245	0x3dc9f1be	0.09860562
246	0x3daefd3b	0.08544394
247	0x3d7df812	0.062004156
248	0x3ddc1d8a	0.10747822
249	0xbbfd6268	-0.007732678
250	0xbda51429	-0.08060486
251	0x3d2ccb4a	0.04218606
252	0xbd6d64a7	-0.057957318
253	0xbd6b30c7	-0.057419565
254	0x3c87798b	0.016537448
255	0x3c23f87d	0.010007975

layers.1.Aw.conv2.bias f4 [16]
0	0x3d95fd24	0.07323673
1	0xbc503ff3	-0.012710559
2	0x3d830826	0.063980386
3	0xbbe43cda	-0.006965262
4	0x3d1d8960	0.03846109
5	0xbd89ed1a	-0.06734677
6	0x3cc06c67	0.02348919
7	0x3d1399ce	0.03603535
8	0xbdbf0fa7	-0.09329157
9	0x3cf0d384	0.029397734
10	0x3d8fa955	0.070147194
11	0xbcd1a934	-0.025593378
12	0xbd3ce799	-0.046119306
13	0x3c3aca95	0.011400838
14	0xbd6fdfc3	-0.058563005
15	0xbcf58b84	-0.029973753

layers.1.Aw.conv3.weight f4 [1, 16, 3]
0	0x3d052677	0.032507386
1	0x3ddda57c	0.10822579
2	0x3e008e3b	0.12554257
3	0x385895a8	5.163779e-05
4	0x3c36eab0	0.011164352
5	0x3b8de731	0.0043305387
6	0x3d5cce4a	0.05390767
7	0x3e0f8225	0.1401449
8	0xbd8f1f1d	-0.06988356
9	0x3c592f9a	0.013255978
10	0xbdf355d8	-0.11881608
11	0x3d82535f	0.06363558
12	0xbdb51ff4	-0.08843985
13	0xbe0523d1	-0.13001944
14	0xbcfbd965	-0.03074331
15	0x3e064b8e	0.1311476
16	0xbcc45350	-0.023965508
17	0x3de5be63	0.11217954
18	0x3ca70ba2	0.02039129
19	0x3d581ee9	0.052763853
20	0xbd246e29	-0.04014412
21	0x3d863feb	0.0655516
22	0x3d4a7ab0	0.04943341
23	0x3caea4a7	0.021318747
24	0x3d637eb3	0.05554075
25	0xbdea6ae7	-0.11446171
26	0xbda36bc6	-0.079795405
27	0xbdd2b38f	-0.10288154
28	0xbcf07daf	-0.029356806
29	0x3e041bd2	0.12901238
30	0x3d8ee150	0.06976569
31	0x3bc95f0f	0.006145365
32	0xbb23c518	-0.0024989303
33	0xbd8d6407	-0.06903844
34	0xbda220f8	-0.079164445
35	0x3d2f364e	0.0427764
36	0xbc243f25	-0.01002482
37	0x3ddf7ea3	0.10912826
38	0xbdab5413	-0.08365645
39	0x3d1b8bfa	0.03797529
40	0x3c94b492	0.018152509
41	0x3e1320f7	0.14368044
42	0x3dca2452	0.09870209
43	0x3d835f08	0.0641461
44	0x3d11df81	0.03561354
45	0xbe165812	-0.14682034
46	0x3d2c09b9	0.04200146
47	0x3c9f9ebd	0.019484872

layers.1.Ah.conv1.weight f4 [32, 1, 5]
0	0xbea90138	-0.33008742
1	0x3d5ac637	0.05341169
2	0xbe8ab5a3	-0.27091703
3	0xbed0e2de	-0.40798086
4	0x3e142b82	0.14469722
5	0xbeab4db3	-0.33457717
6	0xbed6b27b	-0.41933045
7	0x3e12af51	0.1432469
8	0xbe4c3330	-0.19941401
9	0xbe9cb09d	-0.30603495
10	0x3e4ebff2	0.20190409
11	0xbe8b20d8	-0.27173495
12	0xbd8646c3	-0.065564655
13	0xbd4c08e7	-0.049813177
14	0xbec6f202	-0.38856512
15	0x3e82d6e2	0.25554568
16	0x3e48ba1a	0.19602242
17	0xbeac860a	-0.33696014
18	0xbce4e854	-0.027942814
19	0xbe248b3a	-0.16068736
20	0x3ec53c11	0.3852239
21	0xbe8d205d	-0.27563754
22	0xbdd6cec5	-0.10488657
23	0xbe3af764	-0.18258435
24	0xbe9c8b47	-0.3057501
25	0x3e9966df	0.29961297
26	0xbec6531f	-0.3873529
27	0x3ebfdbfe	0.37472528
28	0xbd0a5e9d	-0.033781637
29	0x3e017c9c	0.12645191
30	0xbe63ed16	-0.2225841
31	0xbe286994	-0.16446525
32	0xbed7d4bd	-0.42154494
33	0x3b900f17	0.00439633
34	0x3e9572f4	0.29189265
35	0x3e5a50f9	0.21319951
36	0x3ea27527	0.31730005
37	0xbe891441	-0.26773265
38	0xbbac6da3	-0.005262093
39	0xbe0e0305	-0.1386834
40	0xbed50d29	-0.41611603
41	0xbe9398a3	-0.2882739
42	0xbe810aa8	-0.25203443
43	0xbe0ab664	-0.13546139
44	0xbe030812	-0.12796047
45	0x3dffbc78	0.124871194
46	0xbeb997b9	-0.36248568
47	0xbedd9087	-0.43274328
48	0x3ec5cb7d	0.38631812
49	0x3e65aff8	0.22430408
50	0x3d447ee1	0.047972564
51	0x3df813f4	0.12113181
52	0x3e67d554	0.22639972
53	0x3c3e6d92	0.011622803
54	0x3ebb4b98	0.3658111
55	0xbea9cbcd	-0.331633
56	0xbde294b9	-0.11063523
57	0x3ea6880e	0.32525676
58	0xbd4d0e7c	-0.05006264
59	0x3ee499a0	0.44648457
60	0xbe2894dd	-0.16463037
61	0x3d243b79	0.04009578
62	0xbd8df9ec	-0.069324344
63	0x3ebb0ae2	0.3653174
64	0xbe7d66e8	-0.24746287
65	0x3e8a2c33	0.26986846
66	0x3ed02576	0.4065358
67	0xbdf7337b	-0.12070366
68	0x3ed471a6	0.41492957
69	0x3eb456a3	0.3522235
70	0xbcd24563	-0.025667852
71	0xbe7606a9	-0.24025978
72	0xbe98dca7	-0.29855844
73	0x3d370f70	0.044692457
74	0x3eb80584	0.35941708
75	0xbe25a819	-0.16177405
76	0xbec76709	-0.38945797
77	0xbebaa644	-0.36454976
78	0x3e9014de	0.2814092
79	0x3ed652ea	0.41860133
80	0xbeda5726	-0.42644614
81	0x3df2af3c	0.118498296
82	0x3ead6a22	0.33870035
83	0x3e40bdcb	0.188224
84	0x3e8b940e	0.27261394
85	0x3ec316fb	0.3810347
86	0xbeba46de	-0.36382192
87	0xbe883dd3	-0.26609668
88	0x3ec0c81d	0.37652674
89	0xbe26beb2	-0.16283682
90	0x3d4a22f7	0.04934975
91	0x3ddbe7b9	0.10737557
92	0xbe889bf0	-0.2668147
93	0x3ea932a1	0.3304644
94	0xbd95f7cc	-0.07322654
95	0xbeb720e9	-0.35767296
96	0xbe9f0bde	-0.3106374
97	0xbe7fec42	-0.24992469
98	0xbe96ae73	-0.2942997
99	0x3c7a2e1d	0.015269783
100	0x3e93ea01	0.28889468
101	0xbe3de9f8	-0.18546283
102	0x3e84c722	0.25933176
103	0xbea8a503	-0.32938394
104	0x3d0851fc	0.03328131
105	0x3e9f94e9	0.31168297
106	0x3e84e50b	0.25955996
107	0x3d913498	0.070901096
108	0x3e843588	0.2582209
109	0xbbada725	-0.005299466
110	0xbe9e7305	-0.30947128
111	0xbd1c5bde	-0.03817355
112	0x3e05067d	0.12990756
113	0x3dce99d5	0.10087935
114	0x3e5c24ef	0.21498464
115	0x3e8203ec	0.25393617
116	0xbe1ea789	-0.15493597
117	0x3e106a74	0.14103109
118	0x3c9453b6	0.018106323
119	0xbee28d5c	-0.44248474
120	0x3e2bb91f	0.16769837
121	0x3e913e17	0.28367683
122	0x3e08e2f9	0.13367833
123	0xbe8ec729	-0.27886322
124	0xbdb924a7	-0.09040194
125	0x3e5619a6	0.20908222
126	0xbea638df	-0.32465264
127	0xbe9cd2e8	-0.3062966
128	0xbdc37530	-0.09543836
129	0x3ed7760a	0.42082244
130	0x3e27a146	0.16370115
131	0x3ebac0fd	0.36475363
132	0xbe36f746	-0.17867765
133	0x3e9216bf	0.2853298
134	0xbe85f01e	-0.26159757
135	0x3d2db925	0.042412896
136	0xbe969a13	-0.29414424
137	0xbe9add83	-0.30247125
138	0x3bac135e	0.005251332
139	0xbe1e4d88	-0.15459263
140	0x3e512949	0.20425905
141	0x3d8c4816	0.06849687
142	0xbe45469d	-0.19265218
143	0x3c59cc27	0.013293303
144	0xbdee789c	-0.11644098
145	0x3d3453d4	0.044025257
146	0xbe4a8d92	-0.19780567
147	0x3e80fef0	0.25194502
148	0x3e530267	0.20606385
149	0x3e8b8c70	0.27255583
150	0xbec2bf6e	-0.38036674
151	0xbe4d8381	-0.20069696
152	0x3e95b9d3	0.29243335
153	0x3e050e85	0.1299382
154	0x3e7dfc2f	0.24803232
155	0x3e935702	0.2877732
156	0x3e39cec5	0.18145283
157	0x3bf9fb19	0.00762881
158	0xbdb75770	-0.08952224
159	0x3eacc9ca	0.33747703

layers.1.Ah.conv1.bias f4 [32]
0	0xbab078cf	-0.0013463738
1	0xbe1a542d	-0.15071173
2	0x3dd3964d	0.10331402
3	0x3e8f30af	0.2796683
4	0x3e8d9086	0.27649325
5	0xbdaee4ee	-0.085397586
6	0xbebec1e6	-0.37257308
7	0xbe24f95a	-0.16110745
8	0xbede9eb4	-0.43480456
9	0x3eadb48e	0.33926815
10	0xbd5b0bd5	-0.05347808
11	0xbeb9db55	-0.3630015
12	0x3ebf07f0	0.37310743
13	0xbee9310a	-0.45545226
14	0x3dce4870	0.1007241
15	0xbea57eae	-0.3232321
16	0x3e3a69a2	0.18204358
17	0xbec2154f	-0.37906882
18	0x3eb08d70	0.34482908
19	0xbe147c0d	-0.14500447
20	0x3e493584	0.19649321
21	0x3ecad210	0.3961339
22	0x3e4ea11c	0.20178646
23	0x3def1523	0.116739534
24	0xbdb444f3	-0.088022135
25	0xbeb81e07	-0.3596041
26	0x3ee367a2	0.44415003
27	0xbe98dd62	-0.29856402
28	0x3ebd05a5	0.3691837
29	0xbe0a21af	-0.13489412
30	0x3d07bdfd	0.03314017
31	0xbe591a38	-0.21201408
