models/RALMU.pt (torch, 678420 bytes, 132 tensors)

W0 f4 [288, 88]
0.21301708 0.016430337 0.0075873323 0.0045565097 0.0017587243 0.0025456958 0.0018418368 0.0008137335
0.004355098 0.0015611667 0.0042677387 0.0047270227 0.0016183623 0.0021459325 0.0017702675 0.0016182142
0.00666579 0.0047380193 0.00023850835 0.0009847347 0.0025686207 0.00088902324 0.001290445 0.00011654027
0.0016020372 0.00077662896 0.002058854 0.001115747 0.0065429104 0.0029000065 0.0014045142 0.0012409446
0.0012918328 0.0017954045 0.0005701038 0.00031430274 0.00036529152 4.2895895e-06 0.0018217505 5.126453e-05
0.00182887 0.0004981861 0.00048286672 0.0018157975 0.0004355934 0.0010513965 0.0021342337 0.00032799251
0.0012849097 0.00019801191 9.563355e-06 0.0012789767 0.00075100135 0.0011587006 0.0015947155 0.0003943687
0.0007571198 4.046023e-06 0.000948602 8.48282e-05 0.0009262588 0.0011337157 0.000429662 0.00045895696
0.0010245824 0.00018121618 0.00090757455 2.845487e-05 0.000371693 0.0008270685 1.5718722e-06 0.00016922636
0.00036075703 0.00037426315 0.00018482524 0.00011906629 0.00035347 9.115161e-05 0.00012019927 0.0005185125
7.3404095e-05 0.00026385742 0.0004309703 0.00027733005 1.157512e-05 0.00032855524 1.9612822e-05 0.00019764507
0.11766758 0.031130325 0.009507524 0.005169778 0.005222001 0.0006079935 0.0013957766 0.003695607
0.0043737697 0.0012891379 0.0042345054 0.0038346248 0.0016221016 0.0023610403 0.001839853 0.0015983365
0.009710442 0.0027118013 0.00019760837 0.0010763403 0.0027928373 0.00042191896 0.0013011129 9.215606e-05
0.0015767039 0.0007253454 0.0020736796 0.0011262617 0.0051483153 0.0029570565 0.0014285975 0.0012456881
0.0013076265 0.0021821957 0.00052930316 0.0001441736 0.00035341067 2.2130585e-06 0.0017894899 4.3157233e-05
0.0018469804 0.0004891524 0.0005067213 0.0018452635 0.00043753177 0.0010167165 0.0021519074 0.00033725472
0.0012955333 0.00020444344 6.633787e-06 0.0012747122 0.00075049745 0.0011649182 0.0016087143 0.00038465133
0.0007619315 5.500665e-06 0.00095308106 8.52703e-05 0.00092733116 0.0011256126 0.00043406212 0.00046339998
0.0010288861 0.00016763256 0.00090758275 3.8684982e-05 0.0003740755 0.0008327315 3.0447602e-06 0.00016850687
0.00036343647 0.00036687838 0.00018451686 0.00011694076 0.0003506194 9.139492e-05 0.00012138822 0.0005224944
7.399629e-05 0.00026538837 0.0004336388 0.00028031418 1.0746787e-05 0.00033099015 1.9721268e-05 0.00019843326
0.008069343 0.07288885 0.012469787 0.0060028615 0.008936964 0.00039145196 0.0016706985 0.008459844
0.0040601315 0.001410694 0.0042173783 0.0033442702 0.0016583967 0.0028058763 0.0018170901 0.0015956138
0.005774171 0.0027351382 0.00016581877 0.0009739457 0.002069116 0.00049944816 0.0013296138 0.0001559341
0.0015435377 0.00072498666 0.002082944 0.0011245873 0.0020751501 0.0029882009 0.0014463322 0.001318676
0.0013239433 0.0021676878 0.0004801788 0.0001653799 0.0003439268 6.5856225e-06 0.0017656524 3.9453567e-05
0.0010025747 0.00047336982 0.0005244723 0.0018612699 0.00043443448 0.00097653194 0.0021674247 0.00036052318
0.001305492 0.00021133412 5.047376e-06 0.0012859289 0.00075175765 0.0011699907 0.001619832 0.00037704984
0.0007676606 3.6935678e-06 0.00095899747 8.597476e-05 0.0009297506 0.0011230004 0.0004379769 0.00046720574
0.0010333938 0.00014994011 0.00090929493 2.0026759e-05 0.0003762489 0.0008382636 1.6205888e-06 0.00016815765
0.00036613893 0.00035994474 0.00018466449 0.000114953684 0.0003488911 9.169914e-05 0.00012244748 0.0005260543
00000000: 2621 5a3e ea98 863c 289f f83b c64e 953b
00000010: ff84 e63a b0d5 263b ca69 f13a bb50 553a
00000020: 36b5 8e3b 10a0 cc3a 63d8 8b3b 24e5 9a3b
00000030: 3a1f d43a c6a2 0c3b 5208 e83a 421a d43a
00000040: b36c da3b 6341 9b3b 1918 7a39 3712 813a
00000050: 4e56 283b 570d 693a 2624 a93a 1567 f438
00000060: 73fb d13a b096 4b3a d7ed 063b 423e 923a
00000070: e965 d63b 090e 3e3b ad17 b83a 31a7 a23a
00000080: b752 a93a c753 eb3a 0573 153a 00c9 a439
00000090: 9984 bf39 4bef 8f36 cec7 ee3a df04 5738
000000a0: b2b6 ef3a b498 023a 4629 fd39 0e00 ee3a
000000b0: 5b60 e439 03cf 893a 80de 0b3b 69f6 ab39
000000c0: 6a6a a83a 6ba1 4f39 4c72 2037 56a3 a73a
000000d0: d9de 443a 8adf 973a c605 d13a 45c3 ce39
000000e0: 7379 463a 13c3 8736 9aab 783a cbe5 b138
000000f0: 2dd0 723a 3099 943a 4244 e139 29a0 f039
00000100: 484b 863a d904 3e39 4cea 6d3a 5eb2 ee37
00000110: cadf c239 a1cf 583a 1ef9 d235 5b72 3139
00000120: fd23 bd39 c038 c439 a6cd 4139 3ab3 f938
00000130: f151 b939 a628 bf38 7e13 fc38 c9ec 073a
00000140: 86f0 9938 5856 8a39 dbf3 e139 9c66 9139
00000150: c332 4237 f041 ac39 3786 a437 f23e 4f39
00000160: b3fb f03d 0605 ff3c 72c5 1b3c 3e67 a93b
00000170: 521d ab3b c161 1f3a 7ef2 b63a ff31 723b
00000180: d751 8f3b 4af8 a83a 9bc1 8a3b 544e 7b3b
00000190: b39c d43a afbb 1a3b 3927 f13a 467f d13a
000001a0: 8c18 1f3c 7ab8 313b 1835 4f39 fd13 8d3a
000001b0: 0908 373b 0135 dd39 1b8a aa3a e843 c138
000001c0: 67a9 ce3a 1b25 3e3a 92e6 073b 129f 933a
000001d0: 33b3 a83b 2dcb 413b c73f bb3a 5b46 a33a
000001e0: aa64 ab3a 2b03 0f3b efc0 0a3a 4e2d 1739
000001f0: fa49 b939 0e84 1436 518d ea3a ba03 3538
00000200: 6116 f23a 763a 003a 7ed5 043a c5dc f13a
00000210: 8564 e539 5843 853a 0407 0d3b 90d1 b039
00000220: e2ce a93a de5f 5639 cc97 de36 3e14 a73a
00000230: 08bd 443a 2bb0 983a 7fdb d23a 07ab c939
00000240: 5bbc 473a 5a92 b836 30d8 793a 25d3 b238
00000250: 2418 733a 4b89 933a d592 e339 7ef4 f239
00000260: b0db 863a 86c6 2f39 d9ea 6d3a af41 2238
00000270: 901f c439 aa4b 5a3a 9554 4c36 38b1 3039
00000280: 9e8b be39 9559 c039 de7a 4139 183e f538
00000290: 57d3 b739 46ab bf38 ce91 fe38 01f8 083a
000002a0: 752e 9b38 d323 8b39 045a e339 22f7 9239
000002b0: 194d 3437 bf88 ad39 1a6f a537 8612 5039
000002c0: 4735 043c c046 953d 144e 4c3c a7b3 c43b
000002d0: 586c 123c cb3b cd39 57fb da3a 289b 0a3c
000002e0: da0a 853b 09e7 b83a ef31 8a3b 8b2b 5b3b
000002f0: 8f5e d93a cbe2 373b 6d2b ee3a ea23 d13a
00000300: 4235 bd3b 0140 333b a3df 2d39 6450 7f3a
00000310: 029a 073b 66ed 023a 7046 ae3a 3e82 2339
00000320: 8850 ca3a 080d 3e3a 0082 083b e366 933a
00000330: 3eff 073b b1d5 433b db92 bd3a 6dd7 ac3a
00000340: 2a88 ad3a c40f 0e3b 82c0 fb39 d469 2d39
00000350: 1351 b439 11fa dc36 776d e73a f27a 2538
00000360: d368 833a 9f2e f839 be7c 093a dbf5 f33a
00000370: cfc4 e339 f3fd 7f3a 5a0b 0e3b 9a04 bd39
00000380: 0b1d ab3a 9299 5d39 a15c a936 9d8c a83a
00000390: 9a11 453a 605a 993a 8b50 d43a c6ae c539
000003a0: d53c 493a 03df 7736 3b65 7b3a 594d b438
000003b0: 82ba 733a a431 933a 44a0 e539 4bf3 f439
000003c0: f172 873a 3e39 1d39 c05d 6e3a 23ff a737
000003d0: 4643 c539 ebbe 5b3a 0283 d935 7a53 3039
000003e0: 56f6 bf39 f7b6 bc39 7fa2 4139 4a13 f138
000003f0: 5feb b639 9a4e c038 3f65 0039 e8e6 093a

H0 f4 [88, 1551]
0.0028875242 0.0063112346 0.012025354 0.004320557 0.0057415524 0.0066829133 0.007376922 0.0028014216
0.00232741 0.0064949794 0.009072577 0.0060630618 0.0062565105 0.005485108 0.0039830827 0.004391951
0.0011693734 0.0037714434 0.0033919408 0.0023260887 0.0003400199 0.0038179695 0.004885132 0.003527908
0.004131095 0.0061570937 0.0026306629 0.0044673784 0.004353907 0.0031599144 0.0025141465 0.00957823
0.008387333 0.006721562 0.0077401088 0.010539651 0.0049449564 0.0010183547 0.0038882357 0.005881601
0.0063632885 0.00563767 0.006637409 0.005155007 0.0034149436 0.00033644383 0.00019157634 0.0042457646
0.0054653506 0.004208606 0.005947933 0.0036396135 0.000541918 0.012584255 0.00036644255 0.0038815178
0.0032837165 0.0043247105 0.0021244134 0.0034153888 0.0048845196 0.0024794862 0.0029089043 0.010113629
0.0041184826 0.007728362 0.002397705 0.0022949143 0.007028353 0.00980902 0.0050213696 0.0042429315
0.0048558656 0.0018017881 0.0011756186 0.0055395565 0.002251056 0.0047428077 0.004460933 0.005238897
0.00078912184 0.007949412 0.006396069 0.0015610337 0.0065461625 0.009287524 0.009267028 0.004856807
0.0014808734 0.0070602037 0.0033006524 0.0025684445 0.009236228 0.008224783 0.00261072 0.007022996
0.0010036704 0.005664612 0.006474262 0.0044131554 0.0028571999 0.007639714 0.0011502642 0.0050938544
0.00034671722 0.0043894835 0.0027716367 0.008021241 0.0017102555 0.0051351166 0.0041729067 0.0025373742
0.0025636367 0.0012420226 0.0065800706 0.010686817 0.007223266 0.0046103676 0.011806092 0.0068368614
0.0026020224 0.008317282 0.0014293793 0.0046827523 0.0017326109 0.00682714 0.0058896365 0.0069789216
0.004115072 0.0059464145 0.009994566 0.0033056405 0.0027846985 0.0053795837 2.659938e-06 0.0041284803
0.005127655 0.0053637987 0.006387376 0.0081564095 0.008731923 0.0060961866 0.004442552 0.0033107316
0.0024597826 0.009005876 0.011243031 0.0010662795 0.005164023 0.0036693693 0.0060334215 0.00024093423
0.0015936657 0.0065297014 0.007153395 0.0054590935 0.009542283 0.0059424904 0.008043619 0.0006796253
0.007036351 0.0046705683 0.0053186095 0.0019529347 0.0060257497 0.0053818175 0.008847089 0.005434943
0.0030195613 0.0056060674 0.0013188416 0.0068139387 0.0046023387 0.0044359793 0.005063542 0.0037818146
0.0046556927 0.0066272095 0.008081712 0.00554915 0.0020441716 0.004539389 0.003062038 0.0028016453
0.009951762 0.0051282784 0.005645399 0.0067888857 0.0052997884 0.008750242 0.004193965 0.0042738672
0.0018177016 0.0071477965 0.007825136 0.00212569 0.0077208383 0.0035513178 0.0017778107 0.0013092731
0.0029244248 0.0057341643 0.005150111 0.0037862314 0.0054849745 0.0013339259 0.000903081 0.0014309406
0.0021901974 0.006151022 0.00637802 0.002619294 0.0020868515 0.00829755 0.0037505778 0.0040016854
0.002968805 0.004612358 0.011003791 0.007144947 0.0026665593 0.0036387923 0.003432425 0.0045623546
0.003063313 0.0032216997 0.007188909 0.0016574521 0.003385925 0.0025375243 0.0025269415 0.0029148795
0.0013333808 0.0018621663 0.0052128066 0.006623415 0.0020990055 0.0006384306 0.0060895802 0.0025611038
0.004276738 0.004264043 0.0065083127 0.0018680458 0.004236792 0.0019933137 0.010484325 0.0038321812
0.0030204721 0.0040581124 0.0073875003 0.006146305 0.0020661869 0.005131014 0.00046064873 0.004655577
00000000: 9e3c 3d3b 79ce ce3b fe05 453c 7693 8d3b
00000010: a223 bc3b 57fc da3b 1bba f13b 0e98 373b
00000020: 7687 183b d6d3 d43b 25a5 143c a6ac c63b
00000030: 6a03 cd3b 6cbc b33b 8584 823b 5bea 8f3b
00000040: a945 993a 522a 773b 534b 5e3b 4b71 183b
00000050: b344 b239 e636 7a3b 7513 a03b 7934 673b
00000060: 235e 873b 72c1 c93b 3367 2c3b 1663 923b
00000070: 38ab 8e3b 9116 4f3b 61c4 243b 02ee 1c3c
00000080: 066b 093c 8c40 dc3b bda0 fd3b 80ae 2c3c
00000090: 4d09 a23b 507a 853a c5d1 7e3b 72ba c03b
000000a0: 2283 d03b 34bc b83b 9f7e d93b 55eb a83b
000000b0: 3fcd 5f3b ba64 b039 e2e1 4839 0e20 8b3b
000000c0: af16 b33b 59e8 893b e1e6 c23b 9586 6e3b
000000d0: 800f 0e3a 312e 4e3c 161f c039 1061 7e3b
000000e0: 9f33 573b 4db6 8d3b be39 0b3b b7d4 5f3b
000000f0: 520e a03b e07e 223b 51a3 3e3b a2b3 253c
00000100: 56f4 863b 333e fd3b d122 1d3b 4666 163b
00000110: 194e e63b 03b6 203c 4d8a a43b 4a08 8b3b
00000120: f41d 9f3b fa29 ec3a 3717 9a3a 2b85 b53b
00000130: 7486 133b 8e69 9b3b 052d 923b 0eab ab3b
00000140: 12dd 4e3a 403e 023c 1e96 d13b 999b cc3a
00000150: 3181 d63b b32a 183c bcd4 173c da25 9f3b
00000160: de19 c23a 4859 e73b c24f 583b 5953 283b
00000170: 8c53 173c 3ec1 063c 9d18 2b3b 2921 e63b
00000180: 978d 833a 369e b93b 0c26 d43b 3b9c 903b
00000190: dc3f 3b3b 9156 fa3b 76c4 963a 59ea a63b
000001a0: 99c7 b539 a8d5 8f3b 59a4 353b 866b 033c
000001b0: a72a e03a 7b44 a83b e1bc 883b 134a 263b
000001c0: b002 283b 5dcb a23a a29d d73b c217 2f3c
000001d0: 26b1 ec3b 9112 973b 576e 413c c007 e03b
000001e0: b186 2a3b 3645 083c 035a bb3a c671 993b
000001f0: c618 e33a 34b6 df3b dafd c03b 70af e43b
00000200: bad7 863b 24da c23b 40c0 233c 72a3 583b
00000210: 7d7f 363b 3847 b03b 6381 3236 3448 873b
00000220: e305 a83b cec2 af3b 324d d13b 76a2 053c
00000230: 5710 0f3c 85c2 c73b d492 913b dcf8 583b
00000240: 4e34 213b 628d 133c b134 383c 67c2 8b3a
00000250: f736 a93b cd79 703b 02b4 c53b 4aa3 7c39
00000260: 8ce2 d03a 1bf7 d53b 0767 ea3b 32e2 b23b
00000270: 3c57 1c3c 39b9 c23b 62c9 033c e228 323a
00000280: 3191 e63b 910b 993b bb47 ae3b 9df9 ff3a
00000290: a773 c53b f559 b03b 61f3 103c 9b17 b23b
000002a0: d5e3 453b 1ab3 b73b fbdc ac3a 7647 df3b
000002b0: 37cf 963b b15b 913b 12ec a53b 52d8 773b
000002c0: c88e 983b 1029 d93b 2869 043c a5d5 b53b
000002d0: 82f7 053b 28bf 943b 79ac 483b cf9b 373b
000002e0: b70c 233c 1e0b a83b 0afd b83b 4d75 de3b
000002f0: d9a9 ad3b 2d5d 0f3c 876d 893b cc0b 8c3b
00000300: f23f ee3a 1038 ea3b 0035 003c 294f 0b3b
00000310: 16ff fc3b 3abd 683b 6e05 e93a ea9b ab3a
00000320: b5a7 3f3b a8e5 bb3b 43c2 a83b 6c22 783b
00000330: 4dbb b33b 20d7 ae3a bdbc 6c3a 668e bb3a
00000340: 6a89 0f3b 838e c93b b6fe d03b 76a8 2b3b
00000350: 8fc3 083b 72f2 073c 41cc 753b 9220 833b
00000360: 4890 423b 4323 973b 3f49 343c 2920 ea3b
00000370: 71c1 2e3b ce78 6e3b 89f2 603b ce7f 953b
00000380: ddc1 483b 2723 533b f190 eb3b dd3e d93a
00000390: 65e6 5d3b 984c 263b 0b9b 253b 9007 3f3b
000003a0: d6c4 ae3a ef13 f43a 31d0 aa3b 3b09 d93b
000003b0: 788f 093b 5a5c 273a 1a8b c73b 31d8 273b
000003c0: e123 8c3b 63b9 8b3b af43 d53b 37d9 f43a
000003d0: cad4 8a3b 41a2 023b 72c6 2b3c 5525 7b3b
000003e0: 1df3 453b eaf9 843b d812 f23b f166 c93b
000003f0: dd68 073b 1122 a83b 3a83 f139 cf8d 983b

layers.0.Aw.conv1.weight f4 [16, 1, 5]
0.13529667 0.09595931 -0.34592757 0.12595877 -0.20603518 -0.3497264 0.14395092 0.2971857
0.3599752 0.09191871 -0.12714627 -0.4017508 0.24236946 0.17729269 0.05248397 0.37027544
0.061681814 -0.45737898 0.2994692 0.0029636992 0.3159867 0.110194884 -0.039398134 0.41006678
0.16567214 0.16652709 -0.25994897 0.024921559 -0.20513196 -0.26187918 0.054379623 -0.139035
0.110534474 0.20318858 0.32847765 0.28670117 0.42824695 -0.21173634 0.0626293 0.13826339
0.026846863 0.09163614 -0.0043588066 0.059109047 -0.15808669 -0.36614823 0.22321962 -0.2890894
-0.20838517 -0.03585625 -0.21815789 -0.26942125 -0.27282232 0.16979842 -0.33367425 0.046817843
-0.26423737 0.034423098 0.10877118 -0.016483989 0.21118486 -0.1422254 -0.2809604 -0.11151384
0.017296134 -0.3578668 0.274146 0.13678136 -0.19107597 0.30841097 0.2892575 0.4139622
0.23157422 -0.14749278 -0.37241372 0.012963439 0.31799296 -0.15429538 0.4167759 -0.08595428
00000000: 368b 0a3e 5186 c43d 6b1d b1be 56fb 003e
00000010: e3fa 52be 570f b3be df67 133e b928 983e
00000020: ab4e b83e e03f bc3d a232 02be 48b2 cdbe
00000030: b32f 783e 378c 353e 6ef9 563d be94 bd3e
00000040: 12a6 7c3d 942d eabe 0754 993e 9f3a 423b
00000050: 02c9 a13e dbad e13d f05f 21bd 46f4 d13e
00000060: f5a5 293e 1486 2a3e 0818 85be 4c28 cc3c
00000070: 1d0e 52be 0715 86be 2bbd 5e3d 315f 0ebe
00000080: e65f e23d ab10 503e 392e a83e 7fca 923e
00000090: 2f43 db3e 69d1 58be ca43 803d eb94 0d3e
000000a0: f4ed db3c bbab bb3d 52d4 8ebb 541c 723d
000000b0: 7ae1 21be c877 bbbe af93 643e 8703 94be
000000c0: ec62 55be 01de 12bd c864 5fbe 95f1 89be
000000d0: 5eaf 8bbe a3df 2d3e 5ad7 aabe 11c4 3f3d
000000e0: 1f4a 87be 3cff 0c3d 6dc3 de3d 6e09 87bc
000000f0: d840 583e 89a3 11be 0bda 8fbe 5e61 e4bd
00000100: 9fb0 8d3c 513a b7be dd5c 8c3e 6a10 0c3e
00000110: 6ba9 43be 0be8 9d3e 8f19 943e daf2 d33e
00000120: cb21 6d3e 5908 17be 03ad bebe 9b64 543c
00000130: f9cf a23e 9cff 1dbe a763 d53e cc08 b0bd

layers.0.Aw.conv1.bias f4 [16]
0.34773573 -0.00449489 -0.043550003 0.082744114 0.09891785 0.02614449 -0.058143012 0.29523024
0.33886412 0.2847074 -0.102425516 -0.0155494055 0.0926178 0.40206635 -0.37281424 0.07593716
00000000: 6b0a b23e df49 93bb 7d61 32bd bf75 a93d
00000010: 7195 ca3d f82c d63c 5e27 6ebd 6b28 973e
00000020: 997f ad3e 2bc5 913e 78c4 d1bd efc2 7ebc
00000030: 67ae bd3d a4db cd3e 82e1 bebe f184 9b3d

layers.0.Aw.conv2.weight f4 [8, 16, 3]
-0.16381702 -0.030909361 -0.07663291 0.14548232 -0.10380501 -0.07785524 -0.09619286 -0.063073754
-0.0666381 0.04039658 -0.018398035 0.22422592 -0.13707887 0.13164665 -0.0020710223 -0.12851515
-0.058291536 -0.03405856 0.11507656 -0.037484955 0.115053385 0.05229866 0.088470705 -0.08421572
0.12333837 -0.02546976 0.04332982 -0.01113044 0.010709065 -0.1536279 -0.097055525 -0.37285963
0.1190141 0.03685705 -0.029728187 0.15690368 0.07078882 0.039473936 -0.08697311 0.10402194
0.21705937 0.019402936 -0.061266106 -0.10437464 0.003953217 0.046228837 -0.0647329 0.07828427
-0.10571752 0.10131048 0.074155636 0.0714218 -0.09585206 0.08226665 -0.122079246 0.0042823334
0.12107268 0.034029018 -0.07068988 -0.049004827 -0.103982955 0.0035233018 0.019808063 0.00032106665
-0.021930808 -0.01331891 0.011264376 0.04496874 0.070357695 0.114933565 0.0021726917 -0.14603022
0.016011719 0.07026226 0.072957166 0.006551088 0.0072665852 -0.09334032 0.00781645 -0.05776193
0.029817948 -0.044390693 0.40643674 0.0949852 0.05241774 0.1261943 0.05335453 -0.0460807
-0.11220925 -0.13890691 0.044731185 0.041509133 -0.04030469 -0.13402039 0.09259206 -0.2650145
-0.12599786 -0.104410216 -0.041116197 0.01849741 0.006900856 -0.08982221 0.08909482 -0.11717533
-0.09495978 -0.059851333 -0.015212178 0.06519482 -0.07765709 0.079098016 0.105924286 -0.063098565
0.057180528 -0.0913544 0.015612344 0.14469276 0.055848442 0.026070857 -0.08678264 0.10874135
0.036414742 0.14184982 -0.09116246 0.003617034 0.028354542 -0.026217652 -0.14113082 0.035086624
0.1873546 0.12190795 0.0074098515 0.046640888 -0.1068327 0.032430746 0.10326131 -0.075964764
-0.07804344 -0.04871948 -0.024619456 0.08180265 -0.10309434 -0.0913345 0.055344917 0.15036845
-0.080708876 -0.028004976 0.03616819 -0.10128742 0.086921565 -0.07649711 -0.023642309 0.07685973
0.009908415 -0.0013351899 0.0852546 0.103958614 0.018048534 0.09575279 -0.09629701 0.063900456
0.046161983 -0.16402681 -0.11624185 -0.06550149 0.0011445336 -0.003818701 0.029980183 0.18713088
-0.04870241 0.020520346 -0.022624882 -0.13517159 -0.064888924 0.019516863 -0.22961846 -0.29332882
-0.21584576 -0.1049894 0.047522135 -0.015297884 0.038365763 0.12674603 0.080005735 0.02358129
0.047515552 0.11318616 -0.03377112 -0.029439734 0.0669908 -0.17780259 -0.06311362 0.14200595
-0.1395632 0.0061003803 0.08360721 -0.100215286 -0.079721205 0.023283156 -0.007294356 0.08197461
0.08397328 -0.058525868 0.021285398 -0.007770502 0.0076937224 0.1295317 0.103438504 -0.08335284
-0.11153594 0.017548826 -0.043172643 0.2620504 0.0747321 0.0040801372 0.10978438 -0.012926853
-0.1156298 -0.013575214 0.012744192 0.07090493 -0.09221015 -0.16574988 0.023483599 -0.12622322
0.10603515 0.07240743 -0.11080302 0.049922634 0.06264199 -0.11936353 0.056861315 0.08552143
-0.038054585 -0.03157297 0.018721255 0.014904194 0.02041402 0.10843811 0.021773767 0.007481921
0.07687903 0.041170843 -0.03167446 0.0039772303 0.068436734 0.04752944 0.048636377 -0.09163663
-0.08044885 0.0950087 -0.13884084 0.023823781 0.021016328 -0.065569624 -0.114758804 -0.11889228
00000000: a6bf 27be a135 fdbc b7f1 9cbd 51f9 143e
00000010: b997 d4bd 9172 9fbd c300 c5bd d02c 81bd
00000020: 8e79 88bd e276 253d 7ab7 96bc 7b9b 653e
00000030: 675e 0cbe 61ce 063e fdb9 07bb 7a99 03be
00000040: 1bc3 6ebd fd80 0bbd 42ad eb3d d389 19bd
00000050: 1ca1 eb3d 1f37 563d 2130 b53d 4b79 acbd
00000060: d498 fc3d f5a5 d0bc 9c7a 313d 735c 36bc
00000070: 1375 2f3c a250 1dbe 0cc5 c6bd 75e7 bebe
00000080: aabd f33d 6bf7 163d 8788 f3bc 5cab 203e
00000090: bbf9 903d 6caf 213d f51e b2bd 7409 d53d
000000a0: d044 5e3e e8f2 9e3c 2bf2 7abd 5fc2 d5bd
000000b0: fd89 813b 735a 3d3d af92 84bd 8153 a03d
000000c0: 6d82 d8bd de7b cf3d e9de 973d 9845 923d
000000d0: 164e c4bd 6b7b a83d af04 fabd d152 8c3b
000000e0: f4f4 f73d 0362 0b3d dbc5 90bd 49b9 48bd
000000f0: 04f5 d4bd 32e7 663b 8544 a23c d654 a839
00000100: 3da8 b3bc 8f37 5abc 388e 383c 2431 383d
00000110: b217 903d 4a62 eb3d b863 0e3b f288 15be
00000120: 022b 833c a9e5 8f3d 916a 953d 82aa d63b
00000130: 891c ee3b 3629 bfbd 9110 003c c697 6cbd
00000140: c544 f43c 04d3 35bd 7a18 d03e 9a87 c23d
00000150: fcb3 563d 1439 013e 488a 5a3d 1ebf 3cbd
00000160: f7cd e5bd 9d3d 0ebe 0c38 373d 7b05 2a3d
00000170: 8816 25bd a43c 09be e8a0 bd3d fbaf 87be
00000180: 9505 01be 06d5 d5bd 7569 28bd e187 973c
00000190: 9320 e23b b5f4 b7bd 5877 b63d 9ff9 efbd
000001a0: 467a c2bd ac26 75bd 803c 79bc dd84 853d
000001b0: ae0a 9fbd 24fe a13d d5ee d83d d239 81bd
000001c0: 2136 6a3d 0418 bbbd ebca 7f3c 572a 143e
000001d0: 56c1 643d 8d92 d53c 19bb b1bd c9b3 de3d
000001e0: a027 153d 1441 113e 62b3 babd c30b 6d3b
000001f0: c947 e83c 67c6 d6bc 9984 10be feb6 0f3d
00000200: e2d9 3f3e e0aa f93d 57ce f23b 840a 3f3d
00000210: 1acb dabd 1ad6 043d aa7a d33d 6a93 9bbd
00000220: 3dd5 9fbd 148e 47bd beae c9bc 2688 a73d
00000230: 2023 d3bd 950d bbbd 5ab1 623d 30fa 193e
00000240: b24a a5bd b16a e5bc 1925 143d c76f cfbd
00000250: ef03 b23d 84aa 9cbd 84ad c1bc a268 9d3d
00000260: e856 223c 8a01 afba f799 ae3d 41e8 d43d
00000270: 85da 933c 0a1a c43d 5e37 c5bd 3ede 823d
00000280: 5914 3d3d a5f6 27be 3510 eebd a525 86bd
00000290: 2d04 963a 2c43 7abb 0099 f53c 3d9f 3f3e
000002a0: 2e7c 47bd 491a a83c d157 b9bc 6c6a 0abe
000002b0: 7ce4 84bd d4e1 9f3c 1a21 6bbe 322f 96be
000002c0: ac06 5dbe af04 d7bd 92a6 423d faa3 7abc
000002d0: 6b25 1d3d b6c9 013e 0cda a33d 8d2d c13c
000002e0: ab9f 423d 25ce e73d 9653 0abd 992b f1bc
000002f0: 7932 893d e211 36be b741 81bd 026a 113e
00000300: a8e9 0ebe b3e5 c73b 423a ab3d ac3d cdbd
00000310: df44 a3bd 51bc be3c 7e05 efbb 4ee2 a73d
00000320: 2ffa ab3d d2b8 6fbd b75e ae3c b29f febb
00000330: 9f1b fc3b f5a3 043e 91d7 d33d e5b4 aabd
00000340: f46c e4bd 8ec2 8f3c ccd5 30bd 782b 863e
00000350: 250d 993d acb2 853b a2d6 e03d 27cb 53bc
00000360: 51cf ecbd 936a 5ebc 04cd 503c 9b36 913d
00000370: add8 bcbd 56ba 29be ad60 c03c a940 01be
00000380: f528 d93d 594a 943d b2ec e2bd ad7b 4c3d
00000390: 724a 803d de74 f4bd 69e7 683d dc25 af3d
000003a0: 20df 1bbd a952 01bd 515d 993c b830 743c
000003b0: 4e3b a73c cd14 de3d e65e b23c e72a f53b
000003c0: c172 9d3d c2a2 283d 14bd 01bd 6d53 823b
000003d0: 8f28 8c3d 3bae 423d f036 473d fcab bbbd
000003e0: 5ec2 a4bd ec93 c23d 4b2c 0ebe 172a c33c
000003f0: 6f2a ac3c 5e49 86bd aa06 ebbd cc7d f3bd

layers.0.Aw.conv2.bias f4 [8]
-0.1309803 -0.04204116 -0.035450164 -0.04160768 -0.011961207 -0.06478645 0.060680322 0.12102648
00000000: b31f 06be 5a33 2cbd 3134 11bd d16c 2abd
00000010: f0f8 43bc c2ae 84bd ee8b 783d bbdc f73d

layers.0.Aw.conv3.weight f4 [1, 8, 3]
-0.01804533 -0.08706033 0.21833967 0.079446726 -0.13319364 -0.0037806062 -0.058296803 -0.024062557
0.085834034 0.10324595 0.3134239 0.035019726 -0.15878314 -0.08789788 0.25781626 0.22570804
0.21050869 0.08068398 0.102620974 -0.12345265 0.17495152 -0.15833654 0.2711763 0.11917136
00000000: cdd3 93bc b04c b2bd 6f94 5f3e f7b4 a23d
00000010: ea63 08be 0cc4 77bb a1c8 6ebd d71e c5bc
00000020: c1c9 af3d 9d72 d33d 1979 a03e d870 0f3d
00000030: 0c98 22be ce03 b4bd 7e00 843e 0220 673e
00000040: 978f 573e a43d a53d f22a d23d bed4 fcbd
00000050: 7e26 333e f922 22be 9fd7 8a3e 1d10 f43d

layers.0.Aw.bn1.weight f4 [16]
0.90833604 0.88932794 0.9110976 0.91187865 0.9168285 0.9246387 0.8928907 0.9498965
0.89718765 0.87664616 1.1564236 0.94632065 0.8803715 0.94742984 0.81847703 1.0064628
00000000: b688 683f ffaa 633f b13d 693f e170 693f
00000010: 46b5 6a3f 1fb5 6c3f 7c94 643f 6b2c 733f
00000020: 17ae 653f e26b 603f b005 943f 1242 723f
00000030: 0760 613f c38a 723f b687 513f c6d3 803f

layers.0.Aw.bn1.bias f4 [16]
0.034593195 -0.079743326 -0.007243269 0.18899395 0.19669919 0.32096386 -0.011314555 0.2969398
-0.06669496 0.16572283 0.18257907 0.05837676 -0.035111856 0.029465988 -0.31481165 0.3594374
00000000: 98b1 0d3d 7850 a3bd f258 edbb a187 413e
00000010: 836b 493e 6055 a43e af60 39bc 7e08 983e
00000020: 5e97 88bd 3fb3 293e 02f6 3a3e 781c 6f3d
00000030: 73d1 0fbd a862 f13c fe2e a1be 2e08 b83e

layers.0.Aw.bn1.running_mean f4 [16]
0.3115924 0.04895472 -0.105700515 0.09563808 0.24008416 -0.022125833 -0.0174401 0.44402593
0.3631754 0.1524462 -0.31863904 -0.058926746 0.029648418 0.42427778 -0.15398723 0.1448735
00000000: 0a89 9f3e bf84 483d 8379 d8bd e6dd c33d
00000010: 9fd8 753e 3c41 b5bc 8ade 8ebc 5e57 e33e
00000020: 20f2 b93e db1a 1c3e a824 a3be 2c5d 71bd
00000030: 3de1 f23c f03a d93e d4ae 1dbe b859 143e

layers.0.Aw.bn1.running_var f4 [16]
920.0416 1469.1743 1447.2465 2164.4978 778.41254 632.9264 278.84988 1894.1157
68.20147 1642.5902 1252.8439 450.62372 876.1317 1408.1958 1945.6989 849.289
00000000: aa02 6644 94a5 b744 e3e7 b444 f747 0745
00000010: 679a 4244 4a3b 1e44 c96c 8b43 b4c3 ec44
00000020: 2767 8842 e352 cd44 019b 9c44 d64f e143
00000030: 6e08 5b44 4406 b044 5d36 f344 7f52 5444

layers.0.Aw.bn2.weight f4 [8]
1.1668582 0.8973606 0.9337306 1.2612151 1.1074698 1.103763 1.0341579 1.1304219
00000000: 9c5b 953f 6db9 653f f808 6f3f 7f6f a13f
00000010: 92c1 8d3f 1b48 8d3f 495f 843f aab1 903f

layers.0.Aw.bn2.bias f4 [8]
0.0044416315 -0.047226228 -0.012887884 0.0038022045 0.048996463 0.020519821 0.0033072499 0.21418448
00000000: 1b8b 913b 4a70 41bd b427 53bc 682e 793b
00000010: 84b0 483d 2f19 a83c 72be 583b 2d53 5b3e

layers.0.Aw.bn2.running_mean f4 [8]
-0.22683938 -0.18265949 0.01625705 -0.22224495 0.018255204 -0.14396794 0.12096742 -0.06175338
00000000: 9548 68be 170b 3bbe 812d 853c 2e94 63be
00000010: f08b 953c 556c 13be c4bd f73d 1df1 7cbd

layers.0.Aw.bn2.running_var f4 [8]
0.16073765 0.23790477 0.13540995 0.09851397 0.18444869 0.11198539 0.17977096 0.16326794
00000000: 6998 243e 4f9d 733e e8a8 0a3e b1c1 c93d
00000010: 1ee0 3c3e 9958 e53d e115 383e b62f 273e

layers.0.Ah.conv1.weight f4 [16, 1, 5]
-0.71407145 -0.76780385 0.7031628 -0.39747286 -0.45509467 -0.4999518 -0.24204195 0.21884264
-1.3888571 -0.7655628 -0.08592573 -0.044343773 -0.21439813 0.23128045 0.40189382 -0.27662262
0.040018324 0.027764792 -1.0029753 0.2858985 -0.8849391 -0.5393082 0.23482475 -0.98246646
0.7172939 0.2074812 -0.5004014 -0.26823232 -0.39195755 -0.3057747 -0.4267699 -0.20398498
0.57702434 0.3136557 -0.6797582 0.14535463 -0.32666397 1.4434365 -0.45923978 1.0524776
-0.51949006 0.7042438 -0.029785305 -1.2661864 0.27404413 0.36747822 -0.10102553 -0.7589218
0.02774404 0.6758065 0.117974795 0.290695 0.014773519 -0.8223756 -1.2240034 0.15361741
0.46803167 0.19811337 -0.045768153 0.37533125 -0.3946061 -0.11972283 -2.2469258 -0.3564874
0.08438505 -1.1599908 -0.7085425 0.45150948 0.8480604 0.57701343 0.055826362 -0.41129208
-0.11736208 0.7019938 -0.78596467 -0.23543647 0.31665304 1.4558957 -0.77579665 0.0010233168
00000000: 63cd 36bf cb8e 44bf 7a02 343f 9081 cbbe
00000010: 2b02 e9be aff9 ffbe d8d9 77be 4918 603e
00000020: 12c6 b1bf ecfb 43bf d4f9 afbd d1a1 35bd
00000030: 2f8b 5bbe c8d4 6c3e 07c5 cd3e 7ba1 8dbe
00000040: 41ea 233d fd72 e33c 7f61 80bf 4a61 923e
00000050: 5e8b 62bf 1a10 0abf e675 703e ec82 7bbf
00000060: 93a0 373f f475 543e 4e1a 00bf bf55 89be
00000070: a9ae c8be 808e 9cbe 9681 dabe 70e1 50be
00000080: deb7 133f 7b97 a03e a204 2ebf d8d7 143e
00000090: 8040 a7be 87c2 b83f 7a21 ebbe 96b7 863f
000000a0: 4dfd 04bf 5249 343f 5000 f4bc 6512 a2bf
000000b0: 834f 8c3e 1b26 bc3e 79e6 cebd b348 42bf
000000c0: 7847 e33c a801 2d3f c59c f13d fad5 943e
000000d0: a10c 723c 3587 52bf 25ac 9cbf e24d 1d3e
000000e0: d9a1 ef3e 3bde 4a3e 6377 3bbd 6b2b c03e
000000f0: d009 cabe 3e31 f5bd a2cd 0fc0 8485 b6be
00000100: 12d2 ac3d 947a 94bf 0b63 35bf 402c e73e
00000110: 7d1a 593f 27b7 133f 2faa 643d e094 d2be
00000120: 885b f0bd deb5 333f fb34 49bf 4216 71be
00000130: 5920 a23e ca5a ba3f 9c9a 46bf d020 863a

layers.0.Ah.conv1.bias f4 [16]
-0.17676751 0.39845288 -0.18138063 -0.35025695 0.20324567 -0.15410787 0.19343951 -0.12681659
-0.28793713 0.19084637 0.35612246 -0.2952881 0.07870445 0.14179887 0.3745727 -0.31685454
00000000: 8b02 35be 0402 cc3e d8bb 39be e154 b3be
00000010: a21f 503e 74ce 1dbe 0215 463e 35dc 01be
00000020: 7f6c 93be 3b6d 433e af55 b63e 0030 97be
00000030: cc2f a13d b933 113e fec7 bf3e c23a a2be

layers.0.Ah.conv2.weight f4 [8, 16, 3]
-0.021261385 -0.13243023 -0.11905223 -0.29180998 0.19355878 0.23725334 0.07813922 0.06977227
-0.12193244 -0.30819345 0.049843606 0.1032162 -0.13802065 0.04831382 -0.016871767 -0.20022784
-0.014012286 0.19425991 0.14498857 -0.27401137 0.0883559 0.27045077 -0.48925713 -0.1454606
-0.10722772 0.058080662 -0.29412264 0.095510826 0.20186242 0.22836196 0.14337446 0.07348562
-0.06877076 0.32083112 0.38221538 -0.061126187 0.20283552 -0.022876237 -0.048624936 0.24604352
0.074307665 0.33216158 0.029033389 0.10269113 0.031232791 0.22652471 0.3884349 0.3690375
0.07148292 -0.26382065 -0.078665294 0.039682876 0.013803123 0.15942946 -0.25679508 0.018023305
-0.012415745 -0.33957726 -0.32774606 -0.21503042 0.11973504 -0.031874325 -0.3686564 0.10542202
-0.050286192 -0.033768393 -0.03702802 -0.13300985 0.008786592 0.01790662 -0.16128857 0.076730676
-0.012572353 -0.073790394 -0.12128767 0.19324802 -0.35327122 0.101775296 -0.20988375 0.13188234
0.0023875665 -0.13040121 0.048667196 -0.1337496 0.14615946 -0.25959012 0.40116096 0.03650928
-0.001937654 0.037234776 0.13778438 -0.021650149 -0.020296082 -0.044122294 0.11317078 -0.03439913
0.3463288 0.25726315 0.23769248 0.21245146 0.08336621 0.22470483 0.06637153 0.24397294
0.28368258 0.32319617 -0.18027109 -0.4382866 -0.32089826 0.25576827 -0.32856628 -0.0015139618
-0.0038275057 0.354486 -0.04051817 0.36900377 0.26114574 0.16683616 -0.36105403 0.17237556
0.14394535 0.37056717 0.056399208 0.08677373 0.003388472 0.013558758 -0.06164098 0.08417665
0.0029051625 0.01646411 0.30946636 -0.05092367 0.29096174 -0.027823804 0.3160147 0.071163915
-0.062203508 0.09511477 -0.073445685 -0.11509051 -0.16035211 -0.144208 -0.20979406 0.039311398
-0.2235291 -0.07575269 0.06543216 0.097754955 0.24466336 -0.0759322 0.1070589 0.13595335
0.09581584 0.0015661565 0.052065615 -0.20886311 0.11104125 -0.12642393 -0.067756884 -0.028639313
0.16841812 0.053250637 -0.1911054 0.2496592 0.15431422 -0.13841183 -0.06915927 0.09440164
-0.09248159 -0.25620058 0.16264635 0.24215968 -0.05721288 -0.55054164 -0.1886174 0.15298612
-0.12555285 -0.30121294 0.3533023 0.065507084 0.12097262 -0.3941413 -0.011509691 0.55018765
-0.14678888 0.5758768 0.06394184 -0.34331688 0.2921298 0.08265336 0.21478367 -0.04857894
-0.06740507 0.17978211 -0.283231 -0.16659074 0.08305242 0.042337243 0.2197568 0.33004543
0.27714285 -0.2406737 0.14060125 -0.3400396 -0.32203287 -0.06142703 -0.23414892 -0.22112516
0.04279226 0.1830892 0.2150951 0.01682341 -0.25051567 -0.27529833 -0.4256886 0.06476399
-0.21611811 -0.00883712 -0.15132643 0.04348831 -0.16120166 -0.566456 0.3964695 -0.66501105
0.017315486 0.018298889 -0.025656017 -0.05733695 0.016734691 0.12617077 -0.13546783 0.23055324
-0.02288049 -0.30329135 -0.3051062 -0.10752203 -0.067071274 -0.11642671 0.18621488 -0.19317289
0.012357133 -0.25052792 -0.16646099 -0.08739592 -0.20700824 -0.3151365 0.21587291 -0.11868537
0.16920975 -0.00814391 0.302478 0.03299841 0.05830855 0.10302358 -0.24836454 -0.11718334
00000000: 5b2c aebc ca9b 07be a8d1 f3bd 1e68 95be
00000010: 4634 463e 8af2 723e 7507 a03d c4e4 8e3d
00000020: b7b7 f9bd 88cb 9dbe cf28 4c3d 0463 d33d
00000030: 4955 0dbe b6e4 453d a936 8abc 8708 4dbe
00000040: ca93 65bc 12ec 463e e277 143e 384b 8cbe
00000050: f0f3 b43d 8678 8a3e e97f fabe a0f3 14be
00000060: 359a dbbd fde5 6d3d 3e97 96be 2e9b c33d
00000070: 06b5 4e3e b8d7 693e c1d0 123e a17f 963d
00000080: afd7 8cbd fa43 a43e bcb1 c33e 745f 7abd
00000090: 1db4 4f3e f266 bbbc f12a 47bd d5f2 7b3e
000000a0: 9e2e 983d 1511 aa3e 6ed7 ed3c ba4f d23d
000000b0: e9db ff3c 18f6 673e f0e0 c63e 7cf2 bc3e
000000c0: a365 923d 8013 87be 451b a1bd 838a 223d
000000d0: 7e26 623c 7a41 233e a57a 83be 9ca5 933c
000000e0: 696b 4bbc 12dd adbe 55ce a7be ef30 5cbe
000000f0: a537 f53d a78e 02bd 88c0 bcbe 80e7 d73d
00000100: e5f8 4dbd ba50 0abd b1aa 17bd bc33 08be
00000110: a3f5 0f3c e7b0 923c d528 25be f924 9d3d
00000120: 45fc 4dbc 6b1f 97bd ac65 f8bd cfe2 453e
00000130: f7df b4be 916f d03d c4eb 56be 2a0c 073e
00000140: b878 1c3b e587 05be 4157 473d a8f5 08be
00000150: d3aa 153e ffe8 84be f864 cd3e c18a 153d
00000160: e1f8 fdba 7e83 183d 5917 0d3e a75b b1bc
00000170: f843 a6bc 94b9 34bd 15c6 e73d 1ae6 0cbd
00000180: 0252 b13e ffb7 833e a865 733e e08c 593e
00000190: e7bb aa3d 0619 663e cced 873d 0bd4 793e
000001a0: d83e 913e f879 a53e fc98 38be 1a67 e0be
000001b0: c74c a4be 0ff4 823e d739 a8be 2170 c6ba
000001c0: e4d6 7abb 307f b53e 61f6 25bd 10ee bc3e
000001d0: e5b4 853e 19d7 2a3e 13dc b8be 3883 303e
000001e0: 6966 133e fbba bd3e db02 673d 6db6 b13d
000001f0: 2011 5e3b 8e25 5e3c 417b 7cbd cf64 ac3d
00000200: 8a64 3e3b bedf 863c 6072 9e3e 5795 50bd
00000210: f0f8 943e bfee e3bc aecc a13e 63be 913d
00000220: 1bc9 7ebd 88cb c23d b16a 96bd 93b4 ebbd
00000230: 5833 24be 43ab 13be 41d4 56be fd04 213d
00000240: d0e4 64be 3a24 9bbd 4c01 863d c033 c83d
00000250: 0889 7a3e 5782 9bbd b241 db3d 5b37 0b3e
00000260: 183b c43d 7e47 cd3a c142 553d 36e0 55be
00000270: 9869 e33d 4675 01be 1fc4 8abd fe9c eabc
00000280: cd75 2c3e 571d 5a3d 22b1 43be a9a6 7f3e
00000290: 8c04 1e3e d5bb 0dbe 60a3 8dbd a655 c13d
000002a0: fd66 bdbd b92c 83be c48c 263e b5f8 773e
000002b0: 0e58 6abd 4cf0 0cbf eb24 41be 65a8 1c3e
000002c0: ed90 00be 9538 9abe 0ae4 b43e 9428 863d
000002d0: 7ec0 f73d e3cc c9be 2593 3cbc 19d9 0c3f
000002e0: d34f 16be a96c 133f f0f3 823d 3bc7 afbe
000002f0: 0a92 953e 2a46 a93d 40f0 5b3e b6fa 46bd
00000300: ab0b 8abd cd18 383e a703 91be c396 2abe
00000310: 6317 aa3d d169 2d3d ed07 613e b7fb a83e
00000320: abe5 8d3e 2b73 76be c6f9 0f3e ac19 aebe
00000330: 7ee1 a4be e99a 7bbd bcc4 6fbe a26e 62be
00000340: f046 2f3d bc7b 3b3e e441 5c3e 3fd1 893c
00000350: 9743 80be e7f3 8cbe dbf3 d9be fca2 843d
00000360: 114e 5dbe 91c9 10bc 51f5 1abe cc20 323d
00000370: 0c12 25be 4303 11bf 0dfe ca3e 2a3e 2abf
00000380: 35d9 8d3c 8de7 953c 912c d2bc 26da 6abd
00000390: 3117 893c e932 013e 14b8 0abe 2616 6c3e
000003a0: de6f bbbc 0149 9bbe e136 9cbe 8334 dcbd
000003b0: aa5c 89bd 2071 eebd 1daf 3e3e 1dcf 45be
000003c0: 9375 4a3c 3245 80be c074 2abe a2fc b2bd
000003d0: f8f9 53be 9259 a1be ca0d 5d3e 5111 f3bd
000003e0: 5245 2d3e 096e 05bc 65de 9a3e 5729 073d
000003f0: f2d4 6e3d 07fe d23d 4653 7ebe d2fd efbd

layers.0.Ah.conv2.bias f4 [8]
-0.0032352076 0.018033016 0.078777805 -0.0863338 -0.07196637 0.13959861 0.10833412 -0.011080826
00000000: c705 54bb fab9 933c 4256 a13d c6cf b0bd
00000010: 1b63 93bd f0f2 0e3e 47de dd3d 5a8c 35bc

layers.0.Ah.conv3.weight f4 [1, 8, 3]
0.5134653 -0.49636117 -0.15349096 0.0017911007 -0.5643701 -0.0002486501 -0.99290025 -0.1108157
-0.13585731 -0.088249445 0.35058257 -0.1849733 0.06852662 -0.1181563 -0.56223863 0.15501589
-0.033313207 0.034696188 -0.28928155 -0.097611465 -0.5497312 0.102932595 0.26532692 -0.2209376
00000000: 7672 033f 0d23 febe bc2c 1dbe 5ec3 ea3a
00000010: 8f7a 10bf 405d 82b9 b62e 7ebf 57f3 e2bd
00000020: 2e1e 0bbe 20bc b4bd 8f7f b33e a469 3dbe
00000030: af57 8c3d eefb f1bd dfee 0fbf 7cbc 1e3e
00000040: 6e73 08bd 971d 0e3d b61c 94be 85e8 c7bd
00000050: 2fbb 0cbf 53ce d23d eed8 873e 773d 62be

layers.0.Ah.bn1.weight f4 [16]
0.988816 1.068964 0.9391527 0.9427687 0.8992442 0.9300599 0.97339845 0.92665064
0.96984625 0.91404486 0.9074931 0.9258207 1.0120565 0.9512906 0.8836882 0.9325607
00000000: 0c23 7d3f d0d3 883f 506c 703f 4a59 713f
00000010: de34 663f 6818 6e3f a430 793f fa38 6d3f
00000020: d847 783f d8fe 693f 7851 683f 9602 6d3f
00000030: 118b 813f c887 733f 6439 623f 4cbc 6e3f

layers.0.Ah.bn1.bias f4 [16]
0.22110096 0.21440865 -0.16743872 -0.07005902 -0.08750446 0.058924 0.3251103 0.05967547
0.17760915 -0.2201301 -0.10759057 -0.0561775 0.23216105 0.043115545 -0.051496424 0.05761695
00000000: 4a68 623e f18d 5b3e 0e75 2bbe 1a7b 8fbd
00000010: 8a35 b3bd 4b5a 713d db74 a63e 446e 743d
00000020: 2cdf 353e c969 61be 7258 dcbd 611a 66bd
00000030: a0bb 6d3e ed99 303d eaed 52bd c0ff 6b3d

layers.0.Ah.bn1.running_mean f4 [16]
-0.1790279 0.3948576 -0.18122642 -0.35160297 0.20149162 -0.15591452 0.19332844 -0.12380631
-0.28900206 0.19118896 0.35327598 -0.29380938 0.07464611 0.14190024 0.3736683 -0.315628
00000000: 1753 37be c62a ca3e 6b93 39be 4e05 b4be
00000010: d253 4e3e 0ea8 1fbe e4f7 453e 2a8e fdbd
00000020: 14f8 93be 0ac7 433e 97e0 b43e 2f6e 96be
00000030: 0fe0 983d 4c4e 113e 7451 bf3e fe99 a1be

layers.0.Ah.bn1.running_var f4 [16]
7.41382e-05 0.00018259366 3.8529242e-06 3.0426707e-05 7.488386e-05 4.121425e-05 1.151038e-05 0.00012986883
3.3990167e-05 8.321211e-06 7.6306795e-05 3.3147488e-05 0.0002559906 2.2566772e-05 1.9435614e-05 3.977644e-05
00000000: a57a 9b38 9d76 3f39 5e48 8136 db3c ff37
00000010: f70a 9d38 77dd 2c38 b51c 4137 662d 0839
00000020: aa90 0e38 549b 0b37 e606 a038 d807 0b38
00000030: 7a36 8639 c64d bd37 aa09 a337 a1d5 2638

layers.0.Ah.bn2.weight f4 [8]
0.91771007 1.0095161 0.9214982 0.924751 0.97903025 0.92482424 1.0690479 0.9296953
00000000: 0cef 6a3f d337 813f 4ee7 6b3f 7bbc 6c3f
00000010: baa1 7a3f 48c1 6c3f 90d6 883f 8300 6e3f

layers.0.Ah.bn2.bias f4 [8]
-0.058060944 0.09230726 -0.05407551 0.008059431 0.11443909 0.02966635 0.0071462295 0.08890756
00000000: 50d1 6dbd 970b bd3d 487e 5dbd b40b 043c
00000010: 0b5f ea3d d806 f33c eb2a ea3b 2b15 b63d

layers.0.Ah.bn2.running_mean f4 [8]
0.15354882 -0.13516022 1.2515302 0.009750818 -0.51829445 -0.70915496 0.26112208 -0.36489603
00000000: e73b 1d3e 7167 0abe 2432 a03f e5c1 1f3c
00000010: f2ae 04bf 2e8b 35bf cbb1 853e a7d3 babe

layers.0.Ah.bn2.running_var f4 [8]
1.1193285 0.09018958 0.26516685 0.35655445 0.30441582 0.12741272 0.15134999 0.06918717
00000000: 2846 8f3f 51b5 b83d f3c3 873e 4e8e b63e
00000010: 64dc 9b3e 7b78 023e 7efb 1a3e 01b2 8d3d

layers.1.Aw.conv1.weight f4 [16, 1, 5]
0.13529667 0.09595931 -0.34592757 0.12595877 -0.20603518 -0.3497264 0.14395092 0.2971857
0.3599752 0.09191871 -0.12714627 -0.4017508 0.24236946 0.17729269 0.05248397 0.37027544
0.061681814 -0.45737898 0.2994692 0.0029636992 0.3159867 0.110194884 -0.039398134 0.41006678
0.16567214 0.16652709 -0.25994897 0.024921559 -0.20513196 -0.26187918 0.054379623 -0.139035
0.110534474 0.20318858 0.32847765 0.28670117 0.42824695 -0.21173634 0.0626293 0.13826339
0.026846863 0.09163614 -0.0043588066 0.059109047 -0.15808669 -0.36614823 0.22321962 -0.2890894
-0.20838517 -0.03585625 -0.21815789 -0.26942125 -0.27282232 0.16979842 -0.33367425 0.046817843
-0.26423737 0.034423098 0.10877118 -0.016483989 0.21118486 -0.1422254 -0.2809604 -0.11151384
0.017296134 -0.3578668 0.274146 0.13678136 -0.19107597 0.30841097 0.2892575 0.4139622
0.23157422 -0.14749278 -0.37241372 0.012963439 0.31799296 -0.15429538 0.4167759 -0.08595428
00000000: 368b 0a3e 5186 c43d 6b1d b1be 56fb 003e
00000010: e3fa 52be 570f b3be df67 133e b928 983e
00000020: ab4e b83e e03f bc3d a232 02be 48b2 cdbe
00000030: b32f 783e 378c 353e 6ef9 563d be94 bd3e
00000040: 12a6 7c3d 942d eabe 0754 993e 9f3a 423b
00000050: 02c9 a13e dbad e13d f05f 21bd 46f4 d13e
00000060: f5a5 293e 1486 2a3e 0818 85be 4c28 cc3c
00000070: 1d0e 52be 0715 86be 2bbd 5e3d 315f 0ebe
00000080: e65f e23d ab10 503e 392e a83e 7fca 923e
00000090: 2f43 db3e 69d1 58be ca43 803d eb94 0d3e
000000a0: f4ed db3c bbab bb3d 52d4 8ebb 541c 723d
000000b0: 7ae1 21be c877 bbbe af93 643e 8703 94be
000000c0: ec62 55be 01de 12bd c864 5fbe 95f1 89be
000000d0: 5eaf 8bbe a3df 2d3e 5ad7 aabe 11c4 3f3d
000000e0: 1f4a 87be 3cff 0c3d 6dc3 de3d 6e09 87bc
000000f0: d840 583e 89a3 11be 0bda 8fbe 5e61 e4bd
00000100: 9fb0 8d3c 513a b7be dd5c 8c3e 6a10 0c3e
00000110: 6ba9 43be 0be8 9d3e 8f19 943e daf2 d33e
00000120: cb21 6d3e 5908 17be 03ad bebe 9b64 543c
00000130: f9cf a23e 9cff 1dbe a763 d53e cc08 b0bd

layers.1.Aw.conv1.bias f4 [16]
0.34773573 -0.00449489 -0.043550003 0.082744114 0.09891785 0.02614449 -0.058143012 0.29523024
0.33886412 0.2847074 -0.102425516 -0.0155494055 0.0926178 0.40206635 -0.37281424 0.07593716
00000000: 6b0a b23e df49 93bb 7d61 32bd bf75 a93d
00000010: 7195 ca3d f82c d63c 5e27 6ebd 6b28 973e
00000020: 997f ad3e 2bc5 913e 78c4 d1bd efc2 7ebc
00000030: 67ae bd3d a4db cd3e 82e1 bebe f184 9b3d

layers.1.Aw.conv2.weight f4 [8, 16, 3]
-0.16381702 -0.030909361 -0.07663291 0.14548232 -0.10380501 -0.07785524 -0.09619286 -0.063073754
-0.0666381 0.04039658 -0.018398035 0.22422592 -0.13707887 0.13164665 -0.0020710223 -0.12851515
-0.058291536 -0.03405856 0.11507656 -0.037484955 0.115053385 0.05229866 0.088470705 -0.08421572
0.12333837 -0.02546976 0.04332982 -0.01113044 0.010709065 -0.1536279 -0.097055525 -0.37285963
0.1190141 0.03685705 -0.029728187 0.15690368 0.07078882 0.039473936 -0.08697311 0.10402194
0.21705937 0.019402936 -0.061266106 -0.10437464 0.003953217 0.046228837 -0.0647329 0.07828427
-0.10571752 0.10131048 0.074155636 0.0714218 -0.09585206 0.08226665 -0.122079246 0.0042823334
0.12107268 0.034029018 -0.07068988 -0.049004827 -0.103982955 0.0035233018 0.019808063 0.00032106665
-0.021930808 -0.01331891 0.011264376 0.04496874 0.070357695 0.114933565 0.0021726917 -0.14603022
0.016011719 0.07026226 0.072957166 0.006551088 0.0072665852 -0.09334032 0.00781645 -0.05776193
0.029817948 -0.044390693 0.40643674 0.0949852 0.05241774 0.1261943 0.05335453 -0.0460807
-0.11220925 -0.13890691 0.044731185 0.041509133 -0.04030469 -0.13402039 0.09259206 -0.2650145
-0.12599786 -0.104410216 -0.041116197 0.01849741 0.006900856 -0.08982221 0.08909482 -0.11717533
-0.09495978 -0.059851333 -0.015212178 0.06519482 -0.07765709 0.079098016 0.105924286 -0.063098565
0.057180528 -0.0913544 0.015612344 0.14469276 0.055848442 0.026070857 -0.08678264 0.10874135
0.036414742 0.14184982 -0.09116246 0.003617034 0.028354542 -0.026217652 -0.14113082 0.035086624
0.1873546 0.12190795 0.0074098515 0.046640888 -0.1068327 0.032430746 0.10326131 -0.075964764
-0.07804344 -0.04871948 -0.024619456 0.08180265 -0.10309434 -0.0913345 0.055344917 0.15036845
-0.080708876 -0.028004976 0.03616819 -0.10128742 0.086921565 -0.07649711 -0.023642309 0.07685973
0.009908415 -0.0013351899 0.0852546 0.103958614 0.018048534 0.09575279 -0.09629701 0.063900456
0.046161983 -0.16402681 -0.11624185 -0.06550149 0.0011445336 -0.003818701 0.029980183 0.18713088
-0.04870241 0.020520346 -0.022624882 -0.13517159 -0.064888924 0.019516863 -0.22961846 -0.29332882
-0.21584576 -0.1049894 0.047522135 -0.015297884 0.038365763 0.12674603 0.080005735 0.02358129
0.047515552 0.11318616 -0.03377112 -0.029439734 0.0669908 -0.17780259 -0.06311362 0.14200595
-0.1395632 0.0061003803 0.08360721 -0.100215286 -0.079721205 0.023283156 -0.007294356 0.08197461
0.08397328 -0.058525868 0.021285398 -0.007770502 0.0076937224 0.1295317 0.103438504 -0.08335284
-0.11153594 0.017548826 -0.043172643 0.2620504 0.0747321 0.0040801372 0.10978438 -0.012926853
-0.1156298 -0.013575214 0.012744192 0.07090493 -0.09221015 -0.16574988 0.023483599 -0.12622322
0.10603515 0.07240743 -0.11080302 0.049922634 0.06264199 -0.11936353 0.056861315 0.08552143
-0.038054585 -0.03157297 0.018721255 0.014904194 0.02041402 0.10843811 0.021773767 0.007481921
0.07687903 0.041170843 -0.03167446 0.0039772303 0.068436734 0.04752944 0.048636377 -0.09163663
-0.08044885 0.0950087 -0.13884084 0.023823781 0.021016328 -0.065569624 -0.114758804 -0.11889228
00000000: a6bf 27be a135 fdbc b7f1 9cbd 51f9 143e
00000010: b997 d4bd 9172 9fbd c300 c5bd d02c 81bd
00000020: 8e79 88bd e276 253d 7ab7 96bc 7b9b 653e
00000030: 675e 0cbe 61ce 063e fdb9 07bb 7a99 03be
00000040: 1bc3 6ebd fd80 0bbd 42ad eb3d d389 19bd
00000050: 1ca1 eb3d 1f37 563d 2130 b53d 4b79 acbd
00000060: d498 fc3d f5a5 d0bc 9c7a 313d 735c 36bc
00000070: 1375 2f3c a250 1dbe 0cc5 c6bd 75e7 bebe
00000080: aabd f33d 6bf7 163d 8788 f3bc 5cab 203e
00000090: bbf9 903d 6caf 213d f51e b2bd 7409 d53d
000000a0: d044 5e3e e8f2 9e3c 2bf2 7abd 5fc2 d5bd
000000b0: fd89 813b 735a 3d3d af92 84bd 8153 a03d
000000c0: 6d82 d8bd de7b cf3d e9de 973d 9845 923d
000000d0: 164e c4bd 6b7b a83d af04 fabd d152 8c3b
000000e0: f4f4 f73d 0362 0b3d dbc5 90bd 49b9 48bd
000000f0: 04f5 d4bd 32e7 663b 8544 a23c d654 a839
00000100: 3da8 b3bc 8f37 5abc 388e 383c 2431 383d
00000110: b217 903d 4a62 eb3d b863 0e3b f288 15be
00000120: 022b 833c a9e5 8f3d 916a 953d 82aa d63b
00000130: 891c ee3b 3629 bfbd 9110 003c c697 6cbd
00000140: c544 f43c 04d3 35bd 7a18 d03e 9a87 c23d
00000150: fcb3 563d 1439 013e 488a 5a3d 1ebf 3cbd
00000160: f7cd e5bd 9d3d 0ebe 0c38 373d 7b05 2a3d
00000170: 8816 25bd a43c 09be e8a0 bd3d fbaf 87be
00000180: 9505 01be 06d5 d5bd 7569 28bd e187 973c
00000190: 9320 e23b b5f4 b7bd 5877 b63d 9ff9 efbd
000001a0: 467a c2bd ac26 75bd 803c 79bc dd84 853d
000001b0: ae0a 9fbd 24fe a13d d5ee d83d d239 81bd
000001c0: 2136 6a3d 0418 bbbd ebca 7f3c 572a 143e
000001d0: 56c1 643d 8d92 d53c 19bb b1bd c9b3 de3d
000001e0: a027 153d 1441 113e 62b3 babd c30b 6d3b
000001f0: c947 e83c 67c6 d6bc 9984 10be feb6 0f3d
00000200: e2d9 3f3e e0aa f93d 57ce f23b 840a 3f3d
00000210: 1acb dabd 1ad6 043d aa7a d33d 6a93 9bbd
00000220: 3dd5 9fbd 148e 47bd beae c9bc 2688 a73d
00000230: 2023 d3bd 950d bbbd 5ab1 623d 30fa 193e
00000240: b24a a5bd b16a e5bc 1925 143d c76f cfbd
00000250: ef03 b23d 84aa 9cbd 84ad c1bc a268 9d3d
00000260: e856 223c 8a01 afba f799 ae3d 41e8 d43d
00000270: 85da 933c 0a1a c43d 5e37 c5bd 3ede 823d
00000280: 5914 3d3d a5f6 27be 3510 eebd a525 86bd
00000290: 2d04 963a 2c43 7abb 0099 f53c 3d9f 3f3e
000002a0: 2e7c 47bd 491a a83c d157 b9bc 6c6a 0abe
000002b0: 7ce4 84bd d4e1 9f3c 1a21 6bbe 322f 96be
000002c0: ac06 5dbe af04 d7bd 92a6 423d faa3 7abc
000002d0: 6b25 1d3d b6c9 013e 0cda a33d 8d2d c13c
000002e0: ab9f 423d 25ce e73d 9653 0abd 992b f1bc
000002f0: 7932 893d e211 36be b741 81bd 026a 113e
00000300: a8e9 0ebe b3e5 c73b 423a ab3d ac3d cdbd
00000310: df44 a3bd 51bc be3c 7e05 efbb 4ee2 a73d
00000320: 2ffa ab3d d2b8 6fbd b75e ae3c b29f febb
00000330: 9f1b fc3b f5a3 043e 91d7 d33d e5b4 aabd
00000340: f46c e4bd 8ec2 8f3c ccd5 30bd 782b 863e
00000350: 250d 993d acb2 853b a2d6 e03d 27cb 53bc
00000360: 51cf ecbd 936a 5ebc 04cd 503c 9b36 913d
00000370: add8 bcbd 56ba 29be ad60 c03c a940 01be
00000380: f528 d93d 594a 943d b2ec e2bd ad7b 4c3d
00000390: 724a 803d de74 f4bd 69e7 683d dc25 af3d
000003a0: 20df 1bbd a952 01bd 515d 993c b830 743c
000003b0: 4e3b a73c cd14 de3d e65e b23c e72a f53b
000003c0: c172 9d3d c2a2 283d 14bd 01bd 6d53 823b
000003d0: 8f28 8c3d 3bae 423d f036 473d fcab bbbd
000003e0: 5ec2 a4bd ec93 c23d 4b2c 0ebe 172a c33c
000003f0: 6f2a ac3c 5e49 86bd aa06 ebbd cc7d f3bd

layers.1.Aw.conv2.bias f4 [8]
-0.1309803 -0.04204116 -0.035450164 -0.04160768 -0.011961207 -0.06478645 0.060680322 0.12102648
00000000: b31f 06be 5a33 2cbd 3134 11bd d16c 2abd
00000010: f0f8 43bc c2ae 84bd ee8b 783d bbdc f73d

layers.1.Aw.conv3.weight f4 [1, 8, 3]
-0.01804533 -0.08706033 0.21833967 0.079446726 -0.13319364 -0.0037806062 -0.058296803 -0.024062557
0.085834034 0.10324595 0.3134239 0.035019726 -0.15878314 -0.08789788 0.25781626 0.22570804
0.21050869 0.08068398 0.102620974 -0.12345265 0.17495152 -0.15833654 0.2711763 0.11917136
00000000: cdd3 93bc b04c b2bd 6f94 5f3e f7b4 a23d
00000010: ea63 08be 0cc4 77bb a1c8 6ebd d71e c5bc
00000020: c1c9 af3d 9d72 d33d 1979 a03e d870 0f3d
00000030: 0c98 22be ce03 b4bd 7e00 843e 0220 673e
00000040: 978f 573e a43d a53d f22a d23d bed4 fcbd
00000050: 7e26 333e f922 22be 9fd7 8a3e 1d10 f43d

layers.1.Aw.bn1.weight f4 [16]
0.90833604 0.88932794 0.9110976 0.91187865 0.9168285 0.9246387 0.8928907 0.9498965
0.89718765 0.87664616 1.1564236 0.94632065 0.8803715 0.94742984 0.81847703 1.0064628
00000000: b688 683f ffaa 633f b13d 693f e170 693f
00000010: 46b5 6a3f 1fb5 6c3f 7c94 643f 6b2c 733f
00000020: 17ae 653f e26b 603f b005 943f 1242 723f
00000030: 0760 613f c38a 723f b687 513f c6d3 803f

layers.1.Aw.bn1.bias f4 [16]
0.034593195 -0.079743326 -0.007243269 0.18899395 0.19669919 0.32096386 -0.011314555 0.2969398
-0.06669496 0.16572283 0.18257907 0.05837676 -0.035111856 0.029465988 -0.31481165 0.3594374
00000000: 98b1 0d3d 7850 a3bd f258 edbb a187 413e
00000010: 836b 493e 6055 a43e af60 39bc 7e08 983e
00000020: 5e97 88bd 3fb3 293e 02f6 3a3e 781c 6f3d
00000030: 73d1 0fbd a862 f13c fe2e a1be 2e08 b83e

layers.1.Aw.bn1.running_mean f4 [16]
0.3115924 0.04895472 -0.105700515 0.09563808 0.24008416 -0.022125833 -0.0174401 0.44402593
0.3631754 0.1524462 -0.31863904 -0.058926746 0.029648418 0.42427778 -0.15398723 0.1448735
00000000: 0a89 9f3e bf84 483d 8379 d8bd e6dd c33d
00000010: 9fd8 753e 3c41 b5bc 8ade 8ebc 5e57 e33e
00000020: 20f2 b93e db1a 1c3e a824 a3be 2c5d 71bd
00000030: 3de1 f23c f03a d93e d4ae 1dbe b859 143e

layers.1.Aw.bn1.running_var f4 [16]
920.0416 1469.1743 1447.2465 2164.4978 778.41254 632.9264 278.84988 1894.1157
68.20147 1642.5902 1252.8439 450.62372 876.1317 1408.1958 1945.6989 849.289
00000000: aa02 6644 94a5 b744 e3e7 b444 f747 0745
00000010: 679a 4244 4a3b 1e44 c96c 8b43 b4c3 ec44
00000020: 2767 8842 e352 cd44 019b 9c44 d64f e143
00000030: 6e08 5b44 4406 b044 5d36 f344 7f52 5444

layers.1.Aw.bn2.weight f4 [8]
1.1668582 0.8973606 0.9337306 1.2612151 1.1074698 1.103763 1.0341579 1.1304219
00000000: 9c5b 953f 6db9 653f f808 6f3f 7f6f a13f
00000010: 92c1 8d3f 1b48 8d3f 495f 843f aab1 903f

layers.1.Aw.bn2.bias f4 [8]
0.0044416315 -0.047226228 -0.012887884 0.0038022045 0.048996463 0.020519821 0.0033072499 0.21418448
00000000: 1b8b 913b 4a70 41bd b427 53bc 682e 793b
00000010: 84b0 483d 2f19 a83c 72be 583b 2d53 5b3e

layers.1.Aw.bn2.running_mean f4 [8]
-0.22683938 -0.18265949 0.01625705 -0.22224495 0.018255204 -0.14396794 0.12096742 -0.06175338
00000000: 9548 68be 170b 3bbe 812d 853c 2e94 63be
00000010: f08b 953c 556c 13be c4bd f73d 1df1 7cbd

layers.1.Aw.bn2.running_var f4 [8]
0.16073765 0.23790477 0.13540995 0.09851397 0.18444869 0.11198539 0.17977096 0.16326794
00000000: 6998 243e 4f9d 733e e8a8 0a3e b1c1 c93d
00000010: 1ee0 3c3e 9958 e53d e115 383e b62f 273e

layers.1.Ah.conv1.weight f4 [16, 1, 5]
-0.71407145 -0.76780385 0.7031628 -0.39747286 -0.45509467 -0.4999518 -0.24204195 0.21884264
-1.3888571 -0.7655628 -0.08592573 -0.044343773 -0.21439813 0.23128045 0.40189382 -0.27662262
0.040018324 0.027764792 -1.0029753 0.2858985 -0.8849391 -0.5393082 0.23482475 -0.98246646
0.7172939 0.2074812 -0.5004014 -0.26823232 -0.39195755 -0.3057747 -0.4267699 -0.20398498
0.57702434 0.3136557 -0.6797582 0.14535463 -0.32666397 1.4434365 -0.45923978 1.0524776
-0.51949006 0.7042438 -0.029785305 -1.2661864 0.27404413 0.36747822 -0.10102553 -0.7589218
0.02774404 0.6758065 0.117974795 0.290695 0.014773519 -0.8223756 -1.2240034 0.15361741
0.46803167 0.19811337 -0.045768153 0.37533125 -0.3946061 -0.11972283 -2.2469258 -0.3564874
0.08438505 -1.1599908 -0.7085425 0.45150948 0.8480604 0.57701343 0.055826362 -0.41129208
-0.11736208 0.7019938 -0.78596467 -0.23543647 0.31665304 1.4558957 -0.77579665 0.0010233168
00000000: 63cd 36bf cb8e 44bf 7a02 343f 9081 cbbe
00000010: 2b02 e9be aff9 ffbe d8d9 77be 4918 603e
00000020: 12c6 b1bf ecfb 43bf d4f9 afbd d1a1 35bd
00000030: 2f8b 5bbe c8d4 6c3e 07c5 cd3e 7ba1 8dbe
00000040: 41ea 233d fd72 e33c 7f61 80bf 4a61 923e
00000050: 5e8b 62bf 1a10 0abf e675 703e ec82 7bbf
00000060: 93a0 373f f475 543e 4e1a 00bf bf55 89be
00000070: a9ae c8be 808e 9cbe 9681 dabe 70e1 50be
00000080: deb7 133f 7b97 a03e a204 2ebf d8d7 143e
00000090: 8040 a7be 87c2 b83f 7a21 ebbe 96b7 863f
000000a0: 4dfd 04bf 5249 343f 5000 f4bc 6512 a2bf
000000b0: 834f 8c3e 1b26 bc3e 79e6 cebd b348 42bf
000000c0: 7847 e33c a801 2d3f c59c f13d fad5 943e
000000d0: a10c 723c 3587 52bf 25ac 9cbf e24d 1d3e
000000e0: d9a1 ef3e 3bde 4a3e 6377 3bbd 6b2b c03e
000000f0: d009 cabe 3e31 f5bd a2cd 0fc0 8485 b6be
00000100: 12d2 ac3d 947a 94bf 0b63 35bf 402c e73e
00000110: 7d1a 593f 27b7 133f 2faa 643d e094 d2be
00000120: 885b f0bd deb5 333f fb34 49bf 4216 71be
00000130: 5920 a23e ca5a ba3f 9c9a 46bf d020 863a

layers.1.Ah.conv1.bias f4 [16]
-0.17676751 0.39845288 -0.18138063 -0.35025695 0.20324567 -0.15410787 0.19343951 -0.12681659
-0.28793713 0.19084637 0.35612246 -0.2952881 0.07870445 0.14179887 0.3745727 -0.31685454
00000000: 8b02 35be 0402 cc3e d8bb 39be e154 b3be
00000010: a21f 503e 74ce 1dbe 0215 463e 35dc 01be
00000020: 7f6c 93be 3b6d 433e af55 b63e 0030 97be
00000030: cc2f a13d b933 113e fec7 bf3e c23a a2be
