models/RALMU.pt (torch, 106501 bytes, 260 tensors)

layers.0.Aw.conv1.weight f4 [64, 1, 5]
0	0x3e4b80a0	0.19873285
1	0xbe9cbe07	-0.3061373
2	0x3d230ab0	0.039805114
3	0xbea5ad7e	-0.32358927
4	0x3d9033f5	0.0704116
5	0x3cf75b5b	0.030194929
6	0xbeb8ca01	-0.36091617
7	0x3d7a2baa	0.061076798
8	0x3d80dbf3	0.06291952
9	0x3e5ec426	0.21754512
10	0xbda54a21	-0.080707796
11	0xbe58a32c	-0.21155995
12	0x3ea2f830	0.31829977
13	0xbe7d5708	-0.24740231
14	0xbdddc7c6	-0.108291194
15	0x3e633280	0.22187233
16	0xbeaa659b	-0.33280644
17	0x3e29e048	0.16589463
18	0x3edef5a9	0.435468
19	0xbe82d67e	-0.2555427
20	0xbe457650	-0.19283414
21	0x3ed7314d	0.420298
22	0xbe2aa0c4	-0.1666289
23	0xbe56acb2	-0.20964316
24	0xbb48ca79	-0.0030638261
25	0x3d225f24	0.039641514
26	0xbdae8773	-0.08521929
27	0xbe81cd59	-0.2535198
28	0xbea1f6fc	-0.31633747
29	0xbd406f17	-0.046980944
30	0xbd62147e	-0.055195324
31	0xbe9dc018	-0.30810618
32	0xbeddd01c	-0.43322837
33	0xbe4ee890	-0.20205903
34	0x3ea69c8d	0.32541314
35	0x3ebfb48f	0.37442443
36	0xbe935b6e	-0.28780693
37	0xbe8ae8b8	-0.27130675
38	0x3ed52581	0.41630176
39	0x3de1e85e	0.11030649
40	0x3ce36585	0.02775837
41	0xbe42fb68	-0.19041216
42	0x3d2adb3b	0.04171298
43	0xbeaa6040	-0.33276558
44	0xbe7882e1	-0.24268676
45	0x3ee1533e	0.4400882
46	0x3ea6c3ea	0.32571346
47	0x3e8ce49b	0.27518162
48	0x3de9045d	0.11377785
49	0x3e145902	0.14487079
50	0x3cd4e1d9	0.025986599
51	0x3e92590e	0.28583568
52	0xbe82f449	-0.25577
53	0x3d262f3f	0.0405724
54	0x3ed6ec62	0.4197722
55	0xbdcd2234	-0.10016289
56	0xbe8eac6e	-0.27865928
57	0xbe0352ca	-0.1282455
58	0xbe89b373	-0.2689472
59	0xbcb6d189	-0.022316711
60	0xbe5d2ef0	-0.21599936
61	0xbc4fd0ec	-0.012684088
62	0xbe66aba5	-0.22526415
63	0xbed966dd	-0.4246129
64	0xbd6131ae	-0.05497902
65	0xbd082ad3	-0.033243965
66	0xbed54485	-0.4165384
67	0x3e8c4f96	0.2740447
68	0x3eb7a9d9	0.3587177
69	0x3e80c02c	0.25146616
70	0x3e5989f0	0.21244025
71	0xbe2b244f	-0.1671307
72	0x3c613a3a	0.013746792
73	0x3e0bdbc4	0.13658053
74	0xbe9707b0	-0.29498053
75	0xbdbabd28	-0.0911811
76	0xbe634d2e	-0.2219741
77	0xbd2ae947	-0.041726377
78	0x3d85b2bb	0.06528231
79	0x3e9519b9	0.29121187
80	0xbe7b02c1	-0.2451277
81	0x3e7786af	0.24172471
82	0xbe9e6cb1	-0.309423
83	0xbe012f3f	-0.12615679
84	0xbea16652	-0.31523377
85	0x3ea13fe1	0.31494048
86	0xbe6dd559	-0.23225917
87	0xbdb86b4f	-0.090048425
88	0xbe2f9629	-0.17147125
89	0x3ebe4cef	0.3716807
90	0x3ecbf569	0.3983567
91	0xbe7691ba	-0.24079028
92	0x3dbf8fb2	0.093535796
93	0x3e80d06c	0.25159013
94	0x3c7c8b38	0.015414052
95	0xbe89a086	-0.26880282
96	0x3d7caa30	0.06168574
97	0xbe223ac0	-0.15842724
98	0x3dfd26ab	0.12360891
99	0x3e05d038	0.1306771
100	0xbd56ed54	-0.052472427
101	0xbe47f264	-0.19526058
102	0xbe273379	-0.16328229
103	0x3e2a3245	0.16620739
104	0x3dd4f46b	0.103981815
105	0x3dabf973	0.08397188
106	0xbdb66347	-0.089056544
107	0xbe221d1e	-0.1583142
108	0xbe9cc93f	-0.3062229
109	0xbe074b68	-0.13212359
110	0x3ce04bbc	0.027379863
111	0xbe015aa9	-0.1263224
112	0xbe74ad1f	-0.23894165
113	0x3eb7eca8	0.35922742
114	0x3e9065f3	0.2820278
115	0xbe30240f	-0.17201255
116	0xbe65b199	-0.2243103
117	0x3e794196	0.24341425
118	0xbd395634	-0.045248225
119	0x3ee4fdf9	0.44725016
120	0x3d83a576	0.064280435
121	0xbeb006d8	-0.3438022
122	0x3e060928	0.1308943
123	0x3baf68e8	0.005353082
124	0xbed2be97	-0.41161034
125	0x3ebc1ac9	0.36739185
126	0x3eb1d98b	0.34736285
127	0xbdd1b465	-0.10239486
128	0xbe75382c	-0.23947209
129	0xbd3af8e0	-0.045647502
130	0xbe3c7c94	-0.18406898
131	0x3d6d1f12	0.05789096
132	0xbed4531f	-0.41469666
133	0x3e1d143e	0.15339753
134	0xbdeafa04	-0.11473468
135	0xbdbd153b	-0.09232565
136	0x3d64fca7	0.05590501
137	0xbe603097	-0.21893536
138	0xbe5495bf	-0.20760249
139	0x3d34050c	0.043950126
140	0x3ed60499	0.41800383
141	0x3e303d7f	0.17210959
142	0x3dbc1561	0.09183765
143	0xbd484361	-0.048892383
144	0x3e7d468c	0.24733943
145	0x3e8e0850	0.27740717
146	0xbea9f9fe	-0.3319854
147	0x3ecf74ed	0.40518895
148	0x3e23c1d8	0.15991914
149	0x3e90a8ac	0.28253686
150	0xbe27d9b3	-0.1639164
151	0x3e580847	0.21096908
152	0xbcea1b0f	-0.028577356
153	0x3ea2deac	0.3181051
154	0x3ed44e56	0.41466016
155	0x3e71a35a	0.2359747
156	0xbec1a0a7	-0.3781788
157	0x3c91be8d	0.017791057
158	0x3eb571c9	0.35438374
159	0xbe9c6828	-0.30548215
160	0xbebaf39b	-0.3651398
161	0x3e60e09a	0.21960679
162	0x3cb77c39	0.022398101
163	0x3ecf0370	0.4043231
164	0xbcfdda69	-0.030987935
165	0xbecef989	-0.40424755
166	0xbe7481c9	-0.23877634
167	0xbe6880ee	-0.22705433
168	0x3d94846a	0.072518185
169	0x3e169e50	0.14708829
170	0x3e380413	0.17970304
171	0xbece2e6c	-0.40269792
172	0x3bc1a377	0.005909379
173	0x3e79a17e	0.2437801
174	0xbe4ae88c	-0.19815272
175	0x3d101ff9	0.03518674
176	0x3ebfa167	0.37427828
177	0xbede385d	-0.43402377
178	0xbda87e73	-0.08227243
179	0xbea57269	-0.3231385
180	0x3eb18410	0.34671068
181	0xbeb14329	-0.34621552
182	0xbea93b3b	-0.33053002
183	0xbed06cb1	-0.40707925
184	0xbcda828d	-0.02667358
185	0x3d59946b	0.053120058
186	0xbed15b3a	-0.40889913
187	0x3eb0ea49	0.34553745
188	0x3ea8ca4c	0.3296684
189	0xbd1fd65c	-0.03902279
190	0xbe060952	-0.13089493
191	0x3d3ed21e	0.046587102
192	0x3e7b72ce	0.24555513
193	0x3ec390b8	0.3819635
194	0x3da20733	0.079115294
195	0xbdc9a506	-0.09845929
196	0xbe8c2ecc	-0.27379453
197	0xbe62842d	-0.22120734
198	0x3e5e1d67	0.21690904
199	0xbed1089e	-0.40826887
200	0x3e1c318a	0.15253273
201	0x3eb09b05	0.3449327
202	0xbe795350	-0.24348187
203	0xbe68337d	-0.22675891
204	0x3ea10e8b	0.31456408
205	0xbdf792f1	-0.12088574
206	0x3ea09aa6	0.31367987
207	0x3de0b9dd	0.109729506
208	0xbe854503	-0.26029214
209	0x3ea6b538	0.32560134
210	0xbe2c4046	-0.16821393
211	0x3e49e4bb	0.1971616
212	0xbcdbc6fb	-0.02682828
213	0xbe89b365	-0.2689468
214	0xbd2cbda5	-0.042173047
215	0xbc83bb58	-0.016080543
216	0xbeb429d5	-0.35188165
217	0xbea36a29	-0.3191693
218	0x3e03df92	0.12878254
219	0x3e6098cf	0.21933292
220	0xbd9e3b93	-0.07726207
221	0xbd0ceaa0	-0.034403443
222	0x3dd6fcc4	0.1049743
223	0x3e101346	0.14069852
224	0xbe52601f	-0.2054448
225	0x3ed0e3d6	0.40798825
226	0x3dc71508	0.09720808
227	0x3e6fc651	0.23415495
228	0xbe8c22b9	-0.2737024
229	0x3d84f404	0.06491855
230	0xbeb0ffa4	-0.34570038
231	0x3e3af6b3	0.18258171
232	0x3e58add1	0.21160056
233	0x3e773006	0.24139413
234	0xbe5db2b3	-0.216502
235	0x3e95b226	0.2923748
236	0x3e6b96f2	0.230068
237	0xbd8e6bb9	-0.0695414
238	0xbea49ee7	-0.32152483
239	0xbe81ddef	-0.25364634
240	0x3e303c43	0.17210488
241	0x3ee2db81	0.44308093
242	0xbe2dc283	-0.16968732
243	0x3e778493	0.24171667
244	0x3de7993c	0.11308524
245	0xbe75e095	-0.24011452
246	0x3bc05482	0.005869449
247	0xbc8101b0	-0.015747875
248	0x3e3daa17	0.18521915
249	0xbe329929	-0.17441238
250	0xbe062b6d	-0.13102503
251	0xbeacd38d	-0.3375515
252	0xbe2d9c5b	-0.16954176
253	0x3ecef449	0.4042075
254	0x3ec7b736	0.39006966
255	0x3ea88ac9	0.32918385

layers.0.Aw.conv1.bias f4 [64]
0	0x3d57a224	0.052644864
1	0x3ece5e06	0.4030611
2	0x3d98fb7e	0.07469843
3	0x3edcab6a	0.4309953
4	0xbe9b99b7	-0.30390713
5	0xbd639c62	-0.05556906
6	0xbed4f1e7	-0.41590807
7	0x3cbd11b4	0.02307973
8	0x3cdb381b	0.026760152
9	0xbe637ac0	-0.22214794
10	0xbedce55b	-0.43143734
11	0x3e3c0687	0.18361865
12	0x3e396d8c	0.18108195
13	0xbdd34622	-0.10316111
14	0xbec05901	-0.37567905
15	0x3eb5504b	0.3541282
16	0x3e23a9fd	0.15982814
17	0xbea33b50	-0.3188119
18	0xbe959bbc	-0.29220378
19	0xbe4e3b4f	-0.20139812
20	0x3e295b19	0.16538657
21	0xbdc73094	-0.097260624
22	0xbdfd576d	-0.12370191
23	0xbeabb630	-0.33537436
24	0x3ea978b7	0.3309991
25	0xbeb1e1bd	-0.34742537
26	0xbe60e2a4	-0.21961457
27	0xbe19e6d3	-0.15029459
28	0xbd5058dc	-0.050865993
29	0x3e0611cf	0.13092731
30	0x3eba657a	0.36405545
31	0xbe97d8eb	-0.29657683
32	0xbebe8b53	-0.3721567
33	0xbe0449ac	-0.12918729
34	0xbedca081	-0.43091205
35	0xbeac3df7	-0.33641025
36	0x3eb5707d	0.35437384
37	0x3e60ba6a	0.21946111
38	0x3e4d0fdd	0.20025583
39	0x3c86c926	0.016453337
40	0x3eb1e7c2	0.3474713
41	0x3d55a709	0.05216125
42	0xbd5d39bf	-0.05401015
43	0x3ebc4d42	0.36777693
44	0xbe68999c	-0.22714847
45	0xbc8a8f79	-0.016914116
46	0xbd781d6b	-0.06057493
47	0x3e9af23d	0.30262938
48	0xbe2bff94	-0.16796714
49	0x3ea1bbe9	0.31588677
50	0x3ec1e53b	0.378702
51	0x3ecacb0a	0.39608032
52	0xbda6f5c4	-0.08152345
53	0x3df72eda	0.12069483
54	0x3ec831cd	0.39100495
55	0xbd56d5a6	-0.052449845
56	0xbd364527	-0.044499543
57	0x3e67df8f	0.22643875
58	0xbeae76f3	-0.34075126
59	0x3e82ad2b	0.25522742
60	0xbe8fb241	-0.28065684
61	0xbca40b33	-0.020024871
62	0xbe876d50	-0.26450586
63	0xbe437e67	-0.19091187

layers.0.Aw.conv2.weight f4 [32, 64, 3]
0	0xbc6664e0	-0.014062136
1	0x3b8d491e	0.0043116948
2	0xbd7b1fe5	-0.061309714
3	0xbcae811d	-0.0213018
4	0x3cf7b201	0.030236246
5	0x3d0b95ee	0.03407853
6	0xbd26d453	-0.040729832
7	0xbc9b835b	-0.018983534
8	0x3cfc8a5a	0.03082769
9	0x3d115fac	0.03549163
10	0x3b16b8a8	0.0022998247
11	0x3d4db624	0.05022253
12	0xbd5dafe7	-0.05412283
13	0xbd28f057	-0.04124483
14	0xbc83a6f2	-0.016070817
15	0x3d47e783	0.04880477
16	0x3c0d555c	0.008626308
17	0xbd2aae3e	-0.041670077
18	0x3d8e0678	0.069348276
19	0xbb8a773b	-0.004225639
20	0xbc61562b	-0.013753454
21	0x3d6ec793	0.058295798
22	0xbc29a460	-0.010354131
23	0x3d604627	0.054754402
24	0xbd261baa	-0.040553726
25	0x3d624a67	0.055246737
26	0xbc994274	-0.018708445
27	0xbd810027	-0.06298857
28	0x3d288226	0.041139744
29	0xbc23a76b	-0.009988646
30	0xbce3a34d	-0.027787829
31	0xbba0686e	-0.0048952615
32	0x3b0d0265	0.002151632
33	0x3d21d691	0.039511267
34	0x3d1043ed	0.03522103
35	0x3b8479bc	0.004042832
36	0x3d838a6f	0.064228885
37	0xbb15d3b7	-0.0022861788
38	0x3b6db2e2	0.0036269953
39	0xbd57b494	-0.052662447
40	0xbd4e85dc	-0.050420627
41	0x3c3fcd4b	0.0117066605
42	0x3d848767	0.064711384
43	0xbd1de24a	-0.038545884
44	0xbd311ad7	-0.043238487
45	0x3d8c084e	0.068375215
46	0xbd5fc0d0	-0.05462724
47	0xbbfd2e52	-0.007726469
48	0x3c0b5062	0.0085030515
49	0xbd1d1537	-0.03835031
50	0xbd5d78db	-0.054070335
51	0x3cf1fe78	0.029540285
52	0xbd89918b	-0.06717213
53	0x3d7d930c	0.061907813
54	0xbd8799bf	-0.066211216
55	0xbcce39b6	-0.025174003
56	0xbce3bee9	-0.027800994
57	0xbd26ec94	-0.040752962
58	0xbb2d9acc	-0.0026489971
59	0xbd1377da	-0.03600297
60	0x3d81021d	0.06299231
61	0xbcf72d17	-0.030172868
62	0xbd78de1e	-0.060758702
63	0x3d4c43cb	0.04986934
64	0xbd38bdd3	-0.045102905
65	0xbbd5735d	-0.0065139965
66	0xbb821a78	-0.0039704405
67	0xbc63e4ef	-0.0139095625
68	0x3c175d8a	0.00923861
69	0xbd4b0740	-0.04956746
70	0xbbe01342	-0.006838233
71	0xbd7c33d2	-0.061572857
72	0x3d3af07f	0.04563951
73	0x3d0fc1ab	0.035096806
74	0xbd0d9c0b	-0.034572642
75	0xbbf08ccc	-0.007341003
76	0x3c8f5985	0.01749874
77	0xbc4f2b97	-0.01264467
78	0x3a51f764	0.00080095814
79	0x3d58c203	0.0529194
80	0x3c47a01a	0.012184167
81	0x3cefb5ce	0.029261496
82	0xbd374c31	-0.044750396
83	0x3d05e291	0.032686774
84	0xbd5a4060	-0.05328405
85	0xbcd58173	-0.026062703
86	0x3ce482d3	0.027894413
87	0xbd3ce5c9	-0.046117578
88	0x3c1f7850	0.009733275
89	0xbd82f005	-0.06393436
90	0xbb129e9d	-0.0022372373
91	0xbd85ca41	-0.065327175
92	0x3b460d4f	0.0030220335
93	0xbca99bd2	-0.020704184
94	0x3d66e7ff	0.056373592
95	0x3d1d3997	0.038385
96	0xbcecee82	-0.028922323
97	0x3cc77325	0.024346897
98	0xbcbfe0ae	-0.023422565
99	0x3cd56321	0.026048245
100	0xbc94e4e3	-0.018175548
101	0x3d64b3e0	0.055835605
102	0x3d8e73cd	0.06955681
103	0xbd6cff49	-0.057860646
104	0xbc37de2a	-0.011222402
105	0x3d901bff	0.0703659
106	0xbd4aa7d1	-0.04947645
107	0x3d126baf	0.035747226
108	0xbd52ee13	-0.051496577
109	0x3d0787e7	0.03308859
110	0x3bfe8b53	0.0077680736
111	0xbcd6ee84	-0.02623678
112	0x3d919894	0.0710918
113	0x3d5b9609	0.05360988
114	0x3c97aa48	0.018513814
115	0x3d6c2de7	0.057660963
116	0xbd0c41f6	-0.034242593
117	0x3c87d42b	0.016580662
118	0x3d807577	0.06272405
119	0xb97c0250	-0.00024033454
120	0xbcaf076e	-0.021365847
121	0xbd861fd6	-0.06549041
122	0x3b60feaf	0.003433149
123	0x3d8cf19f	0.06882023
124	0xbbd1c3c4	-0.006401511
125	0xbd33f578	-0.04393527
126	0x3c3ea37a	0.011635656
127	0xbd26f0ae	-0.040756874
128	0xbd844c78	-0.06459898
129	0x3d84ceb1	0.06484736
130	0x3d41df21	0.047331933
131	0x3d6b7282	0.05748225
132	0x3c9548ba	0.018223155
133	0x3d31f0da	0.043442585
134	0xbc657612	-0.014005201
135	0x3d3147b5	0.043281276
136	0xbd4cae81	-0.049971107
137	0xbcd39ef3	-0.025832629
138	0xbd2e5d79	-0.04256961
139	0x3c8f8009	0.017517107
140	0xbd8bb838	-0.06822246
141	0xbd8dd50b	-0.069254
142	0xbd380e82	-0.04493571
143	0x3c1fdedc	0.009757724
144	0x3d063477	0.032764878
145	0xbd06bf63	-0.032897364
146	0x3cd89cb4	0.02644191
147	0xbd64e53c	-0.055882677
148	0xbb9f174c	-0.004855072
149	0xbd6dd3e7	-0.058063414
150	0xbd5bf048	-0.053695947
151	0xbd60e38a	-0.0549045
152	0xbd8421f4	-0.064517885
153	0x3d444e8b	0.047926467
154	0xbcfce05c	-0.030868702
155	0xbd4e9fed	-0.050445486
156	0xba258926	-0.0006314687
157	0x3d1447f6	0.03620144
158	0x3d0b2547	0.033971097
159	0xbcacd3b6	-0.021097045
160	0x3d90e319	0.070745654
161	0x3d573352	0.052539177
162	0x3c80d189	0.015724914
163	0xbd8bfe4b	-0.06835612
164	0x3cab76ab	0.020930609
165	0xbcbf35bc	-0.023341052
166	0xbd3bd697	-0.045858946
167	0x3d03d079	0.032181237
168	0x3d7b844c	0.061405465
169	0x3d871ddd	0.06597493
170	0xbc79a857	-0.015237889
171	0xbd8207da	-0.06349154
172	0xbd8a8cdb	-0.06765147
173	0x3b978b47	0.0046247575
174	0xbd84a434	-0.06476632
175	0x3d587999	0.05285034
176	0x3bded983	0.0068008318
177	0xbcb428f0	-0.021992177
178	0x3d71e2b5	0.059054095
179	0x3b2cd600	0.002637267
180	0xbd119e8f	-0.035551604
181	0x3cf09bbe	0.029371139
182	0x3beed5e8	0.007288683
183	0x3d11f89a	0.035637476
184	0xbd2c4741	-0.04206014
185	0x3c9110fe	0.017708298
186	0xbd8bd7c4	-0.068282634
187	0xbd91b722	-0.07115008
188	0x3d19902e	0.037491016
189	0x3c200080	0.009765744
190	0xbd89bfb8	-0.067260206
191	0x3d3ec961	0.04657877
192	0xbd825079	-0.06363005
193	0xbd4de5ec	-0.0502681
194	0x3d25b3b4	0.04045458
195	0xbd8a0dd3	-0.06740918
196	0xbd8372d3	-0.06418385
197	0x3c60cd4e	0.013720823
198	0xba4df2e4	-0.0007856323
199	0xbc83b848	-0.016079083
200	0x3c4339e2	0.011915656
201	0xbd90951a	-0.07059689
202	0xbae4d19b	-0.0017457487
203	0x3d343cec	0.044003412
204	0x3bbcc1ec	0.005760422
205	0xbcf47a23	-0.029843396
206	0x3a0ca3c7	0.0005364981
207	0x3d1efdb8	0.038816184
208	0xbd108f6f	-0.03529304
209	0x3d2dde3a	0.04244826
210	0x3c371b32	0.011175917
211	0xbcaca1ee	-0.021073308
212	0xbc447c0c	-0.011992466
213	0x3d58882d	0.052864242
214	0x3d8c1ff0	0.06842029
215	0xbcf0bc15	-0.02938656
216	0x3b75797b	0.0037456441
217	0xbd135644	-0.03597094
218	0x3d30641d	0.043064225
219	0x3c66324d	0.014050079
220	0xbd6b585e	-0.05745732
221	0xbd1327a2	-0.03592647
222	0x3d053a26	0.032526158
223	0x3caed01e	0.021339472
224	0xbd170acd	-0.036875535
225	0x3c80b1e5	0.015709827
226	0x3ca46aa1	0.020070376
227	0x3d595dc5	0.05306794
228	0xbd4dd3bb	-0.05025075
229	0xbba511f2	-0.0050375396
230	0xbd693544	-0.056935564
231	0xbcaccf85	-0.021095047
232	0x3d1a5d2d	0.037686516
233	0x3d828b70	0.06374252
234	0x3d0d3d0c	0.034482047
235	0xbd13366c	-0.035940573
236	0x3d720042	0.059082277
237	0xbd5e8e41	-0.054334883
238	0x3cc2eef0	0.023795575
239	0xbd1e68d8	-0.038674206
240	0x3d833878	0.06407255
241	0xbd71da9e	-0.05904638
242	0xbccda3d2	-0.02510253
243	0xbd77a515	-0.06046017
244	0x3a9274f7	0.0011173774
245	0xbd8f7320	-0.0700438
246	0x3d59197c	0.05300282
247	0xbd939a85	-0.07207207
248	0xbc8d2109	-0.017227666
249	0xbd7735b4	-0.06035395
250	0xbc935f45	-0.017989764
251	0x3d92fcb6	0.07177107
252	0x3d9182ae	0.07105003
253	0xbc4df2f1	-0.012570129
254	0x3cb07f22	0.021544997
255	0xbd027249	-0.031847272

layers.0.Aw.conv2.bias f4 [32]
0	0x3cacb33b	0.021081557
1	0x3d585d1b	0.052823167
2	0x3d748ea1	0.059706334
3	0xbd018fef	-0.031631406
4	0xbbb23d6d	-0.0054394514
5	0x3c06a045	0.008216922
6	0x3d8d98ae	0.06913887
7	0x3c98fd5d	0.0186755
8	0x3c2720b1	0.010200665
9	0x3d34a571	0.04410309
10	0xbd87d8e4	-0.066331655
11	0x3bc0e8a9	0.0058871103
12	0x3cd50ae4	0.02600617
13	0x3abd666e	0.0014450082
14	0xbbfa8ec8	-0.0076464154
15	0x3d6f9a35	0.058496673
16	0x3cae6e84	0.021292932
17	0x3d185bc9	0.03719691
18	0xbd21200a	-0.039337195
19	0x3d431a44	0.04763247
20	0xbbe9f83f	-0.007140189
21	0x3be519bb	0.0069915927
22	0xbacb7c5f	-0.0015524736
23	0xbb778c2a	-0.0037772753
24	0x3d6032d3	0.05473597
25	0xbd90c88b	-0.070695005
26	0xbc6f3193	-0.014599222
27	0x3d13d90a	0.036095656
28	0xbb2c5303	-0.0026294596
29	0xbd01267c	-0.031530842
30	0xbd02eeea	-0.031966127
31	0xbd164e58	-0.03669581

layers.0.Aw.conv3.weight f4 [1, 32, 3]
0	0xbcc8e1ee	-0.024521794
1	0xbd51b3e4	-0.051196948
2	0xbdbe9b58	-0.09306973
3	0x3d964014	0.07336441
4	0xbd56e2f3	-0.05246253
5	0x3d99ff74	0.07519427
6	0x3a838952	0.0010035431
7	0x3daf65d5	0.08564345
8	0x3d6d1a9d	0.05788671
9	0xbd13e2dc	-0.03610502
10	0x3dcbc30d	0.09949312
11	0x3db22647	0.08698707
12	0x3d903aa1	0.070424326
13	0xbd22900d	-0.03968816
14	0xbd734858	-0.059395164
15	0x3d8bd179	0.06827063
16	0x3b50dae5	0.0031868753
17	0xbc90b8ea	-0.017666299
18	0xbd8e493f	-0.06947564
19	0xbd12fff5	-0.03588863
20	0x3c072c6d	0.008250338
21	0xbc21db57	-0.009878955
22	0xbdba1255	-0.09085528
23	0x3cea753e	0.028620359
24	0xbd7e1d4c	-0.06203966
25	0xbd52e86f	-0.051491197
26	0xbd57c91e	-0.052682035
27	0xbdc2cc89	-0.09511668
28	0x3cc72e73	0.02431414
29	0x3ce844cd	0.02835312
30	0x3d3f4c10	0.0467034
31	0xbdb5d40e	-0.08878337
32	0xbd98f2de	-0.07468198
33	0xbd3596cd	-0.044333268
34	0xbd9d0809	-0.07667548
35	0x3acd6996	0.0015671726
36	0x3c19e10e	0.009392036
37	0xbd8589c4	-0.06520417
38	0x3d8edd14	0.06975761
39	0xbd634b13	-0.05549152
40	0x3d888180	0.06665325
41	0xbd08b387	-0.033374336
42	0xbcac831f	-0.021058617
43	0xbdb665b7	-0.08906119
44	0x3c949147	0.01813568
45	0x3db2f386	0.08737855
46	0xbcad5c0c	-0.021162055
47	0x3d3c017c	0.045899853
48	0x3d83afdb	0.06430026
49	0x3b9dece0	0.0048194975
50	0x3dc89c03	0.09795382
51	0x3dc967f3	0.0983428
52	0xbd8057d9	-0.062667556
53	0xbc9b9b4a	-0.018994946
54	0x3cc2f8c0	0.023800254
55	0xbdcf82a0	-0.101323366
56	0xbd63ccbf	-0.055615183
57	0x3d911a90	0.070851445
58	0x3d5be12b	0.053681534
59	0x3c51b3b9	0.012799197
60	0xbd1e265f	-0.038610812
61	0xbc5711f9	-0.013126844
62	0xbd90c6de	-0.07069181
63	0xbd55fb77	-0.05224177
64	0xbda3c936	-0.07997362
65	0x3d5f5c6b	0.054531496
66	0xbd6dd9b6	-0.058068953
67	0xbd0e9b25	-0.034815926
68	0x3d335686	0.043783687
69	0x3c0e62d6	0.0086905565
70	0x3cfc8dbc	0.030829303
71	0xbcedd9e3	-0.02903456
72	0x3d8a884e	0.06764279
73	0x3cc0d39b	0.023538401
74	0xbcdbb994	-0.026821889
75	0xbc44c220	-0.012009174
76	0xbd9fee41	-0.07809115
77	0xbd774a47	-0.06037357
78	0xbcb22874	-0.021747805
79	0xbc79222d	-0.015205902
80	0xbc81134b	-0.01575627
81	0x3d777e59	0.06042323
82	0xbd5fdd9f	-0.054654714
83	0xbd3576e6	-0.044302844
84	0xbdc3262d	-0.09528766
85	0x3da6e1c8	0.08148533
86	0x3d80348b	0.06260022
87	0xbd9b42db	-0.07581111
88	0xbb00ef16	-0.0019673756
89	0x3d2ce45d	0.04220997
90	0x3db46053	0.08807435
91	0x3da839ac	0.08214125
92	0xbdb903fc	-0.09033963
93	0x3d410660	0.04712522
94	0x3d386d30	0.045026004
95	0xbd59c725	-0.053168435

layers.0.Aw.bn1.weight f4 [64]
0	0x3f7fe2d3	0.9995548
1	0x3f7fdc22	0.9994527
2	0x3f7fdfa4	0.99950624
3	0x3f8011a1	1.000538
4	0x3f800346	1.0000999
5	0x3f800531	1.0001584
6	0x3f801212	1.0005515
7	0x3f7fdf16	0.9994978
8	0x3f7fcf56	0.99925745
9	0x3f801167	1.0005311
10	0x3f800bc6	1.0003593
11	0x3f80193e	1.0007703
12	0x3f7fd065	0.9992736
13	0x3f7fdc22	0.9994527
14	0x3f7febce	0.99969184
15	0x3f8010a4	1.0005078
16	0x3f7fd22c	0.9993007
17	0x3f7ff065	0.9997619
18	0x3f7fe138	0.9995303
19	0x3f8001cc	1.0000548
20	0x3f800f8e	1.0004747
21	0x3f7fc669	0.99912125
22	0x3f8012f7	1.0005788
23	0x3f8013ae	1.0006006
24	0x3f800203	1.0000614
25	0x3f800df0	1.0004253
26	0x3f801a9c	1.000812
27	0x3f801623	1.0006756
28	0x3f800d30	1.0004025
29	0x3f7ff98b	0.9999015
30	0x3f800fa9	1.0004779
31	0x3f7fdb75	0.9994424
32	0x3f80024f	1.0000705
33	0x3f8004c1	1.0001451
34	0x3f7fe7d4	0.99963117
35	0x3f7fd43d	0.99933225
36	0x3f7fcf83	0.9992601
37	0x3f800ba8	1.0003557
38	0x3f7fead9	0.99967724
39	0x3f7fcfee	0.9992665
40	0x3f7fdcc0	0.9994621
41	0x3f8012c2	1.0005724
42	0x3f800ae5	1.0003325
43	0x3f800620	1.0001869
44	0x3f800bab	1.0003561
45	0x3f7fe871	0.9996405
46	0x3f7fd946	0.9994091
47	0x3f800921	1.0002786
48	0x3f7fe0d5	0.9995244
49	0x3f800de7	1.0004243
50	0x3f80122a	1.0005543
51	0x3f7fe2d2	0.99955475
52	0x3f801395	1.0005976
53	0x3f7fca75	0.999183
54	0x3f7fdc4c	0.9994552
55	0x3f8010f0	1.0005169
56	0x3f801382	1.0005953
57	0x3f801994	1.0007806
58	0x3f7fc8cc	0.99915767
59	0x3f7fc8ec	0.9991596
60	0x3f7fdc02	0.9994508
61	0x3f801357	1.0005902
62	0x3f800801	1.0002443
63	0x3f7ffd7d	0.9999617

layers.0.Aw.bn1.bias f4 [64]
0	0x393574b5	0.00017304982
1	0xba7f0720	-0.000972854
2	0xb9c891b4	-0.0003825553
3	0x3a878c5b	0.0010341512
4	0xb9f3432a	-0.00046398613
5	0xb9c64537	-0.00037817072
6	0x3a8a8d38	0.0010570651
7	0x3a1ecfba	0.00060581753
8	0xba8d2e01	-0.0010771157
9	0x3a963fc3	0.0011463094
10	0x3a66467a	0.00087843055
11	0x3a94c85d	0.0011351217
12	0xba845241	-0.0010095314
13	0xb9d5f3d2	-0.00040808186
14	0xb9f89027	-0.00047409648
15	0x3840feb7	4.601359e-05
16	0xba85019d	-0.0010147576
17	0x39f20df0	0.0004616822
18	0xb8f0d3fe	-0.000114835784
19	0x3a509d26	0.0007957987
20	0x3a88e51e	0.0010444259
21	0xbaa05ae6	-0.0012234121
22	0x3a99bdf9	0.001172959
23	0x3aa3a142	0.0012483972
24	0xba319e2c	-0.00067755836
25	0x399b2f18	0.0002959899
26	0x3aa7604c	0.0012769788
27	0x3a8befcf	0.0010676327
28	0x3a8c6904	0.001071245
29	0xb9aa5b7c	-0.00032493088
30	0x3a12f9a9	0.000560666
31	0xba8662e2	-0.0010252858
32	0x3a1e4fbd	0.00060391036
33	0xba6a3f5a	-0.0008935832
34	0xba81761c	-0.0009877118
35	0xba8815aa	-0.0010382433
36	0xba82eba0	-0.0009988435
37	0x3a921a1e	0.00111467
38	0xba8ab094	-0.0010581189
39	0xba85e040	-0.0010213926
40	0xba8b4848	-0.00106264
41	0x3a9466f7	0.001132219
42	0x3a9b0f11	0.0011830052
43	0x3a941986	0.001129911
44	0xb94ed08c	-0.0001972338
45	0x3988b997	0.00026078217
46	0xba90c6b2	-0.0011045544
47	0xba9c6735	-0.0011932614
48	0xba98013a	-0.0011597045
49	0x3a562258	0.000816857
50	0x3a8016bd	0.0009772402
51	0xba8f7dc3	-0.0010947514
52	0x3a839f2d	0.0010041945
53	0xba91ed2b	-0.0011133304
54	0x39ee509a	0.0004545495
55	0x3a9b6251	0.0011854862
56	0x3a953a64	0.00113852
57	0x3a954195	0.0011387343
58	0xba8a06a6	-0.0010530546
59	0xba99a7c6	-0.0011722974
60	0xba867af0	-0.0010260027
61	0x3a834848	0.0010016048
62	0x3a85b84a	0.0010202017
63	0x3a25a2ff	0.0006318539

layers.0.Aw.bn1.running_mean f4 [64]
0	0x3d577ba0	0.052608132
1	0x3ece5e2c	0.40306222
2	0x3d98e70b	0.07465943
3	0x3edcae81	0.43101886
4	0xbe9b9c1e	-0.30392545
5	0xbd63f18f	-0.05565029
6	0xbed4fb23	-0.41597852
7	0x3cbd6502	0.023119453
8	0x3cda7a77	0.026669724
9	0xbe635455	-0.22200139
10	0xbedcdd35	-0.43137518
11	0x3e3bee60	0.18352652
12	0x3e39531b	0.18098108
13	0xbdd32bae	-0.103110656
14	0xbec05a25	-0.37568775
15	0x3eb55013	0.35412654
16	0x3e239472	0.15974596
17	0xbea338ac	-0.31879175
18	0xbe95940e	-0.2921452
19	0xbe4e3fc2	-0.20141509
20	0x3e29561f	0.16536759
21	0xbdc7574e	-0.09733449
22	0xbdfd4376	-0.12366383
23	0xbeabb227	-0.33534357
24	0x3ea9704b	0.33093485
25	0xbeb1dcb2	-0.3473869
26	0xbe60f0a1	-0.21966793
27	0xbe19f1de	-0.15033671
28	0xbd4ff07f	-0.050766464
29	0x3e062910	0.13101602
30	0x3eba70fd	0.36414328
31	0xbe97da5c	-0.29658782
32	0xbebe87f4	-0.372131
33	0xbe045cf9	-0.12926091
34	0xbedca321	-0.43093207
35	0xbeac452d	-0.33646527
36	0x3eb56546	0.35428828
37	0x3e60c2d9	0.21949328
38	0x3e4d2349	0.20032991
39	0x3c8606aa	0.0163606
40	0x3eb1ed20	0.34751225
41	0x3d55d354	0.05220349
42	0xbd5d63b5	-0.054050166
43	0x3ebc47d8	0.36773562
44	0xbe689c19	-0.22715797
45	0xbc8a125d	-0.01685446
46	0xbd7813ff	-0.060565945
47	0x3e9af090	0.3026166
48	0xbe2be975	-0.16788276
49	0x3ea1b883	0.31586084
50	0x3ec1e6ce	0.37871403
51	0x3ecacd49	0.39609745
52	0xbda70473	-0.081551455
53	0x3df6fa60	0.12059474
54	0x3ec82ef5	0.39098325
55	0xbd56c636	-0.052435122
56	0xbd367558	-0.0445455
57	0x3e67c67e	0.22634313
58	0xbeae8761	-0.3408766
59	0x3e82a19e	0.2551393
60	0xbe8fa935	-0.28058782
61	0xbca491f5	-0.020089129
62	0xbe876887	-0.26446936
63	0xbe438c77	-0.19096552

layers.0.Aw.bn1.running_var f4 [64]
0	0x3067e7d9	8.4366786e-10
1	0x306a937e	8.5338303e-10
2	0x30203582	5.82837e-10
3	0x30877cd2	9.858019e-10
4	0x30323978	6.483769e-10
5	0x310c552b	2.0421094e-09
6	0x31782b0d	3.6113221e-09
7	0x30cdde3c	1.4978876e-09
8	0x310456fd	1.9257975e-09
9	0x31c217de	5.6488565e-09
10	0x30b80fdc	1.339227e-09
11	0x311bcbde	2.2671354e-09
12	0x315383bf	3.077943e-09
13	0x31444ad7	2.8564295e-09
14	0x2fe63b13	4.187873e-10
15	0x308e95bd	1.0374418e-09
16	0x310cfca8	2.05163e-09
17	0x308b4aed	1.0134876e-09
18	0x30952c9b	1.0853854e-09
19	0x301ed64e	5.778461e-10
20	0x3040e1db	7.0170153e-10
21	0x30f1dd1b	1.75979e-09
22	0x30dbb61b	1.5986105e-09
23	0x30e80b5a	1.6883448e-09
24	0x30b74364	1.3334156e-09
25	0x312536a5	2.4041722e-09
26	0x30844147	9.622817e-10
27	0x305c5278	8.015273e-10
28	0x313256c5	2.5951732e-09
29	0x3126032b	2.415798e-09
30	0x314894f6	2.9188505e-09
31	0x3035b2f0	6.61017e-10
32	0x30cbc008	1.4824773e-09
33	0x3149507d	2.9295102e-09
34	0x3020b6c6	5.84674e-10
35	0x310d0188	2.051907e-09
36	0x318ce6d7	4.1007797e-09
37	0x30cd0757	1.4917799e-09
38	0x312204a3	2.3576738e-09
39	0x310df467	2.0657127e-09
40	0x30aba864	1.2489747e-09
41	0x305cf1c9	8.037913e-10
42	0x3023b8ec	5.9561844e-10
43	0x310ea275	2.0756066e-09
44	0x2f8be5f1	2.5447336e-10
45	0x30ffeb8d	1.862064e-09
46	0x30ab5553	1.2466138e-09
47	0x312d6494	2.5231985e-09
48	0x311996cc	2.2350148e-09
49	0x2ff6d096	4.4895349e-10
50	0x316af6d1	3.419178e-09
51	0x300faf8a	5.2272553e-10
52	0x306f2db6	8.701265e-10
53	0x3163bf2e	3.314152e-09
54	0x30d85456	1.5740038e-09
55	0x30a092dd	1.1683273e-09
56	0x30996126	1.1159826e-09
57	0x315cd17b	3.213329e-09
58	0x318e40d4	4.140114e-09
59	0x3133040a	2.6050224e-09
60	0x31169ee7	2.1918198e-09
61	0x31057c77	1.9424797e-09
62	0x304c4276	7.4309214e-10
63	0x31222765	2.3596496e-09

layers.0.Aw.bn2.weight f4 [32]
0	0x3f80199c	1.0007815
1	0x3f7fdcc8	0.9994626
2	0x3f7fcf8a	0.99926054
3	0x3f7fd1f1	0.9992972
4	0x3f7ff077	0.99976295
5	0x3f7fd742	0.9993783
6	0x3f801236	1.0005558
7	0x3f800e7a	1.0004418
8	0x3f801387	1.0005959
9	0x3f7fdef0	0.9994955
10	0x3f801369	1.0005924
11	0x3f801854	1.0007424
12	0x3f801105	1.0005194
13	0x3f800e84	1.000443
14	0x3f801613	1.0006737
15	0x3f7fe409	0.9995733
16	0x3f7fd5dc	0.999357
17	0x3f7fd765	0.9993804
18	0x3f800e57	1.0004376
19	0x3f7fe7ec	0.9996326
20	0x3f801198	1.0005369
21	0x3f8014d6	1.0006359
22	0x3f800cd9	1.0003921
23	0x3f7ffb48	0.999928
24	0x3f7fd1a9	0.9992929
25	0x3f8018eb	1.0007604
26	0x3f800ee9	1.000455
27	0x3f801674	1.0006852
28	0x3f7fe465	0.9995788
29	0x3f7ff132	0.9997741
30	0x3f8015a7	1.0006608
31	0x3f7fd78e	0.99938285

layers.0.Aw.bn2.bias f4 [32]
0	0x3a4950cf	0.0007679583
1	0xba373a19	-0.0006989553
2	0xba571737	-0.00082050584
3	0xba3e65a3	-0.000726307
4	0x3a58b8f1	0.00082673045
5	0xba425a15	-0.0007413936
6	0x3a3fab60	0.00073116086
7	0x3a444726	0.00074874086
8	0x3a4b1046	0.00077462604
9	0xba0da190	-0.0005402798
10	0x3a4d6714	0.0007835489
11	0x3a4c018d	0.00077822135
12	0x3a2bae92	0.00065491453
13	0x3a334382	0.00068383676
14	0x3a4e9609	0.00078806333
15	0xba38c366	-0.00070481596
16	0xba3edcfe	-0.0007280855
17	0xba304c4b	-0.0006725236
18	0x3a45a167	0.00075390044
19	0xba276a4f	-0.00063863856
20	0x3a45379f	0.0007523242
21	0x3a47dcb2	0.0007624134
22	0x3a3fb810	0.0007313499
23	0xba4be540	-0.00077779964
24	0xba427291	-0.00074175844
25	0x3a4f6121	0.00079108967
26	0x3a430f19	0.00074409094
27	0x3a4cd3ed	0.0007813562
28	0xba34b15e	-0.0006892885
29	0x3a411ea6	0.00073669327
30	0x3a2e0847	0.00066388067
31	0xba3b258a	-0.00071390776

layers.0.Aw.bn2.running_mean f4 [32]
0	0x3ca47039	0.020073043
1	0x3d568715	0.052374918
2	0x3d73d2e4	0.059527293
3	0xbd02d23a	-0.03193877
4	0xbbf270e6	-0.0073987124
5	0x3bdd610e	0.0067559546
6	0x3d8ea5d0	0.0696522
7	0x3ca4056f	0.020022122
8	0x3c1aa16b	0.009437899
9	0x3d35a434	0.04434605
10	0xbd86577f	-0.06559657
11	0x3b83e900	0.0040255785
12	0x3cdce9de	0.026966985
13	0x3b7680cb	0.0037613388
14	0xbc124f48	-0.008930035
15	0x3d737385	0.05943634
16	0x3cb2209f	0.02174407
17	0x3d12780c	0.035759017
18	0xbd1a6125	-0.0376903
19	0x3d4b3969	0.049615297
20	0xbbe4a980	-0.006978214
21	0x3be75f19	0.007060897
22	0xbabc8718	-0.0014383523
23	0xbb1a7d4d	-0.002357322
24	0x3d55a2ef	0.05215734
25	0xbd92a39e	-0.07160114
26	0xbc7133de	-0.014721839
27	0x3d0af478	0.03392455
28	0xbb35ba71	-0.0027729536
29	0xbd0a4106	-0.033753417
30	0xbcfe4f6f	-0.031043736
31	0xbd17b76c	-0.03704016

layers.0.Aw.bn2.running_var f4 [32]
0	0x388c716a	6.696845e-05
1	0x379af8d3	1.8474098e-05
2	0x37603905	1.3364716e-05
3	0x38599900	5.1879324e-05
4	0x379be640	1.8584658e-05
5	0x37309d5e	1.0527057e-05
6	0x37558cc2	1.2728562e-05
7	0x37ef8c42	2.8556333e-05
8	0x36cf1cf2	6.1724504e-06
9	0x37af8235	2.0922258e-05
10	0x37c47c76	2.3422977e-05
11	0x37772fb2	1.4733452e-05
12	0x36e9db2b	6.9694556e-06
13	0x3819e79d	3.669375e-05
14	0x3795d3a3	1.7860735e-05
15	0x37e66aab	2.7467808e-05
16	0x3726ed87	9.949675e-06
17	0x37c563f7	2.353078e-05
18	0x37b9a40e	2.2130112e-05
19	0x3649c0c3	3.0063536e-06
20	0x37cf3d15	2.4704766e-05
21	0x3756a5d4	1.2794004e-05
22	0x38c30b02	9.300375e-05
23	0x38490d34	4.793443e-05
24	0x37e9c1bb	2.7865977e-05
25	0x36835e23	3.915063e-06
26	0x36e6a7d5	6.8740724e-06
27	0x379f9085	1.9021574e-05
28	0x36bef53a	5.6909894e-06
29	0x36a9e66c	5.063417e-06
30	0x376fb661	1.42879735e-05
31	0x379f225a	1.8970273e-05

layers.0.Ah.conv1.weight f4 [64, 1, 5]
0	0xbe96b6a7	-0.29436228
1	0xbe895d8f	-0.26829192
2	0x3cadf0b6	0.021232944
3	0xbec0e659	-0.3767574
4	0xbe23fcf0	-0.16014457
5	0xbdffe907	-0.12495618
6	0xbe94c380	-0.29055405
7	0xbdb5c799	-0.08875961
8	0x3dcbff89	0.09960849
9	0xbe9f5a32	-0.311235
10	0x3e08b28c	0.1334936
11	0x3d870957	0.06593578
12	0x3e811a72	0.2521549
13	0x3d034667	0.032049563
14	0xbe9e6e0e	-0.3094334
15	0x3e80f739	0.25188616
16	0xbe04d14f	-0.1297047
17	0xbc596cdf	-0.013270586
18	0xbea2730b	-0.31728396
19	0xbe4a9c9f	-0.19786309
20	0xbe48cdc7	-0.19609748
21	0x3eba598c	0.36396444
22	0x3eae9b76	0.34102982
23	0x3e8c6a05	0.27424636
24	0x3ede2d5a	0.43393975
25	0x3e45ab2f	0.19303583
26	0x3e4f3d1c	0.20238155
27	0x3e0183d1	0.1264794
28	0xbedbc753	-0.4292551
29	0x3e0332ef	0.12812398
30	0x3ebb4c0c	0.36581457
31	0xbe7a20f0	-0.24426627
32	0xbe12a497	-0.14320599
33	0xbe9ce8c8	-0.30646348
34	0xbe91507b	-0.28381714
35	0x3ecf1e51	0.40452817
36	0x3e1abb17	0.15110432
37	0xbed89665	-0.42302242
38	0x3c22c318	0.009934209
39	0xbe536daa	-0.20647302
40	0x3e8378fc	0.2567824
41	0xbe8931e0	-0.26795864
42	0xbebbf8f4	-0.36713374
43	0xbe84a862	-0.25909716
44	0x3db3bd8f	0.0877639
45	0xbe431c11	-0.19053675
46	0x3e85f574	0.26163828
47	0xbe40029e	-0.18750998
48	0x392d67a0	0.00016537169
49	0x3c1462f1	0.009056793
50	0x3d9ef6cd	0.07761917
51	0x3e996eb8	0.29967284
52	0x3cc4d9dd	0.024029667
53	0xbede4ee8	-0.43419576
54	0x3e23b8d0	0.15988469
55	0x3ed47e98	0.41502833
56	0x3d31374c	0.043265626
57	0x3ea90bb0	0.3301673
58	0xbe9e6840	-0.3093891
59	0x3e897afc	0.26851642
60	0x3db95ab6	0.09050505
61	0x39ecd855	0.00045174608
62	0x3e1f4467	0.15553437
63	0x3e0c9dcb	0.13732068
64	0xbe4533ca	-0.19258037
65	0x3ec4ba06	0.38423175
66	0xbddc0f27	-0.107450776
67	0x3e85429c	0.2602738
68	0x3eba6d04	0.36411297
69	0xbde6f0a3	-0.112763666
70	0x3e3b4fcd	0.1829216
71	0x3e132f9f	0.14373635
72	0x3e9e0572	0.3086353
73	0x3d46add5	0.048505623
74	0xbc0069c8	-0.00783772
75	0xbe3f1d15	-0.18663438
76	0x3e7a020c	0.24414843
77	0x3b9d50df	0.0048009004
78	0xbe9b81cc	-0.30372465
79	0x3c1ad7fb	0.009450908
80	0xbe08bcdb	-0.13353293
81	0xbebc12d8	-0.36733127
82	0x3e8e304d	0.27771226
83	0x3e10e485	0.14149673
84	0xbe8fdb88	-0.28097177
85	0x3dc3b9fd	0.09556959
86	0x3de5324c	0.11191234
87	0x3da934d7	0.082620315
88	0xbd5edeab	-0.05441157
89	0xbea858b2	-0.3288017
90	0xbed06dba	-0.40708715
91	0x3de5008d	0.11181746
92	0xbeb072ed	-0.3446268
93	0x3e85c303	0.26125345
94	0xbee06c13	-0.43832454
95	0xbe541566	-0.20711288
96	0x3e44812d	0.19189902
97	0x3eb6c7d7	0.3569934
98	0xbbe4f52a	-0.0069872336
99	0x3ebfceb8	0.374624
100	0x3eaed58f	0.34147307
101	0xbe9b9143	-0.30384263
102	0x3eb57b47	0.35445616
103	0x3d66585d	0.056236614
104	0x3dee51a0	0.116366625
105	0xbd0fc4ed	-0.035099912
106	0x3e84128e	0.25795406
107	0x3e58610b	0.21130769
108	0xbd0fffab	-0.035155933
109	0x3e8e6c95	0.27817217
110	0xbe977a79	-0.29585627
111	0x3e5efd67	0.21776353
112	0xbe08234c	-0.13294715
113	0x3e32bea4	0.17455536
114	0xbd8465c3	-0.06464722
115	0xbe83b71b	-0.25725636
116	0xbe257a66	-0.16159973
117	0xbeadb401	-0.33926395
118	0xbe9ba718	-0.3040092
119	0x3ed3f467	0.41397402
120	0x3ec7f86c	0.39056718
121	0x3e95fec0	0.2929592
122	0x3ed26ad8	0.4109714
123	0x3e9813af	0.29702517
124	0xbece3fdc	-0.40283096
125	0x3e577da9	0.2104403
126	0x3e68e8f4	0.22745115
127	0xbe06761c	-0.13130993
128	0x3e3093f5	0.17243941
129	0x3ecfbc90	0.4057355
130	0x3c3ee502	0.011651279
131	0x3ebc8093	0.36816844
132	0xbe885509	-0.26627377
133	0xbe042d5d	-0.1290793
134	0x3ed09214	0.4073645
135	0xbecd3ba3	-0.40084562
136	0xbe24b95b	-0.16086332
137	0xbedcf362	-0.43154436
138	0x3eddccb1	0.4332023
139	0xbe9a90ba	-0.30188543
140	0x3ed87188	0.42274117
141	0xbe2ffef7	-0.17187105
142	0x3e789162	0.24274209
143	0xbd1e880c	-0.038703963
144	0x3e667718	0.22506368
145	0x3ec5ff32	0.3867126
146	0x3eb10447	0.34573576
147	0x3e9ec8c2	0.3101254
148	0xbee54268	-0.44777226
149	0x3eb1a523	0.34696302
150	0xbec2b770	-0.38030577
151	0x3ed148ef	0.40875956
152	0x3de15a51	0.110035546
153	0xbec1dbe1	-0.37863067
154	0x3d7dc2ae	0.06195324
155	0x3ec7dc55	0.39035287
156	0x3dc3b1c0	0.095553875
157	0x3e8076e8	0.25090718
158	0x3e815dae	0.25266784
159	0x3ed62218	0.41822886
160	0xbeb310d0	-0.34973764
161	0xbeb71c6c	-0.35763872
162	0x3ea03d7d	0.31296912
163	0x3ec0c135	0.37647405
164	0x3d1aaff7	0.03776547
165	0xbe82d561	-0.2555342
166	0xbda279ba	-0.07933374
167	0xbde8f4da	-0.11374827
168	0xbdf9a17c	-0.12189004
169	0x3e70de21	0.23522235
170	0xbe55a822	-0.20864919
171	0x3ec8c6e9	0.39214256
172	0xbe2ae3b7	-0.16688429
173	0x3ebd7d61	0.3700972
174	0x3dda8b9a	0.10671158
175	0xbd7bcef4	-0.061476663
176	0xbc64d87c	-0.0139676295
177	0xbed98a6a	-0.42488414
178	0xbda04261	-0.07825161
179	0xbec0faab	-0.37691244
180	0x3e880d9c	0.26572883
181	0x3dff4134	0.124636084
182	0xbec56417	-0.38552925
183	0xbec6ce87	-0.38829443
184	0xbe9eb11a	-0.30994493
185	0x3e4bce64	0.1990295
186	0xbd954bad	-0.07289825
187	0xbe3dfeac	-0.18554181
188	0xbeaca34a	-0.3371833
189	0xbec859fa	-0.39131147
190	0x3ec9b45e	0.39395422
191	0x3d3c6c36	0.046001635
192	0xba89ebcd	-0.0010522545
193	0xbd19126f	-0.037371095
194	0xbe34b725	-0.17647989
195	0x3e38ccc8	0.18046868
196	0xbdfa5dca	-0.1222492
197	0xbd4c3cee	-0.049862795
198	0x3ebff4d6	0.37491482
199	0x3e83192d	0.25605145
200	0xbeda5b55	-0.42647806
201	0x3ea49a99	0.321492
202	0x3eb1f623	0.347581
203	0xbd3387ec	-0.043830797
204	0xbed8611b	-0.42261586
205	0xbec70656	-0.3887202
206	0x3edad05e	0.42737097
207	0x3e3191de	0.173408
208	0x3db171a6	0.08664255
209	0xbee48476	-0.4463231
210	0x3e914131	0.2837005
211	0xbdf04dda	-0.11733599
212	0x3ed3382c	0.41253793
213	0x37298d11	1.010603e-05
214	0xbdc700e5	-0.097169675
215	0x3ecd19bf	0.40058705
216	0x3d416c95	0.047222693
217	0xbd6de7a0	-0.058082223
218	0xbec9cc7a	-0.39413816
219	0xbe151df9	-0.14562215
220	0x3ebd1071	0.36926606
221	0x3e7fe227	0.24988614
222	0xbe7f4720	-0.24929476
223	0xbe662775	-0.22475989
224	0x3e590548	0.21193421
225	0x3d3ba052	0.04580719
226	0x3eb1ffcc	0.3476547
227	0x3e095290	0.13410401
228	0x3e603a18	0.21897161
229	0x3e8b4e33	0.272081
230	0xbdbc8601	-0.09205247
231	0xbe47c42d	-0.19508429
232	0x3c903505	0.017603407
233	0xbe095cf3	-0.13414364
234	0x3e658fc7	0.22418128
235	0xbe571949	-0.2100574
236	0xbeaf7afa	-0.3427351
237	0xbe4457f3	-0.19174175
238	0xbe072fd4	-0.13201839
239	0x3ec598d4	0.3859316
240	0xbd1e5864	-0.038658515
241	0x3ec612b4	0.38686144
242	0x3e420e6b	0.18950813
243	0xbd70cf79	-0.05879161
244	0x3d425d70	0.04745239
245	0xbdc430d3	-0.09579625
246	0x3e93e17f	0.28882977
247	0xbe1c975d	-0.15292116
248	0x3e8a2301	0.2697983
249	0xbe65e21d	-0.22449537
250	0xbe136c2c	-0.14396733
251	0xbe99ccee	-0.3003916
252	0xbe26624e	-0.16248438
253	0xbeb74d02	-0.3580094
254	0xbeb0b21b	-0.34510884
255	0xbea0d27a	-0.3141058

layers.0.Ah.conv1.bias f4 [64]
0	0x3eac28a0	0.33624744
1	0xbcfb0104	-0.030640133
2	0x3eaf09bd	0.34187117
3	0xbdac5734	-0.0841507
4	0xbce32cca	-0.027731318
5	0x3eddba7c	0.4330634
6	0x3bf5c5c4	0.007500382
7	0x3ee26c1f	0.44223115
8	0xbdded90c	-0.10881242
9	0xbd94d0b2	-0.07266368
10	0x3d81429d	0.063115336
11	0x3ebf6c08	0.3738711
12	0x3e56ae41	0.2096491
13	0x3e82e0ba	0.25562078
14	0x3e357501	0.17720415
15	0x3e8088a7	0.25104257
16	0xbe803929	-0.2504361
17	0x3e2f43e0	0.17115736
18	0xbdeea7e9	-0.1165312
19	0xbd12bbcb	-0.035823625
20	0x3e6772d3	0.22602396
21	0xbeb7eb62	-0.3592177
22	0xbe11c028	-0.14233458
23	0x3ea6b732	0.32561642
24	0x3eb1532a	0.34633762
25	0xbe8f528d	-0.2799267
26	0x3e93c7e9	0.28863457
27	0xbe45b00c	-0.19305438
28	0xbe77107a	-0.24127379
29	0x3be1f2c9	0.0068953973
30	0x3e1b9cdb	0.15196554
31	0x3e46c3f2	0.19410685
32	0x3e8ed777	0.27898762
33	0x3e72f22e	0.23725197
34	0xbe43af4d	-0.1910984
35	0x3ea3daa5	0.3200275
36	0xbeab7877	-0.33490345
37	0x3b65bc84	0.003505499
38	0x3e246d66	0.16057357
39	0x3e99ab56	0.3001353
40	0x3ebea2f7	0.37233707
41	0x3e6fa2ca	0.23401943
42	0xbd99ce2c	-0.07510027
43	0xbe8018e6	-0.25018996
44	0x3e47bc12	0.19505337
45	0x3e283311	0.1642573
46	0xbe00334e	-0.12519571
47	0xbd22bcc8	-0.039730817
48	0x3ea5503d	0.3228778
49	0xbee1fe56	-0.44139355
50	0x3d1b3fb3	0.037902545
51	0x3e9fec4d	0.3123497
52	0xbdeafcba	-0.11473985
53	0xbe51d54e	-0.20491526
54	0xbec97f8e	-0.3935513
55	0x3e898602	0.26860052
56	0xbe2f25a2	-0.171042
57	0xbe064719	-0.13113059
58	0xbe73e476	-0.2381762
59	0xbeb7dd8f	-0.35911223
60	0xbeb0e61c	-0.3455056
61	0x3de749f3	0.112934016
62	0xbe0beb3b	-0.13663952
63	0x3dca504f	0.09878599

layers.0.Ah.conv2.weight f4 [32, 64, 3]
0	0xbd9145a1	-0.07093359
1	0xbd86f6ad	-0.065900184
2	0xbd85de8c	-0.06536588
3	0x3cbd0445	0.023073325
4	0x3d00ff7c	0.03149365
5	0xbd83066f	-0.063977115
6	0x3d81af33	0.06332245
7	0xbce3f262	-0.027825538
8	0x3ce667f9	0.02812575
9	0x3a98d304	0.0011659567
10	0x3d4face9	0.05070201
11	0xbd1ac14e	-0.037782006
12	0xbd4749e1	-0.04865444
13	0xbcfe165d	-0.031016523
14	0xbc2ba2df	-0.010475843
15	0xbd6f9969	-0.058495913
16	0x3d50af07	0.05094817
17	0x3d423bb4	0.04742022
18	0xbd23a953	-0.039956402
19	0x3c82550a	0.01590969
20	0x3d6a0ba4	0.057140008
21	0xbcee14be	-0.029062625
22	0x3d7eb641	0.06218553
23	0xbd45b39b	-0.04826699
24	0xbd3acb2f	-0.045603927
25	0x3c9e3716	0.019313376
26	0xb96a79fd	-0.00022361423
27	0x3d7c7638	0.06163618
28	0xbcb01320	-0.021493495
29	0xbcba2bf1	-0.022726031
30	0xbd5463e0	-0.05185306
31	0x3d06a2e3	0.032870185
32	0xbd575b4d	-0.052577306
33	0x3caf8b99	0.02142887
34	0xbd2846a6	-0.041083
35	0xbd132f7f	-0.035933968
36	0xbd61f383	-0.05516387
37	0xbd5660e7	-0.052338507
38	0xbc1a3e00	-0.009414196
39	0xbc4d7782	-0.0125407
40	0xbd5a754d	-0.053334523
41	0x3d2c7ee1	0.04211319
42	0x3ce5c2a3	0.028046912
43	0x3d5cba29	0.053888474
44	0x3d8b7ea7	0.068112664
45	0x3d8d481c	0.068985194
46	0x3cc2ebfb	0.023794165
47	0xbcf26753	-0.029590284
48	0x3c88de1d	0.016707474
49	0xbd2012d1	-0.039080445
50	0x3d457fee	0.048217706
51	0x3ce6595d	0.028118784
52	0xbd22e574	-0.039769605
53	0x3d05f2b1	0.03270215
54	0x3d80cd22	0.06289126
55	0xbd80a487	-0.06281381
56	0xbd1147bc	-0.0354688
57	0xbc92845d	-0.017885381
58	0xbd30568a	-0.04305128
59	0xbbaeb161	-0.005331204
60	0x3be34410	0.006935604
61	0x3d41df7d	0.047332276
62	0x3d7ea242	0.06216646
63	0xbce809e8	-0.028325036
64	0x3d7399af	0.059472736
65	0x3d552603	0.052038204
66	0x3cb1fc26	0.021726679
67	0xbcfeee00	-0.031119347
68	0xbd7f310d	-0.062302638
69	0xbd59f4d2	-0.053211994
70	0x3c54b2d0	0.012982085
71	0x3c1a85ef	0.009431346
72	0xbcf12261	-0.029435338
73	0x3d1e32a6	0.03862252
74	0xbd586693	-0.052832197
75	0x3d50a019	0.05093393
76	0xbc14b651	-0.009076671
77	0xbd1836be	-0.03716158
78	0x3d4884d9	0.04895482
79	0xbd224aa1	-0.039621953
80	0xb9f22ce1	-0.00046191274
81	0x3b8d80f1	0.0043183495
82	0x3cd6f3a0	0.026239216
83	0x3c6878d5	0.014188965
84	0xbd52db66	-0.051478766
85	0x3d8c01e8	0.06836301
86	0xbd17bcf2	-0.037045427
87	0xbd8b3b44	-0.067984134
88	0x3d03d424	0.032184735
89	0x3d7ba3d9	0.061435554
90	0x3cc31461	0.023813428
91	0x3d4f802d	0.050659347
92	0xbd60b6f6	-0.054861985
93	0xbd7ccd46	-0.0617192
94	0xbd5cad42	-0.05387617
95	0xbd3c55ae	-0.045980148
96	0xbccc6a09	-0.024952905
97	0x3cfdaf86	0.030967485
98	0xbd5cfb6e	-0.05395072
99	0x3c8bde2e	0.017073717
100	0x3d50868e	0.05090957
101	0xbd8c949f	-0.06864285
102	0xbd034f18	-0.03205785
103	0xbd116990	-0.035501063
104	0x3d373a6c	0.04473345
105	0x3d86a84a	0.06575067
106	0x3d857ed2	0.0651833
107	0xbd22ea28	-0.03977409
108	0x3d34d0e2	0.04414452
109	0x3ca6ed32	0.020376775
110	0x3c7e325c	0.015514936
111	0x3d1a6ec2	0.037703283
112	0x3ca987d7	0.020694656
113	0xbd357037	-0.04429647
114	0xbd8506ce	-0.064954385
115	0x3d5f8523	0.05457033
116	0x3d185381	0.03718901
117	0x3c964e36	0.01834784
118	0xbcf15150	-0.029457718
119	0xbc322b91	-0.010874645
120	0xbc96aca2	-0.018392865
121	0x3c48b08c	0.012249123
122	0xbc855ab9	-0.016278611
123	0xbb11ccc4	-0.0022247294
124	0xbbbf4d9f	-0.0058381106
125	0xbd3310f5	-0.043717343
126	0x3ca11c03	0.019666677
127	0x3cea33ba	0.028589118
128	0x3d0adf28	0.033904225
129	0x3d8352e4	0.064122945
130	0xbcedea6a	-0.029042441
131	0xbc46af9e	-0.012126831
132	0x3cd3267a	0.025775183
133	0xbd163093	-0.036667418
134	0xbd7d4739	-0.0618355
135	0x3d3ae535	0.045628745
136	0xbd81c302	-0.06336023
137	0x3bc62196	0.006046484
138	0x3cfb8ea2	0.030707661
139	0x3cd334b5	0.025781969
140	0xbb1ed5d0	-0.002423633
141	0x3d35a712	0.044348784
142	0x3cd68695	0.02618722
143	0xbd3176c2	-0.043326147
144	0x3c518e71	0.012790308
145	0x3d4ea59f	0.050450917
146	0xbd095797	-0.033530798
147	0xbd28accd	-0.04118042
148	0xbd03b41a	-0.03215418
149	0xbc96a824	-0.018390723
150	0x3d24c522	0.040227063
151	0xb9d66816	-0.0004089481
152	0x3a95ba54	0.0011423328
153	0xbd67457a	-0.056462742
154	0xbc5e8735	-0.013582041
155	0x3d211c18	0.039333433
156	0x3d4e68ae	0.0503928
157	0xbd56228d	-0.052279044
158	0xbd74a484	-0.059727207
159	0x3d8f0122	0.06982638
160	0x3d0dd59a	0.034627534
161	0xbd5865d0	-0.05283147
162	0xbd430f20	-0.047621846
163	0xbd68c19d	-0.05682527
164	0xbd8ea6e9	-0.06965429
165	0xbd391e8d	-0.04519515
166	0xbadc45be	-0.0016805453
167	0x3d05f92b	0.03270833
168	0x3d8ef2be	0.06979893
169	0x3ccc91c3	0.024971848
170	0x3d939215	0.07205597
171	0xbd70fac0	-0.058832884
172	0xbd6f5311	-0.058428828
173	0x3d6c8993	0.05774839
174	0x3d4941b1	0.049134914
175	0x3d11cf07	0.035597827
176	0x3b477d70	0.0030439757
177	0xbd39bf66	-0.045348547
178	0x3c9f67d6	0.019458693
179	0xbc972a3b	-0.018452754
180	0x3bbc9b1d	0.0057557956
181	0x3d2758e5	0.04085626
182	0xbcc9e28d	-0.02464416
183	0xbd806eb7	-0.06271117
184	0xbca56d2b	-0.020193657
185	0x3d2c51bb	0.04207013
186	0x3cc6b952	0.02425829
187	0x3d8437da	0.06455965
188	0xbcc56af4	-0.02409885
189	0x3d8353ca	0.06412466
190	0xbca16e1f	-0.01970583
191	0xbd03a970	-0.03214401
192	0xbd11148a	-0.03541998
193	0x3d08971c	0.033347234
194	0x3c2e8fd7	0.010654411
195	0x3d69afaf	0.05705231
196	0xbd809f08	-0.06280333
197	0x3d133077	0.03593489
198	0x3d12f236	0.03587552
199	0x3c4eb4b3	0.012616324
200	0x3d662424	0.05618681
201	0xbc2e2d83	-0.010630968
202	0x3c9be54c	0.019030236
203	0xbce746c3	-0.028231984
204	0x3d8ece88	0.069729865
205	0x3c9ed901	0.019390585
206	0x3d4e6768	0.050391585
207	0x3c65c8c2	0.014024915
208	0x3d7a4f7f	0.06111097
209	0xbd1d4f99	-0.03840599
210	0xbd33d642	-0.043905504
211	0xbcc0e9f0	-0.02354905
212	0xbcb74195	-0.02237014
213	0x3d461d75	0.048367936
214	0x3d7076f7	0.058707204
215	0x3c713f4a	0.014724562
216	0xbd3557ab	-0.04427306
217	0xbd1c40da	-0.038147785
218	0x3d899f0c	0.06719789
219	0x3d304f1a	0.043044187
220	0xbd02006f	-0.031738695
221	0x3d486fe9	0.04893485
222	0xbd68ef16	-0.056868635
223	0x3d8ec691	0.06971467
224	0xbd88528b	-0.06656369
225	0x3cad63a6	0.02116568
226	0xbc2c82fa	-0.010529274
227	0x3d13beaa	0.036070503
228	0x3cbfe291	0.023423465
229	0xbcb39776	-0.021922808
230	0xbd8b1eeb	-0.067930065
231	0x3d280143	0.04101683
232	0x3bbd3975	0.0057746717
233	0xbd11166e	-0.03542178
234	0xbd5713ad	-0.052509
235	0x3bf3b7dd	0.0074376897
236	0xbcb798d4	-0.022411741
237	0x3d1d353c	0.038380846
238	0xbd7e9b6b	-0.062159937
239	0xbce82123	-0.028336113
240	0x3d6a09e6	0.057138346
241	0xbcaede87	-0.021346344
242	0x3d5d4b8d	0.05402713
243	0x3d91942e	0.07108341
244	0x3ce9bd8d	0.028532768
245	0x3bc3a39e	0.0059704324
246	0xbd2f4a65	-0.042795558
247	0x3d70a99e	0.05875551
248	0x3ca38998	0.01996307
249	0xbd640f10	-0.055678427
250	0xbd0f8539	-0.03503916
251	0x3c8fe476	0.017564993
252	0x3d76c116	0.060242735
253	0xbd902e4c	-0.070400804
254	0x3cf61a06	0.030041706
255	0xbcab2c38	-0.020895109

layers.0.Ah.conv2.bias f4 [32]
0	0x3b66f28e	0.0035239789
1	0x3a4b8217	0.00077632203
2	0xbc877059	-0.016533064
3	0x3d43624c	0.047701165
4	0x3d576cfa	0.052594163
5	0x3d3d58c0	0.046227217
6	0xbd824fa1	-0.06362844
7	0x3d494a10	0.049142897
8	0xbd215b5e	-0.039393775
9	0xbd1d2bb0	-0.03837174
10	0xbd424add	-0.047434676
11	0xbbe6ca2f	-0.007043145
12	0x3bd506ac	0.0065010395
13	0x3d533c86	0.05157139
14	0xbd87d3e1	-0.066322096
15	0xbcc4b5b7	-0.02401243
16	0x3d3bd977	0.045861688
17	0x3d5071f6	0.05088993
18	0x3d7a412e	0.061097316
19	0xbc8e1b98	-0.017347142
20	0x3cbbe9bf	0.022938607
21	0x3cd0c651	0.02548519
22	0x3ce11db4	0.027479984
23	0x3d7dc293	0.06195314
24	0xbd68c9f1	-0.05683321
25	0xbd0a7231	-0.033800308
26	0x3ccab3e3	0.02474398
27	0xbb8d49bf	-0.0043117697
28	0x3b0dafe9	0.0021619743
29	0xbd92620f	-0.071476094
30	0x3d61b309	0.05510238
31	0x3d675810	0.056480467

layers.0.Ah.conv3.weight f4 [1, 32, 3]
0	0xbcff6ca4	-0.031179734
1	0xbd84a4cc	-0.06476745
2	0x3d0360a8	0.0320746
3	0x3d1faa44	0.038980737
4	0x3d816b7c	0.06319329
5	0x3cc29cab	0.023756346
6	0xbdb7f47c	-0.089821786
7	0x3d135b6a	0.03597585
8	0x3db1a158	0.08673352
9	0x3d26b322	0.040698178
10	0xbb571f26	-0.0032824962
11	0x3d5a43ae	0.0532872
12	0xbd74c2e2	-0.059756167
13	0x3ca86815	0.020557443
14	0xbcae5e63	-0.021285241
15	0xbd03602e	-0.032074146
16	0x3d150357	0.03638014
17	0xbc0644f1	-0.008195148
18	0xbcf13a83	-0.029446846
19	0xbda76a8e	-0.081746206
20	0xbd998681	-0.07496358
21	0x3d17c97b	0.03705738
22	0xbd5e84a6	-0.054325722
23	0x3d006cb4	0.031353667
24	0x3c953cbc	0.018217437
25	0xbc35463e	-0.01106411
26	0xbcd3f019	-0.025871323
27	0xbae64541	-0.0017568247
28	0xbc8f1683	-0.01746679
29	0x3dc333a9	0.09531338
30	0x3d254508	0.040349036
31	0x3c30c10b	0.0107882125
32	0xbdac30d8	-0.08407754
33	0x3db8fd09	0.090326376
34	0xbd2d1be6	-0.042262934
35	0x3d8d3482	0.06894781
36	0xbdc95d83	-0.09832289
37	0xbb92cfe6	-0.00448035
38	0xbdb8f8bb	-0.090318166
39	0xbdb079ae	-0.086169586
40	0xbdc78ece	-0.09744035
41	0x3d7e1286	0.062029384
42	0xbda71ba8	-0.08159572
43	0x3d455e4c	0.04818563
44	0x3db0a941	0.086260326
45	0x3d49f5bd	0.04930662
46	0x3d9f23ca	0.07770498
47	0xbd274063	-0.04083289
48	0xbcf686de	-0.030093607
49	0x3d46c6e8	0.048529536
50	0x3c9733d5	0.018457333
51	0xbd753c35	-0.05987187
52	0xbd93e80b	-0.07221993
53	0x3c4e0939	0.012575441
54	0x3ce068b9	0.027393686
55	0xbd1e65f6	-0.038671456
56	0xbcf450e7	-0.029823733
57	0x3d8bef8d	0.068328
58	0x3db45ca0	0.08806729
59	0x3d58fda0	0.05297625
60	0xbd691141	-0.05690122
61	0xbd7f2d19	-0.062298868
62	0xbd61b68b	-0.055105727
63	0x3d415038	0.047195643
64	0xbdb96d09	-0.09054
65	0xbda894a3	-0.08231475
66	0xbcef8d40	-0.029242158
67	0xbd36ce60	-0.04463041
68	0x3d62c9d2	0.055368252
69	0xbd1b38be	-0.03789591
70	0xbbdd98f6	-0.006762619
71	0xbd374ce9	-0.04475108
72	0x3cfbe1fa	0.030747402
73	0x3d79236b	0.060824793
74	0x3d888c01	0.066673286
75	0x3cae26aa	0.02125867
76	0x3c25d8eb	0.010122518
77	0x3da2f785	0.07957367
78	0x3db5a7d5	0.08869902
79	0xbd19a66b	-0.037512224
80	0x3d8617e4	0.065475255
81	0xbc8000ca	-0.015625376
82	0xbd3aa38f	-0.045566138
83	0x3cd93c88	0.026518121
84	0x3c855b61	0.016278924
85	0xbc4abfa4	-0.012374792
86	0x3d8760a6	0.06610231
87	0xbd7772a2	-0.060412057
88	0x3d6c93f9	0.057758305
89	0x3d87adf6	0.06624977
90	0x3b8ba522	0.0042616287
91	0x3d87144e	0.0659567
92	0x3daf8dde	0.08571981
93	0x3d4a0fb6	0.04933139
94	0xbda8d6c4	-0.08244088
95	0x3d84e271	0.06488503

layers.0.Ah.bn1.weight f4 [64]
0	0x3f8017d4	1.0007272
1	0x3f80180e	1.0007341
2	0x3f7fc9e3	0.9991743
3	0x3f7ff37b	0.99980897
4	0x3f7fd5a1	0.99935347
5	0x3f7fef57	0.9997458
6	0x3f801448	1.0006189
7	0x3f80155f	1.0006522
8	0x3f7ff73e	0.99986637
9	0x3f7fcf0e	0.99925315
10	0x3f8010cc	1.0005126
11	0x3f7fd329	0.9993158
12	0x3f7fe95d	0.9996546
13	0x3f7ff0a8	0.9997659
14	0x3f7fda1d	0.9994219
15	0x3f7fe0bb	0.99952286
16	0x3f7fd1cf	0.9992952
17	0x3f7fd5c3	0.9993555
18	0x3f7fedf9	0.9997249
19	0x3f7fd2f4	0.99931264
20	0x3f7ff665	0.99985343
21	0x3f8016ab	1.0006918
22	0x3f8017f7	1.0007313
23	0x3f7fd098	0.99927664
24	0x3f7fccf8	0.9992213
25	0x3f7fec32	0.9996978
26	0x3f7fcbf4	0.9992058
27	0x3f801317	1.0005826
28	0x3f7fed67	0.9997162
29	0x3f7fd619	0.9993606
30	0x3f7fda2f	0.99942297
31	0x3f800d41	1.0004045
32	0x3f7fdb29	0.99943787
33	0x3f8014a0	1.0006294
34	0x3f7fd503	0.99934405
35	0x3f80150f	1.0006427
36	0x3f7fd22d	0.9993008
37	0x3f80050a	1.0001538
38	0x3f7fd164	0.9992888
39	0x3f80181e	1.000736
40	0x3f801be2	1.0008509
41	0x3f7fce13	0.9992382
42	0x3f80072a	1.0002186
43	0x3f801723	1.0007061
44	0x3f7fdce2	0.99946415
45	0x3f7ff33e	0.99980533
46	0x3f80155b	1.0006517
47	0x3f801854	1.0007424
48	0x3f8017ac	1.0007224
49	0x3f801194	1.0005364
50	0x3f7fd42b	0.9993312
51	0x3f800163	1.0000423
52	0x3f7fdb26	0.9994377
53	0x3f8001bf	1.0000533
54	0x3f7fdf0e	0.9994973
55	0x3f8018eb	1.0007604
56	0x3f8018d5	1.0007578
57	0x3f801697	1.0006894
58	0x3f801930	1.0007687
59	0x3f801914	1.0007653
60	0x3f7fddfb	0.9994809
61	0x3f7fcaf7	0.99919075
62	0x3f8013c2	1.000603
63	0x3f8017d7	1.0007275
