models/RALMU.pt (torch, 100691 bytes, 520 tensors)

layers.0.Aw.conv1.weight f4 [16, 1, 5]
0.46981996 -0.10697684 -0.35924348 0.36261636 -0.25031298 0.23964114 -0.05166177 -0.23539531
-0.07611917 -0.107246995 0.059946243 -0.2223442 0.08495312 0.33906692 -0.45137691 0.06351004
0.23957212 -0.21734077 0.17144045 0.0315253 -0.22695985 -0.42418283 0.39973584 -0.4133916
0.14562346 0.13602158 -0.2575875 -0.08721481 0.14230484 -0.035604235 0.08107548 0.18422863
-0.31750584 -0.30594626 -0.46098724 0.049264368 -0.39757246 0.21185018 0.17770833 0.07375789
0.072529614 0.1652359 0.40506035 0.016616115 0.41448176 0.3181 0.039414596 -0.12516053
0.016129619 -0.034974363 0.20866078 -0.46585122 0.25236127 0.13300003 -0.05244059 0.17574339
-0.3143432 0.30687273 0.10358529 -0.023368249 -0.14403613 0.31678712 0.46181077 0.049538087
-0.13331127 0.18676572 0.15488155 -0.34878024 -0.4075559 0.36543438 0.023656499 0.036977164
0.3848905 -0.42910182 -0.13283184 0.2426411 0.09835859 -0.30978963 -0.0013850604 0.37946847
00000000: 3e8c f03e ac16 dbbd c3ee b7be daa8 b93e
00000010: 0629 80be 7d64 753e 4b9b 53bd 780b 71be
00000020: 5ee4 9bbd 50a4 dbbd 318a 753d 33ae 63be
00000030: e7fb ad3d 2e9a ad3e e01a e7be 8d11 823d
00000040: 6552 753e 948e 5ebe 168e 2f3e ac20 013d
00000050: 2a68 68be 7e2e d9be 2daa cc3e 10a8 d3be
00000060: 511e 153e 3e49 0b3e 82e2 83be ae9d b2bd
00000070: 5cb8 113e bfd5 11bd e70a a63d 6ea6 3c3e
00000080: 2090 a2be fda4 9cbe 8506 ecbe 6fc9 493d
00000090: 9e8e cbbe 41ef 583e 2cf9 353e 600e 973d
000000a0: 688a 943d 9a33 293e 1264 cf3e 851e 883c
000000b0: f436 d43e 01de a23e 3371 213d 152a 00be
000000c0: 4322 843c 4741 0fbd 2cab 553e 0d84 eebe
000000d0: 7f35 813e 2931 083e f2cb 56bd 13f6 333e
000000e0: 98f1 a0be 6c1e 9d3e 8624 d43d c56e bfbc
000000f0: 357e 13be ec31 a23e 7672 ec3e 73e8 4a3d
00000100: c082 08be 833f 3f3e 4599 1e3e 5393 b2be
00000110: 2bab d0be 371a bb3e 46cb c13c 5e75 173d
00000120: 5e10 c53e 3cb3 dbbe 1205 08be e976 783e
00000130: 3a70 c93d bf9c 9ebe ea8a b5ba b149 c23e

layers.0.Aw.conv1.bias f4 [16]
-0.4348035 -0.2553775 0.1409932 -0.39727214 0.44218972 0.2338063 0.29744998 0.3019689
-0.024050873 0.19705752 0.058288533 0.32843956 0.012579209 -0.06120241 -0.07838136 0.16920818
00000000: 909e debe d7c0 82be 8560 103e 4167 cbbe
00000010: b166 e23e eb6a 6f3e 5d4b 983e ab9b 9a3e
00000020: 5606 c5bc 72c9 493e f5bf 6e3d 3b29 a83e
00000030: 0719 4e3c 61af 7abd 6886 a0bd e944 2d3e

layers.0.Aw.conv2.weight f4 [8, 16, 3]
-0.09135929 0.13650285 -0.10168837 -0.08272972 -0.10250582 -0.023013517 -0.008783813 0.08431616
0.006052982 0.13782601 0.039811514 -0.0014975215 -0.02601715 -0.081236474 -0.025823256 -0.037057515
-0.0072377115 0.045619994 -0.08056883 0.07659034 -0.0017453927 0.052099258 -0.018185738 0.07776944
-0.034610216 0.11325907 0.0850451 -0.08522917 -0.037818283 0.048582137 -0.10268202 -0.03566194
-0.06142276 0.121973164 6.858283e-05 0.1826663 -0.11606087 -0.14385436 0.15348876 -0.04285202
0.15937673 -0.068374686 0.049439758 0.08011184 -0.023372913 -0.036924947 0.045928348 0.14184952
0.10571597 -0.064568885 -0.0081021255 -0.062209956 -0.0029811652 -0.07614333 -0.07404331 0.1264525
-0.07978553 -0.015758906 0.031486917 0.17815931 0.05018868 0.13099582 0.08603143 0.12549584
-0.023647178 0.083228305 0.009160463 -0.09210722 -0.08857541 0.18289582 -0.03672955 -0.008020248
0.084874034 -0.030144654 -0.005313034 0.043766033 0.00906083 0.18307054 -0.09864293 0.010015639
-0.08623992 0.008751746 0.1552364 -0.06580279 0.042500846 0.14921428 0.16432446 0.13125151
0.11307999 -0.07020338 -0.045065217 0.081611164 0.04200902 -0.09070694 -0.025855334 -0.0920623
0.12038001 -0.17061965 -0.17524019 0.15702876 -0.10072746 0.041721262 -0.043160703 -0.07000415
-0.14394777 -0.00068589684 -0.09035863 -0.003723761 -0.03046572 0.100565925 0.03647092 -0.019365387
0.1405215 -0.15363376 0.011221755 0.034798626 -0.08339938 -0.060626093 0.16030279 0.002957139
-0.09074894 -0.05670272 -0.14091343 0.06461654 0.018729247 0.062356886 -0.044694673 0.09513127
-0.014663683 0.014170179 0.15425049 0.025656596 0.012943649 0.059851017 0.08756061 0.04129163
-0.044918686 -0.051165294 -0.004285818 0.09149494 0.057596974 0.17793465 0.07075665 -0.078198574
-0.13077839 0.001283659 0.16502653 -0.024001835 -0.09253228 0.067175254 -0.11494289 -0.024936603
-0.014504241 -0.15954019 -0.0129031055 -0.13158745 0.052148607 0.076199934 0.10246929 -0.10061589
-0.054904114 -0.06680852 -0.024564395 0.11870705 0.08699422 -0.046366155 0.040663853 -0.015135749
-0.10990563 -0.16062187 -0.027464377 -0.054841425 -0.1439003 -0.086535804 0.065591484 -0.11013764
0.10317932 -0.012629701 -0.13172218 0.12769721 0.029308522 0.15067664 0.023486348 -0.1300928
-0.09138694 -0.029836506 0.022784052 -0.17923714 0.109974414 0.05230879 0.061585423 0.09559407
0.09744839 -0.06745957 0.03378186 -0.07075741 -0.078111485 0.13908312 0.15257466 0.08391585
0.0091714775 0.14313048 0.1692041 0.17927578 0.1383246 0.0789314 0.06826609 0.12757953
0.16258833 -0.03588206 -0.07272823 0.10410933 0.07373789 0.0041387947 0.015879778 0.056381013
0.03797579 -0.013464537 0.04739146 -0.1622009 -0.058002982 0.14597389 -0.07962824 -0.0592699
0.03487226 0.047467496 0.0142573295 -0.16177697 0.16318142 0.021623299 -0.05359743 -0.06381833
0.10093035 -0.12620436 -0.04239849 0.10902054 0.01691082 0.07730025 0.010800272 0.090763755
0.029801514 -0.07657646 -0.17846219 0.011442131 -0.15733504 -0.08206416 -0.124434076 0.040782582
0.10060958 -0.030454718 0.023555724 -0.004992656 -0.14865994 0.061248276 -0.08993127 0.122320056
00000000: 941a bbbd 67c7 0b3e fe41 d0bd 336e a9bd
00000010: 92ee d1bd d886 bcbc fbe9 0fbc f3ad ac3d
00000020: 1858 c63b 4322 0d3e 6611 233d 7c48 c4ba
00000030: eb21 d5bc 4f5f a6bd 4b8b d3bc 9fc9 17bd
00000040: 532a edbb 08dc 3a3d 4501 a5bd 65db 9c3d
00000050: a9c5 e4ba 0866 553d 42fa 94bc 9645 9f3d
00000060: 71c3 0dbd 5ff4 e73d 202c ae3d a28c aebd
00000070: 58e7 1abd 10fe 463d f34a d2bd 4112 12bd
00000080: 6f96 7bbd 11cd f93d 20d4 8f38 e00c 3b3e
00000090: 52b1 edbd 8f4e 13be 282c 1d3e 9a85 2fbd
000000a0: a733 233e 0708 8cbd 5881 4a3d ad11 a43d
000000b0: 8d78 bfbc 9d3e 17bd 5d1f 3c3d 0041 113e
000000c0: 9d81 d83d b13c 84bd c7be 04bc decf 7ebd
000000d0: a75f 43bb 09f1 9bbd 05a4 97bd c47c 013e
000000e0: 9966 a3bd d218 81bc 6df8 003d 656f 363e
000000f0: a592 4d3d c523 063e 3f31 b03d fb81 003e
00000100: bab7 c1bc 9a73 aa3d c415 163c b6a2 bcbd
00000110: 0667 b5bd 0b49 3b3e ba71 16bd 5c67 03bc
00000120: 70d2 ad3d ecf1 f6bc f618 aebb 0344 333d
00000130: e073 143c d876 3b3e 4e05 cabd a218 243c
00000140: 8e9e b0bd 7c63 0f3c 4af6 1e3e 9dc3 86bd
00000150: 5e15 2e3d a1cb 183e ac44 283e cc66 063e
00000160: 7b96 e73d cac6 8fbd 4e96 38bd c123 a73d
00000170: a611 2c3d 8fc4 b9bd 91ce d3bc 298b bcbd
00000180: cb89 f63d ebb6 2ebe 2a72 33be 26cc 203e
00000190: 334a cebd eae3 2a3d 47c9 30bd 565e 8fbd
000001a0: 0b67 13be c2cd 33ba f20d b9bd 580a 74bb
000001b0: 3f93 f9bc 82f5 cd3d 8862 153d 29a4 9ebc
000001c0: dee4 0f3e 2b52 1dbe 74db 373c 0189 0e3d
000001d0: 4bcd aabd 1153 78bd 6a26 243e 8fcc 413b
000001e0: 95da b9bd 1c41 68bd 9c4b 10be ad55 843d
000001f0: 146e 993c ef69 7f3d c311 37bd 2fd4 c23d
00000200: f23f 70bc 0a2a 683c d7f3 1d3e c82d d23c
00000210: 9911 543c 5726 753d fa52 b33d 6a21 293d
00000220: a8fc 37bd b392 51bd 0c70 8cbb b361 bb3d
00000230: ceea 6b3d 8034 363e dde8 903d 9326 a0bd
00000240: c5ea 05be 7340 a83a b7fc 283e 7f9f c4bc
00000250: 9081 bdbd 2e93 893d 2e67 ebbd d947 ccbc
00000260: 32a3 6dbc 815e 23be 8c67 53bc dcbe 06be
00000270: c799 553d b60e 9c3d 6bdb d13d b40f cebd
00000280: 23e3 60bd e8d2 88bd 453b c9bc af1c f33d
00000290: 072a b23d 70ea 3dbd 248f 263d effb 77bc
000002a0: 3416 e1bd 0f7a 24be f9fc e0bc 67a1 60bd
000002b0: 9a5a 13be af39 b1bd d454 863d d88f e1bd
000002c0: ae4f d33d ceec 4ebc 2ee2 06be 0fc3 023e
000002d0: 6d18 f03c fa4a 1a3e 7166 c03c 0c37 05be
000002e0: 1329 bbbd b06b f4bc 9fa5 ba3c f189 37be
000002f0: 443a e13d be41 563d ff40 7c3d d3c6 c33d
00000300: 0693 c73d 3e28 8abd d95e 0a3d 43e9 90bd
00000310: eaf8 9fbd ce6b 0e3e 883c 1c3e 13dc ab3d
00000320: f743 163c cc90 123e d743 2d3e 1294 373e
00000330: f7a4 0d3e c9a6 a13d 17cf 8b3d 35a4 023e
00000340: 8e7d 263e 11f9 12bd 8af2 94bd 4637 d53d
00000350: e403 973d ba9e 873b 4f16 823c c7ef 663d
00000360: 818c 1b3d 5d9a 5cbc 8c1d 423d fe17 26be
00000370: 8994 6dbd 2e7a 153e 2114 a3bd ffc4 72bd
00000380: 37d6 0e3d 476d 423d 9397 693c dda8 25be
00000390: 0819 273e 5823 b13c fb88 5bbd 2fb3 82bd
000003a0: 92b4 ce3d b73b 01be 0aaa 2dbd 2946 df3d
000003b0: 8f88 8a3c 984f 9e3d a0f3 303c 59e2 b93d
000003c0: 4e22 f43c 1ed4 9cbd cbbe 36be c777 3b3c
000003d0: 701c 21be 4111 a8bd 4bd7 febd a30b 273d
000003e0: 650c ce3d 2c7c f9bc eff7 c03c 6f99 a3bb
000003f0: 503a 18be 79df 7a3d e32d b8bd f082 fa3d

layers.0.Aw.conv2.bias f4 [8]
0.07066744 -0.110418506 -0.11186635 -0.15786046 -0.020313825 0.06832679 -0.06436207 -0.13394047
00000000: 17ba 903d 1923 e2bd 2f1a e5bd 2ca6 21be
00000010: 2e69 a6bc ebee 8b3d 43d0 83bd b127 09be

layers.0.Aw.conv3.weight f4 [1, 8, 3]
0.1475067 -0.01682001 0.026416574 0.20211759 -0.019371124 0.15740295 -0.038913276 0.07412178
-0.10067481 0.019131022 0.015438346 0.0913481 0.04242572 0.18128292 0.08300923 0.01563505
-0.14804746 -0.02367729 0.2386386 -0.09480263 0.120690554 -0.11219364 0.0024054334 -0.088796645
00000000: ff0b 173e 1eca 89bc 9267 d83c eaf7 4e3e
00000010: 31b0 9ebc 3d2e 213e 8763 1fbd 29cd 973d
00000020: 982e cebd a9b8 9c3c 1ef1 7c3c b614 bb3d
00000030: 97c6 2d3d 3ba2 393e be00 aa3d 1415 803c
00000040: c199 17be e0f6 c1bc ad5d 743e e227 c2bd
00000050: 9c2c f73d c7c5 e5bd 7aa4 1d3b 04db b5bd

layers.0.Aw.bn1.weight f4 [16]
1.0395793 1.0303326 0.95940167 1.0345248 0.98128396 0.95725965 0.95764256 1.0231748
0.95776916 0.97807455 0.95704466 1.0417771 1.0422548 0.9632073 0.9742147 0.9551481
00000000: ef10 853f f0e1 833f 599b 753f 4f6b 843f
00000010: 6d35 7b3f f80e 753f 1028 753f 64f7 823f
00000020: 5c30 753f 1863 7a3f e100 753f f458 853f
00000030: 9b68 853f c194 763f 2266 793f 9684 743f

layers.0.Aw.bn1.bias f4 [16]
0.04731814 0.0071806605 0.040778205 -0.015822157 -0.035790402 0.04482665 -0.042027943 -0.025751514
-0.035733495 -0.03262449 0.04470876 -0.04331223 0.04320518 -0.044375826 0.006171948 -0.039519347
00000000: aad0 413d bf4b eb3b 0c07 273d 789d 81bc
00000010: f598 12bd 269c 373d 7e25 2cbd d7f4 d2bc
00000020: 495d 12bd 42a1 05bd 8820 373d 2a68 31bd
00000030: eaf7 303d 6dc3 35bd 0d3e ca3b 0adf 21bd

layers.0.Aw.bn1.running_mean f4 [16]
2.8683567 -6.890653 -5.314004 7.9177246 -14.488444 -2.6662993 -23.194489 3.4423761
31.174498 6.3353333 2.590727 7.3135905 16.218508 -1.5881736 -3.2608962 12.349484
00000000: 2893 3740 3b80 dcc0 520c aac0 005e fd40
00000010: abd0 67c1 a6a4 2ac0 508e b9c1 e44f 5c40
00000020: 5f65 f941 0dbb ca40 79ce 2540 ef08 ea40
00000030: 81bf 8141 4649 cbbf 86b2 50c0 7d97 4541

layers.0.Aw.bn1.running_var f4 [16]
629022.2 455973.2 409369.0 165727.14 702019.06 172945.9 2.1172415e+06 467661.2
1.6535094e+06 332848.44 271698.3 231141.28 1.3930474e+06 1.0397238e+06 617640.7 701115.5
00000000: e391 1949 a6a4 de48 20e3 c748 c9d7 2148
00000010: 3164 2b49 7ae4 2848 e639 014a a659 e448
00000020: 2bd8 c949 0e86 a248 4aaa 8448 52b9 6148
00000030: bb0c aa49 bdd6 7d49 8bca 1649 b82b 2b49

layers.0.Aw.bn2.weight f4 [8]
0.95335406 1.0379694 0.9594811 0.955848 1.0398653 0.95880973 1.0359851 0.95956594
00000000: 030f 743f 2edc 843f 8ea0 753f 74b2 743f
00000010: 4e1a 853f 8e74 753f 299b 843f 1da6 753f

layers.0.Aw.bn2.bias f4 [8]
-0.041123234 -0.042138778 -0.037273306 -0.04244699 0.036123693 -0.038115565 0.03493247 -0.028119873
00000000: d670 28bd b699 2cbd e5ab 18bd e5dc 2dbd
00000010: 70f6 133d 111f 1cbd 5a15 0f3d a65b e6bc

layers.0.Aw.bn2.running_mean f4 [8]
0.077248745 -0.078673 -0.12165288 -0.19042829 0.03573498 0.021634918 -0.06015518 -0.18078798
00000000: 9734 9e3d 4f1f a1bd 2525 f9bd a2ff 42be
00000010: d85e 123d b63b b13c 4765 76bd 7c20 39be

layers.0.Aw.bn2.running_var f4 [8]
0.29805538 0.5273463 0.32619378 0.42326447 0.6856247 0.5034771 0.25929752 0.6182724
00000000: b79a 983e 2b00 073f df02 a73e 1fb6 d83e
00000010: 1a85 2f3f e0e3 003f a5c2 843e 1a47 1e3f

layers.0.Ah.conv1.weight f4 [16, 1, 5]
0.16654103 0.3542292 -0.30963123 0.14434011 0.11492911 -0.13894606 -0.15282421 0.3967335
-0.021363927 0.35167986 0.33099917 -0.35212654 -0.020316903 0.19496225 -0.122668885 -0.10370581
0.38359842 -0.40913305 0.03202906 0.18916099 0.3700575 0.14763635 0.1446824 0.043237675
0.167216 0.18049058 -0.25618225 0.4452169 -0.2570417 0.28983533 0.2941209 -0.32981837
-0.1742514 0.21669394 -0.37114775 -0.40011498 0.28277108 -0.16829942 -0.3479213 -0.053174004
0.22095497 -0.29373607 0.33825085 -0.123725355 0.3299756 -0.24249165 0.036823165 -0.4697434
0.14866357 -0.39814422 -0.2656347 0.19245616 -0.17971055 -0.05961338 0.016078759 -0.40346932
-0.26769167 0.45829263 -0.02977583 0.4890445 0.12783985 0.20887215 -0.15574796 0.05008279
0.4542372 0.14839928 -0.46108648 -0.09717585 -0.21249047 -0.1317526 0.13839646 -0.30039957
0.011597341 -0.24523462 -0.10851812 0.2911198 0.32304654 -0.25651807 0.43723264 0.11415176
00000000: bb89 2a3e 885d b53e fc87 9ebe e5cd 133e
00000010: f45f eb3d e047 0ebe f37d 1cbe a720 cb3e
00000020: 6703 afbc 620f b43e b978 a93e ee49 b4be
00000030: a26f a6bc 2fa4 473e d339 fbbd b663 d4bd
00000040: 0367 c43e e379 d1be e730 033d 6bb3 413e
00000050: 2d78 bd3e fc2d 173e a027 143e fd19 313d
00000060: ac3a 2b3e 86d2 383e 522a 83be 78f3 e33e
00000070: f89a 83be 4c65 943e 0497 963e f4dd a8be
00000080: f66e 32be 04e5 5d3e 1407 bebe dfdb ccbe
00000090: 5fc7 903e af56 2cbe be22 b2be fccc 59bd
000000a0: 0542 623e 9364 96be 372f ad3e b863 fdbd
000000b0: 90f2 a83e bb4f 78be e3d3 163d 3582 f0be
000000c0: 433b 183e 8fd9 cbbe 4501 88be 3a13 453e
000000d0: 0b06 38be 292d 74bd 9ab7 833c 8893 cebe
000000e0: e20e 89be 55a5 ea3e 71ec f3bc 0a64 fa3e
000000f0: 73e8 023e 95e2 553e 657c 1fbe 9d23 4d3d
00000100: c791 e83e fbf5 173e 8713 ecbe 2204 c7bd
00000110: 1a97 59be 27ea 06be cdb7 0d3e f9cd 99be
00000120: c602 3e3c c91e 7bbe c03e debd a80d 953e
00000130: 5b66 a53e 5656 83be f5dc df3e 66c8 e93d

layers.0.Ah.conv1.bias f4 [16]
-0.037973307 0.37379083 -0.064619325 -0.40791962 0.079295106 -0.3738057 -0.19918497 -0.18370923
0.07459342 0.48043036 0.018015387 0.3842346 -0.21231548 -0.17475629 0.24595147 0.21524753
00000000: e689 1bbd 8361 bf3e 2357 84bd d7da d0be
00000010: 7965 a23d 7663 bfbe 25f7 4bbe 461e 3cbe
00000020: 6fc4 983d f8fa f53e 0195 933c 66ba c43e
00000030: 3b69 59be 50f3 32be b4da 7b3e d969 5c3e

layers.0.Ah.conv2.weight f4 [8, 16, 3]
-0.13430311 0.01567786 -0.121730015 0.072592616 0.028777204 0.114373006 -0.06454739 0.18125404
0.016591927 0.03202583 -0.04390713 -0.10347815 -0.100342356 0.053112417 0.074643835 0.13177437
-0.010255403 0.075090185 -0.100832075 -0.03698805 0.006963181 0.07495527 -0.0033593157 0.16267799
0.05548564 0.091422796 -0.06112367 0.0521392 0.084538974 0.09171944 0.09260808 0.008175718
0.029646674 -0.01524014 -0.13920233 -0.084014565 0.09936167 -0.040478077 -0.030560661 -0.05443058
0.029011223 0.110813215 -0.0067859525 -0.082889244 0.0012179391 0.01589803 0.015389698 -0.09239281
0.097460546 0.029083958 -0.021036582 -0.15588889 0.022486303 -0.058726538 0.069834515 -0.09614278
0.10286459 0.023541301 -0.09849196 0.13651383 -0.16616218 -0.13399634 -0.13416514 0.089938976
0.042514503 0.076426074 -0.050490886 -0.1500249 0.08146422 0.029756982 -0.047903005 -0.10146378
-0.07178106 0.07289348 -0.14068535 0.12768261 -0.039424356 0.07147932 0.06631074 -0.0008715627
0.048841856 -0.025299884 -0.0013641485 0.09107071 -0.124286145 -0.11647211 0.117881656 -0.02554304
-0.11861979 -0.15363082 -0.009093728 0.008216421 -0.13713272 -0.1716911 0.10385588 -0.038456347
-0.037450235 -0.16886093 -0.11801339 0.04012633 0.06040763 -0.16290809 -0.0043477225 -0.08000792
0.06464308 0.037041362 -0.13125777 -0.052484527 -0.046612114 -0.0021339264 -0.034150492 0.034725092
-0.00022012656 -0.083801605 -0.14379439 -0.0052889013 -0.14197527 -0.1314159 -0.095256 0.06511369
-0.1616934 -0.010681086 -0.051403157 -0.07207272 -0.1386346 -0.027900862 -0.16372892 -0.014285051
0.07593588 -0.10250324 -0.06508246 0.11761829 -0.03856632 -0.010348691 -0.17936236 -0.043509137
-0.0958813 -0.023694228 -0.16716376 -0.0968244 -0.04037357 0.043301784 0.09861435 0.0640274
-0.026251791 0.12931773 0.09640132 0.13521102 0.009478733 0.11860366 -0.17340381 0.08185286
0.061103135 -0.17207086 -0.09378235 0.015456671 0.060998183 -0.06248517 -0.03521551 0.17222045
-0.067404784 0.15156956 0.0018185995 0.09094956 0.09212277 0.009728348 0.104316756 -0.04753836
0.088744804 -0.14933462 -0.06596607 -0.11092219 -0.051094707 -0.094555736 0.16593494 0.0871457
-0.03376587 -0.06876136 -0.07517945 0.05461975 -0.01588407 -0.026377944 0.05425532 0.12552652
-0.013003825 -0.06762776 -0.019045668 0.058238458 -0.0040831296 0.013296888 -0.041009698 -0.18526591
0.02562049 -0.07580847 0.15705974 -0.012912095 0.09182929 0.045563407 -0.033374958 -0.12639448
0.06738601 -0.18070953 0.050020635 -0.12273953 -0.046641402 -0.087253645 -0.004098313 -0.020318413
0.087880924 -0.032531902 -0.18503983 -0.0530734 0.003015995 0.020937068 0.035484128 0.07870027
0.0014171933 -0.0162374 -0.111865126 0.15938438 0.09866041 -0.056610566 -0.110696256 -0.04610725
0.013881702 -0.046254747 0.14312017 -0.12544297 -0.091975845 0.18762858 0.06308001 0.15581566
0.15643364 0.033987653 -0.013473608 -0.029759131 0.061014235 0.034879226 0.17702875 0.16136059
0.10518718 -0.06754043 0.16331278 -0.13777176 0.14949323 -0.06787499 0.02477648 0.043642003
-0.1593288 -0.0130693875 0.02418344 -0.032946948 0.047215417 -0.04773357 0.16746233 -0.16103716
00000000: c186 09be db6e 803c 964d f9bd 70ab 943d
00000010: 2cbe eb3c 653c ea3d 6c31 84bd a99a 393e
00000020: cbeb 873c 842d 033d f6d7 33bd 5aec d3bd
00000030: 4b80 cdbd 688c 593d dede 983d dcef 063e
00000040: 4706 28bc e2c8 993d 0c81 cebd c880 17bd
00000050: 652b e43b 2682 993d f727 5cbb 0f95 263e
00000060: e944 633d e03b bb3d d05c 7abd ea8f 553d
00000070: c522 ad3d 67d7 bb3d 4ea9 bd3d 72f3 053c
00000080: 95dd f23c c8b1 79bc 0e8b 0ebe d40f acbd
00000090: 227e cb3d 57cc 25bd 5a5a fabc 9af2 5ebd
000000a0: f2a8 ed3c 0af2 e23d b25c debb d6c1 a9bd
000000b0: 41a3 9f3a 963c 823c 1225 7c3c 7138 bdbd
000000c0: 6599 c73d 7b41 ee3c e954 acbc 56a1 1fbe
000000d0: 3235 b83c 3d8b 70bd 6605 8f3d 81e6 c4bd
000000e0: acaa d23d b0d9 c03c 27b6 c9bd 48ca 0b3e
000000f0: 6b26 2abe 5636 09be 9662 09be ed31 b83d
00000100: b023 2e3d 4685 9c3d 88cf 4ebd 21a0 19be
00000110: b7d6 a63d eac4 f33c f135 44bd 3ecc cfbd
00000120: f301 93bd 2d49 953d d20f 10be 3bbf 023e
00000130: 6f7b 21bd c063 923d edcd 873d 9579 64ba
00000140: 660e 483d b441 cfbc 3acd b2ba 4883 ba3d
00000150: bc89 febd ee88 eebd f06b f13d a33f d1bc
00000160: efee f2bd 6651 1dbe dcfd 14bc 2b9e 063c
00000170: 856c 0cbe cbcf 2fbe 64b2 d43d 6784 1dbd
00000180: 6b65 19bd e1e9 2cbe 01b1 f1bd 825b 243d
00000190: fe6d 773d 61d1 26be 5777 8ebb 31db a3bd
000001a0: 9763 843d afb8 173d 7068 06be 04fa 56bd
000001b0: 58ec 3ebd 58d9 0bbb 63e1 0bbd e63b 0e3d
000001c0: c6d1 66b9 2da0 abbd d63e 13be 854e adbb
000001d0: f761 11be e491 06be 9415 c3bd 545a 853d
000001e0: f492 25be b9ff 2ebc 1e8c 52bd dd9a 93bd
000001f0: 3bf6 0dbe 5990 e4bc 8ea8 27be d90b 6abc
00000200: 4584 9b3d 38ed d1bd f449 85bd dce1 f03d
00000210: b8f7 1dbd 8e8d 29bc c4aa 37be a336 32bd
00000220: 6a5d c4bd 661a c2bc fa2c 2bbe df4b c6bd
00000230: c25e 25bd 365d 313d 52f6 c93d cc20 833d
00000240: ff0d d7bc de6b 043e 0e6e c53d c274 0a3e
00000250: b04c 1b3c 7ae6 f23d c590 31be 79a2 a73d
00000260: 4847 7a3d 5833 30be f610 c0bd fa3d 7d3c
00000270: 3bd9 793d 73f0 7fbd 233e 10bd 8f5a 303e
00000280: 850b 8abd 0d35 1b3e 135e ee3a c343 ba3d
00000290: ddaa bc3d a663 1f3c 06a4 d53d 95b7 42bd
000002a0: d6bf b53d 2deb 18be 3819 87bd 2c2b e3bd
000002b0: af48 51bd 70a6 c1bd d9ea 293e 7279 b23d
000002c0: 154e 0abd c2d2 8cbd aff7 99bd f5b8 5f3d
000002d0: 4f1f 82bc 8f16 d8bc d43a 5e3d 068a 003e
000002e0: ff0d 55bc 6c80 8abd a905 9cbc 738b 6e3d
000002f0: c6cb 85bb 31db 593c c9f9 27bd 59b6 3dbe
00000300: 10e2 d13c 7941 9bbd 45d4 203e 408d 53bc
00000310: ff10 bc3d b2a0 3a3d 2eb4 08bd 8e6d 01be
00000320: ad01 8a3d eb0b 39be 70e2 4c3d dd5e fbbd
00000330: 0e0b 3fbd 0ab2 b2bd 244b 86bb cd72 a6bc
00000340: eafa b33d 2c40 05bd 157b 3dbe 7e63 59bd
00000350: 00a8 453b 3784 ab3c ce57 113d 9b2d a13d
00000360: 1ec1 b93a 4c04 85bc 8b19 e5bd a935 233e
00000370: 780e ca3d 7be0 67bd b8b4 e2bd f5da 3cbd
00000380: 1470 633c 9e75 3dbd 188e 123e 1f74 00be
00000390: d55d bcbd b521 403e 1830 813d 248e 1f3e
000003a0: 2430 203e a336 0b3d 68c0 5cbc 6cc9 f3bc
000003b0: 10ea 793d 85dd 0e3d 0647 353e b63b 253e
000003c0: 606c d73d a352 8abd 773b 273e 0a14 0dbe
000003d0: c114 193e 0b02 8bbd 0bf8 ca3c f5c1 323d
000003e0: 1727 23be fc20 56bc 591c c63c 61f3 06bd
000003f0: f464 413d 4784 43bd 3f7b 2b3e ede6 24be

layers.0.Ah.conv2.bias f4 [8]
0.09398069 -0.10088071 0.06443605 -0.18689919 0.097255476 -0.10607339 -0.04212708 -0.11688079
00000000: f378 c03d 8c9a cebd 0cf7 833d 8062 3fbe
00000010: e12d c73d 013d d9bd 728d 2cbd 325f efbd

layers.0.Ah.conv3.weight f4 [1, 8, 3]
-0.058368217 0.10398033 -0.0723507 -0.19036803 -0.0884671 0.16207354 0.017286217 -0.008760621
0.035091113 0.15407582 0.15969187 -0.15643127 0.19835792 -0.118471876 0.04950244 -0.073665895
0.01215532 0.10620611 0.15851866 0.120519884 0.14793643 0.16397728 0.20728394 -0.08748993
00000000: 8313 6fbd a4f3 d43d 9b2c 94bd d6ef 42be
00000010: 3d2e b5bd 9bf6 253e d39b 8d3c b588 0fbc
00000020: b3bb 0f3d 0dc6 1d3e 4486 233e 852f 20be
00000030: 571e 4b3e 62a1 f2bd 12c3 4a3d 25de 96bd
00000040: 1b27 473c 9782 d93d b752 223e 21d3 f63d
00000050: a67c 173e a9e9 273e 3e42 543e ec2d b3bd

layers.0.Ah.bn1.weight f4 [16]
1.0329175 1.0152174 1.0396034 0.983094 1.0335658 1.0302844 1.0435923 1.0454837
0.9626631 0.9642705 0.98459375 0.95872104 0.9808872 1.0621002 0.9576285 0.96390533
00000000: a436 843f a5f2 813f b911 853f 0cac 7b3f
00000010: e24b 843f 5ce0 833f 6f94 853f 69d2 853f
00000020: 1771 763f 6eda 763f 560e 7c3f be6e 753f
00000030: 6c1b 7b3f e6f2 873f 2427 753f 80c2 763f

layers.0.Ah.bn1.bias f4 [16]
-0.05388829 -0.05149833 0.023578497 0.041748196 0.030166717 0.0073660254 -0.015016912 -0.0036412193
0.061573066 -0.036346722 -0.02149423 0.047521234 -0.03421217 0.05727435 -0.047187988 -0.03072146
00000000: f8b9 5cbd eaef 52bd b127 c13c 2800 2b3d
00000010: 3120 f73c b35e f13b 7e09 76bc 86a1 6ebb
00000020: 0a34 7c3d 4de0 14bd ab14 b0bc a0a5 423d
00000030: 0f22 0cbd 8298 6a3d 3148 41bd 92ab fbbc

layers.0.Ah.bn1.running_mean f4 [16]
9.359807 9.105298 0.367773 1.4466223 17.418867 7.551635 -7.7069926 -13.713333
9.4809885 -17.791521 -5.725524 5.1627727 13.448102 -14.964849 -9.674593 18.204693
00000000: c5c1 1541 4daf 1141 be4c bc3e eb2a b93f
00000010: d759 8b41 fea6 f140 af9f f6c0 d069 5bc1
00000020: 21b2 1741 0955 8ec1 7e37 b7c0 6f35 a540
00000030: 6d2b 5741 0670 6fc1 22cb 1ac1 36a3 9141

layers.0.Ah.bn1.running_var f4 [16]
75945.64 100634.68 50918.945 64037.316 141504.75 103045.24 104093.98 128662.21
96064.37 200132.4 38203.12 176100.83 105804.58 142574.89 74564.49 191578.81
00000000: d254 9447 578d c447 f2e6 4647 5125 7a47
00000010: 3030 0a48 9f42 c947 fd4e cb47 1b4b fb47
00000020: 2fa0 bb47 1a71 4348 1f3b 1547 35f9 2b48
00000030: 4aa6 ce47 b93b 0b48 3fa2 9147 b416 3b48

layers.0.Ah.bn2.weight f4 [8]
0.96282727 0.9598659 0.9590594 1.042638 1.0399085 0.97911656 1.0110904 1.0336397
00000000: d97b 763f c6b9 753f eb84 753f 2975 853f
00000010: b91b 853f 62a7 7a3f 696b 813f 4e4e 843f

layers.0.Ah.bn2.bias f4 [8]
-0.038344026 0.039999567 -0.037284564 0.04630217 0.041594688 0.043253466 0.04110022 0.02524459
00000000: a00e 1dbd 96d6 233d b3b7 18bd 58a7 3d3d
00000010: 315f 2a3d 8c2a 313d b458 283d becd ce3c

layers.0.Ah.bn2.running_mean f4 [8]
0.115251474 -0.16219668 -0.028300969 -0.17929468 0.13159838 -0.14642186 0.02723905 -0.07834508
00000000: f708 ec3d e316 26be 6fd7 e7bc 0699 37be
00000010: bac1 063e 9def 15be 6e24 df3c 6373 a0bd

layers.0.Ah.bn2.running_var f4 [8]
0.17053291 0.32827514 0.47918382 0.26405963 0.314337 0.33710006 0.5149479 0.17946996
00000000: 2ea0 2e3e ae13 a83e 9557 f53e d332 873e
00000010: c7f0 a03e 6198 ac3e a0d3 033f f9c6 373e

layers.1.Aw.conv1.weight f4 [16, 1, 5]
0.46981996 -0.10697684 -0.35924348 0.36261636 -0.25031298 0.23964114 -0.05166177 -0.23539531
-0.07611917 -0.107246995 0.059946243 -0.2223442 0.08495312 0.33906692 -0.45137691 0.06351004
0.23957212 -0.21734077 0.17144045 0.0315253 -0.22695985 -0.42418283 0.39973584 -0.4133916
0.14562346 0.13602158 -0.2575875 -0.08721481 0.14230484 -0.035604235 0.08107548 0.18422863
-0.31750584 -0.30594626 -0.46098724 0.049264368 -0.39757246 0.21185018 0.17770833 0.07375789
0.072529614 0.1652359 0.40506035 0.016616115 0.41448176 0.3181 0.039414596 -0.12516053
0.016129619 -0.034974363 0.20866078 -0.46585122 0.25236127 0.13300003 -0.05244059 0.17574339
-0.3143432 0.30687273 0.10358529 -0.023368249 -0.14403613 0.31678712 0.46181077 0.049538087
-0.13331127 0.18676572 0.15488155 -0.34878024 -0.4075559 0.36543438 0.023656499 0.036977164
0.3848905 -0.42910182 -0.13283184 0.2426411 0.09835859 -0.30978963 -0.0013850604 0.37946847
00000000: 3e8c f03e ac16 dbbd c3ee b7be daa8 b93e
00000010: 0629 80be 7d64 753e 4b9b 53bd 780b 71be
00000020: 5ee4 9bbd 50a4 dbbd 318a 753d 33ae 63be
00000030: e7fb ad3d 2e9a ad3e e01a e7be 8d11 823d
00000040: 6552 753e 948e 5ebe 168e 2f3e ac20 013d
00000050: 2a68 68be 7e2e d9be 2daa cc3e 10a8 d3be
00000060: 511e 153e 3e49 0b3e 82e2 83be ae9d b2bd
00000070: 5cb8 113e bfd5 11bd e70a a63d 6ea6 3c3e
00000080: 2090 a2be fda4 9cbe 8506 ecbe 6fc9 493d
00000090: 9e8e cbbe 41ef 583e 2cf9 353e 600e 973d
000000a0: 688a 943d 9a33 293e 1264 cf3e 851e 883c
000000b0: f436 d43e 01de a23e 3371 213d 152a 00be
000000c0: 4322 843c 4741 0fbd 2cab 553e 0d84 eebe
000000d0: 7f35 813e 2931 083e f2cb 56bd 13f6 333e
000000e0: 98f1 a0be 6c1e 9d3e 8624 d43d c56e bfbc
000000f0: 357e 13be ec31 a23e 7672 ec3e 73e8 4a3d
00000100: c082 08be 833f 3f3e 4599 1e3e 5393 b2be
00000110: 2bab d0be 371a bb3e 46cb c13c 5e75 173d
00000120: 5e10 c53e 3cb3 dbbe 1205 08be e976 783e
00000130: 3a70 c93d bf9c 9ebe ea8a b5ba b149 c23e

layers.1.Aw.conv1.bias f4 [16]
-0.4348035 -0.2553775 0.1409932 -0.39727214 0.44218972 0.2338063 0.29744998 0.3019689
-0.024050873 0.19705752 0.058288533 0.32843956 0.012579209 -0.06120241 -0.07838136 0.16920818
00000000: 909e debe d7c0 82be 8560 103e 4167 cbbe
00000010: b166 e23e eb6a 6f3e 5d4b 983e ab9b 9a3e
00000020: 5606 c5bc 72c9 493e f5bf 6e3d 3b29 a83e
00000030: 0719 4e3c 61af 7abd 6886 a0bd e944 2d3e

layers.1.Aw.conv2.weight f4 [8, 16, 3]
-0.09135929 0.13650285 -0.10168837 -0.08272972 -0.10250582 -0.023013517 -0.008783813 0.08431616
0.006052982 0.13782601 0.039811514 -0.0014975215 -0.02601715 -0.081236474 -0.025823256 -0.037057515
-0.0072377115 0.045619994 -0.08056883 0.07659034 -0.0017453927 0.052099258 -0.018185738 0.07776944
-0.034610216 0.11325907 0.0850451 -0.08522917 -0.037818283 0.048582137 -0.10268202 -0.03566194
-0.06142276 0.121973164 6.858283e-05 0.1826663 -0.11606087 -0.14385436 0.15348876 -0.04285202
0.15937673 -0.068374686 0.049439758 0.08011184 -0.023372913 -0.036924947 0.045928348 0.14184952
0.10571597 -0.064568885 -0.0081021255 -0.062209956 -0.0029811652 -0.07614333 -0.07404331 0.1264525
-0.07978553 -0.015758906 0.031486917 0.17815931 0.05018868 0.13099582 0.08603143 0.12549584
-0.023647178 0.083228305 0.009160463 -0.09210722 -0.08857541 0.18289582 -0.03672955 -0.008020248
0.084874034 -0.030144654 -0.005313034 0.043766033 0.00906083 0.18307054 -0.09864293 0.010015639
-0.08623992 0.008751746 0.1552364 -0.06580279 0.042500846 0.14921428 0.16432446 0.13125151
0.11307999 -0.07020338 -0.045065217 0.081611164 0.04200902 -0.09070694 -0.025855334 -0.0920623
0.12038001 -0.17061965 -0.17524019 0.15702876 -0.10072746 0.041721262 -0.043160703 -0.07000415
-0.14394777 -0.00068589684 -0.09035863 -0.003723761 -0.03046572 0.100565925 0.03647092 -0.019365387
0.1405215 -0.15363376 0.011221755 0.034798626 -0.08339938 -0.060626093 0.16030279 0.002957139
-0.09074894 -0.05670272 -0.14091343 0.06461654 0.018729247 0.062356886 -0.044694673 0.09513127
-0.014663683 0.014170179 0.15425049 0.025656596 0.012943649 0.059851017 0.08756061 0.04129163
-0.044918686 -0.051165294 -0.004285818 0.09149494 0.057596974 0.17793465 0.07075665 -0.078198574
-0.13077839 0.001283659 0.16502653 -0.024001835 -0.09253228 0.067175254 -0.11494289 -0.024936603
-0.014504241 -0.15954019 -0.0129031055 -0.13158745 0.052148607 0.076199934 0.10246929 -0.10061589
-0.054904114 -0.06680852 -0.024564395 0.11870705 0.08699422 -0.046366155 0.040663853 -0.015135749
-0.10990563 -0.16062187 -0.027464377 -0.054841425 -0.1439003 -0.086535804 0.065591484 -0.11013764
0.10317932 -0.012629701 -0.13172218 0.12769721 0.029308522 0.15067664 0.023486348 -0.1300928
-0.09138694 -0.029836506 0.022784052 -0.17923714 0.109974414 0.05230879 0.061585423 0.09559407
0.09744839 -0.06745957 0.03378186 -0.07075741 -0.078111485 0.13908312 0.15257466 0.08391585
0.0091714775 0.14313048 0.1692041 0.17927578 0.1383246 0.0789314 0.06826609 0.12757953
0.16258833 -0.03588206 -0.07272823 0.10410933 0.07373789 0.0041387947 0.015879778 0.056381013
0.03797579 -0.013464537 0.04739146 -0.1622009 -0.058002982 0.14597389 -0.07962824 -0.0592699
0.03487226 0.047467496 0.0142573295 -0.16177697 0.16318142 0.021623299 -0.05359743 -0.06381833
0.10093035 -0.12620436 -0.04239849 0.10902054 0.01691082 0.07730025 0.010800272 0.090763755
0.029801514 -0.07657646 -0.17846219 0.011442131 -0.15733504 -0.08206416 -0.124434076 0.040782582
0.10060958 -0.030454718 0.023555724 -0.004992656 -0.14865994 0.061248276 -0.08993127 0.122320056
00000000: 941a bbbd 67c7 0b3e fe41 d0bd 336e a9bd
00000010: 92ee d1bd d886 bcbc fbe9 0fbc f3ad ac3d
00000020: 1858 c63b 4322 0d3e 6611 233d 7c48 c4ba
00000030: eb21 d5bc 4f5f a6bd 4b8b d3bc 9fc9 17bd
00000040: 532a edbb 08dc 3a3d 4501 a5bd 65db 9c3d
00000050: a9c5 e4ba 0866 553d 42fa 94bc 9645 9f3d
00000060: 71c3 0dbd 5ff4 e73d 202c ae3d a28c aebd
00000070: 58e7 1abd 10fe 463d f34a d2bd 4112 12bd
00000080: 6f96 7bbd 11cd f93d 20d4 8f38 e00c 3b3e
00000090: 52b1 edbd 8f4e 13be 282c 1d3e 9a85 2fbd
000000a0: a733 233e 0708 8cbd 5881 4a3d ad11 a43d
000000b0: 8d78 bfbc 9d3e 17bd 5d1f 3c3d 0041 113e
000000c0: 9d81 d83d b13c 84bd c7be 04bc decf 7ebd
000000d0: a75f 43bb 09f1 9bbd 05a4 97bd c47c 013e
000000e0: 9966 a3bd d218 81bc 6df8 003d 656f 363e
000000f0: a592 4d3d c523 063e 3f31 b03d fb81 003e
00000100: bab7 c1bc 9a73 aa3d c415 163c b6a2 bcbd
00000110: 0667 b5bd 0b49 3b3e ba71 16bd 5c67 03bc
00000120: 70d2 ad3d ecf1 f6bc f618 aebb 0344 333d
00000130: e073 143c d876 3b3e 4e05 cabd a218 243c
00000140: 8e9e b0bd 7c63 0f3c 4af6 1e3e 9dc3 86bd
00000150: 5e15 2e3d a1cb 183e ac44 283e cc66 063e
00000160: 7b96 e73d cac6 8fbd 4e96 38bd c123 a73d
00000170: a611 2c3d 8fc4 b9bd 91ce d3bc 298b bcbd
00000180: cb89 f63d ebb6 2ebe 2a72 33be 26cc 203e
00000190: 334a cebd eae3 2a3d 47c9 30bd 565e 8fbd
000001a0: 0b67 13be c2cd 33ba f20d b9bd 580a 74bb
000001b0: 3f93 f9bc 82f5 cd3d 8862 153d 29a4 9ebc
000001c0: dee4 0f3e 2b52 1dbe 74db 373c 0189 0e3d
000001d0: 4bcd aabd 1153 78bd 6a26 243e 8fcc 413b
000001e0: 95da b9bd 1c41 68bd 9c4b 10be ad55 843d
000001f0: 146e 993c ef69 7f3d c311 37bd 2fd4 c23d
00000200: f23f 70bc 0a2a 683c d7f3 1d3e c82d d23c
00000210: 9911 543c 5726 753d fa52 b33d 6a21 293d
00000220: a8fc 37bd b392 51bd 0c70 8cbb b361 bb3d
00000230: ceea 6b3d 8034 363e dde8 903d 9326 a0bd
00000240: c5ea 05be 7340 a83a b7fc 283e 7f9f c4bc
00000250: 9081 bdbd 2e93 893d 2e67 ebbd d947 ccbc
00000260: 32a3 6dbc 815e 23be 8c67 53bc dcbe 06be
00000270: c799 553d b60e 9c3d 6bdb d13d b40f cebd
00000280: 23e3 60bd e8d2 88bd 453b c9bc af1c f33d
00000290: 072a b23d 70ea 3dbd 248f 263d effb 77bc
000002a0: 3416 e1bd 0f7a 24be f9fc e0bc 67a1 60bd
000002b0: 9a5a 13be af39 b1bd d454 863d d88f e1bd
000002c0: ae4f d33d ceec 4ebc 2ee2 06be 0fc3 023e
000002d0: 6d18 f03c fa4a 1a3e 7166 c03c 0c37 05be
000002e0: 1329 bbbd b06b f4bc 9fa5 ba3c f189 37be
000002f0: 443a e13d be41 563d ff40 7c3d d3c6 c33d
00000300: 0693 c73d 3e28 8abd d95e 0a3d 43e9 90bd
00000310: eaf8 9fbd ce6b 0e3e 883c 1c3e 13dc ab3d
00000320: f743 163c cc90 123e d743 2d3e 1294 373e
00000330: f7a4 0d3e c9a6 a13d 17cf 8b3d 35a4 023e
00000340: 8e7d 263e 11f9 12bd 8af2 94bd 4637 d53d
00000350: e403 973d ba9e 873b 4f16 823c c7ef 663d
00000360: 818c 1b3d 5d9a 5cbc 8c1d 423d fe17 26be
00000370: 8994 6dbd 2e7a 153e 2114 a3bd ffc4 72bd
00000380: 37d6 0e3d 476d 423d 9397 693c dda8 25be
00000390: 0819 273e 5823 b13c fb88 5bbd 2fb3 82bd
000003a0: 92b4 ce3d b73b 01be 0aaa 2dbd 2946 df3d
000003b0: 8f88 8a3c 984f 9e3d a0f3 303c 59e2 b93d
000003c0: 4e22 f43c 1ed4 9cbd cbbe 36be c777 3b3c
000003d0: 701c 21be 4111 a8bd 4bd7 febd a30b 273d
000003e0: 650c ce3d 2c7c f9bc eff7 c03c 6f99 a3bb
000003f0: 503a 18be 79df 7a3d e32d b8bd f082 fa3d

layers.1.Aw.conv2.bias f4 [8]
0.07066744 -0.110418506 -0.11186635 -0.15786046 -0.020313825 0.06832679 -0.06436207 -0.13394047
00000000: 17ba 903d 1923 e2bd 2f1a e5bd 2ca6 21be
00000010: 2e69 a6bc ebee 8b3d 43d0 83bd b127 09be

layers.1.Aw.conv3.weight f4 [1, 8, 3]
0.1475067 -0.01682001 0.026416574 0.20211759 -0.019371124 0.15740295 -0.038913276 0.07412178
-0.10067481 0.019131022 0.015438346 0.0913481 0.04242572 0.18128292 0.08300923 0.01563505
-0.14804746 -0.02367729 0.2386386 -0.09480263 0.120690554 -0.11219364 0.0024054334 -0.088796645
00000000: ff0b 173e 1eca 89bc 9267 d83c eaf7 4e3e
00000010: 31b0 9ebc 3d2e 213e 8763 1fbd 29cd 973d
00000020: 982e cebd a9b8 9c3c 1ef1 7c3c b614 bb3d
00000030: 97c6 2d3d 3ba2 393e be00 aa3d 1415 803c
00000040: c199 17be e0f6 c1bc ad5d 743e e227 c2bd
00000050: 9c2c f73d c7c5 e5bd 7aa4 1d3b 04db b5bd

layers.1.Aw.bn1.weight f4 [16]
1.0395793 1.0303326 0.95940167 1.0345248 0.98128396 0.95725965 0.95764256 1.0231748
0.95776916 0.97807455 0.95704466 1.0417771 1.0422548 0.9632073 0.9742147 0.9551481
00000000: ef10 853f f0e1 833f 599b 753f 4f6b 843f
00000010: 6d35 7b3f f80e 753f 1028 753f 64f7 823f
00000020: 5c30 753f 1863 7a3f e100 753f f458 853f
00000030: 9b68 853f c194 763f 2266 793f 9684 743f

layers.1.Aw.bn1.bias f4 [16]
0.04731814 0.0071806605 0.040778205 -0.015822157 -0.035790402 0.04482665 -0.042027943 -0.025751514
-0.035733495 -0.03262449 0.04470876 -0.04331223 0.04320518 -0.044375826 0.006171948 -0.039519347
00000000: aad0 413d bf4b eb3b 0c07 273d 789d 81bc
00000010: f598 12bd 269c 373d 7e25 2cbd d7f4 d2bc
00000020: 495d 12bd 42a1 05bd 8820 373d 2a68 31bd
00000030: eaf7 303d 6dc3 35bd 0d3e ca3b 0adf 21bd

layers.1.Aw.bn1.running_mean f4 [16]
2.8683567 -6.890653 -5.314004 7.9177246 -14.488444 -2.6662993 -23.194489 3.4423761
31.174498 6.3353333 2.590727 7.3135905 16.218508 -1.5881736 -3.2608962 12.349484
00000000: 2893 3740 3b80 dcc0 520c aac0 005e fd40
00000010: abd0 67c1 a6a4 2ac0 508e b9c1 e44f 5c40
00000020: 5f65 f941 0dbb ca40 79ce 2540 ef08 ea40
00000030: 81bf 8141 4649 cbbf 86b2 50c0 7d97 4541

layers.1.Aw.bn1.running_var f4 [16]
629022.2 455973.2 409369.0 165727.14 702019.06 172945.9 2.1172415e+06 467661.2
1.6535094e+06 332848.44 271698.3 231141.28 1.3930474e+06 1.0397238e+06 617640.7 701115.5
00000000: e391 1949 a6a4 de48 20e3 c748 c9d7 2148
00000010: 3164 2b49 7ae4 2848 e639 014a a659 e448
00000020: 2bd8 c949 0e86 a248 4aaa 8448 52b9 6148
00000030: bb0c aa49 bdd6 7d49 8bca 1649 b82b 2b49

layers.1.Aw.bn2.weight f4 [8]
0.95335406 1.0379694 0.9594811 0.955848 1.0398653 0.95880973 1.0359851 0.95956594
00000000: 030f 743f 2edc 843f 8ea0 753f 74b2 743f
00000010: 4e1a 853f 8e74 753f 299b 843f 1da6 753f

layers.1.Aw.bn2.bias f4 [8]
-0.041123234 -0.042138778 -0.037273306 -0.04244699 0.036123693 -0.038115565 0.03493247 -0.028119873
00000000: d670 28bd b699 2cbd e5ab 18bd e5dc 2dbd
00000010: 70f6 133d 111f 1cbd 5a15 0f3d a65b e6bc

layers.1.Aw.bn2.running_mean f4 [8]
0.077248745 -0.078673 -0.12165288 -0.19042829 0.03573498 0.021634918 -0.06015518 -0.18078798
00000000: 9734 9e3d 4f1f a1bd 2525 f9bd a2ff 42be
00000010: d85e 123d b63b b13c 4765 76bd 7c20 39be

layers.1.Aw.bn2.running_var f4 [8]
0.29805538 0.5273463 0.32619378 0.42326447 0.6856247 0.5034771 0.25929752 0.6182724
00000000: b79a 983e 2b00 073f df02 a73e 1fb6 d83e
00000010: 1a85 2f3f e0e3 003f a5c2 843e 1a47 1e3f

layers.1.Ah.conv1.weight f4 [16, 1, 5]
0.16654103 0.3542292 -0.30963123 0.14434011 0.11492911 -0.13894606 -0.15282421 0.3967335
-0.021363927 0.35167986 0.33099917 -0.35212654 -0.020316903 0.19496225 -0.122668885 -0.10370581
0.38359842 -0.40913305 0.03202906 0.18916099 0.3700575 0.14763635 0.1446824 0.043237675
0.167216 0.18049058 -0.25618225 0.4452169 -0.2570417 0.28983533 0.2941209 -0.32981837
-0.1742514 0.21669394 -0.37114775 -0.40011498 0.28277108 -0.16829942 -0.3479213 -0.053174004
0.22095497 -0.29373607 0.33825085 -0.123725355 0.3299756 -0.24249165 0.036823165 -0.4697434
0.14866357 -0.39814422 -0.2656347 0.19245616 -0.17971055 -0.05961338 0.016078759 -0.40346932
-0.26769167 0.45829263 -0.02977583 0.4890445 0.12783985 0.20887215 -0.15574796 0.05008279
0.4542372 0.14839928 -0.46108648 -0.09717585 -0.21249047 -0.1317526 0.13839646 -0.30039957
0.011597341 -0.24523462 -0.10851812 0.2911198 0.32304654 -0.25651807 0.43723264 0.11415176
00000000: bb89 2a3e 885d b53e fc87 9ebe e5cd 133e
00000010: f45f eb3d e047 0ebe f37d 1cbe a720 cb3e
00000020: 6703 afbc 620f b43e b978 a93e ee49 b4be
00000030: a26f a6bc 2fa4 473e d339 fbbd b663 d4bd
00000040: 0367 c43e e379 d1be e730 033d 6bb3 413e
00000050: 2d78 bd3e fc2d 173e a027 143e fd19 313d
00000060: ac3a 2b3e 86d2 383e 522a 83be 78f3 e33e
00000070: f89a 83be 4c65 943e 0497 963e f4dd a8be
00000080: f66e 32be 04e5 5d3e 1407 bebe dfdb ccbe
00000090: 5fc7 903e af56 2cbe be22 b2be fccc 59bd
000000a0: 0542 623e 9364 96be 372f ad3e b863 fdbd
000000b0: 90f2 a83e bb4f 78be e3d3 163d 3582 f0be
000000c0: 433b 183e 8fd9 cbbe 4501 88be 3a13 453e
000000d0: 0b06 38be 292d 74bd 9ab7 833c 8893 cebe
000000e0: e20e 89be 55a5 ea3e 71ec f3bc 0a64 fa3e
000000f0: 73e8 023e 95e2 553e 657c 1fbe 9d23 4d3d
00000100: c791 e83e fbf5 173e 8713 ecbe 2204 c7bd
00000110: 1a97 59be 27ea 06be cdb7 0d3e f9cd 99be
00000120: c602 3e3c c91e 7bbe c03e debd a80d 953e
00000130: 5b66 a53e 5656 83be f5dc df3e 66c8 e93d

layers.1.Ah.conv1.bias f4 [16]
-0.037973307 0.37379083 -0.064619325 -0.40791962 0.079295106 -0.3738057 -0.19918497 -0.18370923
0.07459342 0.48043036 0.018015387 0.3842346 -0.21231548 -0.17475629 0.24595147 0.21524753
00000000: e689 1bbd 8361 bf3e 2357 84bd d7da d0be
00000010: 7965 a23d 7663 bfbe 25f7 4bbe 461e 3cbe
00000020: 6fc4 983d f8fa f53e 0195 933c 66ba c43e
00000030: 3b69 59be 50f3 32be b4da 7b3e d969 5c3e

layers.1.Ah.conv2.weight f4 [8, 16, 3]
-0.13430311 0.01567786 -0.121730015 0.072592616 0.028777204 0.114373006 -0.06454739 0.18125404
0.016591927 0.03202583 -0.04390713 -0.10347815 -0.100342356 0.053112417 0.074643835 0.13177437
-0.010255403 0.075090185 -0.100832075 -0.03698805 0.006963181 0.07495527 -0.0033593157 0.16267799
0.05548564 0.091422796 -0.06112367 0.0521392 0.084538974 0.09171944 0.09260808 0.008175718
0.029646674 -0.01524014 -0.13920233 -0.084014565 0.09936167 -0.040478077 -0.030560661 -0.05443058
0.029011223 0.110813215 -0.0067859525 -0.082889244 0.0012179391 0.01589803 0.015389698 -0.09239281
0.097460546 0.029083958 -0.021036582 -0.15588889 0.022486303 -0.058726538 0.069834515 -0.09614278
0.10286459 0.023541301 -0.09849196 0.13651383 -0.16616218 -0.13399634 -0.13416514 0.089938976
0.042514503 0.076426074 -0.050490886 -0.1500249 0.08146422 0.029756982 -0.047903005 -0.10146378
-0.07178106 0.07289348 -0.14068535 0.12768261 -0.039424356 0.07147932 0.06631074 -0.0008715627
0.048841856 -0.025299884 -0.0013641485 0.09107071 -0.124286145 -0.11647211 0.117881656 -0.02554304
-0.11861979 -0.15363082 -0.009093728 0.008216421 -0.13713272 -0.1716911 0.10385588 -0.038456347
-0.037450235 -0.16886093 -0.11801339 0.04012633 0.06040763 -0.16290809 -0.0043477225 -0.08000792
0.06464308 0.037041362 -0.13125777 -0.052484527 -0.046612114 -0.0021339264 -0.034150492 0.034725092
-0.00022012656 -0.083801605 -0.14379439 -0.0052889013 -0.14197527 -0.1314159 -0.095256 0.06511369
-0.1616934 -0.010681086 -0.051403157 -0.07207272 -0.1386346 -0.027900862 -0.16372892 -0.014285051
0.07593588 -0.10250324 -0.06508246 0.11761829 -0.03856632 -0.010348691 -0.17936236 -0.043509137
-0.0958813 -0.023694228 -0.16716376 -0.0968244 -0.04037357 0.043301784 0.09861435 0.0640274
-0.026251791 0.12931773 0.09640132 0.13521102 0.009478733 0.11860366 -0.17340381 0.08185286
0.061103135 -0.17207086 -0.09378235 0.015456671 0.060998183 -0.06248517 -0.03521551 0.17222045
-0.067404784 0.15156956 0.0018185995 0.09094956 0.09212277 0.009728348 0.104316756 -0.04753836
0.088744804 -0.14933462 -0.06596607 -0.11092219 -0.051094707 -0.094555736 0.16593494 0.0871457
-0.03376587 -0.06876136 -0.07517945 0.05461975 -0.01588407 -0.026377944 0.05425532 0.12552652
-0.013003825 -0.06762776 -0.019045668 0.058238458 -0.0040831296 0.013296888 -0.041009698 -0.18526591
0.02562049 -0.07580847 0.15705974 -0.012912095 0.09182929 0.045563407 -0.033374958 -0.12639448
0.06738601 -0.18070953 0.050020635 -0.12273953 -0.046641402 -0.087253645 -0.004098313 -0.020318413
0.087880924 -0.032531902 -0.18503983 -0.0530734 0.003015995 0.020937068 0.035484128 0.07870027
0.0014171933 -0.0162374 -0.111865126 0.15938438 0.09866041 -0.056610566 -0.110696256 -0.04610725
0.013881702 -0.046254747 0.14312017 -0.12544297 -0.091975845 0.18762858 0.06308001 0.15581566
0.15643364 0.033987653 -0.013473608 -0.029759131 0.061014235 0.034879226 0.17702875 0.16136059
0.10518718 -0.06754043 0.16331278 -0.13777176 0.14949323 -0.06787499 0.02477648 0.043642003
-0.1593288 -0.0130693875 0.02418344 -0.032946948 0.047215417 -0.04773357 0.16746233 -0.16103716
00000000: c186 09be db6e 803c 964d f9bd 70ab 943d
00000010: 2cbe eb3c 653c ea3d 6c31 84bd a99a 393e
00000020: cbeb 873c 842d 033d f6d7 33bd 5aec d3bd
00000030: 4b80 cdbd 688c 593d dede 983d dcef 063e
00000040: 4706 28bc e2c8 993d 0c81 cebd c880 17bd
00000050: 652b e43b 2682 993d f727 5cbb 0f95 263e
00000060: e944 633d e03b bb3d d05c 7abd ea8f 553d
00000070: c522 ad3d 67d7 bb3d 4ea9 bd3d 72f3 053c
00000080: 95dd f23c c8b1 79bc 0e8b 0ebe d40f acbd
00000090: 227e cb3d 57cc 25bd 5a5a fabc 9af2 5ebd
000000a0: f2a8 ed3c 0af2 e23d b25c debb d6c1 a9bd
000000b0: 41a3 9f3a 963c 823c 1225 7c3c 7138 bdbd
000000c0: 6599 c73d 7b41 ee3c e954 acbc 56a1 1fbe
000000d0: 3235 b83c 3d8b 70bd 6605 8f3d 81e6 c4bd
000000e0: acaa d23d b0d9 c03c 27b6 c9bd 48ca 0b3e
000000f0: 6b26 2abe 5636 09be 9662 09be ed31 b83d
00000100: b023 2e3d 4685 9c3d 88cf 4ebd 21a0 19be
00000110: b7d6 a63d eac4 f33c f135 44bd 3ecc cfbd
00000120: f301 93bd 2d49 953d d20f 10be 3bbf 023e
00000130: 6f7b 21bd c063 923d edcd 873d 9579 64ba
00000140: 660e 483d b441 cfbc 3acd b2ba 4883 ba3d
00000150: bc89 febd ee88 eebd f06b f13d a33f d1bc
00000160: efee f2bd 6651 1dbe dcfd 14bc 2b9e 063c
00000170: 856c 0cbe cbcf 2fbe 64b2 d43d 6784 1dbd
00000180: 6b65 19bd e1e9 2cbe 01b1 f1bd 825b 243d
00000190: fe6d 773d 61d1 26be 5777 8ebb 31db a3bd
000001a0: 9763 843d afb8 173d 7068 06be 04fa 56bd
000001b0: 58ec 3ebd 58d9 0bbb 63e1 0bbd e63b 0e3d
000001c0: c6d1 66b9 2da0 abbd d63e 13be 854e adbb
000001d0: f761 11be e491 06be 9415 c3bd 545a 853d
000001e0: f492 25be b9ff 2ebc 1e8c 52bd dd9a 93bd
000001f0: 3bf6 0dbe 5990 e4bc 8ea8 27be d90b 6abc
00000200: 4584 9b3d 38ed d1bd f449 85bd dce1 f03d
00000210: b8f7 1dbd 8e8d 29bc c4aa 37be a336 32bd
00000220: 6a5d c4bd 661a c2bc fa2c 2bbe df4b c6bd
00000230: c25e 25bd 365d 313d 52f6 c93d cc20 833d
00000240: ff0d d7bc de6b 043e 0e6e c53d c274 0a3e
00000250: b04c 1b3c 7ae6 f23d c590 31be 79a2 a73d
00000260: 4847 7a3d 5833 30be f610 c0bd fa3d 7d3c
00000270: 3bd9 793d 73f0 7fbd 233e 10bd 8f5a 303e
00000280: 850b 8abd 0d35 1b3e 135e ee3a c343 ba3d
00000290: ddaa bc3d a663 1f3c 06a4 d53d 95b7 42bd
000002a0: d6bf b53d 2deb 18be 3819 87bd 2c2b e3bd
000002b0: af48 51bd 70a6 c1bd d9ea 293e 7279 b23d
000002c0: 154e 0abd c2d2 8cbd aff7 99bd f5b8 5f3d
000002d0: 4f1f 82bc 8f16 d8bc d43a 5e3d 068a 003e
000002e0: ff0d 55bc 6c80 8abd a905 9cbc 738b 6e3d
000002f0: c6cb 85bb 31db 593c c9f9 27bd 59b6 3dbe
00000300: 10e2 d13c 7941 9bbd 45d4 203e 408d 53bc
00000310: ff10 bc3d b2a0 3a3d 2eb4 08bd 8e6d 01be
00000320: ad01 8a3d eb0b 39be 70e2 4c3d dd5e fbbd
00000330: 0e0b 3fbd 0ab2 b2bd 244b 86bb cd72 a6bc
00000340: eafa b33d 2c40 05bd 157b 3dbe 7e63 59bd
00000350: 00a8 453b 3784 ab3c ce57 113d 9b2d a13d
00000360: 1ec1 b93a 4c04 85bc 8b19 e5bd a935 233e
00000370: 780e ca3d 7be0 67bd b8b4 e2bd f5da 3cbd
00000380: 1470 633c 9e75 3dbd 188e 123e 1f74 00be
00000390: d55d bcbd b521 403e 1830 813d 248e 1f3e
000003a0: 2430 203e a336 0b3d 68c0 5cbc 6cc9 f3bc
000003b0: 10ea 793d 85dd 0e3d 0647 353e b63b 253e
000003c0: 606c d73d a352 8abd 773b 273e 0a14 0dbe
000003d0: c114 193e 0b02 8bbd 0bf8 ca3c f5c1 323d
000003e0: 1727 23be fc20 56bc 591c c63c 61f3 06bd
000003f0: f464 413d 4784 43bd 3f7b 2b3e ede6 24be

layers.1.Ah.conv2.bias f4 [8]
0.09398069 -0.10088071 0.06443605 -0.18689919 0.097255476 -0.10607339 -0.04212708 -0.11688079
00000000: f378 c03d 8c9a cebd 0cf7 833d 8062 3fbe
00000010: e12d c73d 013d d9bd 728d 2cbd 325f efbd

layers.1.Ah.conv3.weight f4 [1, 8, 3]
-0.058368217 0.10398033 -0.0723507 -0.19036803 -0.0884671 0.16207354 0.017286217 -0.008760621
0.035091113 0.15407582 0.15969187 -0.15643127 0.19835792 -0.118471876 0.04950244 -0.073665895
0.01215532 0.10620611 0.15851866 0.120519884 0.14793643 0.16397728 0.20728394 -0.08748993
00000000: 8313 6fbd a4f3 d43d 9b2c 94bd d6ef 42be
00000010: 3d2e b5bd 9bf6 253e d39b 8d3c b588 0fbc
00000020: b3bb 0f3d 0dc6 1d3e 4486 233e 852f 20be
00000030: 571e 4b3e 62a1 f2bd 12c3 4a3d 25de 96bd
00000040: 1b27 473c 9782 d93d b752 223e 21d3 f63d
00000050: a67c 173e a9e9 273e 3e42 543e ec2d b3bd

layers.1.Ah.bn1.weight f4 [16]
1.0329175 1.0152174 1.0396034 0.983094 1.0335658 1.0302844 1.0435923 1.0454837
0.9626631 0.9642705 0.98459375 0.95872104 0.9808872 1.0621002 0.9576285 0.96390533
00000000: a436 843f a5f2 813f b911 853f 0cac 7b3f
00000010: e24b 843f 5ce0 833f 6f94 853f 69d2 853f
00000020: 1771 763f 6eda 763f 560e 7c3f be6e 753f
00000030: 6c1b 7b3f e6f2 873f 2427 753f 80c2 763f

layers.1.Ah.bn1.bias f4 [16]
-0.05388829 -0.05149833 0.023578497 0.041748196 0.030166717 0.0073660254 -0.015016912 -0.0036412193
0.061573066 -0.036346722 -0.02149423 0.047521234 -0.03421217 0.05727435 -0.047187988 -0.03072146
00000000: f8b9 5cbd eaef 52bd b127 c13c 2800 2b3d
00000010: 3120 f73c b35e f13b 7e09 76bc 86a1 6ebb
00000020: 0a34 7c3d 4de0 14bd ab14 b0bc a0a5 423d
00000030: 0f22 0cbd 8298 6a3d 3148 41bd 92ab fbbc

layers.1.Ah.bn1.running_mean f4 [16]
9.359807 9.105298 0.367773 1.4466223 17.418867 7.551635 -7.7069926 -13.713333
9.4809885 -17.791521 -5.725524 5.1627727 13.448102 -14.964849 -9.674593 18.204693
00000000: c5c1 1541 4daf 1141 be4c bc3e eb2a b93f
00000010: d759 8b41 fea6 f140 af9f f6c0 d069 5bc1
00000020: 21b2 1741 0955 8ec1 7e37 b7c0 6f35 a540
00000030: 6d2b 5741 0670 6fc1 22cb 1ac1 36a3 9141

layers.1.Ah.bn1.running_var f4 [16]
75945.64 100634.68 50918.945 64037.316 141504.75 103045.24 104093.98 128662.21
96064.37 200132.4 38203.12 176100.83 105804.58 142574.89 74564.49 191578.81
00000000: d254 9447 578d c447 f2e6 4647 5125 7a47
00000010: 3030 0a48 9f42 c947 fd4e cb47 1b4b fb47
00000020: 2fa0 bb47 1a71 4348 1f3b 1547 35f9 2b48
00000030: 4aa6 ce47 b93b 0b48 3fa2 9147 b416 3b48

layers.1.Ah.bn2.weight f4 [8]
0.96282727 0.9598659 0.9590594 1.042638 1.0399085 0.97911656 1.0110904 1.0336397
00000000: d97b 763f c6b9 753f eb84 753f 2975 853f
00000010: b91b 853f 62a7 7a3f 696b 813f 4e4e 843f

layers.1.Ah.bn2.bias f4 [8]
-0.038344026 0.039999567 -0.037284564 0.04630217 0.041594688 0.043253466 0.04110022 0.02524459
00000000: a00e 1dbd 96d6 233d b3b7 18bd 58a7 3d3d
00000010: 315f 2a3d 8c2a 313d b458 283d becd ce3c

layers.1.Ah.bn2.running_mean f4 [8]
0.115251474 -0.16219668 -0.028300969 -0.17929468 0.13159838 -0.14642186 0.02723905 -0.07834508
00000000: f708 ec3d e316 26be 6fd7 e7bc 0699 37be
00000010: bac1 063e 9def 15be 6e24 df3c 6373 a0bd

layers.1.Ah.bn2.running_var f4 [8]
0.17053291 0.32827514 0.47918382 0.26405963 0.314337 0.33710006 0.5149479 0.17946996
00000000: 2ea0 2e3e ae13 a83e 9557 f53e d332 873e
00000010: c7f0 a03e 6198 ac3e a0d3 033f f9c6 373e

layers.2.Aw.conv1.weight f4 [16, 1, 5]
0.46981996 -0.10697684 -0.35924348 0.36261636 -0.25031298 0.23964114 -0.05166177 -0.23539531
-0.07611917 -0.107246995 0.059946243 -0.2223442 0.08495312 0.33906692 -0.45137691 0.06351004
0.23957212 -0.21734077 0.17144045 0.0315253 -0.22695985 -0.42418283 0.39973584 -0.4133916
0.14562346 0.13602158 -0.2575875 -0.08721481 0.14230484 -0.035604235 0.08107548 0.18422863
-0.31750584 -0.30594626 -0.46098724 0.049264368 -0.39757246 0.21185018 0.17770833 0.07375789
0.072529614 0.1652359 0.40506035 0.016616115 0.41448176 0.3181 0.039414596 -0.12516053
0.016129619 -0.034974363 0.20866078 -0.46585122 0.25236127 0.13300003 -0.05244059 0.17574339
-0.3143432 0.30687273 0.10358529 -0.023368249 -0.14403613 0.31678712 0.46181077 0.049538087
-0.13331127 0.18676572 0.15488155 -0.34878024 -0.4075559 0.36543438 0.023656499 0.036977164
0.3848905 -0.42910182 -0.13283184 0.2426411 0.09835859 -0.30978963 -0.0013850604 0.37946847
00000000: 3e8c f03e ac16 dbbd c3ee b7be daa8 b93e
00000010: 0629 80be 7d64 753e 4b9b 53bd 780b 71be
00000020: 5ee4 9bbd 50a4 dbbd 318a 753d 33ae 63be
00000030: e7fb ad3d 2e9a ad3e e01a e7be 8d11 823d
00000040: 6552 753e 948e 5ebe 168e 2f3e ac20 013d
00000050: 2a68 68be 7e2e d9be 2daa cc3e 10a8 d3be
00000060: 511e 153e 3e49 0b3e 82e2 83be ae9d b2bd
00000070: 5cb8 113e bfd5 11bd e70a a63d 6ea6 3c3e
00000080: 2090 a2be fda4 9cbe 8506 ecbe 6fc9 493d
00000090: 9e8e cbbe 41ef 583e 2cf9 353e 600e 973d
000000a0: 688a 943d 9a33 293e 1264 cf3e 851e 883c
000000b0: f436 d43e 01de a23e 3371 213d 152a 00be
000000c0: 4322 843c 4741 0fbd 2cab 553e 0d84 eebe
000000d0: 7f35 813e 2931 083e f2cb 56bd 13f6 333e
000000e0: 98f1 a0be 6c1e 9d3e 8624 d43d c56e bfbc
000000f0: 357e 13be ec31 a23e 7672 ec3e 73e8 4a3d
00000100: c082 08be 833f 3f3e 4599 1e3e 5393 b2be
00000110: 2bab d0be 371a bb3e 46cb c13c 5e75 173d
00000120: 5e10 c53e 3cb3 dbbe 1205 08be e976 783e
00000130: 3a70 c93d bf9c 9ebe ea8a b5ba b149 c23e

layers.2.Aw.conv1.bias f4 [16]
-0.4348035 -0.2553775 0.1409932 -0.39727214 0.44218972 0.2338063 0.29744998 0.3019689
-0.024050873 0.19705752 0.058288533 0.32843956 0.012579209 -0.06120241 -0.07838136 0.16920818
00000000: 909e debe d7c0 82be 8560 103e 4167 cbbe
00000010: b166 e23e eb6a 6f3e 5d4b 983e ab9b 9a3e
00000020: 5606 c5bc 72c9 493e f5bf 6e3d 3b29 a83e
00000030: 0719 4e3c 61af 7abd 6886 a0bd e944 2d3e
