models/warmup_clip.pt (torch, 78645 bytes, 120 tensors)

layers.0.Aw.conv1.weight f4 [32, 1, 5]
0	0xbe8be123	-0.27320203
1	0xbd4dec8a	-0.05027441
2	0xbd47b374	-0.048755124
3	0x3ec0107f	0.37512586
4	0x3edd4f62	0.43224627
5	0x3dbe58a4	0.092942506
6	0xbeabe114	-0.33570158
7	0x3e0cf08e	0.1376364
8	0xbe804655	-0.2505366
9	0xbea18773	-0.31548652
10	0x3ec4afcb	0.3841537
11	0x3e3d3915	0.18478806
12	0xbe9757bb	-0.2955912
13	0x3ebc3988	0.36762643
14	0x3e442363	0.19154124
15	0x3dc8453c	0.097788304
16	0xbe8e5562	-0.27799517
17	0x3d5512a5	0.052019734
18	0x3e29a7c4	0.16567904
19	0x3e70c0dc	0.2351107
20	0x3e978cec	0.29599702
21	0x3edd75b1	0.43253854
22	0xbedf6a9f	-0.43636033
23	0xbdc02fd7	-0.09384125
24	0x3ee4d0ad	0.44690457
25	0xbd9a2ec7	-0.07528453
26	0x3e85f1ce	0.26161045
27	0x3e4885e3	0.19582324
28	0x3dddfe4d	0.1083952
29	0x3eb39d89	0.35081127
30	0x3e6d97a0	0.23202372
31	0x3e0234e2	0.12715486
32	0x3e2742dd	0.163341
33	0x3e78b262	0.24286798
34	0xbdbdf891	-0.09275926
35	0xbe8bd5a9	-0.27311447
36	0xbe2a2feb	-0.16619842
37	0xbed1d61d	-0.40983668
38	0xbe421e48	-0.18956864
39	0x3ea19859	0.31561545
40	0x3e464b7d	0.19364734
41	0x3e875507	0.26432058
42	0x3e9a2233	0.30104217
43	0xbd4525cb	-0.048131745
44	0x3d3544a7	0.044254925
45	0x3dfba9d7	0.12288254
46	0xbeb6258c	-0.3557552
47	0x3dcbc8c1	0.099504
48	0x3e66e38f	0.22547744
49	0xbea0a529	-0.31376007
50	0xbecb2663	-0.39677724
51	0xbea4a6f7	-0.32158634
52	0x3e7b7172	0.24554995
53	0xbeb352bb	-0.35024056
54	0xbecd7493	-0.40128002
55	0xbe5636ff	-0.20919417
56	0x3d8e6c02	0.069541946
57	0xbeab49c6	-0.33454722
58	0x3e15e7a7	0.1463915
59	0x3e8af99e	0.27143568
60	0xbe8df71f	-0.277276
61	0xbe0ac886	-0.13553056
62	0x3db580ad	0.088624336
63	0x3ebdb908	0.3705523
64	0xbdb8bd71	-0.09020508
65	0xbe08018f	-0.13281845
66	0xbe55ad51	-0.20866896
67	0x3d17bf61	0.037047748
68	0xbd601821	-0.05471051
69	0x3cd59e32	0.02607641
70	0xbec428cf	-0.38312384
71	0x3cf84b3f	0.030309318
72	0x3da7ce3f	0.08193635
73	0xbe3e1a01	-0.18564607
74	0xbed88d48	-0.4229529
75	0xbd0f9917	-0.035058107
76	0x3e4487c5	0.19192417
77	0xbe530272	-0.20606402
78	0x3e170833	0.14749222
79	0xbed9c3d2	-0.42532212
80	0x3dfc908e	0.12332259
81	0xbe82ed27	-0.25571558
82	0xbe99f32f	-0.30068347
83	0x3eaa573e	0.33269686
84	0x3d6c5ec5	0.057707567
85	0xbe6d04c3	-0.23146348
86	0x3e6e179b	0.23251192
87	0xbdcef8c6	-0.101060435
88	0xbe53b4e7	-0.20674478
89	0xbe5d7461	-0.21626426
90	0x3db35698	0.08756751
91	0x3ed0f69c	0.40813148
92	0xbe2a89c9	-0.16654123
93	0x3e8be156	0.27320355
94	0xbea678ff	-0.32514188
95	0xbc350ce9	-0.011050441
96	0xbea16fae	-0.31530517
97	0xbe6d2071	-0.23156907
98	0x3e023da8	0.12718832
99	0x3e916fef	0.2840571
100	0x3df9e94f	0.12202703
101	0xbe9bc1e4	-0.30421364
102	0xbec34013	-0.38134822
103	0xbe0b2abe	-0.13590524
104	0x3ebc8a0b	0.36824068
105	0xbea27980	-0.31733322
106	0xbed13cc1	-0.40866664
107	0xbe38f0f6	-0.1806067
108	0x3e6e0b4e	0.232465
109	0xbd8fe2a1	-0.07025648
110	0x3ebab768	0.36468053
111	0xbd888aac	-0.066670746
112	0x3e9f1151	0.310679
113	0x3e2020dd	0.15637536
114	0x3e88855f	0.26664254
115	0x3e9ff8b5	0.31244436
116	0xbecd3326	-0.40078086
117	0xbec2b375	-0.3802754
118	0x3e687236	0.22699818
119	0x3eccc6c7	0.39995405
120	0xbe9e48b2	-0.30914837
121	0x3e149f2c	0.14513844
122	0xbd71fe19	-0.059080217
123	0x3edb6482	0.4285012
124	0xbeb206ea	-0.347709
125	0xbcce5c28	-0.025190428
126	0x3e0a0991	0.13480212
127	0xbe0fc429	-0.14039673
128	0xbd8f4725	-0.069959916
129	0xbecec99b	-0.40388188
130	0xbee0e287	-0.43922827
131	0xbebb125c	-0.36537445
132	0x3ea8ece6	0.3299324
133	0x3e89135b	0.2677258
134	0xbdb50259	-0.088383384
135	0xbda5c963	-0.08095052
136	0xbe0a0af3	-0.1348074
137	0xbdacd63c	-0.084392995
138	0x3e7a97ef	0.2447202
139	0x3e7654bf	0.24055766
140	0xbe6beea5	-0.23040254
141	0x3e85ccca	0.26132804
142	0xbd8c999e	-0.06865238
143	0xbc64d503	-0.013966802
144	0xbe9b12c2	-0.3028775
145	0x3e1cfb90	0.15330338
146	0xbdb395d3	-0.08768811
147	0xbebbc042	-0.3667012
148	0xbe283a59	-0.16428508
149	0xbeb9249d	-0.36160746
150	0x3c4e6bed	0.012598974
151	0xbede8457	-0.43460342
152	0x3ebfe55c	0.37479675
153	0x3eaf6a22	0.3426066
154	0x3df984a7	0.121835046
155	0x3eb48d10	0.35263872
156	0x3ec65638	0.38737655
157	0xbdd1754a	-0.10227449
158	0xbeaca054	-0.3371607
159	0x3e902b79	0.28158167

layers.0.Aw.conv1.bias f4 [32]
0	0x3ea3f4c0	0.32022667
1	0x3dbd21b7	0.09234946
2	0xbe8a5814	-0.27020323
3	0xbed90af7	-0.42391178
4	0x3dc7111a	0.09720059
5	0xbe33729c	-0.17524189
6	0x3e588617	0.21144901
7	0xbe090545	-0.13380916
8	0x3ee5bae1	0.4486914
9	0xbe4eb11c	-0.2018475
10	0xbe4c3ed9	-0.1994585
11	0x3ed9b3be	0.42519945
12	0xbe18d05e	-0.14923236
13	0xbe3debb3	-0.18546943
14	0x3eeb27ac	0.45928705
15	0xbc91cc09	-0.017797487
16	0xbec1f992	-0.3788572
17	0x3e9bd04d	0.30432358
18	0x3de47fa2	0.111571565
19	0xbe59205e	-0.21203753
20	0x3d8ed23a	0.06973691
21	0x3ebf5398	0.37368464
22	0x3d46c52a	0.048527874
23	0xbe74c848	-0.23904526
24	0xbed35edc	-0.4128331
25	0xbda5bac9	-0.08092267
26	0xbddf184a	-0.10893305
27	0x3e58423d	0.21119018
28	0xbed97cde	-0.4247808
29	0x3e64f498	0.2235893
30	0xbeca7a98	-0.39546657
31	0x3eb991f8	0.36244178

layers.0.Aw.conv2.weight f4 [16, 32, 3]
0	0xbccac4de	-0.024752077
1	0x3c0bbde9	0.008529165
2	0x3b72f5bf	0.0037072746
3	0x3c8450c4	0.016151793
4	0xbdb9f228	-0.09079391
5	0xbcb1cb33	-0.021703338
6	0x3ce62927	0.028095795
7	0xbd442e16	-0.047895513
8	0x3dbf0bb9	0.09328408
9	0xba8de093	-0.0010824375
10	0x3daefe4d	0.08544598
11	0x3da88621	0.08228708
12	0xbcf6cd5e	-0.030127224
13	0x3d1d127c	0.038347706
14	0x3d0577dc	0.03258501
15	0xbd4ec611	-0.05048186
16	0xbd23cda1	-0.039991025
17	0xbdc13b24	-0.09435108
18	0x3d62d31d	0.055377115
19	0xbd36bd11	-0.0446139
20	0xbd5bf55f	-0.0537008
21	0x3db63f11	0.08898748
22	0x3db62e54	0.08895555
23	0xbd040dd1	-0.03223974
24	0xbd3eaefb	-0.046553593
25	0x3c5c5641	0.013448299
26	0xbda7086e	-0.08155905
27	0xbda59d61	-0.08086658
28	0x3d67b7a4	0.056571618
29	0xbd82d9ff	-0.06389236
30	0x3d04a4e4	0.032383814
31	0x3be4d01b	0.006982816
32	0xbdcf6540	-0.10126734
33	0x3d70609c	0.058685884
34	0x3d52331d	0.051318277
35	0xbc914405	-0.01773263
36	0x3d091e38	0.033476084
37	0xbdc4fde6	-0.0961874
38	0xbd626189	-0.055268798
39	0x3d3e3b11	0.04644305
40	0x3d15ac85	0.03654148
41	0x3d947836	0.07249491
42	0xbd56dec6	-0.052458547
43	0xbd4ded00	-0.05027485
44	0x3b487dae	0.003059249
45	0x3c2e15f4	0.010625351
46	0x3c840513	0.0161157
47	0xbd87b84c	-0.06626949
48	0x3c6d11da	0.014469588
49	0x3b21bd96	0.0024679652
50	0xbda13af9	-0.07872576
51	0xbc830bf6	-0.015996914
52	0x3be30543	0.0069281175
53	0x3c021392	0.007939236
54	0x3d58f6ad	0.052969623
55	0xbc515d67	-0.0127786165
56	0xbb8ac3ce	-0.0042347675
57	0xbdb29780	-0.087203026
58	0xbba47b8b	-0.0050196103
59	0xbcb4c648	-0.022067204
60	0x3d38f17d	0.045152176
61	0x3cb0f473	0.021600937
62	0x3dd0385b	0.10166999
63	0xbcaed6d0	-0.021342665
64	0xbb0a0c60	-0.0021064505
65	0xbdab18ea	-0.08354361
66	0xbb9c4f5d	-0.004770203
67	0x3b86718a	0.0041028904
68	0x3c8e0874	0.017338015
69	0xbd0dac96	-0.03458842
70	0xbd213937	-0.039361205
71	0x3d502276	0.050814115
72	0x3d9622b9	0.073308416
73	0xba0b3e70	-0.0005311733
74	0x3dc01949	0.09379823
75	0xbd4c976c	-0.049949095
76	0xbd3b46e7	-0.045721915
77	0xb7a7c9ad	-2.0001864e-05
78	0x3cfa7b39	0.030576335
79	0xbdb8d136	-0.09024279
80	0x3dc87b19	0.09789104
81	0xbdb3df1f	-0.08782791
82	0xbb1c3e1e	-0.0023840736
83	0x3c9ceb9e	0.01915532
84	0xbcc017a1	-0.023448767
85	0xbd14ffe6	-0.036376856
86	0x3cb63e34	0.022246458
87	0x3caaba91	0.020840915
88	0x3cb147ca	0.021640677
89	0x3d3b648c	0.045750186
90	0x3d9a280b	0.07527169
91	0x3d59e399	0.05319557
92	0x3dac7d06	0.08422284
93	0xbda10fb9	-0.07864327
94	0x3d28c6d2	0.041205235
95	0x3dc38050	0.09545958
96	0xbd8747ef	-0.06605517
97	0xbdbf9866	-0.093552396
98	0xbd5ce88f	-0.053932723
99	0xbd803c6c	-0.062615246
100	0x3da62fce	0.08114587
101	0xbca2e447	-0.019884242
102	0x3d51da43	0.05123354
103	0xbd0a3052	-0.033737488
104	0xbd928438	-0.07154125
105	0x3d4be377	0.049777474
106	0x3ca3cd7f	0.01999545
107	0x3dcba76e	0.09944044
108	0x3d9fb01f	0.07797264
109	0x3d09a633	0.033605766
110	0x3c8f8b5e	0.01752251
111	0xbd0648bf	-0.03278422
112	0xbdbeae33	-0.093105696
113	0xbcfa9121	-0.030586781
114	0xbd4664c0	-0.048435926
115	0x3daf2858	0.08552617
116	0x3d3dd5c8	0.046346456
117	0x3d8da1c7	0.06915622
118	0xbdd03904	-0.10167125
119	0x3d3df60c	0.046377227
120	0xbd964497	-0.07337301
121	0x3d0e937f	0.034808632
122	0xbdc882a5	-0.097905435
123	0x3d09bf12	0.033629484
124	0xbd97b9e7	-0.07408505
125	0xbc95c7a5	-0.018283674
126	0xbc106246	-0.008812493
127	0xbc881ddb	-0.016615799
128	0x3da8d68f	0.08244049
129	0x3d53d541	0.051717047
130	0x3cc3a885	0.023884067
131	0x3ce05283	0.027383095
132	0x3d133288	0.035936862
133	0xbdb0de63	-0.08636167
134	0x3c9e3c3a	0.019315828
135	0xbd85245a	-0.06501074
136	0xbcc7d189	-0.024391906
137	0x3d2368b4	0.039894775
138	0x3d81f0b3	0.06344738
139	0x3db5ac62	0.0887077
140	0xbd84f329	-0.064916916
141	0x3d281412	0.041034766
142	0x3caeeffa	0.021354664
143	0x3da64ef9	0.081205316
144	0x3d7e2810	0.062049925
145	0x3cd31c00	0.025770187
146	0xbd53d65b	-0.051718097
147	0xbd20eb8a	-0.039287128
148	0x3baf4a4f	0.0053494344
149	0x3c5efb08	0.013609655
150	0x3c54f37d	0.012997505
151	0xbc5d7d16	-0.013518592
152	0xbc9a797e	-0.01885676
153	0x3cda2e7a	0.02663349
154	0x3d9e1b9d	0.077201106
155	0xbdc205a3	-0.09473731
156	0x3d0ce096	0.03439387
157	0xbdc8a236	-0.09796564
158	0xbce40aa6	-0.027837109
159	0xbc680b59	-0.014162862
160	0xbc9a8254	-0.018860973
161	0xbd6bd336	-0.057574473
162	0xba80271f	-0.0009777284
163	0x3d73ae45	0.05949237
164	0x3cd6734a	0.026178021
165	0x3d887731	0.06663359
166	0xbd85b805	-0.065292396
167	0xbd5a3a8f	-0.053278502
168	0xbd74af93	-0.059737753
169	0x3dc8ff38	0.09814304
170	0xbd4d9f20	-0.05020058
171	0xbc092483	-0.0083705215
172	0xbd36ae0d	-0.04459958
173	0x3d3d673b	0.046241026
174	0x3d916696	0.07099645
175	0x3d8687da	0.065688804
176	0xbd10c221	-0.035341386
177	0x3d56f168	0.052476317
178	0x3d441e95	0.047880728
179	0x3d81630a	0.06317718
180	0xbd6de3d9	-0.05807862
181	0xbda88c74	-0.08229914
182	0x3dafc3b4	0.08582249
183	0x3c5a5bbc	0.013327535
184	0x3dccd110	0.10000813
185	0xbdb9966f	-0.09061896
186	0x3d76a14f	0.06021243
187	0x3d8da967	0.069170766
188	0xbd19cf0f	-0.037550982
189	0xbdc1f866	-0.09471206
190	0x3caaf006	0.020866405
191	0x3d6cfb56	0.05785688
192	0x3d1eb496	0.03874644
193	0xbd176b89	-0.036967788
194	0x3d6c640c	0.0577126
195	0x3c9a9698	0.018870637
196	0xbd8c420b	-0.06848534
197	0x3b98cd5f	0.004663154
198	0x3bd01105	0.006349685
199	0xbdbef06e	-0.09323202
200	0xba925b7b	-0.0011166179
201	0xbdcbaa23	-0.099445604
202	0x3d06ab2e	0.032878093
203	0xbd242b19	-0.040080164
204	0x3d928258	0.07153767
205	0xbd73dd97	-0.059537496
206	0xbb2abbb6	-0.0026051826
207	0xbdb91709	-0.09037597
208	0x3c44a496	0.012002131
209	0xbdbfd4b5	-0.093667425
210	0x3c4082db	0.011749948
211	0x3aac4a74	0.0013144747
212	0x3d4f6196	0.050630175
213	0x3d4fb241	0.050707106
214	0x3d9047f7	0.07044976
215	0xbc85dbc6	-0.016340148
216	0xbdaf3f0b	-0.08556946
217	0x3da9d60c	0.08292779
218	0x3ca0dbe3	0.0196361
219	0x3d88bb6f	0.06676375
220	0x3d43d747	0.047812726
221	0xbd0f59fb	-0.03499792
222	0x3d721f54	0.059111908
223	0x3da500dd	0.08056805
224	0xbd873efe	-0.06603812
225	0x3dc9c776	0.09852497
226	0xbc308f34	-0.01077633
227	0x3d854070	0.06506431
228	0x3dc4f4e6	0.09617023
229	0x3d547880	0.05187273
230	0x3db57fc6	0.088622615
231	0xbd91e126	-0.07123022
232	0xbbcf9a04	-0.0063354988
233	0xbd089e21	-0.03335393
234	0xbcdbe863	-0.026844209
235	0x3d35fc19	0.044429872
236	0x3dcfedba	0.101527646
237	0x3c8d9f00	0.017287731
238	0x3dbf3877	0.09336942
239	0x3d04f03c	0.032455668
240	0x3d61d2c2	0.055132635
241	0xbdbaf479	-0.09128661
242	0xbcd3dd33	-0.025862312
243	0x3d986f19	0.07443065
244	0x3d20b658	0.039236397
245	0x3daaf042	0.08346607
246	0x3ca2dc2d	0.019880379
247	0x3dcdd283	0.100499175
248	0xbd35309b	-0.044235807
249	0xbdbf05ef	-0.093273036
250	0xbd59787e	-0.053093426
251	0x3a98380f	0.0011613386
252	0xbd81cbc3	-0.063376926
253	0xbd8dab0f	-0.069173925
254	0x3db1531a	0.086584285
255	0x3c0bad4a	0.008525202

layers.0.Aw.conv2.bias f4 [16]
0	0x3ce10c91	0.027471812
1	0xbd29aba4	-0.041423455
2	0xbc3637f1	-0.011121736
3	0x3d87026c	0.06592259
4	0x3d8a25cb	0.0674549
5	0x3da1973c	0.07890174
6	0x3d8d9b8d	0.069144346
7	0x3dc1a973	0.09456148
8	0x3cc945a4	0.02456934
9	0x3d0d9122	0.034562238
10	0xbcb98696	-0.022647183
11	0x3d292552	0.041295357
12	0xbda7df7d	-0.08196924
13	0x3c8a1d01	0.016859533
14	0x3dcc21cb	0.09967383
15	0x3c4c3d9c	0.012465861

layers.0.Aw.conv3.weight f4 [1, 16, 3]
0	0xbdcbcad1	-0.099507935
1	0x3da40e30	0.080105186
2	0xbdae18ea	-0.08500846
3	0x3dfde4d9	0.12397165
4	0xbdc130b3	-0.09433117
5	0x3dc970dd	0.0983598
6	0x3d9adb8e	0.07561408
7	0xbc35cf1f	-0.011096745
8	0x3df56235	0.11981622
9	0xbdab9876	-0.08378689
10	0x3d665c6c	0.056240484
11	0xbce76098	-0.028244302
12	0x3d302a9d	0.04300939
13	0xbcd4c70f	-0.025973825
14	0xbd657e90	-0.056028903
15	0x3dc684b8	0.09693283
16	0x3e0af36e	0.13569424
17	0x3da357ae	0.07975708
18	0xbd7e6fe4	-0.062118426
19	0xbdf7c7c3	-0.120986484
20	0xbe089c4b	-0.13340871
21	0x3dab98b5	0.08378736
22	0x3df3b045	0.11898855
23	0x3c3ee5cc	0.0116514675
24	0xbde318a0	-0.11088681
25	0x3e05dfd7	0.1307367
26	0xbd1d90ca	-0.03846816
27	0x3d1b77ec	0.037956163
28	0x3cf43c24	0.029813834
29	0x3e10e2a3	0.14148955
30	0xbc369d05	-0.011145835
31	0x3e0aa689	0.1354009
32	0x3d765f4a	0.06014947
33	0x3d93afd8	0.07211274
34	0x3e0b884f	0.13626216
35	0x3e09f060	0.13470602
36	0xbdc648db	-0.09681865
37	0x3e12ace9	0.14323772
38	0x3d2de54a	0.042454995
39	0xbddc19ca	-0.107471064
40	0xbd6805be	-0.0566461
41	0x3d9b80c1	0.07592917
42	0x3d9af092	0.075654164
43	0xbd6b7a1a	-0.057489492
44	0x3e0f2204	0.1397782
45	0x3e0a93f1	0.13532998
46	0x3d44330b	0.04790024
47	0x3dda3b1b	0.10655805

layers.0.Ah.conv1.weight f4 [32, 1, 5]
0	0xbec29d80	-0.38010788
1	0x3e90083d	0.28131285
2	0x3d1cd978	0.03829333
3	0x3d62e7e1	0.05539692
4	0x3dc1574e	0.0944048
5	0x3e7f69f4	0.24942762
6	0xbe5c8909	-0.2153665
7	0xbd8cda8b	-0.06877621
8	0xbed1472f	-0.4087462
9	0xbe11ec18	-0.14250219
10	0xbea396b8	-0.31950927
11	0x3ece64ee	0.40311378
12	0x3e20c75d	0.15701051
13	0xbe8e6066	-0.2780792
14	0x3e7b06dd	0.24514337
15	0x3e68a13e	0.22717759
16	0x3c6e1774	0.014531959
17	0x3eb00a44	0.34382832
18	0xbe7d26a6	-0.24721774
19	0xbe3d21b6	-0.18469891
20	0xbe911a4c	-0.28340375
21	0xbe14d3be	-0.14533898
22	0x3cbe234d	0.023210192
23	0x3e8cd52a	0.2750638
24	0xbeafdc6e	-0.34347862
25	0x3e6a1e6b	0.22863166
26	0x3ec9b860	0.3939848
27	0x3da37286	0.07980828
28	0x3eb32002	0.34985358
29	0xbe156881	-0.14590646
30	0x3eef1920	0.46698856
31	0xbcd86723	-0.026416367
32	0xbea04ea5	-0.3131
33	0xbdccc1b4	-0.099978834
34	0xbe1187a7	-0.14211904
35	0xbe529997	-0.20566402
36	0xbed7f395	-0.42178026
37	0xbe4c20ec	-0.19934434
38	0xbedb2aa2	-0.42805964
39	0x3e1b42d5	0.15162213
40	0x3d8488d4	0.064714104
41	0x3db4d15e	0.08828996
42	0xbedc048d	-0.42972222
43	0xbe5c10d7	-0.21490799
44	0x3ed846f8	0.42241645
45	0xbd02f071	-0.031967584
46	0x3da59b2e	0.08086239
47	0x3ede1bcc	0.43380582
48	0xbdca5b2f	-0.09880673
49	0x3d62413d	0.055237997
50	0x3eac36f1	0.33635667
51	0x3de04d5d	0.10952256
52	0x3ea211ca	0.31654197
53	0xbea55d53	-0.32297763
54	0xbe82297c	-0.25422275
55	0x3d800a3f	0.06251954
56	0x3d113ebd	0.035460223
57	0x3e788460	0.24269247
58	0x3ea4e150	0.3220315
59	0x3e23cb14	0.15995437
60	0xbd37c3c7	-0.044864442
61	0xbebd8bef	-0.37020823
62	0x3e898e5b	0.2686642
63	0x3d3f6e55	0.04673608
64	0xbd318990	-0.04334408
65	0x3edfe65e	0.43730444
66	0x3dfc63cc	0.12323722
67	0xbeac704e	-0.33679432
68	0x3ead2c54	0.33822882
69	0xbc5b6f67	-0.01339326
70	0x3e9cdd20	0.30637455
71	0x3ea5fc0f	0.32418868
72	0x3e0124b4	0.12611657
73	0x3ed31267	0.41224977
74	0xbe93ec30	-0.28891134
75	0x3ddff0b9	0.10934586
76	0xbdd192df	-0.102330916
77	0xbcbc0aec	-0.022954427
78	0x3eddd307	0.43325064
79	0x3e42e2b9	0.190318
80	0xbdd85d62	-0.10564686
81	0x3e01cff3	0.12676983
82	0x3edcb4f6	0.43106812
83	0xbe79ef92	-0.24407795
84	0xbe5d61ce	-0.21619341
85	0xbe838f7b	-0.25695404
86	0x3ddeaea9	0.108731575
87	0xbea7b5a3	-0.32755765
88	0x3cc6b853	0.024257815
89	0xbe719320	-0.2359128
90	0xbe94ec17	-0.29086372
91	0x3dacf298	0.084447086
92	0xbb9c3cb3	-0.004767978
93	0xbdbfffbc	-0.09374949
94	0xbe794b48	-0.24345124
95	0xbe6a7b5f	-0.22898625
96	0xbd3de1ca	-0.046357907
97	0x3e31b4ba	0.17354098
98	0xbdd2a78b	-0.102858625
99	0xbe531501	-0.20613481
100	0xbecd5869	-0.40106514
101	0x3e9d7fd2	0.30761582
102	0xbdb8e0e1	-0.09027267
103	0x3ec402ca	0.38283378
104	0xbcd797bc	-0.02631747
105	0x3ec3c056	0.38232678
106	0x3e3960a1	0.18103267
107	0x3dbe13cb	0.09281119
108	0x3cbfdf50	0.023421913
109	0x3d201344	0.039080873
110	0x3db4682e	0.08808933
111	0x3edeb2b4	0.43495715
112	0x3eb1600c	0.3464359
113	0xbe4cc5e2	-0.19997361
114	0x3d83370c	0.06406984
115	0xbeac1eff	-0.33617398
116	0xbe2d9036	-0.16949543
117	0x3dcdce60	0.100491285
118	0x3c08efd0	0.008357957
119	0xbdb912bd	-0.09036777
120	0xbeeb8324	-0.4599849
121	0xbe52cedb	-0.20586722
122	0xbe880a5e	-0.2657041
123	0xbeb98919	-0.3623741
124	0xbe116cfe	-0.14201733
125	0x3ee48055	0.4462916
126	0xbeb7402a	-0.3579114
127	0x3e66e24d	0.22547264
128	0xbed0fe56	-0.40819043
129	0x3e508aaf	0.20365404
130	0xbeaaea46	-0.3338186
131	0x3e643c40	0.22288609
132	0x3cab9343	0.020944243
133	0xbeced5fd	-0.40397635
134	0x3e105cb3	0.14097862
135	0x3e6b42c4	0.22974688
136	0xbdcaa756	-0.09895198
137	0x3dd0610e	0.10174762
138	0xbec52110	-0.38501787
139	0xbd15256d	-0.036412645
140	0x3dc4255e	0.0957744
141	0xbe894d40	-0.2681675
142	0xbeea9142	-0.45813948
143	0x3e8e646c	0.2781099
144	0x3d96d004	0.073638946
145	0x3ec284d3	0.37991962
146	0x3e94da70	0.29072905
147	0xbda7183f	-0.081589215
148	0xbe135a21	-0.1438985
149	0xbee47755	-0.44622293
150	0xbec3576a	-0.3815263
151	0x3ea7786d	0.32709065
152	0x3e2784c2	0.16359237
153	0xbe072f8f	-0.13201736
154	0x3eca310a	0.3949054
155	0x3e1aafb8	0.15106094
156	0x3e57b2ae	0.21064255
157	0x3d5dab4b	0.054118436
158	0x3eadf82b	0.339784
159	0x3d56b0e8	0.052414805

layers.0.Ah.conv1.bias f4 [32]
0	0x3df2b1b8	0.118503034
1	0xbeb1835a	-0.34670526
2	0xbe1fb3f1	-0.15595986
3	0x3e48c2a2	0.19605497
4	0x3e58f494	0.21187049
5	0xbee52215	-0.44752565
6	0x3ea74e18	0.32676768
7	0xbe2bcadb	-0.16776602
8	0xbe425680	-0.1897831
9	0xbecdb010	-0.40173388
10	0x3e411d88	0.18858922
11	0xbe827983	-0.2548333
12	0x3eaf5d27	0.34250757
13	0x3ead3594	0.3382994
14	0xbe119f4f	-0.14220928
15	0x3d80c27a	0.062870935
16	0xb60ac52e	-2.0678376e-06
17	0x3dee1500	0.11625099
18	0x3e498f7f	0.19683646
19	0x3e943b6e	0.2895159
20	0x3cf6c499	0.030123042
21	0x3ec6f0d7	0.3885562
22	0xbd021576	-0.031758748
23	0xbed6786f	-0.4188876
24	0xbe22e8e3	-0.15909152
25	0x3d5215d9	0.051290367
26	0x3eb68ef5	0.35655943
27	0xbdaef9cd	-0.085437395
28	0xbe6413b0	-0.22273135
29	0xbe2aedf0	-0.16692328
30	0x3ee4d005	0.44689956
31	0x3ea2eb17	0.31819984

layers.0.Ah.conv2.weight f4 [16, 32, 3]
0	0x3bc60bba	0.0060438784
1	0xbda4dafd	-0.08049581
2	0xbdc31f07	-0.09527402
3	0x3d46da20	0.048547864
4	0x3ddf6f97	0.10909956
5	0x3dfa114a	0.12210329
6	0x3c2ee289	0.010674127
7	0x3d9e5657	0.07731312
8	0x3d275ab3	0.040857982
9	0xbda2eb5a	-0.07955046
10	0xbd2d2d02	-0.04227925
11	0xbc829567	-0.015940381
12	0xbd6a7966	-0.05724468
13	0xbd986bf9	-0.07442469
14	0xbd705dbb	-0.05868314
15	0x3db1fee0	0.08691192
16	0x3d375fa3	0.04476894
17	0x3dc31730	0.09525907
18	0xbd066654	-0.03281243
19	0x3b052949	0.0020318797
20	0xbd213848	-0.039360315
21	0xbd952642	-0.07282688
22	0x3dda6427	0.10663634
23	0x3c8be119	0.017075108
24	0x3da6a7c2	0.08137466
25	0x3d958cf2	0.07302274
26	0xbce2791d	-0.027645642
27	0xbd47b84a	-0.048759736
28	0x3d38a328	0.045077473
29	0x3d9957df	0.07487463
30	0xbe03dd6c	-0.12877434
31	0xbd859e68	-0.06524354
32	0x3cca96cc	0.024730109
33	0xbcc83ed9	-0.02444403
34	0x3cbcad15	0.02303175
35	0x3df1fb4c	0.11815509
36	0xbcbd210f	-0.023087053
37	0x3c803ad4	0.015653051
38	0xbdb99959	-0.09062452
39	0xbd1697a4	-0.03676571
40	0x3d85c1d5	0.06531111
41	0xbd43f40b	-0.04784016
42	0x39d87b56	0.00041290623
43	0x3d9d3438	0.076759756
44	0x3b2164b9	0.0024626686
45	0x3d98d941	0.07463313
46	0xbdc9e31a	-0.09857769
47	0xbd5c5489	-0.053791557
48	0xbd523794	-0.051322535
49	0xbdcf0338	-0.10108036
50	0x3d70f764	0.05882968
51	0xbdd008d9	-0.101579376
52	0xbc8e370f	-0.017360238
53	0xbaae1bb3	-0.0013283401
54	0x3d2eca2c	0.042673275
55	0xbb88efb3	-0.004178965
56	0x3cc6e923	0.02428109
57	0x3d2086aa	0.039190926
58	0x3b07c0bb	0.0020714242
59	0xbd3db017	-0.04631051
60	0xbd6b1576	-0.057393514
61	0xbc8cac35	-0.017171958
62	0xb99bb59e	-0.0002969922
63	0xbdc150f6	-0.0943927
64	0xbcc73447	-0.02431692
65	0xbdee43f0	-0.11634052
66	0x3cc7571b	0.024333527
67	0x3d21b3d6	0.039478146
68	0xbdb0739c	-0.08615801
69	0x3d80e6e5	0.0629404
70	0xbcc0f8e5	-0.023556182
71	0xbd1d437b	-0.038394433
72	0x3bce9b34	0.0063051227
73	0xbc985fd0	-0.018600374
74	0xbd2d0d02	-0.042248733
75	0xbdfe8932	-0.12428512
76	0xbd1036c4	-0.03520848
77	0x3d0a23c4	0.033725515
78	0xbc87ad99	-0.01656227
79	0xbdde1e38	-0.108456075
80	0x3ba337ef	0.004981033
81	0x3c90ebdd	0.017690593
82	0xbd8671bd	-0.065646626
83	0x3cdf6907	0.02727176
84	0x3ddf84e9	0.109140225
85	0x3d0f2624	0.034948483
86	0xbcc1e256	-0.023667496
87	0x3d8fdc5b	0.07024451
88	0x3ce43661	0.027857961
89	0x3d846083	0.06463721
90	0xbd09cce5	-0.03364267
91	0xbdf0dfe6	-0.11761455
92	0xbccb12a3	-0.02478916
93	0xbdde60bb	-0.108582936
94	0x3d2ac736	0.04169389
95	0x3d726b6e	0.059184484
96	0xbca20c33	-0.019781208
97	0xbd30540d	-0.043048907
98	0xbccce2d0	-0.025010496
99	0xbb8415c6	-0.004030916
100	0xbdb5ebc1	-0.08882857
101	0xbdf1a423	-0.11798885
102	0xbc1125fc	-0.008859154
103	0xbdc82a8d	-0.09773741
104	0x3c268928	0.010164537
105	0xbb520ef6	-0.0032052374
106	0x3df9350f	0.12168323
107	0x3d59c850	0.05316955
108	0x3c747db9	0.014922553
109	0x3de7b31e	0.11313461
110	0xbc63d787	-0.013906366
111	0xbcd5f9a1	-0.026120009
112	0x3c7ceb18	0.01543691
113	0x3d214f78	0.039382428
114	0xbd1b098a	-0.037850894
115	0xbc86998e	-0.016430642
116	0x3c55bbd0	0.013045266
117	0x3d755a65	0.05990066
118	0xbdd67296	-0.10471074
119	0xbc27ab8f	-0.010233774
120	0x3b339c2c	0.0027406318
121	0x3bdb7f21	0.0066985046
122	0x3d3b81d4	0.04577811
123	0xbd25c7da	-0.040473796
124	0x3d6ef82b	0.05834214
125	0xbd156168	-0.036469847
126	0x3ddd30a1	0.10800291
127	0x3c8133ba	0.015771735
128	0xbc9a9ac4	-0.018872626
129	0xbdc1edba	-0.09469171
130	0xbba443c7	-0.0050129625
131	0x3d75d280	0.0600152
132	0xbc02dad4	-0.007986743
133	0x3d842958	0.06453198
134	0xbc84f090	-0.01622799
135	0xbd146249	-0.036226545
136	0x3e002aee	0.12516376
137	0xbd0315b2	-0.032003112
138	0xbc914199	-0.017731475
139	0x3d9b95b7	0.07596915
140	0x3d8d5597	0.069010906
141	0x3d7cb8fc	0.061699852
142	0xbd813bf8	-0.06310266
143	0x3d985f47	0.07440048
144	0x3dcb7a5b	0.09935447
145	0x3df439cf	0.119250886
146	0x3e0768db	0.13223593
147	0x3d30f039	0.043197844
148	0x3d3b5160	0.045731902
149	0x3e005ae0	0.12534666
150	0xbc4429b3	-0.0119728325
151	0x3d35d39a	0.044391252
152	0x3cf70ac9	0.03015651
153	0x3e0ac20c	0.13550586
154	0xbd7bcfad	-0.061477352
155	0x3e00db86	0.12583742
156	0x3ddad862	0.10685803
157	0x3d56c93e	0.052438013
158	0x3c2d1a6d	0.010565382
159	0x3d2ef0ac	0.04270999
160	0x3daaff18	0.083494365
161	0x3d9a332b	0.07529291
162	0x3de6ae1f	0.1126368
163	0x3cd8b66f	0.026454179
164	0xbda8b8f3	-0.08238401
165	0x3d705241	0.058672193
166	0x3d892554	0.06696573
167	0xbdcb68d7	-0.09932106
168	0xbda110f2	-0.0786456
169	0x3b7b69d0	0.003836263
170	0x3bf79d6e	0.007556609
171	0x3dcc0f71	0.09963883
172	0x3d389478	0.045063466
173	0xbd547fb7	-0.05187961
174	0x3debbcf6	0.11510651
175	0xbc9d1a39	-0.019177543
176	0xbccffe99	-0.025389956
177	0x3c9e5d2f	0.019331543
178	0xbc54d8b3	-0.012991118
179	0xbd7cf72d	-0.061759163
180	0xbcef5c4e	-0.029218819
181	0xbdfcb224	-0.12338665
182	0xbccdf4ce	-0.025141146
183	0xbc83899e	-0.016056832
184	0xbdcf9736	-0.10136263
185	0xbd7a2405	-0.061069507
186	0xbd290c10	-0.04127127
187	0xbd214f3d	-0.03938221
188	0x3e079162	0.13239053
189	0x3d0a8262	0.03381575
190	0x3d74e404	0.059787765
191	0x3d25278d	0.04032092
192	0xbcd4bd39	-0.025969135
193	0xbdcb8a62	-0.09938504
194	0xbdaccdaf	-0.084376685
195	0xbd431f59	-0.047637317
196	0x3dbb158b	0.09134968
197	0x3dd8c9a9	0.105853386
198	0x3de24cc8	0.11049801
199	0xbc4a9b93	-0.012366193
200	0x3ba8126c	0.005129149
201	0x3d47ae47	0.04875019
202	0x3c6efa86	0.014586097
203	0x3db3d5d5	0.087810196
204	0x3d98601a	0.07440205
205	0xbcf04aee	-0.029332604
206	0x3d83bb94	0.06432262
207	0x3cf82e9f	0.030295668
208	0x3dcf621f	0.10126137
209	0x3dc507a1	0.09620596
210	0xbd541ac4	-0.05178334
211	0xbdad697b	-0.084673844
212	0x3d156258	0.03647074
213	0xbd8fbdc3	-0.07018616
214	0x3d226036	0.039642535
215	0xbc6c9017	-0.014438651
216	0xbbe806fe	-0.0070809117
217	0xbc8a10fa	-0.016853798
218	0xbd6b85f6	-0.057500802
219	0x3da583ff	0.08081817
220	0x3ca9184b	0.020641467
221	0x3c708e42	0.014682354
222	0x3d6c1644	0.05763842
223	0x3ba8dcb5	0.0051532635
224	0x3d9bb368	0.076025784
225	0x3dd893fc	0.10575101
226	0x3d96f0bf	0.073701374
227	0x3d93db47	0.07219558
228	0xbdab54f8	-0.08365816
229	0x3ce60dea	0.028082807
230	0xbd516e78	-0.05113074
231	0xbd44a1cf	-0.048005875
232	0xbd8b35d3	-0.067973755
233	0xbd7986c4	-0.06091954
234	0xbd4e3635	-0.050344665
235	0x3d938e41	0.07204867
236	0x3db99866	0.09062271
237	0x3d2ada5a	0.041712143
238	0x3d566390	0.052341044
239	0xbc8ff1a1	-0.017571272
240	0xbda054a6	-0.078286454
241	0xbd78ca05	-0.060739536
242	0x3d9528e5	0.07283191
243	0x3d87f863	0.06639173
244	0x3d16c241	0.03680635
245	0x3ca95ebd	0.020675058
246	0x3d87eca7	0.06636935
247	0xbdcf11b3	-0.10110798
248	0xbd884420	-0.06653619
249	0x3d6e9549	0.05824784
250	0xbc446ee4	-0.011989329
251	0x3c55f941	0.013059915
252	0xbb5ca02b	-0.0033664803
253	0xbdd1a659	-0.102368064
254	0x3db7bb12	0.08971228
255	0x3d86921e	0.065708384

layers.0.Ah.conv2.bias f4 [16]
0	0xbc82b42e	-0.015955057
1	0xbd82f274	-0.063939005
2	0x3d132738	0.035926074
3	0x3dbb1865	0.09135512
4	0x3da41345	0.08011488
5	0xbd43b61b	-0.04778109
6	0xbd8d9f00	-0.069150925
7	0xbb0a38ce	-0.0021090987
8	0x3a150a34	0.00056854193
9	0xbbbdc4c8	-0.0057912804
10	0xbdfdae56	-0.123867676
11	0x3cfe9ec4	0.031081565
12	0xbcf809d3	-0.030278122
13	0x3d3961af	0.045259174
14	0xbdf0a801	-0.11750794
15	0xbddb160a	-0.10697563

layers.0.Ah.conv3.weight f4 [1, 16, 3]
0	0xbe1b19dd	-0.15146585
1	0xbc71f70d	-0.014768374
2	0xbdd694f4	-0.10477629
3	0x3de2db62	0.11077
4	0x3c738be7	0.014864898
5	0x3cd695e0	0.026194513
6	0xbc801264	-0.01563377
7	0xbdbbf20e	-0.09177028
8	0x3c2eba87	0.010664589
9	0x3e00126d	0.12507029
10	0xbc07f94e	-0.008299185
11	0x3bffc5cf	0.007805563
12	0xbdd22ff6	-0.10263054
13	0x3db79b70	0.08965194
14	0x3debe8da	0.11519022
15	0x3e2773b7	0.16352735
16	0x3d81af4c	0.06332263
17	0x3cfb1af4	0.0306525
18	0xbc7d6978	-0.01546704
19	0xbd80a5e5	-0.06281642
20	0x3e0e935d	0.13923402
21	0xbcb4e8eb	-0.02208372
22	0xbc4301c6	-0.011902278
23	0x3e1bf00f	0.15228294
24	0xbe268141	-0.16260244
25	0x3dab1222	0.08353068
26	0xbdc1a2b1	-0.09454859
27	0xbc391456	-0.011296352
28	0xbe047863	-0.12936549
29	0x3cc60154	0.024170555
30	0xbe2a63d1	-0.1663964
31	0xbda8c401	-0.0824051
32	0x3dd8e6c8	0.10590893
33	0x3dc14d6e	0.09438597
34	0xbbec839f	-0.007217839
35	0x3d771698	0.06032428
36	0x3e14a0ec	0.14514512
37	0x3dce80b9	0.10083146
38	0xbdab4a6c	-0.08363804
39	0x3dae8693	0.08521762
40	0x3d7dfec6	0.06201055
41	0x3cacc2e5	0.021089027
42	0xbda19680	-0.07890034
43	0xbcddb693	-0.027064597
44	0xbdd3ebc5	-0.10347704
45	0x3ca52a19	0.020161675
46	0xbe1dd08a	-0.15411583
47	0xbda9ae62	-0.08285214

layers.1.Aw.conv1.weight f4 [32, 1, 5]
0	0xbe8be123	-0.27320203
1	0xbd4dec8a	-0.05027441
2	0xbd47b374	-0.048755124
3	0x3ec0107f	0.37512586
4	0x3edd4f62	0.43224627
5	0x3dbe58a4	0.092942506
6	0xbeabe114	-0.33570158
7	0x3e0cf08e	0.1376364
8	0xbe804655	-0.2505366
9	0xbea18773	-0.31548652
10	0x3ec4afcb	0.3841537
11	0x3e3d3915	0.18478806
12	0xbe9757bb	-0.2955912
13	0x3ebc3988	0.36762643
14	0x3e442363	0.19154124
15	0x3dc8453c	0.097788304
16	0xbe8e5562	-0.27799517
17	0x3d5512a5	0.052019734
18	0x3e29a7c4	0.16567904
19	0x3e70c0dc	0.2351107
20	0x3e978cec	0.29599702
21	0x3edd75b1	0.43253854
22	0xbedf6a9f	-0.43636033
23	0xbdc02fd7	-0.09384125
24	0x3ee4d0ad	0.44690457
25	0xbd9a2ec7	-0.07528453
26	0x3e85f1ce	0.26161045
27	0x3e4885e3	0.19582324
28	0x3dddfe4d	0.1083952
29	0x3eb39d89	0.35081127
30	0x3e6d97a0	0.23202372
31	0x3e0234e2	0.12715486
32	0x3e2742dd	0.163341
33	0x3e78b262	0.24286798
34	0xbdbdf891	-0.09275926
35	0xbe8bd5a9	-0.27311447
36	0xbe2a2feb	-0.16619842
37	0xbed1d61d	-0.40983668
38	0xbe421e48	-0.18956864
39	0x3ea19859	0.31561545
40	0x3e464b7d	0.19364734
41	0x3e875507	0.26432058
42	0x3e9a2233	0.30104217
43	0xbd4525cb	-0.048131745
44	0x3d3544a7	0.044254925
45	0x3dfba9d7	0.12288254
46	0xbeb6258c	-0.3557552
47	0x3dcbc8c1	0.099504
48	0x3e66e38f	0.22547744
49	0xbea0a529	-0.31376007
50	0xbecb2663	-0.39677724
51	0xbea4a6f7	-0.32158634
52	0x3e7b7172	0.24554995
53	0xbeb352bb	-0.35024056
54	0xbecd7493	-0.40128002
55	0xbe5636ff	-0.20919417
56	0x3d8e6c02	0.069541946
57	0xbeab49c6	-0.33454722
58	0x3e15e7a7	0.1463915
59	0x3e8af99e	0.27143568
60	0xbe8df71f	-0.277276
61	0xbe0ac886	-0.13553056
62	0x3db580ad	0.088624336
63	0x3ebdb908	0.3705523
64	0xbdb8bd71	-0.09020508
65	0xbe08018f	-0.13281845
66	0xbe55ad51	-0.20866896
67	0x3d17bf61	0.037047748
68	0xbd601821	-0.05471051
69	0x3cd59e32	0.02607641
70	0xbec428cf	-0.38312384
71	0x3cf84b3f	0.030309318
72	0x3da7ce3f	0.08193635
73	0xbe3e1a01	-0.18564607
74	0xbed88d48	-0.4229529
75	0xbd0f9917	-0.035058107
76	0x3e4487c5	0.19192417
77	0xbe530272	-0.20606402
78	0x3e170833	0.14749222
79	0xbed9c3d2	-0.42532212
80	0x3dfc908e	0.12332259
81	0xbe82ed27	-0.25571558
82	0xbe99f32f	-0.30068347
83	0x3eaa573e	0.33269686
84	0x3d6c5ec5	0.057707567
85	0xbe6d04c3	-0.23146348
86	0x3e6e179b	0.23251192
87	0xbdcef8c6	-0.101060435
88	0xbe53b4e7	-0.20674478
89	0xbe5d7461	-0.21626426
90	0x3db35698	0.08756751
91	0x3ed0f69c	0.40813148
92	0xbe2a89c9	-0.16654123
93	0x3e8be156	0.27320355
94	0xbea678ff	-0.32514188
95	0xbc350ce9	-0.011050441
96	0xbea16fae	-0.31530517
97	0xbe6d2071	-0.23156907
98	0x3e023da8	0.12718832
99	0x3e916fef	0.2840571
100	0x3df9e94f	0.12202703
101	0xbe9bc1e4	-0.30421364
102	0xbec34013	-0.38134822
103	0xbe0b2abe	-0.13590524
104	0x3ebc8a0b	0.36824068
105	0xbea27980	-0.31733322
106	0xbed13cc1	-0.40866664
107	0xbe38f0f6	-0.1806067
108	0x3e6e0b4e	0.232465
109	0xbd8fe2a1	-0.07025648
110	0x3ebab768	0.36468053
111	0xbd888aac	-0.066670746
112	0x3e9f1151	0.310679
113	0x3e2020dd	0.15637536
114	0x3e88855f	0.26664254
115	0x3e9ff8b5	0.31244436
116	0xbecd3326	-0.40078086
117	0xbec2b375	-0.3802754
118	0x3e687236	0.22699818
119	0x3eccc6c7	0.39995405
120	0xbe9e48b2	-0.30914837
121	0x3e149f2c	0.14513844
122	0xbd71fe19	-0.059080217
123	0x3edb6482	0.4285012
124	0xbeb206ea	-0.347709
125	0xbcce5c28	-0.025190428
126	0x3e0a0991	0.13480212
127	0xbe0fc429	-0.14039673
128	0xbd8f4725	-0.069959916
129	0xbecec99b	-0.40388188
130	0xbee0e287	-0.43922827
131	0xbebb125c	-0.36537445
132	0x3ea8ece6	0.3299324
133	0x3e89135b	0.2677258
134	0xbdb50259	-0.088383384
135	0xbda5c963	-0.08095052
136	0xbe0a0af3	-0.1348074
137	0xbdacd63c	-0.084392995
138	0x3e7a97ef	0.2447202
139	0x3e7654bf	0.24055766
140	0xbe6beea5	-0.23040254
141	0x3e85ccca	0.26132804
142	0xbd8c999e	-0.06865238
143	0xbc64d503	-0.013966802
144	0xbe9b12c2	-0.3028775
145	0x3e1cfb90	0.15330338
146	0xbdb395d3	-0.08768811
147	0xbebbc042	-0.3667012
148	0xbe283a59	-0.16428508
149	0xbeb9249d	-0.36160746
150	0x3c4e6bed	0.012598974
151	0xbede8457	-0.43460342
152	0x3ebfe55c	0.37479675
153	0x3eaf6a22	0.3426066
154	0x3df984a7	0.121835046
155	0x3eb48d10	0.35263872
156	0x3ec65638	0.38737655
157	0xbdd1754a	-0.10227449
158	0xbeaca054	-0.3371607
159	0x3e902b79	0.28158167

layers.1.Aw.conv1.bias f4 [32]
0	0x3ea3f4c0	0.32022667
1	0x3dbd21b7	0.09234946
2	0xbe8a5814	-0.27020323
3	0xbed90af7	-0.42391178
4	0x3dc7111a	0.09720059
5	0xbe33729c	-0.17524189
6	0x3e588617	0.21144901
7	0xbe090545	-0.13380916
8	0x3ee5bae1	0.4486914
9	0xbe4eb11c	-0.2018475
10	0xbe4c3ed9	-0.1994585
11	0x3ed9b3be	0.42519945
12	0xbe18d05e	-0.14923236
13	0xbe3debb3	-0.18546943
14	0x3eeb27ac	0.45928705
15	0xbc91cc09	-0.017797487
16	0xbec1f992	-0.3788572
17	0x3e9bd04d	0.30432358
18	0x3de47fa2	0.111571565
19	0xbe59205e	-0.21203753
20	0x3d8ed23a	0.06973691
21	0x3ebf5398	0.37368464
22	0x3d46c52a	0.048527874
23	0xbe74c848	-0.23904526
24	0xbed35edc	-0.4128331
25	0xbda5bac9	-0.08092267
26	0xbddf184a	-0.10893305
27	0x3e58423d	0.21119018
28	0xbed97cde	-0.4247808
29	0x3e64f498	0.2235893
30	0xbeca7a98	-0.39546657
31	0x3eb991f8	0.36244178

layers.1.Aw.conv2.weight f4 [16, 32, 3]
0	0xbccac4de	-0.024752077
1	0x3c0bbde9	0.008529165
2	0x3b72f5bf	0.0037072746
3	0x3c8450c4	0.016151793
4	0xbdb9f228	-0.09079391
5	0xbcb1cb33	-0.021703338
6	0x3ce62927	0.028095795
7	0xbd442e16	-0.047895513
8	0x3dbf0bb9	0.09328408
9	0xba8de093	-0.0010824375
10	0x3daefe4d	0.08544598
11	0x3da88621	0.08228708
12	0xbcf6cd5e	-0.030127224
13	0x3d1d127c	0.038347706
14	0x3d0577dc	0.03258501
15	0xbd4ec611	-0.05048186
16	0xbd23cda1	-0.039991025
17	0xbdc13b24	-0.09435108
18	0x3d62d31d	0.055377115
19	0xbd36bd11	-0.0446139
20	0xbd5bf55f	-0.0537008
21	0x3db63f11	0.08898748
22	0x3db62e54	0.08895555
23	0xbd040dd1	-0.03223974
24	0xbd3eaefb	-0.046553593
25	0x3c5c5641	0.013448299
26	0xbda7086e	-0.08155905
27	0xbda59d61	-0.08086658
28	0x3d67b7a4	0.056571618
29	0xbd82d9ff	-0.06389236
30	0x3d04a4e4	0.032383814
31	0x3be4d01b	0.006982816
32	0xbdcf6540	-0.10126734
33	0x3d70609c	0.058685884
34	0x3d52331d	0.051318277
35	0xbc914405	-0.01773263
36	0x3d091e38	0.033476084
37	0xbdc4fde6	-0.0961874
38	0xbd626189	-0.055268798
39	0x3d3e3b11	0.04644305
40	0x3d15ac85	0.03654148
41	0x3d947836	0.07249491
42	0xbd56dec6	-0.052458547
43	0xbd4ded00	-0.05027485
44	0x3b487dae	0.003059249
45	0x3c2e15f4	0.010625351
46	0x3c840513	0.0161157
47	0xbd87b84c	-0.06626949
48	0x3c6d11da	0.014469588
49	0x3b21bd96	0.0024679652
50	0xbda13af9	-0.07872576
51	0xbc830bf6	-0.015996914
52	0x3be30543	0.0069281175
53	0x3c021392	0.007939236
54	0x3d58f6ad	0.052969623
55	0xbc515d67	-0.0127786165
56	0xbb8ac3ce	-0.0042347675
57	0xbdb29780	-0.087203026
58	0xbba47b8b	-0.0050196103
59	0xbcb4c648	-0.022067204
60	0x3d38f17d	0.045152176
61	0x3cb0f473	0.021600937
62	0x3dd0385b	0.10166999
63	0xbcaed6d0	-0.021342665
64	0xbb0a0c60	-0.0021064505
65	0xbdab18ea	-0.08354361
66	0xbb9c4f5d	-0.004770203
67	0x3b86718a	0.0041028904
68	0x3c8e0874	0.017338015
69	0xbd0dac96	-0.03458842
70	0xbd213937	-0.039361205
71	0x3d502276	0.050814115
72	0x3d9622b9	0.073308416
73	0xba0b3e70	-0.0005311733
74	0x3dc01949	0.09379823
75	0xbd4c976c	-0.049949095
76	0xbd3b46e7	-0.045721915
77	0xb7a7c9ad	-2.0001864e-05
78	0x3cfa7b39	0.030576335
79	0xbdb8d136	-0.09024279
80	0x3dc87b19	0.09789104
81	0xbdb3df1f	-0.08782791
82	0xbb1c3e1e	-0.0023840736
83	0x3c9ceb9e	0.01915532
84	0xbcc017a1	-0.023448767
85	0xbd14ffe6	-0.036376856
86	0x3cb63e34	0.022246458
87	0x3caaba91	0.020840915
88	0x3cb147ca	0.021640677
89	0x3d3b648c	0.045750186
90	0x3d9a280b	0.07527169
91	0x3d59e399	0.05319557
92	0x3dac7d06	0.08422284
93	0xbda10fb9	-0.07864327
94	0x3d28c6d2	0.041205235
95	0x3dc38050	0.09545958
96	0xbd8747ef	-0.06605517
97	0xbdbf9866	-0.093552396
98	0xbd5ce88f	-0.053932723
99	0xbd803c6c	-0.062615246
100	0x3da62fce	0.08114587
101	0xbca2e447	-0.019884242
102	0x3d51da43	0.05123354
103	0xbd0a3052	-0.033737488
104	0xbd928438	-0.07154125
105	0x3d4be377	0.049777474
106	0x3ca3cd7f	0.01999545
107	0x3dcba76e	0.09944044
108	0x3d9fb01f	0.07797264
109	0x3d09a633	0.033605766
110	0x3c8f8b5e	0.01752251
111	0xbd0648bf	-0.03278422
112	0xbdbeae33	-0.093105696
113	0xbcfa9121	-0.030586781
114	0xbd4664c0	-0.048435926
115	0x3daf2858	0.08552617
116	0x3d3dd5c8	0.046346456
117	0x3d8da1c7	0.06915622
118	0xbdd03904	-0.10167125
119	0x3d3df60c	0.046377227
120	0xbd964497	-0.07337301
121	0x3d0e937f	0.034808632
122	0xbdc882a5	-0.097905435
123	0x3d09bf12	0.033629484
124	0xbd97b9e7	-0.07408505
125	0xbc95c7a5	-0.018283674
126	0xbc106246	-0.008812493
127	0xbc881ddb	-0.016615799
128	0x3da8d68f	0.08244049
129	0x3d53d541	0.051717047
130	0x3cc3a885	0.023884067
131	0x3ce05283	0.027383095
132	0x3d133288	0.035936862
133	0xbdb0de63	-0.08636167
134	0x3c9e3c3a	0.019315828
135	0xbd85245a	-0.06501074
136	0xbcc7d189	-0.024391906
137	0x3d2368b4	0.039894775
138	0x3d81f0b3	0.06344738
139	0x3db5ac62	0.0887077
140	0xbd84f329	-0.064916916
141	0x3d281412	0.041034766
142	0x3caeeffa	0.021354664
143	0x3da64ef9	0.081205316
144	0x3d7e2810	0.062049925
145	0x3cd31c00	0.025770187
146	0xbd53d65b	-0.051718097
147	0xbd20eb8a	-0.039287128
148	0x3baf4a4f	0.0053494344
149	0x3c5efb08	0.013609655
150	0x3c54f37d	0.012997505
151	0xbc5d7d16	-0.013518592
152	0xbc9a797e	-0.01885676
153	0x3cda2e7a	0.02663349
154	0x3d9e1b9d	0.077201106
155	0xbdc205a3	-0.09473731
156	0x3d0ce096	0.03439387
157	0xbdc8a236	-0.09796564
158	0xbce40aa6	-0.027837109
159	0xbc680b59	-0.014162862
160	0xbc9a8254	-0.018860973
161	0xbd6bd336	-0.057574473
162	0xba80271f	-0.0009777284
163	0x3d73ae45	0.05949237
164	0x3cd6734a	0.026178021
165	0x3d887731	0.06663359
166	0xbd85b805	-0.065292396
167	0xbd5a3a8f	-0.053278502
168	0xbd74af93	-0.059737753
169	0x3dc8ff38	0.09814304
170	0xbd4d9f20	-0.05020058
171	0xbc092483	-0.0083705215
172	0xbd36ae0d	-0.04459958
173	0x3d3d673b	0.046241026
174	0x3d916696	0.07099645
175	0x3d8687da	0.065688804
176	0xbd10c221	-0.035341386
177	0x3d56f168	0.052476317
178	0x3d441e95	0.047880728
179	0x3d81630a	0.06317718
180	0xbd6de3d9	-0.05807862
181	0xbda88c74	-0.08229914
182	0x3dafc3b4	0.08582249
183	0x3c5a5bbc	0.013327535
184	0x3dccd110	0.10000813
185	0xbdb9966f	-0.09061896
186	0x3d76a14f	0.06021243
187	0x3d8da967	0.069170766
188	0xbd19cf0f	-0.037550982
189	0xbdc1f866	-0.09471206
190	0x3caaf006	0.020866405
191	0x3d6cfb56	0.05785688
192	0x3d1eb496	0.03874644
193	0xbd176b89	-0.036967788
194	0x3d6c640c	0.0577126
195	0x3c9a9698	0.018870637
196	0xbd8c420b	-0.06848534
197	0x3b98cd5f	0.004663154
198	0x3bd01105	0.006349685
199	0xbdbef06e	-0.09323202
200	0xba925b7b	-0.0011166179
201	0xbdcbaa23	-0.099445604
202	0x3d06ab2e	0.032878093
203	0xbd242b19	-0.040080164
204	0x3d928258	0.07153767
205	0xbd73dd97	-0.059537496
206	0xbb2abbb6	-0.0026051826
207	0xbdb91709	-0.09037597
208	0x3c44a496	0.012002131
209	0xbdbfd4b5	-0.093667425
210	0x3c4082db	0.011749948
211	0x3aac4a74	0.0013144747
212	0x3d4f6196	0.050630175
213	0x3d4fb241	0.050707106
214	0x3d9047f7	0.07044976
215	0xbc85dbc6	-0.016340148
216	0xbdaf3f0b	-0.08556946
217	0x3da9d60c	0.08292779
218	0x3ca0dbe3	0.0196361
219	0x3d88bb6f	0.06676375
220	0x3d43d747	0.047812726
221	0xbd0f59fb	-0.03499792
222	0x3d721f54	0.059111908
223	0x3da500dd	0.08056805
224	0xbd873efe	-0.06603812
225	0x3dc9c776	0.09852497
226	0xbc308f34	-0.01077633
227	0x3d854070	0.06506431
228	0x3dc4f4e6	0.09617023
229	0x3d547880	0.05187273
230	0x3db57fc6	0.088622615
231	0xbd91e126	-0.07123022
232	0xbbcf9a04	-0.0063354988
233	0xbd089e21	-0.03335393
234	0xbcdbe863	-0.026844209
235	0x3d35fc19	0.044429872
236	0x3dcfedba	0.101527646
237	0x3c8d9f00	0.017287731
238	0x3dbf3877	0.09336942
239	0x3d04f03c	0.032455668
240	0x3d61d2c2	0.055132635
241	0xbdbaf479	-0.09128661
242	0xbcd3dd33	-0.025862312
243	0x3d986f19	0.07443065
244	0x3d20b658	0.039236397
245	0x3daaf042	0.08346607
246	0x3ca2dc2d	0.019880379
247	0x3dcdd283	0.100499175
248	0xbd35309b	-0.044235807
249	0xbdbf05ef	-0.093273036
250	0xbd59787e	-0.053093426
251	0x3a98380f	0.0011613386
252	0xbd81cbc3	-0.063376926
253	0xbd8dab0f	-0.069173925
254	0x3db1531a	0.086584285
255	0x3c0bad4a	0.008525202

layers.1.Aw.conv2.bias f4 [16]
0	0x3ce10c91	0.027471812
1	0xbd29aba4	-0.041423455
2	0xbc3637f1	-0.011121736
3	0x3d87026c	0.06592259
4	0x3d8a25cb	0.0674549
5	0x3da1973c	0.07890174
6	0x3d8d9b8d	0.069144346
7	0x3dc1a973	0.09456148
8	0x3cc945a4	0.02456934
9	0x3d0d9122	0.034562238
10	0xbcb98696	-0.022647183
11	0x3d292552	0.041295357
12	0xbda7df7d	-0.08196924
13	0x3c8a1d01	0.016859533
14	0x3dcc21cb	0.09967383
15	0x3c4c3d9c	0.012465861

layers.1.Aw.conv3.weight f4 [1, 16, 3]
0	0xbdcbcad1	-0.099507935
1	0x3da40e30	0.080105186
2	0xbdae18ea	-0.08500846
3	0x3dfde4d9	0.12397165
4	0xbdc130b3	-0.09433117
5	0x3dc970dd	0.0983598
6	0x3d9adb8e	0.07561408
7	0xbc35cf1f	-0.011096745
8	0x3df56235	0.11981622
9	0xbdab9876	-0.08378689
10	0x3d665c6c	0.056240484
11	0xbce76098	-0.028244302
12	0x3d302a9d	0.04300939
13	0xbcd4c70f	-0.025973825
14	0xbd657e90	-0.056028903
15	0x3dc684b8	0.09693283
16	0x3e0af36e	0.13569424
17	0x3da357ae	0.07975708
18	0xbd7e6fe4	-0.062118426
19	0xbdf7c7c3	-0.120986484
20	0xbe089c4b	-0.13340871
21	0x3dab98b5	0.08378736
22	0x3df3b045	0.11898855
23	0x3c3ee5cc	0.0116514675
24	0xbde318a0	-0.11088681
25	0x3e05dfd7	0.1307367
26	0xbd1d90ca	-0.03846816
27	0x3d1b77ec	0.037956163
28	0x3cf43c24	0.029813834
29	0x3e10e2a3	0.14148955
30	0xbc369d05	-0.011145835
31	0x3e0aa689	0.1354009
32	0x3d765f4a	0.06014947
33	0x3d93afd8	0.07211274
34	0x3e0b884f	0.13626216
35	0x3e09f060	0.13470602
36	0xbdc648db	-0.09681865
37	0x3e12ace9	0.14323772
38	0x3d2de54a	0.042454995
39	0xbddc19ca	-0.107471064
40	0xbd6805be	-0.0566461
41	0x3d9b80c1	0.07592917
42	0x3d9af092	0.075654164
43	0xbd6b7a1a	-0.057489492
44	0x3e0f2204	0.1397782
45	0x3e0a93f1	0.13532998
46	0x3d44330b	0.04790024
47	0x3dda3b1b	0.10655805

layers.1.Ah.conv1.weight f4 [32, 1, 5]
0	0xbec29d80	-0.38010788
1	0x3e90083d	0.28131285
2	0x3d1cd978	0.03829333
3	0x3d62e7e1	0.05539692
4	0x3dc1574e	0.0944048
5	0x3e7f69f4	0.24942762
6	0xbe5c8909	-0.2153665
7	0xbd8cda8b	-0.06877621
8	0xbed1472f	-0.4087462
9	0xbe11ec18	-0.14250219
10	0xbea396b8	-0.31950927
11	0x3ece64ee	0.40311378
12	0x3e20c75d	0.15701051
13	0xbe8e6066	-0.2780792
14	0x3e7b06dd	0.24514337
15	0x3e68a13e	0.22717759
16	0x3c6e1774	0.014531959
17	0x3eb00a44	0.34382832
18	0xbe7d26a6	-0.24721774
19	0xbe3d21b6	-0.18469891
20	0xbe911a4c	-0.28340375
21	0xbe14d3be	-0.14533898
22	0x3cbe234d	0.023210192
23	0x3e8cd52a	0.2750638
24	0xbeafdc6e	-0.34347862
25	0x3e6a1e6b	0.22863166
26	0x3ec9b860	0.3939848
27	0x3da37286	0.07980828
28	0x3eb32002	0.34985358
29	0xbe156881	-0.14590646
30	0x3eef1920	0.46698856
31	0xbcd86723	-0.026416367
32	0xbea04ea5	-0.3131
33	0xbdccc1b4	-0.099978834
34	0xbe1187a7	-0.14211904
35	0xbe529997	-0.20566402
36	0xbed7f395	-0.42178026
37	0xbe4c20ec	-0.19934434
38	0xbedb2aa2	-0.42805964
39	0x3e1b42d5	0.15162213
40	0x3d8488d4	0.064714104
41	0x3db4d15e	0.08828996
42	0xbedc048d	-0.42972222
43	0xbe5c10d7	-0.21490799
44	0x3ed846f8	0.42241645
45	0xbd02f071	-0.031967584
46	0x3da59b2e	0.08086239
47	0x3ede1bcc	0.43380582
48	0xbdca5b2f	-0.09880673
49	0x3d62413d	0.055237997
50	0x3eac36f1	0.33635667
51	0x3de04d5d	0.10952256
52	0x3ea211ca	0.31654197
53	0xbea55d53	-0.32297763
54	0xbe82297c	-0.25422275
55	0x3d800a3f	0.06251954
56	0x3d113ebd	0.035460223
57	0x3e788460	0.24269247
58	0x3ea4e150	0.3220315
59	0x3e23cb14	0.15995437
60	0xbd37c3c7	-0.044864442
61	0xbebd8bef	-0.37020823
62	0x3e898e5b	0.2686642
63	0x3d3f6e55	0.04673608
64	0xbd318990	-0.04334408
65	0x3edfe65e	0.43730444
66	0x3dfc63cc	0.12323722
67	0xbeac704e	-0.33679432
68	0x3ead2c54	0.33822882
69	0xbc5b6f67	-0.01339326
70	0x3e9cdd20	0.30637455
71	0x3ea5fc0f	0.32418868
72	0x3e0124b4	0.12611657
73	0x3ed31267	0.41224977
74	0xbe93ec30	-0.28891134
75	0x3ddff0b9	0.10934586
76	0xbdd192df	-0.102330916
77	0xbcbc0aec	-0.022954427
78	0x3eddd307	0.43325064
79	0x3e42e2b9	0.190318
80	0xbdd85d62	-0.10564686
81	0x3e01cff3	0.12676983
82	0x3edcb4f6	0.43106812
83	0xbe79ef92	-0.24407795
84	0xbe5d61ce	-0.21619341
85	0xbe838f7b	-0.25695404
86	0x3ddeaea9	0.108731575
87	0xbea7b5a3	-0.32755765
88	0x3cc6b853	0.024257815
89	0xbe719320	-0.2359128
90	0xbe94ec17	-0.29086372
91	0x3dacf298	0.084447086
92	0xbb9c3cb3	-0.004767978
93	0xbdbfffbc	-0.09374949
94	0xbe794b48	-0.24345124
95	0xbe6a7b5f	-0.22898625
96	0xbd3de1ca	-0.046357907
97	0x3e31b4ba	0.17354098
98	0xbdd2a78b	-0.102858625
99	0xbe531501	-0.20613481
100	0xbecd5869	-0.40106514
101	0x3e9d7fd2	0.30761582
102	0xbdb8e0e1	-0.09027267
103	0x3ec402ca	0.38283378
104	0xbcd797bc	-0.02631747
105	0x3ec3c056	0.38232678
106	0x3e3960a1	0.18103267
107	0x3dbe13cb	0.09281119
108	0x3cbfdf50	0.023421913
109	0x3d201344	0.039080873
110	0x3db4682e	0.08808933
111	0x3edeb2b4	0.43495715
112	0x3eb1600c	0.3464359
113	0xbe4cc5e2	-0.19997361
114	0x3d83370c	0.06406984
115	0xbeac1eff	-0.33617398
116	0xbe2d9036	-0.16949543
117	0x3dcdce60	0.100491285
118	0x3c08efd0	0.008357957
119	0xbdb912bd	-0.09036777
120	0xbeeb8324	-0.4599849
121	0xbe52cedb	-0.20586722
122	0xbe880a5e	-0.2657041
123	0xbeb98919	-0.3623741
124	0xbe116cfe	-0.14201733
125	0x3ee48055	0.4462916
126	0xbeb7402a	-0.3579114
127	0x3e66e24d	0.22547264
128	0xbed0fe56	-0.40819043
129	0x3e508aaf	0.20365404
130	0xbeaaea46	-0.3338186
131	0x3e643c40	0.22288609
132	0x3cab9343	0.020944243
133	0xbeced5fd	-0.40397635
134	0x3e105cb3	0.14097862
135	0x3e6b42c4	0.22974688
136	0xbdcaa756	-0.09895198
137	0x3dd0610e	0.10174762
138	0xbec52110	-0.38501787
139	0xbd15256d	-0.036412645
140	0x3dc4255e	0.0957744
141	0xbe894d40	-0.2681675
142	0xbeea9142	-0.45813948
143	0x3e8e646c	0.2781099
144	0x3d96d004	0.073638946
145	0x3ec284d3	0.37991962
146	0x3e94da70	0.29072905
147	0xbda7183f	-0.081589215
148	0xbe135a21	-0.1438985
149	0xbee47755	-0.44622293
150	0xbec3576a	-0.3815263
151	0x3ea7786d	0.32709065
152	0x3e2784c2	0.16359237
153	0xbe072f8f	-0.13201736
154	0x3eca310a	0.3949054
155	0x3e1aafb8	0.15106094
156	0x3e57b2ae	0.21064255
157	0x3d5dab4b	0.054118436
158	0x3eadf82b	0.339784
159	0x3d56b0e8	0.052414805

layers.1.Ah.conv1.bias f4 [32]
0	0x3df2b1b8	0.118503034
1	0xbeb1835a	-0.34670526
2	0xbe1fb3f1	-0.15595986
3	0x3e48c2a2	0.19605497
4	0x3e58f494	0.21187049
5	0xbee52215	-0.44752565
6	0x3ea74e18	0.32676768
7	0xbe2bcadb	-0.16776602
8	0xbe425680	-0.1897831
9	0xbecdb010	-0.40173388
10	0x3e411d88	0.18858922
11	0xbe827983	-0.2548333
12	0x3eaf5d27	0.34250757
13	0x3ead3594	0.3382994
14	0xbe119f4f	-0.14220928
15	0x3d80c27a	0.062870935
16	0xb60ac52e	-2.0678376e-06
17	0x3dee1500	0.11625099
18	0x3e498f7f	0.19683646
19	0x3e943b6e	0.2895159
20	0x3cf6c499	0.030123042
21	0x3ec6f0d7	0.3885562
22	0xbd021576	-0.031758748
23	0xbed6786f	-0.4188876
24	0xbe22e8e3	-0.15909152
25	0x3d5215d9	0.051290367
26	0x3eb68ef5	0.35655943
27	0xbdaef9cd	-0.085437395
28	0xbe6413b0	-0.22273135
29	0xbe2aedf0	-0.16692328
30	0x3ee4d005	0.44689956
31	0x3ea2eb17	0.31819984
